lightning_logs/version_21/checkpoints/epoch=0-step=99.ckpt (torch, 609856 bytes, 54 tensors)

lattice_net.0.weight f4 [8, 1, 2]
0	0xbf181897	-0.5941252
1	0xbe20e351	-0.15711714
2	0x3e8e009a	0.27734834
3	0x3ee0f9c4	0.43940556
4	0xbef23441	-0.47305492
5	0x3e40e37e	0.18836781
6	0x3f2cdf97	0.6752867
7	0x3dcb1118	0.0991537
8	0xbe85f510	-0.2616353
9	0xbef6b71c	-0.48186576
10	0x3e96c101	0.29444125
11	0x3f1d6dab	0.61495465
12	0xbe8c645a	-0.27420312
13	0xbecaec50	-0.39633417
14	0xbea5d356	-0.323878
15	0xbe2ab715	-0.16671403

lattice_net.0.bias f4 [8]
0	0xbdb7a3ac	-0.08966765
1	0x3f22da83	0.6361467
2	0xbeb32185	-0.3498651
3	0xbef6c113	-0.4819418
4	0x3f2609ff	0.64859
5	0x3e2e778a	0.17037788
6	0x3f0f16f5	0.55894405
7	0x3e8ad42a	0.27114993

lattice_net.2.weight f4 [16, 8, 2]
0	0xbcbf7610	-0.023371726
1	0x3e6c3f6a	0.23071066
2	0x3d7e48ef	0.062081274
3	0x3e23b386	0.15986452
4	0x3ca54ef6	0.020179253
5	0x3c1248ed	0.00892852
6	0x3d63e83e	0.055641405
7	0xbe337473	-0.1752489
8	0x3e0322ce	0.12806246
9	0xbe3c7255	-0.18402989
10	0x3d533795	0.05156668
11	0x3d8cdbdc	0.06877872
12	0xbd5644f2	-0.052311845
13	0x3e670225	0.22559412
14	0xbe403add	-0.18772455
15	0xbd39b204	-0.045335785
16	0x3e05ca51	0.13065459
17	0xbd6e8e07	-0.058240917
18	0x3de0da5b	0.10979148
19	0x3e4a5102	0.19757465
20	0x3e398593	0.18117361
21	0x3e55f574	0.20894414
22	0x3e0046a5	0.12526949
23	0xbe82e9a9	-0.25568894
24	0xbe4659e6	-0.19370231
25	0xbe6153d9	-0.22004642
26	0xbd612ff6	-0.05497738
27	0xbe53ae88	-0.20672047
28	0xbc9806f9	-0.018558012
29	0x3e2808a2	0.16409543
30	0x3e822c1d	0.2542428
31	0x3af03c33	0.0018328488
32	0x3c8fc435	0.017549613
33	0x3d950b16	0.07277505
34	0x3e2a24fa	0.16615668
35	0xbe6b0d4c	-0.22954291
36	0xbdaa2ba1	-0.08309103
37	0x3e165d40	0.1468401
38	0x3da32d30	0.07967603
39	0xbe456c14	-0.1927951
40	0xbbaf36c0	-0.005347103
41	0xbe289974	-0.16464788
42	0xbcf14218	-0.029450461
43	0xbe264559	-0.16237392
44	0x3e79594f	0.24350475
45	0x3d508f3f	0.05091786
46	0xbe7bb3aa	-0.24580255
47	0x3da8ed72	0.08248414
48	0xbd08d9ef	-0.033410963
49	0xbde25ac1	-0.11052466
50	0x3d10626b	0.03525011
51	0xbb0937b5	-0.0020937745
52	0xbe8135c9	-0.25236347
53	0xbe38be3a	-0.18041316
54	0x3baf355f	0.0053469385
55	0x3e3c5a44	0.18393809
56	0x3e027c6f	0.1274278
57	0x3e231c0d	0.1592867
58	0xbc3b932d	-0.011448664
59	0x3e329134	0.17438203
60	0x3c93b098	0.018028542
61	0xbe50fe8f	-0.20409606
62	0x3daf078c	0.08546361
63	0xbe80fa13	-0.2519079
64	0xbb715ff3	-0.0036830872
65	0x3debf444	0.11521199
66	0x3dd03e67	0.10168152
67	0xbe699a45	-0.22812755
68	0xbe02c103	-0.1276894
69	0xbc74107e	-0.01489651
70	0xbe41d174	-0.18927556
71	0xbe35fde2	-0.1777263
72	0xbe14bf27	-0.14526044
73	0x3df61e8d	0.12017546
74	0xbdffa15e	-0.1248195
75	0x3e0977d4	0.13424617
76	0xbdfcfbdc	-0.12352726
77	0xbe643a54	-0.22287875
78	0x3da65133	0.08120956
79	0xbd9b9c6d	-0.07598195
80	0x3e7706e1	0.24123718
81	0x3caca4b7	0.021074636
82	0xbe11fd35	-0.14256747
83	0x3e544fcc	0.20733565
84	0x3c8677d1	0.016414555
85	0x3e335936	0.175145
86	0x3d87e4c6	0.06635432
87	0x3e1824e0	0.14857817
88	0xbe0cbda9	-0.13744225
89	0xbe4e71ce	-0.201606
90	0xbe17ab5f	-0.14811467
91	0xbe70a80d	-0.23501606
92	0xbe09cc9c	-0.13456959
93	0x3e056060	0.13025045
94	0xbd543748	-0.051810533
95	0x3dcc1c0d	0.09966288
96	0x3dd2bbd2	0.1028973
97	0x3e65408b	0.22387902
98	0x3d1da81b	0.038490396
99	0xbe49a509	-0.19691862
100	0x3e0a24e7	0.1349064
101	0xbe195fb0	-0.14977908
102	0xbdb028ee	-0.08601557
103	0xbe4f8fe5	-0.20269735
104	0x3d8e507e	0.069489464
105	0xbe5774c4	-0.21040636
106	0x3d13bbda	0.03606782
107	0xbd2913d7	-0.041278686
108	0x3e241690	0.16024232
109	0xbd1d0b8a	-0.038341083
110	0x3e3cddd6	0.18443999
111	0xbe32a99e	-0.17447516
112	0x3d36f875	0.04467054
113	0x3cfbac38	0.030721769
114	0xbc6391d5	-0.01388975
115	0xbe6fae0c	-0.23406237
116	0xbe290814	-0.16506988
117	0xbe4ea413	-0.20179777
118	0x3d7eb0bc	0.062180266
119	0x3d625c34	0.055263713
120	0x3df59c3b	0.11992689
121	0x3d1e7258	0.038683265
122	0xbb6348be	-0.003468081
123	0xbe42c701	-0.19021226
124	0x3deb6767	0.11494332
125	0x3d73779d	0.059440244
126	0x3e71f093	0.23626928
127	0xbd906e2f	-0.07052266
128	0x3e61c618	0.22048223
129	0x3e03c4e6	0.1286808
130	0x3e449024	0.1919561
131	0x3e4ec95d	0.20194001
132	0xbcb9d8b7	-0.022686346
133	0x3c6693bd	0.0140733095
134	0xbda2461e	-0.0792353
135	0xbd353a98	-0.044245332
136	0x3de4f98a	0.11180408
137	0x3dee8f1b	0.11648389
138	0x3e3c0b5d	0.1836371
139	0x3e7b6e9e	0.24553916
140	0x3e783451	0.24238707
141	0xbe722e54	-0.23650485
142	0x3e691916	0.22763476
143	0xbe037784	-0.1283856
144	0x3d3e9c73	0.04653592
145	0x3e59fc58	0.21287668
146	0xbd40caf7	-0.047068562
147	0xbe7b94ab	-0.24568431
148	0xbe43c80b	-0.19119279
149	0x3e11513a	0.14191142
150	0x3e095f3e	0.13415238
151	0xbc986b7f	-0.018605946
152	0xbe6aedf0	-0.22942328
153	0x3e485fff	0.1956787
154	0xbe6db787	-0.23214541
155	0x3e384278	0.17994106
156	0xbde204de	-0.110360846
157	0x3dc2ee84	0.095181495
158	0x3de7c76d	0.11317334
159	0x3e0dc1f6	0.13843521
160	0x3e65c8e8	0.22439921
161	0x3d9fdd7b	0.07805916
162	0xbdb0458e	-0.086070165
163	0x3c5e8618	0.013581775
164	0xbd1d83a8	-0.038455635
165	0xbd2a3d84	-0.041562572
166	0x3de9964b	0.11405619
167	0xbd0e3d9e	-0.03472673
168	0xbe1bc437	-0.15211569
169	0x3cea1e62	0.02857894
170	0xbe4707cf	-0.19436572
171	0x3d8e8236	0.069584295
172	0x3c61a35a	0.013771856
173	0xbd1fcde6	-0.03901472
174	0xbe0b4d4b	-0.13603704
175	0x3d4164fa	0.04721544
176	0xbd2d4ba3	-0.04230846
177	0x3e0ff2bb	0.14057438
178	0x3d897003	0.06710818
179	0x3e3e3513	0.18574934
180	0x3db3d08f	0.08780014
181	0xbdfeb2f6	-0.12436478
182	0x3ca9cf59	0.020728754
183	0xbd01f2dc	-0.03172575
184	0x3e0f33a8	0.13984549
185	0xbe718894	-0.23587257
186	0x3d38a8b3	0.04508276
187	0xbe10bae4	-0.14133793
188	0x3e31435e	0.17310855
189	0x3e1e52ff	0.15461348
190	0x3e07089c	0.13186878
191	0x3d6d321d	0.05790912
192	0x3e3c6f7e	0.18401906
193	0x3e3b4356	0.18287405
194	0x3e2c0b66	0.16801223
195	0xbe6b39ed	-0.22971316
196	0xbe53a2d5	-0.20667584
197	0x3dafb961	0.0858028
198	0x3e4512a6	0.19245395
199	0x3d0927f7	0.03348538
200	0x3e307c82	0.17234996
201	0xbe3f4a6d	-0.18680735
202	0xbd46b0ae	-0.04850834
203	0xbe75704c	-0.23968619
204	0x3d832760	0.064039946
205	0xbbdbd488	-0.0067086853
206	0xbd072d94	-0.03300245
207	0x3cbe120f	0.02320197
208	0xbe1e3a43	-0.15451913
209	0xbd5c1bbc	-0.053737387
210	0x3c159a96	0.009131094
211	0x3d70f3b8	0.05882618
212	0x3d9e28e8	0.07722646
213	0x3e6cc0c9	0.23120417
214	0x3d318554	0.043340042
215	0x3ca5b3a0	0.020227253
216	0xbe4b16cf	-0.1983292
217	0xbe599267	-0.21247254
218	0x3db9eb07	0.09078031
219	0xbd6d5c4f	-0.05794936
220	0x3e4c3ea3	0.19945769
221	0x3dc937a0	0.09825063
222	0xbe55c444	-0.2087565
223	0xbe7e5ef0	-0.24840903
224	0x3e4ed02b	0.20196597
225	0x3c37cbe4	0.011218045
226	0x3d90b224	0.07065228
227	0x3e40e2ae	0.18836471
228	0xbe62a322	-0.22132543
229	0xbe06a02e	-0.13147041
230	0x3ba63007	0.0050716433
231	0x3db99ba5	0.0906289
232	0x3e6de9d6	0.23233733
233	0xbc1cf149	-0.009579011
234	0x3df15964	0.11784628
235	0x3dec4894	0.11537281
236	0xbd47019a	-0.04858551
237	0xbdadbf3f	-0.08483743
238	0xbe78d668	-0.2430054
239	0xbc0a5170	-0.008442268
240	0x3dd7cacd	0.10536728
241	0xbc813f9b	-0.0157774
242	0x3e21ea77	0.15812097
243	0xbe2c4898	-0.16824567
244	0xbdab0446	-0.083504245
245	0x3dadb918	0.084825695
246	0xbd7eebb8	-0.062236518
247	0xbdc68221	-0.09692789
248	0x3d42243d	0.04739784
249	0xbdd7769e	-0.10520671
250	0xbe3d9b2d	-0.18516226
251	0x3e547504	0.20747763
252	0xbdcc0265	-0.09961394
253	0x3dd7b40f	0.1053239
254	0x3c36f8fb	0.01116776
255	0x3e60b012	0.21942165

lattice_net.2.bias f4 [16]
0	0x3dbf6e87	0.09347253
1	0x3bd4764a	0.0064838277
2	0x3e35e372	0.17762545
3	0xbe295b31	-0.16538693
4	0xbd7a881f	-0.06116497
5	0xbd85517d	-0.06509683
6	0x3e7ac2d6	0.24488387
7	0xbd0c6b10	-0.03428179
8	0xbd88eca2	-0.06685759
9	0x3e009489	0.12556662
10	0x3e260e83	0.16216473
11	0x3d20c51d	0.039250482
12	0xbdf301b3	-0.118655585
13	0x3ca87d58	0.020567581
14	0x3e285f4e	0.16442606
15	0x3e76831d	0.24073453

lattice_net.4.weight f4 [32, 16, 2]
0	0xbd7b8c14	-0.061412886
1	0xbe2b2321	-0.1671262
2	0x3d3dc4aa	0.04633013
3	0x3e301584	0.17195708
4	0xbe2bb335	-0.16767581
5	0x3d8c2a4f	0.06844007
6	0xbd5b3c6a	-0.053524412
7	0xbe0e070a	-0.13869873
8	0xbcd377ee	-0.025814023
9	0x3d8aa436	0.06769602
10	0xbe18b93c	-0.14914411
11	0xbded18c4	-0.11576989
12	0x3b9736eb	0.004614701
13	0x3de4fe68	0.11181337
14	0xbe28a8b0	-0.16470599
15	0xbc76648f	-0.0150386235
16	0xbd0770ff	-0.033066746
17	0x3d54c81b	0.051948648
18	0x3e12ce6b	0.14336555
19	0x3e2ab037	0.16668783
20	0x3dc23275	0.0948228
21	0x3c91b538	0.017786607
22	0x3e328527	0.17433606
23	0x3d607bcf	0.054805573
24	0x3de3726e	0.1110581
25	0x3d840add	0.064473845
26	0x3e1f8906	0.15579614
27	0xbe1c854f	-0.15285228
28	0x391781d8	0.00014448853
29	0x3cd788ae	0.026310291
30	0xbdab592b	-0.08366617
31	0xbdb85955	-0.09001414
32	0xbd99489e	-0.07484554
33	0xbd8360ab	-0.06414922
34	0xbd431d85	-0.047635574
35	0x3d34815f	0.04406869
36	0xbcb25fbe	-0.021774169
37	0x3e17cc25	0.14823969
38	0xbce77db3	-0.02825818
39	0xbccf8cde	-0.025335725
40	0xbd0aa6db	-0.033850532
41	0x3d7486b2	0.059698768
42	0x3ddb9e6d	0.10723577
43	0x3dd7faf6	0.10545914
44	0xbe2bacf3	-0.16765194
45	0xbd86850a	-0.06568344
46	0x3e055a57	0.13022743
47	0x3d0c445a	0.034244873
48	0xbd9ecfc0	-0.07754469
49	0x3e00f7f6	0.1259459
50	0xbe1e5967	-0.15463792
51	0xbd9de863	-0.0771034
52	0xbe150f82	-0.14556697
53	0xbd062756	-0.032752357
54	0x3a480dbc	0.0007631441
55	0x3dfdcc6f	0.12392508
56	0x3c2a3682	0.010388972
57	0x3d7209cb	0.05909137
58	0xbccd1269	-0.025033193
59	0x3cc9c9eb	0.024632415
60	0x3dcaf05f	0.099091284
61	0x3cb239fa	0.021756161
62	0xbe0cfd6c	-0.13768548
63	0x3cca10d8	0.024666235
64	0xbde4c1c0	-0.111697674
65	0xbe1ed8ce	-0.15512392
66	0xbda025e9	-0.07819731
67	0xbe265a05	-0.16245277
68	0xbda39066	-0.07986526
69	0xbda3dc2a	-0.08000977
70	0x3da3105e	0.07962106
71	0xbdeaec8c	-0.11470899
72	0x3d0e983d	0.034813154
73	0x3e014670	0.12624526
74	0xbe35d093	-0.17755346
75	0x3dbd934c	0.0925661
76	0xbcb8d0e3	-0.022560542
77	0x3de94d9e	0.113917574
78	0x3cad058f	0.021120815
79	0x3ddf51ab	0.10904249
80	0xbcd4893d	-0.025944347
81	0x3e07e22b	0.1326987
82	0xbddb2859	-0.10701055
83	0xbdacccbc	-0.084374875
84	0xbe03627c	-0.12830538
85	0x3dc24670	0.09486091
86	0x3d96795a	0.07347365
87	0xbdc4cd00	-0.09609413
88	0xbe15fea6	-0.14647922
89	0x3ba1d7b6	0.004939045
90	0xbdb5e72e	-0.08881985
91	0xbd94579f	-0.07243275
92	0x3d936044	0.071960956
93	0xbe311e5f	-0.17296742
94	0x3de73852	0.11290039
95	0xbe112e14	-0.14177734
96	0xbdeec6dd	-0.11659024
97	0x3e2cccf2	0.16875055
98	0x3b89e67f	0.0042083855
99	0x3d7e6f4d	0.062117863
100	0xbd9f922c	-0.07791552
101	0xbd5d6eba	-0.054060675
102	0xbe0f92ae	-0.14020798
103	0x3ce9aa1b	0.028523495
104	0x3dd7e5e6	0.105418965
105	0x3c828a6d	0.015935147
106	0xbc29caac	-0.010363262
107	0xbe1348e8	-0.1438328
108	0x3d1e43ac	0.038638756
109	0x3d1861bc	0.03720258
110	0x3e117f35	0.14208682
111	0x3d3f184b	0.046654027
112	0xbe25e95a	-0.16202298
113	0xbe07cd93	-0.13262014
114	0x3d94e3b1	0.07269991
115	0x3d80b3da	0.06284304
116	0x3d8cf1d4	0.068820626
117	0x3c786848	0.015161581
118	0xbe0af663	-0.13570552
119	0xbc8b36fd	-0.016993994
120	0xbe009ba4	-0.12559372
121	0xbd934fcd	-0.07192955
122	0x3deb789a	0.11497612
123	0xbdd4309d	-0.10360835
124	0x3d5301e4	0.051515475
125	0xbd8fd0ef	-0.07022273
126	0x3c18d76a	0.009328702
127	0xbe1a9c37	-0.15098654
128	0xbd3bd0ad	-0.045853306
129	0xbb8b6017	-0.004253398
130	0x3d975b5e	0.07390474
131	0x3dd54c5b	0.10414954
132	0x3da4e1a5	0.08050851
133	0xbde01887	-0.10942178
134	0xbc9c7261	-0.019097509
135	0x3d38ec29	0.045147095
136	0x3e0e1e23	0.13878684
137	0xbda1822b	-0.07886156
138	0xbe1fb8e5	-0.15597875
139	0x3da99cb3	0.08281841
140	0x3db30dfe	0.08742903
141	0x3cdbdeba	0.026839603
142	0xbc02fe8c	-0.007995259
143	0xbc53b198	-0.01292076
144	0xbdfc5f60	-0.12322879
145	0x3d9aada8	0.075526536
146	0xbdf43d48	-0.11925751
147	0x3d89bc0c	0.0672532
148	0x3dfb4cde	0.12270521
149	0x3daacfc2	0.08340408
150	0x3e20e981	0.15714075
151	0x3e21d0ce	0.15802309
152	0x3d8139f9	0.063098855
153	0x3db5a62e	0.08869587
154	0x3b1642f1	0.0022928084
155	0xbd915551	-0.07096351
156	0xbd08c2cd	-0.0333889
157	0xbdd284e7	-0.10279255
158	0xbe18b554	-0.14912921
159	0x3e001953	0.1250966
160	0x3e07e122	0.13269475
161	0x3dc9d27f	0.09854602
162	0xbe2016f3	-0.15633754
163	0x3df9c722	0.12196185
164	0x3df6bfbd	0.1204829
165	0x3d85ddda	0.065364555
166	0xbe147d5b	-0.14500944
167	0xbc18a52b	-0.009316723
168	0x3dc76424	0.09735897
169	0x3d9a6e85	0.07540611
170	0x3daa6c78	0.0832147
171	0x3d58a100	0.052887917
172	0x3d19dc13	0.037563395
173	0xbd792f9c	-0.06083642
174	0xbc9dd817	-0.019268079
175	0x3cd89ca7	0.026441885
176	0xbe339419	-0.17536964
177	0xbda0d973	-0.07853975
178	0xbd7fcbf6	-0.06245037
179	0xbdadde80	-0.08489704
180	0x3dfb886c	0.1228188
181	0xbe2aea35	-0.16690905
182	0xbd027753	-0.031852078
183	0x3d8059f6	0.06267159
184	0xbe29bd36	-0.16576084
185	0x3e22e08d	0.15905972
186	0xbcc55b90	-0.024091512
187	0xbe230a0a	-0.15921798
188	0x3d97e0df	0.07415938
189	0xbd96860e	-0.07349788
190	0xbe31b4c5	-0.17354114
191	0x3d26a698	0.04068622
192	0x3dba7769	0.09104807
193	0x3e344f44	0.17608362
194	0xbd9ffbac	-0.078116745
195	0x3d9dc0a8	0.07702762
196	0x3c630401	0.013855935
197	0x3d3f6259	0.04672465
198	0xbd58b700	-0.052908897
199	0x3e1a2b96	0.15055689
200	0xbe160d0e	-0.14653417
201	0x3ceec870	0.02914831
202	0x3dd38153	0.10327401
203	0x3de2cb43	0.11073925
204	0xbdc9a4b8	-0.09845871
205	0xbce977f3	-0.028499579
206	0x3df08101	0.117433555
207	0x3d4643ec	0.04840462
208	0x3dfc7e0f	0.12328731
209	0x3e16ec75	0.14738639
210	0xbdf69570	-0.12040222
211	0x3df85930	0.12126386
212	0x3e1f2234	0.15540391
213	0x3e379dbb	0.17931263
214	0xbd46d645	-0.048544187
215	0x3c0645f3	0.008195388
216	0xbde036ef	-0.10947978
217	0x3d8d583e	0.069015965
218	0x3db7ca42	0.089741245
219	0xbdca7773	-0.098860644
220	0xbe289aab	-0.16465251
221	0x3e12e0a4	0.14343506
222	0xbd685a68	-0.056726843
223	0xbd8916b9	-0.06693787
224	0xbcf78e0f	-0.030219106
225	0xbe059c74	-0.13047963
226	0x3e118837	0.14212118
227	0x3cccd24f	0.025002627
228	0xbd9636c9	-0.07334668
229	0x3e107d8a	0.1411039
230	0xbde9fb79	-0.11424918
231	0x3cbb6f29	0.022880154
232	0xbd3fbd88	-0.04681161
233	0xbdd44abf	-0.10365819
234	0xbdd69fd4	-0.104797035
235	0xbdd14465	-0.10218123
236	0xbd9a4cb5	-0.07534162
237	0xbda818fe	-0.08207892
238	0xbd25414f	-0.040345486
239	0xbdc2817d	-0.09497354
240	0xbc023511	-0.007947222
241	0x3d9feec7	0.07809215
242	0x3e0ba9e2	0.13639024
243	0x3b979bde	0.004626735
244	0xbd273d4b	-0.040829938
245	0x3d67798e	0.056512408
246	0xbd65e9bf	-0.05613112
247	0xbdf4e1eb	-0.11957153
248	0x3d416a5d	0.047220577
249	0xbe025b49	-0.12730135
250	0xbda0ca4a	-0.078510836
251	0xbb31ea9c	-0.0027147895
252	0x3d6b430f	0.057437
253	0xbdb93865	-0.090439595
254	0xbe1bda31	-0.15219952
255	0xbe0a1adb	-0.13486807

lattice_net.4.bias f4 [32]
0	0x3dc7327d	0.09726427
1	0x3d18f63e	0.03734421
2	0x3d9a1b4f	0.0752474
3	0xbd2eecac	-0.042706177
4	0x3de6d5d7	0.112712555
5	0x3c296ba0	0.010340601
6	0x3d43d026	0.047805928
7	0x3dc2ce40	0.09511995
8	0x3db6f08e	0.08932601
9	0x3df77f32	0.120848075
10	0xbd3ac57c	-0.045598492
11	0xbd92e362	-0.07172276
12	0x3daabdc2	0.08336975
13	0x3d1b028e	0.037844233
14	0x3dbb4c6e	0.09145437
15	0x3c39822b	0.011322538
16	0x3d058196	0.032594286
17	0xbd5892af	-0.052874263
18	0xbc014817	-0.007890723
19	0xbda545b5	-0.08069936
20	0x3d53724e	0.05162268
21	0xbdb7c08d	-0.08972273
22	0xbd9884f2	-0.07447232
23	0x3e206284	0.1566258
24	0xbe1aeaf7	-0.15128694
25	0x3c6a0b7c	0.014284965
26	0x3d9c7dd0	0.07641184
27	0xbe2f9b93	-0.1714919
28	0x3d489b1e	0.048976056
29	0xbbc1652a	-0.0059019523
30	0xbddf9946	-0.109179065
31	0xbe28cdd6	-0.1648477

tNN.0.weight f4 [16, 2]
0	0xbe97df02	-0.2966233
1	0x3f3477f2	0.7049552
2	0xbd33af27	-0.04386821
3	0xbe1eeb72	-0.15519503
4	0xbeeff0ff	-0.46863553
5	0x3ed67a0f	0.41889998
6	0x3ec76807	0.38946554
7	0x3f12d22e	0.5735196
8	0xbf29a57e	-0.66268146
9	0xbc3b5a05	-0.011435037
10	0x3f116580	0.567955
11	0xbef35cb6	-0.4753167
12	0x3e95aa84	0.29231656
13	0xbf24ecc0	-0.6442375
14	0xbcc1f783	-0.023677593
15	0xbf17456b	-0.590903
16	0xbeaa990c	-0.3331989
17	0xbe07108b	-0.13189904
18	0x3eb59900	0.35468292
19	0x3e931002	0.2872315
20	0xbf1d3e8b	-0.6142356
21	0xbd758f5f	-0.059951182
22	0xbe5055b4	-0.20345193
23	0xbf12712b	-0.5720393
24	0x3f1c6a2a	0.61099494
25	0xbeb2ab91	-0.3489652
26	0x3f06250e	0.5240029
27	0xbcab50ce	-0.020912554
28	0xbcdd6dec	-0.027029954
29	0xbda8be75	-0.08239452
30	0xbec63418	-0.3871162
31	0x3ed94935	0.42438665

tNN.0.bias f4 [16]
0	0xbec0a154	-0.37623084
1	0xbe8c0b28	-0.27352262
2	0x3edb1957	0.4279277
3	0x3edcad71	0.43101075
4	0xbecefab9	-0.4042566
5	0x3f0aa834	0.5416291
6	0xbe2d3e07	-0.16918193
7	0xbe8639fa	-0.26216108
8	0x3f24fe16	0.64450204
9	0x3ebdd24d	0.3707451
10	0x3eb2157d	0.3478202
11	0xbebad4f8	-0.36490607
12	0x3f1af8f9	0.6053615
13	0x3f0dda14	0.55410886
14	0x3f1cfcbf	0.6132316
15	0x3e3911f6	0.18073258

tNN.2.weight f4 [32, 16]
0	0xbda90063	-0.08252027
1	0xbd613262	-0.05497969
2	0x3e70540f	0.23469566
3	0x3e4fc82a	0.202912
4	0x3d06bb4d	0.032893468
5	0xbc6fc672	-0.014634715
6	0xbe69dc79	-0.2283801
7	0x3e4d54e9	0.20051922
8	0xbe0933f7	-0.1339873
9	0x3d83a372	0.06427659
10	0x3e2ca489	0.1685964
11	0xbe593c04	-0.212143
12	0xbce6d6e9	-0.028178649
13	0xbe6094fe	-0.21931836
14	0x3e2f8a7d	0.17142673
15	0x3e230489	0.15919699
16	0xbddb336e	-0.10703169
17	0xbe8180fd	-0.25293723
18	0xbe715c2f	-0.23570322
19	0xbe5fd6b7	-0.21859251
20	0x3daa3e48	0.083126605
21	0xbdbb9dba	-0.09160943
22	0x3e220e31	0.15825726
23	0xbd1127a8	-0.03543821
24	0xbe1d4012	-0.15356472
25	0xbca74680	-0.02041936
26	0x3e4e4208	0.20142376
27	0xbde89975	-0.113573946
28	0xbd5f3c04	-0.054500595
29	0xbd9dba36	-0.077015325
30	0xbcab38f2	-0.020901177
31	0x3e0d21db	0.13782446
32	0x3e0d6b78	0.13810527
33	0xbd269680	-0.04067087
34	0xba59be85	-0.00083062827
35	0x3e615fdb	0.22009222
36	0x3e76f494	0.24116737
37	0xbe1394d9	-0.1441225
38	0xbe65cbc2	-0.22441009
39	0x3dec17d8	0.11527985
40	0xbe79071b	-0.24319117
41	0xbe655674	-0.2239626
42	0x3e2850eb	0.16437118
43	0x3db6c826	0.08924894
44	0x3d97cdff	0.074123375
45	0x3e79bfd1	0.24389578
46	0xbcbc5cf9	-0.022993552
47	0xbdd96d84	-0.106165916
48	0xbd545859	-0.051842067
49	0x3e70708c	0.23480433
50	0x3c820aac	0.01587423
51	0xbe078558	-0.1323446
52	0xbe64b04d	-0.22332878
53	0x3db5f0a7	0.088837914
54	0xbe5dbcde	-0.21654078
55	0xbdd00148	-0.101564944
56	0xbddb5be1	-0.10710884
57	0xbe70b68c	-0.23507136
58	0x3e4c1e59	0.19933452
59	0x3e3dbb4b	0.18528478
60	0x3e7ab2c0	0.2448225
61	0xbc83b4bc	-0.016077392
62	0x3e22b681	0.15889932
63	0x3e2a13de	0.16609141
64	0xbe1e0eb1	-0.15435292
65	0xbe719880	-0.2359333
66	0xbb33396f	-0.0027347466
67	0x3b4f7744	0.0031656781
68	0xbd12cd31	-0.035840217
69	0xbe729407	-0.2368928
70	0x3e5c4360	0.21510077
71	0xbd031aa7	-0.03200784
72	0xbda4f25d	-0.080540396
73	0x3e516935	0.2045029
74	0x3e60fd9f	0.21971749
75	0x3e3ccc10	0.18437219
76	0xbcaba0fb	-0.020950785
77	0x3e55cc6b	0.2087876
78	0xbe7cff0e	-0.2470667
79	0x3e68492d	0.22684164
80	0xbe3417b8	-0.17587173
81	0x3dca231d	0.098699786
82	0x3cddc06c	0.027069293
83	0x3e51b9b6	0.20481
84	0xbd4222eb	-0.04739658
85	0xbe1cffa7	-0.15331899
86	0xbe393173	-0.1808527
87	0x3e40c13a	0.1882371
88	0xbdc3227d	-0.095280625
89	0xbc510d56	-0.012759527
90	0x3d99cbd4	0.0750958
91	0x3d4023ab	0.046909016
92	0xbe06b2a1	-0.13154079
93	0x3e36e112	0.17859295
94	0xbd394c2a	-0.04523865
95	0x3e26664c	0.1624996
96	0x3d3c6950	0.04599887
97	0x3e429781	0.19003107
98	0xbc934e82	-0.017981771
99	0x3c3dabe7	0.011576629
100	0x3d769391	0.060199324
101	0x3e11b0f8	0.14227664
102	0x3d947173	0.07248201
103	0x3ddeb92e	0.10875164
104	0x3e793226	0.24335536
105	0xbe037e5e	-0.12841174
106	0x3d0ded11	0.034649912
107	0x3e6ec7f1	0.23318459
108	0xbe5273bc	-0.20551962
109	0x389ce256	7.480818e-05
110	0xbe09ccd1	-0.13457038
111	0x394b6384	0.00019396661
112	0x3e01d8dc	0.12680382
113	0x3cc50d8d	0.024054313
114	0x3dc74c1a	0.09731312
115	0x3d4d3bf0	0.05010599
116	0xbd693055	-0.05693086
117	0x3d823780	0.06358242
118	0x3e3cfc86	0.18455705
119	0xbdea2f7a	-0.11434837
120	0x3d0ccd11	0.034375254
121	0xbd84fbae	-0.064933166
122	0x3d30f0c0	0.043198347
123	0xbe0bd768	-0.1365639
124	0x3d9860a4	0.07440308
125	0x3e20f765	0.15719374
126	0xbd2f47ba	-0.042793013
127	0x3de3fee1	0.11132599
128	0x3c7cc142	0.015426936
129	0xbcb824da	-0.02247851
130	0x3e5cf8da	0.21579304
131	0x3e1bb7fa	0.152069
132	0xbbc382a8	-0.005966503
133	0xbe17111e	-0.14752623
134	0xbd970933	-0.073748015
135	0x3ccf60a3	0.025314635
136	0x3e42353d	0.18965621
137	0x3dbc0dc4	0.09182313
138	0xbe502cf7	-0.20329653
139	0xbe2cc5ae	-0.16872284
140	0x3e49fb41	0.19724752
141	0xbdb553f3	-0.08853903
142	0x3ddb77f5	0.10716239
143	0xbdab151f	-0.08353638
144	0x3cfaa285	0.030595073
145	0x3e58986f	0.21151899
146	0xbd919fd7	-0.07110565
147	0x3c3f13e8	0.011662461
148	0xbc8610d0	-0.016365439
149	0xbe5dae0f	-0.2164843
150	0x3d3c235d	0.045932163
151	0xbe0587f6	-0.13040146
152	0xbe0d1276	-0.13776574
153	0xbe5df7a0	-0.21676493
154	0xbde2a47a	-0.11066528
155	0xbe6dadad	-0.23210783
156	0x3babbc93	0.0052409857
157	0x3d8a7e7d	0.06762407
158	0x3e56e0c6	0.20984182
159	0x3e1c3c01	0.15257265
160	0x3db06d89	0.08614642
161	0xbda4a7de	-0.080398306
162	0xbe6d28e1	-0.23160125
163	0x3dbbf0be	0.09176777
164	0xbe2a2731	-0.16616513
165	0xbd3f6472	-0.04672665
166	0x3db58199	0.088626094
167	0xbe5585c4	-0.20851809
168	0xbe39f805	-0.18161018
169	0xbe2f8ced	-0.17143603
170	0xbdc3f103	-0.09567454
171	0xbe46816b	-0.19385307
172	0x3cf9e4d4	0.030504622
173	0xbe67b889	-0.22628988
174	0x3e263966	0.16232833
175	0xbc15aaa5	-0.009134923
176	0xbdd070ff	-0.10177802
177	0xbe4bcfd7	-0.19903503
178	0xbe6d7246	-0.23188123
179	0xbdaa0974	-0.08302584
180	0x3de55760	0.11198306
181	0x3d6b619d	0.05746614
182	0xbe16a7d3	-0.14712457
183	0x3e515279	0.20441617
184	0xbe160e3c	-0.14653867
185	0xbe5568bc	-0.20840734
186	0x3d2d9d84	0.042386547
187	0xbdab66f1	-0.08369244
188	0xbddb6fee	-0.10714708
189	0xbe52521b	-0.20539133
190	0xbdcb4d68	-0.099268734
191	0x3e12310f	0.14276527
192	0x3da9babd	0.082875706
193	0xbd8f08a2	-0.069840685
194	0xbe75e0a0	-0.24011469
195	0xbe4a5722	-0.19759801
196	0x3e39078f	0.1806929
197	0xbd4a13ce	-0.049335293
198	0xbe68650c	-0.22694796
199	0xbe63bf87	-0.2224103
200	0x3dca7e89	0.09887416
201	0x3c533c4f	0.012892797
202	0x3e68a514	0.22719222
203	0x3e57aa70	0.2106111
204	0x3e2926bf	0.16518687
205	0x3e716121	0.23572208
206	0xbdaa1a02	-0.08305742
207	0x3e493f30	0.1965301
208	0xbd9d1ac6	-0.07671122
209	0xbd317370	-0.04332298
210	0x3e517a25	0.2045675
211	0xbe526bd5	-0.20548947
212	0xbe6e6ae9	-0.2328297
213	0xbdda5654	-0.10660997
214	0xbc95e88a	-0.01829936
215	0xbe11909c	-0.1421532
216	0x3e3a9f9b	0.18224947
217	0x3e3049a0	0.17215586
218	0x3e1cd5e2	0.15315965
219	0xbe148805	-0.14505012
220	0x3d7cc411	0.06171042
221	0xbe117eca	-0.14208522
222	0x3e3bd576	0.18343148
223	0x3e58b584	0.21162993
224	0xbdf62ac2	-0.12019874
225	0xbe3b4686	-0.18288621
226	0xbe2f098f	-0.1709349
227	0xbe5094e2	-0.20369294
228	0x3e26640a	0.162491
229	0x3db0fc91	0.08641923
230	0xbe1e7883	-0.15475659
231	0x3e7a259b	0.24428408
232	0xbd9cb421	-0.07651544
233	0x3dddc31c	0.1082823
234	0x3da7d078	0.08194059
235	0x3da481c1	0.08032561
236	0x3e242b18	0.16032064
237	0x3cf8aca5	0.03035576
238	0xbdba06ad	-0.090833046
239	0xbe653636	-0.22383961
240	0x3cd34d49	0.025793688
241	0x3e35e099	0.17761458
242	0xbe2d7bbd	-0.16941734
243	0x3d65aa63	0.056070697
244	0xbdf2e323	-0.11859729
245	0x3e0ef7cc	0.13961715
246	0x3e05e234	0.13074571
247	0xbe2d1503	-0.16902547
248	0x3d9b0a4e	0.07570325
249	0x3e59c909	0.21268095
250	0x3b99cb0d	0.004693395
251	0xbe6b9b60	-0.2300849
252	0x3e772a65	0.24137266
253	0x3e03a6d8	0.12856615
254	0xbdfeaa36	-0.12434809
255	0xbe327f25	-0.17431314

tNN.2.bias f4 [32]
0	0x3e80456c	0.25052965
1	0xbe43706f	-0.19085859
2	0x3e060773	0.13088779
3	0x3e4a88e6	0.19778785
4	0xbd2a4b51	-0.041575734
5	0x3e0c657a	0.13710585
6	0x3dda10f8	0.10647768
7	0xbcfab3f4	-0.030603386
8	0xbe3a520b	-0.1819536
9	0xbbb23fdc	-0.0054397415
10	0xbe5bf3ed	-0.21479769
11	0xbdcc505e	-0.09976266
12	0xbdeb76bf	-0.114972584
13	0xbde8eab4	-0.11372891
14	0x3da86e14	0.08224121
15	0x3a0e6a73	0.0005432732
16	0x3e4881e2	0.19580796
17	0xbdbd1773	-0.09232988
18	0x3e0074c7	0.12544547
19	0xbdf5ce29	-0.120022126
20	0xbd92fa6a	-0.07176669
21	0x3e347bf0	0.17625403
22	0x3ddcde50	0.1078459
23	0x3e4f3ec1	0.20238782
24	0x3e160dd0	0.14653707
25	0x3dd18937	0.1023125
26	0xb761b285	-1.345261e-05
27	0xbe1dc280	-0.15406227
28	0x3e0e2eff	0.13885115
29	0xbd50c0db	-0.05096517
30	0x3e513035	0.20428546
31	0xbd9c5b45	-0.07634596

tNN.4.weight f4 [64, 32]
0	0x3b855b61	0.004069731
1	0x3de6f830	0.11277807
2	0xbd5fb7d9	-0.05461869
3	0xbde22380	-0.11041927
4	0x3cd9d6fc	0.02659177
5	0x3b85c80d	0.004082686
6	0xbe28b691	-0.16475894
7	0x3ded9305	0.116003074
8	0x3df150e1	0.117830046
9	0x3e27ad58	0.16374719
10	0x3dff5755	0.12467829
11	0xbd88b09c	-0.066743106
12	0xbe0a553d	-0.13509078
13	0x3d956dde	0.07296346
14	0x3d88c1aa	0.066775635
15	0x3d0e03b0	0.034671485
16	0xbd5c2b3d	-0.053752173
17	0x3d063c97	0.032772627
18	0xbdb8445a	-0.08997412
19	0xbdcacae1	-0.09901977
20	0x3debb5ad	0.11509261
21	0xbe04bcd6	-0.1296266
22	0x3e06111e	0.13092467
23	0xbd621c72	-0.05520291
24	0xbca7812a	-0.020447332
25	0xbe123b80	-0.1428051
26	0xbd4133ba	-0.04716847
27	0x3d499cd3	0.049221825
28	0xbe05ba90	-0.13059449
29	0x3d02d444	0.031940714
30	0x3bc34b64	0.005959915
31	0x3d8f12a5	0.06985978
32	0x3db45d2a	0.08806832
33	0xbe2251e1	-0.15851547
34	0xbd61cdb4	-0.055127814
35	0x3e280a95	0.16410287
36	0xbc0ca551	-0.008584336
37	0xbdee77de	-0.116439566
38	0x3dc2d08b	0.09512433
39	0xbd50c78c	-0.050971553
40	0xbe213ccd	-0.1574585
41	0x3e216291	0.15760256
42	0xbe2133da	-0.15742436
43	0x3d8822e6	0.06647281
44	0x3d8ed756	0.06974666
45	0x3d8159e7	0.06315976
46	0x3d639499	0.055561636
47	0x3d8bae92	0.06820406
48	0xbe10fcb8	-0.14158905
49	0xbc28012f	-0.010254188
50	0xbe087676	-0.1332644
51	0x3c4d70da	0.012539113
52	0x3d5a4048	0.05328396
53	0xbcdd3658	-0.027003452
54	0x3dc4c616	0.096080944
55	0x3ddf7582	0.10911085
56	0xbde4555b	-0.11149093
57	0xbe101157	-0.14069115
58	0x3da17831	0.07884253
59	0x3e1a69f8	0.15079486
60	0xbdf505d3	-0.119640015
61	0x3cfff069	0.031242566
62	0x3d8c15a5	0.06840066
63	0xbde5d7bb	-0.11222788
64	0xbe155de0	-0.14586592
65	0x3cc0ada9	0.023520308
66	0x3d4bdb05	0.04976942
67	0x3d55f26b	0.05223314
68	0x3df41681	0.11918355
69	0xbe2a3bf9	-0.1662444
70	0x3e026bfb	0.12736504
71	0x3dba0837	0.09083598
72	0xbdf418b3	-0.119187735
73	0x3d7e1df4	0.062040284
74	0x3cfb8b19	0.030705975
75	0x3e314ed6	0.1731523
76	0x3d249bc6	0.04018762
77	0xbe0443d9	-0.12916507
78	0xbd70d966	-0.058801077
79	0x3e09621b	0.1341633
80	0xbe0c3fb0	-0.1369617
81	0x3e25b5fb	0.16182701
82	0xbde031f7	-0.1094703
83	0xbe04ba69	-0.12961735
84	0x3dca844a	0.098885134
85	0x3ddff722	0.10935809
86	0x3e07c37b	0.13258164
87	0x3dc89d0a	0.09795578
88	0xbce641c6	-0.028107535
89	0x3d9e56d3	0.07731404
90	0x3e1007fc	0.14065546
91	0x3de23570	0.11045349
92	0xbc44b2f9	-0.012005561
93	0x3dbc6707	0.091993384
94	0x3e310c91	0.1728995
95	0x3e0e1248	0.13874161
96	0xbe1f8e2f	-0.15581582
97	0xbaf54bf3	-0.0018714651
98	0xbe12c0d4	-0.1433137
99	0xbdcecbd5	-0.100974716
100	0xbced4bb5	-0.028966764
101	0x3df2f2ef	0.11862742
102	0xbd867042	-0.0656438
103	0x3e0becee	0.136646
104	0x3e1b4cda	0.15166035
105	0xbda7eb79	-0.0819921
106	0x3d046b22	0.032328732
107	0xbdcfb3d0	-0.101417184
108	0xb9e561dc	-0.00043751195
109	0x3df7dda0	0.121028185
110	0x3bfc5187	0.0077001485
111	0x3d0ae9d7	0.033914413
112	0x3e2da7d6	0.16958556
113	0xbe09e3d6	-0.13465819
114	0x3dc2897d	0.0949888
115	0xbd82c0ad	-0.06384406
116	0x3d8cc4db	0.06873485
117	0x3d3061e1	0.043062095
118	0xbcc4ca09	-0.02402212
119	0x3e07893a	0.13235942
120	0x3bfa0881	0.0076304083
121	0x3e0b93f8	0.13630664
122	0xbe223feb	-0.15844695
123	0xbd35d603	-0.04439355
124	0xbe02262f	-0.12709878
125	0x3d3a8e0f	0.045545634
126	0xbe1485a8	-0.14504111
127	0x3df469b2	0.11934222
128	0xbbe6f8d7	-0.007048707
129	0x3d2912e9	0.0412778
130	0xbe218de6	-0.15776786
131	0xbe2f14e4	-0.17097813
132	0xbcb68508	-0.022280231
133	0x3e287395	0.16450341
134	0xbded9165	-0.115999974
135	0xbd807561	-0.06272388
136	0xbd62d431	-0.055378143
137	0xbcf95b5a	-0.030439068
138	0xbe1aed24	-0.15129524
139	0xbdaaebba	-0.083457425
140	0xbcf6bc27	-0.030119015
141	0xbdc00bb7	-0.093772344
142	0xbe13a51a	-0.1441845
143	0xbe0e04a4	-0.13868958
144	0x3cbd942d	0.023141945
145	0xbddbc1e5	-0.10730342
146	0x3e39acde	0.1813235
147	0x3e05c47c	0.13063234
148	0x3d58c1d3	0.05291922
149	0x3e00c84d	0.12576409
150	0xbdde8c83	-0.10866644
151	0x3cd5bc88	0.026090875
152	0xbd01883c	-0.031624064
153	0x3d89ae07	0.06722646
154	0xb878a316	-5.9279693e-05
155	0x3d09f0e3	0.033676993
156	0xbbde4aa1	-0.006783799
157	0xbd97a07b	-0.07403656
158	0x3d2f5d6f	0.042813715
159	0xbe0b81a8	-0.13623679
160	0xbe097ca4	-0.13426453
161	0xbe1470d3	-0.14496164
162	0xbe2fbb5b	-0.17161314
163	0xbe2b891f	-0.16751526
164	0x3e035cb2	0.12828329
165	0x3d8895f0	0.06669223
166	0x3d3b1789	0.04567674
167	0xbe03b61e	-0.12862441
168	0x3e009fa2	0.12560895
169	0xbe2e1497	-0.17000042
170	0xbd82838e	-0.06372748
171	0x3c0dcbeb	0.008654575
172	0x3cf897fa	0.030345906
173	0x3db42480	0.08796024
174	0x3e0340c7	0.1281768
175	0x3d33e63f	0.04392075
176	0xbe20820e	-0.15674612
177	0x3c104172	0.008804666
178	0xbe176d9c	-0.14787906
179	0x3da092a3	0.07840469
180	0xbd95acda	-0.073083594
181	0x3df9c74e	0.121962175
182	0xbd5e48cf	-0.054268654
183	0x3db59cbc	0.08867785
184	0x3e0e0523	0.13869147
185	0x3e1184d6	0.14210829
186	0x3e1e2ea8	0.15447485
187	0x3e04be55	0.12963231
188	0x3d8b23e4	0.06793955
189	0xbe0ea68c	-0.1393072
190	0xbe13c89a	-0.14431992
191	0xbdeb5499	-0.11490745
192	0x3df87940	0.121325016
193	0x3e107752	0.14108017
194	0x3c6e230c	0.014534723
195	0xbe1608cc	-0.14651793
196	0xbdd48417	-0.10376757
197	0xbd7a698e	-0.06113582
198	0x3cff3403	0.03115273
199	0x3df34613	0.118786
200	0x3d8815fa	0.06644817
201	0xbc8bdac0	-0.017072082
202	0x3c3210ef	0.010868295
203	0xbd8ad00a	-0.067779616
204	0xbd85c166	-0.065310284
205	0xbe346fe7	-0.17620812
206	0x3d951df2	0.07281102
207	0x3dcdaeef	0.100431316
208	0x3d7685b1	0.06018609
209	0x3dc46946	0.09590392
210	0x3d1699ce	0.036767773
211	0x3e1598b9	0.1460904
212	0x39b91339	0.00035300272
213	0xbdcc92b2	-0.099889174
214	0xbdf7ddd5	-0.12102858
215	0xbe3087b3	-0.17239265
216	0xbd9d161a	-0.07670231
217	0x3e1ce0da	0.15320149
218	0xbce9b921	-0.02853066
219	0x3bf78d05	0.0075546526
220	0x3bf159c4	0.007365437
221	0xbc7807eb	-0.015138607
222	0xbba64c64	-0.0050750244
223	0xbd07a7e5	-0.0331191
224	0x3cbd5f98	0.023116872
225	0xbd9bdfaa	-0.0761102
226	0xbdf00216	-0.11719148
227	0xbde6dee4	-0.11272982
228	0xbbc6ce2a	-0.006067057
229	0xbddbee2a	-0.107387856
230	0xbe167bba	-0.14695635
231	0xbe11aca5	-0.14226015
232	0x3db2b45a	0.087258056
233	0x3c8cd972	0.01719353
234	0xbcc3522f	-0.0238429
235	0xbd8d58d1	-0.06901706
236	0xbcbd41a8	-0.023102596
237	0xbd89457b	-0.067027055
238	0xbd417561	-0.047231082
239	0x3d990245	0.07471136
240	0x3d3f2aff	0.046671864
241	0x3d8a49e7	0.06752377
242	0x3bd781e9	0.006576766
243	0xbd294fc6	-0.041335844
244	0x3e27ef1b	0.16399805
245	0x3e0e19db	0.1387705
246	0xbd8c450c	-0.06849107
247	0xbe28300d	-0.1642458
248	0xbda1add6	-0.07894485
249	0x3dc1fba4	0.09471825
250	0xbdb2616d	-0.08709989
251	0x3ddfd8d8	0.109300315
252	0x3d15bd30	0.036557376
253	0xbc0b097b	-0.008486147
254	0xbe03f44a	-0.12886158
255	0xbcefbdf0	-0.029265374

tNN.4.bias f4 [64]
0	0xbde47cdd	-0.11156628
1	0xbc53bd3d	-0.012923536
2	0xbe27072a	-0.16311327
3	0xbd13c5f4	-0.036077455
4	0x3d425ebe	0.047453634
5	0x3e0729f1	0.13199593
6	0xbda51381	-0.08060361
7	0xbe185ce4	-0.14879185
8	0x3d9c82cd	0.07642136
9	0x3e3206cd	0.17385407
10	0xbe106f70	-0.1410501
11	0x3bfc1a80	0.0076935887
12	0xbad3fee1	-0.0016173982
13	0x3c8aa427	0.016923977
14	0xbe21ede6	-0.15813407
15	0x3b894eb9	0.0041902927
16	0xbdbed92d	-0.09318767
17	0x3da208a6	0.07911806
18	0xbe26bee5	-0.16283758
19	0xbde569ce	-0.11201821
20	0xbe18b606	-0.14913186
21	0x3e02386b	0.12716834
22	0x3dc7da79	0.09758467
23	0xbd938b5f	-0.07204317
24	0x3d82085b	0.0634925
25	0x3dabba09	0.08385093
26	0xbd0fb61c	-0.035085782
27	0x3e1924c3	0.1495543
28	0xb850bac8	-4.9765018e-05
29	0xbda60890	-0.08107102
30	0xbe373eee	-0.178951
31	0xbdf62326	-0.12018423
32	0xbe3104c2	-0.17286971
33	0xbd7e555a	-0.062093116
34	0x3e0de62e	0.13857338
35	0xbb04a774	-0.0020241411
36	0x3e06e30f	0.13172553
37	0xbe28ffb9	-0.165038
38	0x3cfdc646	0.030978333
39	0x3d1877ec	0.03722374
40	0x3e063795	0.1310714
41	0xbe263abf	-0.16233347
42	0x3e2a7a43	0.16648202
43	0xbb476d79	-0.003043024
44	0x3e012638	0.12612236
45	0x3db8268f	0.089917295
46	0x3d710e2d	0.05885141
47	0xbd0af20e	-0.033922248
48	0xbe1f2cce	-0.15544435
49	0x3ca65469	0.020303922
50	0x3d915e69	0.070980854
51	0x3938c6fe	0.00017621738
52	0x3e012ea4	0.12615448
53	0x3e039c5b	0.12852614
54	0xbdc1afc3	-0.09457352
55	0x3e0b3325	0.13593729
56	0xbe231528	-0.15926039
57	0xbde8c1a2	-0.113650575
58	0xbdd7e241	-0.105412014
59	0xbd81e19d	-0.063418604
60	0x3be3dcd2	0.006953814
61	0xbde579cb	-0.11204871
62	0xbd499f3d	-0.049224127
63	0xbe2748d2	-0.16336372

psi.0.weight f4 [128, 288]
0	0x3a1d341e	0.0005996841
1	0xbc95ae8b	-0.018271705
2	0xbcb0d0e5	-0.021583984
3	0xbd479bcf	-0.048732575
4	0x3b215bde	0.0024621408
5	0xbd064732	-0.03278274
6	0xbd3fa973	-0.04679246
7	0xbbbbdaf8	-0.00573289
8	0x3d0bb3e4	0.034107104
9	0xbd80260e	-0.06257258
10	0xbd314c59	-0.0432857
11	0xbb892bf4	-0.004186148
12	0x3d001839	0.0312731
13	0x3b4f8c2e	0.0031669247
14	0x3d42f0b0	0.04759282
15	0xbd839740	-0.06425333
16	0xbd4fa09b	-0.050690275
17	0xbcc5acf3	-0.02413032
18	0xbccd98a7	-0.025097204
19	0xbd0c113d	-0.034196127
20	0xbcf71dbb	-0.030165544
21	0xbd21c432	-0.039493747
22	0x3d623c14	0.055233076
23	0x3a939c39	0.0011261768
24	0x3cc5e9d3	0.024159348
25	0xbd433473	-0.04765744
26	0x3d28243e	0.04105019
27	0x3cd010e8	0.025398687
28	0xbc68457b	-0.014176722
29	0x3d415ee5	0.04720964
30	0x3cbab6ff	0.022792337
31	0xbd236e5d	-0.039900173
32	0xbd1198c4	-0.03554608
33	0xb90f776c	-0.00013682031
34	0xbc9cabb3	-0.019124841
35	0x3d5d8b99	0.05408821
36	0x3d7f92bf	0.062395807
37	0xbd52cea8	-0.051466614
38	0x3c99b531	0.018763157
39	0xbd476834	-0.04868336
40	0x3cc46b68	0.023976997
41	0x3d380394	0.044925287
42	0x3d05316e	0.032517843
43	0x3d5aa141	0.05337644
44	0xbd62a718	-0.055335134
45	0xbccbe029	-0.024887161
46	0x3c094cab	0.0083800955
47	0x373d259c	1.12740345e-05
48	0xbcb73611	-0.022364648
49	0x3d1741f0	0.036928117
50	0x3d350c87	0.0442014
51	0x3ab94d07	0.0014137336
52	0x3d3032cb	0.04301719
53	0xbd03a04e	-0.0321353
54	0x3cf9553d	0.030436153
55	0x3d16ad45	0.036786336
56	0x3c2e4ce8	0.010638453
57	0x3d31ebae	0.043437652
58	0xbcf65ce2	-0.030073587
59	0xbcbdefef	-0.023185698
60	0xbd5067e0	-0.050880313
61	0xbcf0a5e7	-0.029375983
62	0xbc3e5b6a	-0.0116184745
63	0xbd041802	-0.032249458
64	0x3ce00c0c	0.027349494
65	0x3d4d2e02	0.050092705
66	0xbcf51508	-0.029917255
67	0xbd5cf001	-0.053939823
68	0xbd26f5a1	-0.040761594
69	0xbd427ed2	-0.047484227
70	0x3d6c2211	0.057649676
71	0x3d4d6acb	0.050150674
72	0x3d715b3c	0.0589249
73	0x3c4a31ac	0.012340944
74	0xbd53feef	-0.051756795
75	0x3d03c30e	0.03216844
76	0x3d875b84	0.06609252
77	0xbcf5a75e	-0.029987033
78	0xbcc49f93	-0.024001872
79	0x3d11c22c	0.035585567
80	0x3d413bbd	0.04717611
81	0xbc59e677	-0.013299576
82	0x3c4d9782	0.012548329
83	0xbc845fb8	-0.016158924
84	0xbd88f8b9	-0.06688065
85	0xbd46a445	-0.048496503
86	0xbc2527d7	-0.010080299
87	0x3c47db4e	0.012198282
88	0xbc91f1e5	-0.01781554
89	0x3b9d7011	0.004804619
90	0x3cfff20a	0.031243343
91	0x3c92822a	0.017884333
92	0xbd21f70e	-0.03954225
93	0xbc9c9772	-0.019115184
94	0x3d194162	0.03741587
95	0x3d2ea711	0.042639796
96	0xbc484afe	-0.012224911
97	0x3d272b65	0.04081287
98	0xbd17ba7f	-0.03704309
99	0x3d334074	0.04376264
100	0x3d30ea7e	0.04319238
101	0xbd081768	-0.033225447
102	0xbc2f3d79	-0.010695809
103	0x3d68d772	0.05684609
104	0xbc3b9499	-0.011449003
105	0x3d395b45	0.045253057
106	0x3d4e5ff8	0.05038449
107	0xbd4f1184	-0.050553814
108	0xbb000f1a	-0.0019540251
109	0xbcf56878	-0.029957041
110	0x3babc51e	0.005242004
111	0x3c3d0785	0.011537437
112	0x3cbc0f4e	0.022956517
113	0x3cff01ba	0.031128753
114	0x3d31ff5c	0.04345642
115	0x3d3adbfc	0.04561995
116	0xbcc556d7	-0.02408926
117	0xbc3b6f1c	-0.011440065
118	0xbd5186c5	-0.051153917
119	0xbd1af611	-0.037832323
120	0x3c845953	0.016155874
121	0x3ca374b7	0.019953115
122	0x3c89e971	0.016834946
123	0xbc092e33	-0.008372831
124	0x3cd984df	0.026552616
125	0xbd811112	-0.06302084
126	0x3c155e56	0.00911673
127	0x3d06e9ed	0.032937933
128	0x3d23c7dd	0.039985526
129	0x3c54b50b	0.012982617
130	0x3d193363	0.03740252
131	0x3a4e471e	0.00078688737
132	0x3cf0bc2d	0.029386604
133	0x3d84551c	0.06461546
134	0x3d58a106	0.05288794
135	0x3ce5fbf0	0.028074235
136	0xbd101a7b	-0.035181504
137	0x3d836ac7	0.064168505
138	0xbc8792dc	-0.01654952
139	0x3d7cde8c	0.061735675
140	0x3c8211b2	0.015877578
141	0xbd74c25b	-0.059755664
142	0x3c0153d8	0.007893525
143	0x3c10c4f4	0.00883602
144	0xbd2983d3	-0.041385483
145	0x3d249609	0.040182147
146	0xbd265c14	-0.040615156
147	0xbd3ce7a6	-0.046119355
148	0x3c113503	0.008862737
149	0x3bbe69c8	0.00581095
150	0x3d4a07b7	0.049323764
151	0xbd669d7a	-0.056302525
152	0xbb986ffb	-0.004652021
153	0x3be45e61	0.0069692587
154	0xbc977ada	-0.018491197
155	0x3d2e5660	0.042562842
156	0xbd55b9a6	-0.052179
157	0xbce33b68	-0.027738288
158	0xbc82263c	-0.015887372
159	0x3d0fd498	0.035114855
160	0x3d0b22e0	0.033968806
161	0x3ce5d81c	0.02805715
162	0xbd3edd4a	-0.046597756
163	0xbd075f67	-0.033049967
164	0xbb2610b6	-0.002533955
165	0x3d40e639	0.047094557
166	0xbce43522	-0.027857367
167	0xbd590faa	-0.052993454
168	0x3d0862dd	0.03329741
169	0xbd173080	-0.036911488
170	0xbd697dab	-0.057004612
171	0x3cb115ed	0.0216169
172	0xbc458766	-0.012056207
173	0xbd132abc	-0.035929427
174	0xbc5de79a	-0.013543988
175	0xbcb11b30	-0.02161941
176	0xbc227420	-0.009915382
177	0xbc225ff6	-0.009910574
178	0x3d3b2c0c	0.045696303
179	0x3d415409	0.047199283
180	0x3cae679c	0.02128964
181	0xbb62b732	-0.0034594056
182	0xbcfc7414	-0.03081707
183	0x3cfb0f4c	0.030646943
184	0x3d4edff8	0.050506562
185	0xbd679d33	-0.0565464
186	0x3d3a69d7	0.045511093
187	0xbcf1eb0c	-0.029531024
188	0x3d6f4e72	0.05842442
189	0x3ccfbccb	0.025358578
190	0xbd2e463a	-0.042547442
191	0xbbbacdbc	-0.005700795
192	0xbd09da41	-0.03365541
193	0xbcf60383	-0.030030971
194	0xb9eacc3a	-0.0004478412
195	0x3d31a4ce	0.04337006
196	0xbd07ba65	-0.033136744
197	0xbb90239a	-0.0043987753
198	0x3a35f591	0.00069411943
199	0x3c1bcb14	0.009508867
200	0x3d59f0a8	0.053208023
201	0x3b89ec2d	0.0042090626
202	0xbcf48348	-0.029847756
203	0x3d4a27e8	0.049354464
204	0x3ccf5a68	0.025311664
205	0x3c9ce83d	0.019153709
206	0x3cb0f319	0.021600293
207	0x3d415695	0.04720171
208	0x3c9ea061	0.019363584
209	0x3c45bf43	0.012069526
210	0x3cd0dad6	0.025494974
211	0xbb3e40c0	-0.0029030293
212	0x3cca4faa	0.02469619
213	0xbc877940	-0.016537309
214	0xbba489b2	-0.0050212974
215	0xbc855016	-0.01627354
216	0x3d072356	0.032992683
217	0x3c2ccc45	0.0105467485
218	0x3d475cd8	0.048672527
219	0xbcce671f	-0.025195656
220	0x3d06736a	0.03282491
221	0xbd469dc1	-0.04849029
222	0x3d2dfca4	0.042477265
223	0x3cdd9ade	0.027051385
224	0x3d0bf049	0.0341647
225	0x3aca41ad	0.001543095
226	0x3ce85cd7	0.028364582
227	0xbcc6ee7f	-0.024283646
228	0xbc271087	-0.0101968115
229	0xbd6191cf	-0.055070695
230	0x3c0dc8d6	0.00865384
231	0x3d2ec7bc	0.04267095
232	0xbd37f3a8	-0.044910103
233	0x3c577d69	0.013152459
234	0x3c41e858	0.01183518
235	0x3d806345	0.06268934
236	0xbcb61120	-0.022224963
237	0xba8b609e	-0.0010633653
238	0xbd28eb4a	-0.041240014
239	0x3d81dedf	0.063413374
240	0x3ccf700d	0.025321985
241	0x3cfb594a	0.030682225
242	0x3c3f04ce	0.01165886
243	0x3c523a46	0.012831276
244	0xbcbb2246	-0.022843491
245	0xbd64abc8	-0.055827886
246	0xbd5500c9	-0.052002702
247	0x3c323f82	0.010879399
248	0xbd479bbc	-0.048732504
249	0x3b2c5a48	0.002629893
250	0xbd72ff94	-0.05932577
251	0x3b5d988e	0.0033812854
252	0x3d7f1eca	0.062285222
253	0x3c6be606	0.014398104
254	0x3a26f479	0.0006368827
255	0x3d4530c9	0.04814223

psi.0.bias f4 [128]
0	0xbd3b3268	-0.045702368
1	0x3d3a804c	0.04553251
2	0xbbf1a243	-0.0073740794
3	0x3d4562cd	0.048189927
4	0x3d3b06c4	0.04566075
5	0xbce9ea31	-0.028554054
6	0xbcef2faf	-0.029197542
7	0xbcfc7301	-0.030816557
8	0x3c9120e5	0.01771588
9	0xbd21090e	-0.039315276
10	0x3bfa0af4	0.0076307002
11	0x3d8220c3	0.06353905
12	0x3ca694b7	0.020334585
13	0x3c25951a	0.010106349
14	0xbb7c79b9	-0.00385247
15	0xbcc1d2f5	-0.023660162
16	0xbace9903	-0.0015762154
17	0x3d022def	0.031782087
18	0xbcc68d18	-0.0242372
19	0x3c866777	0.016406758
20	0xbd246425	-0.040134568
21	0x3cdc8a8c	0.026921533
22	0xbc7f417d	-0.0155795785
23	0x3d385f63	0.045012843
24	0x3d2e9f02	0.04263211
25	0xbd1e6a1c	-0.038675413
26	0xbd2b3f52	-0.041808434
27	0x3cdbe5a8	0.026842907
28	0x3bbd9111	0.0057851155
29	0x3cd6049d	0.026125247
30	0x3d72495b	0.05915199
31	0xbd2c14b1	-0.04201192
32	0x3cfd40cf	0.030914692
33	0x3be55ba9	0.006999452
34	0x3d14376e	0.036185674
35	0xbc459c63	-0.012061211
36	0xbc891b0a	-0.016736526
37	0x3c90d511	0.017679723
38	0xbc95d113	-0.01828817
39	0x3d40089a	0.046883203
40	0x3d40e9c8	0.04709795
41	0x3c8695cf	0.016428856
42	0x3d79d55e	0.0609945
43	0x3ccfa8a7	0.025348974
44	0xbd309c92	-0.043118067
45	0xbb20487c	-0.0024457267
46	0x3d63028e	0.05542236
47	0x3cb2f064	0.021843143
48	0x3beb9075	0.0071888515
49	0xbc1a84f4	-0.009431113
50	0x3d64ff99	0.05590782
51	0xbd32827c	-0.04358147
52	0x3d0612b7	0.03273269
53	0x398814a1	0.0002595531
54	0x3d12193c	0.035668597
55	0xbd06bb4c	-0.032893464
56	0x3d6a3b1b	0.057185274
57	0x3d50109d	0.050797094
58	0x3cf62fac	0.030052029
59	0xbd29ee8a	-0.041487254
60	0x3cc8171a	0.024425078
61	0xbd0cf2d1	-0.034411255
62	0x3c913756	0.017726582
63	0x3d1f0965	0.03882732
64	0xbc7bb9d0	-0.015364125
65	0x3cff7ea9	0.031188326
66	0xbc74e899	-0.014948034
67	0x3d532fac	0.051559135
68	0xbcf69747	-0.030101432
69	0x3d4649ca	0.048410214
70	0xbcf515a1	-0.02991754
71	0xbb8476e5	-0.0040424936
72	0x3cf881ec	0.03033539
73	0x3c3d1dfa	0.0115427915
74	0x3cfa6145	0.03056396
75	0x3d217d87	0.039426353
76	0x3d595179	0.053056214
77	0xbcb6d13a	-0.022316564
78	0x3d7da69f	0.06192648
79	0x3cece331	0.028916927
80	0x3d4e3704	0.050345436
81	0x3cfc4ba5	0.030797789
82	0x3cd272b6	0.025689464
83	0x3cafcc1b	0.02145963
84	0xbd361516	-0.044453703
85	0x3d056c9b	0.032574277
86	0xbd0bb140	-0.034104586
87	0x3d3c91bc	0.04603742
88	0x3cdfefe6	0.027336072
89	0xbcad811d	-0.02117973
90	0xbd1762dd	-0.036959518
91	0xbd6ac899	-0.05732021
92	0xbcec7ba7	-0.028867556
93	0xbcd51b45	-0.02601398
94	0xbcfce4ab	-0.030870756
95	0x3d3a2353	0.045443844
96	0xbb6837fb	-0.0035433758
97	0xbcb32551	-0.02186838
98	0xbd369e2e	-0.044584446
99	0x3c835278	0.016030535
100	0x3c8d910d	0.01728108
101	0x3c9c07a9	0.019046621
102	0x3bc76526	0.006085056
103	0x3baf3764	0.0053471792
104	0x3a886a02	0.0010407569
105	0xbd26dcf6	-0.04073807
106	0xbc0b6145	-0.008507078
107	0x3cc26c46	0.02373327
108	0x3d327fe4	0.043578997
109	0xba9a2c60	-0.0011762492
110	0xbd6969e2	-0.056985743
111	0x3d25e0f0	0.04049772
112	0xbc4c7f05	-0.012481456
113	0xbcfb5829	-0.030681686
114	0xbd2c7007	-0.042099025
115	0x3d35eb0e	0.04441362
116	0xb9c81051	-0.0003815913
117	0x3c0c3127	0.008556641
118	0x3d64991c	0.05581008
119	0xbd5b7c07	-0.05358508
120	0xbbf5375a	-0.007483405
121	0xbd6c9fef	-0.057769712
122	0xbd247dac	-0.040158913
123	0xbcf875c6	-0.030329596
124	0xbd595635	-0.05306073
125	0x3d2f1337	0.042742934
126	0x3d4314ca	0.047627248
127	0x3c13d260	0.009022325

psi.2.weight f4 [64, 128]
0	0x3d864775	0.06556598
1	0x3d8e179b	0.06938096
2	0x3d198f44	0.037490144
3	0xbcca8e96	-0.024726193
4	0xbd8f5968	-0.06999475
5	0xbcba0a98	-0.02271013
6	0xbda8de2b	-0.082455
7	0x3b91420b	0.0044329218
8	0x3d49359a	0.049123384
9	0x3d051518	0.03249082
10	0xbd2c5529	-0.042073403
11	0x3d9b01e4	0.0756872
12	0x3d921b84	0.071341544
13	0x3d015f14	0.031584814
14	0x3d0d7fd4	0.034545735
15	0x3d397ce1	0.04528511
16	0xbc3ab2e7	-0.011395193
17	0xbd04949b	-0.032368284
18	0x3d85cc0e	0.06533061
19	0xbcdbab01	-0.02681494
20	0xbceb6d32	-0.028738592
21	0xbd85a155	-0.06524912
22	0x3d6e0362	0.058108695
23	0x3d8ee1f4	0.06976691
24	0xbdb4a5c1	-0.088206775
25	0x3d6b1975	0.057397325
26	0x3d10bb3a	0.035334803
27	0x3cad5b08	0.021161571
28	0x3d9435b9	0.07236809
29	0x3d51a260	0.051180243
30	0x3d363210	0.044481337
31	0xbd85f5db	-0.06541034
32	0x3cf9120b	0.030404111
33	0x3d449903	0.047997486
34	0xbbd124ea	-0.0063825743
35	0xbd83547f	-0.06412601
36	0x3cc306ba	0.023806918
37	0x3ce92317	0.028459115
38	0xba007b5c	-0.00049011945
39	0xbc20fa1d	-0.009825257
40	0xbda74791	-0.08167947
41	0xbda39786	-0.07987885
42	0xbdb1557b	-0.08658882
43	0xbc36b90e	-0.011152519
44	0x3c1fcdf4	0.009753693
45	0xbd296714	-0.04135807
46	0x3db33672	0.08750619
47	0xbda8c255	-0.08240191
48	0xbd6046b0	-0.054754913
49	0xbd01bd93	-0.031674933
50	0x3d4ff174	0.050767377
51	0x3d453564	0.04814662
52	0x3d49249d	0.049107183
53	0x3ca6d076	0.020363074
54	0xbd83ddd5	-0.064387955
55	0xbd3943bc	-0.045230612
56	0x3d0ff7ec	0.035148546
57	0xbc188217	-0.00930836
58	0xbd9389c9	-0.07204015
59	0xbb762f7b	-0.0037564922
60	0x3d1ff6fd	0.039053906
61	0xbd932c3c	-0.071861714
62	0xbce451a2	-0.027870957
63	0x3c5ca5b6	0.013467243
64	0xbcda5b1f	-0.026654778
65	0x3b5708c2	0.0032811617
66	0xbc80c102	-0.015717033
67	0x3afb8ba8	0.0019191401
68	0xbdc34673	-0.095349215
69	0x3c7c9b00	0.015417814
70	0xbd702aa9	-0.058634434
71	0xbc8c2627	-0.017108036
72	0x3d1e28ab	0.038613003
73	0x3c455dd7	0.012046299
74	0xbd0b52b8	-0.034014434
75	0xbce18643	-0.027529841
76	0x3d71ebdb	0.05906282
77	0xbd1679eb	-0.036737364
78	0xbd1967be	-0.037452452
79	0x3d51afa4	0.051192895
80	0x3d784eff	0.06062221
81	0x3d8f3dc5	0.069942035
82	0xbc24e2be	-0.010063825
83	0xbc24d424	-0.010060344
84	0xbcc11e54	-0.023574032
85	0x3db2763c	0.08713958
86	0x3d5f92b6	0.054583274
87	0xbd285fcc	-0.041106984
88	0x3da5a55f	0.08088183
89	0xbd3adf8b	-0.045623343
90	0xbd45ee76	-0.048323117
91	0x3d06cf47	0.03291252
92	0xbd34c5b4	-0.044133857
93	0xbd90bae8	-0.070668995
94	0x3db471a9	0.088107415
95	0xbd9bb1a3	-0.07602241
96	0xbd52d1dd	-0.051469672
97	0x3d37a0ab	0.04483096
98	0x3c9d8055	0.019226233
99	0xbd169e3a	-0.03677199
100	0xbd11e76d	-0.035621095
101	0xbd275bf6	-0.040859185
102	0xbc933cdd	-0.017973358
103	0x3d22da57	0.039759006
104	0xbc369fa3	-0.011146459
105	0x3cc1a2eb	0.023637256
106	0xbd6895aa	-0.056783356
107	0x3d25d873	0.040489625
108	0xbc0c6ad5	-0.008570393
109	0xbc78e967	-0.015192366
110	0x3c317a26	0.010832345
111	0x3cd3c0e5	0.025848815
112	0x3d7f806c	0.062378332
113	0x3cce5f28	0.025191858
114	0xbd7f0a9f	-0.06226599
115	0x3da5f7e6	0.081039235
116	0x3d1f0036	0.03881856
117	0xbcbc4982	-0.02298427
118	0xbd3b6e61	-0.045759562
119	0xbd37404c	-0.044739053
120	0xbbe0b8a3	-0.006857948
121	0xbdbb4aac	-0.09145102
122	0xbdb00064	-0.085938245
123	0xbda0707c	-0.07833955
124	0xbba4b0fd	-0.0050259815
125	0x3d8b4dcf	0.0680195
126	0xbd5e190f	-0.054223116
127	0xbc8c30c9	-0.017113106
128	0x3d946295	0.072453655
129	0xbc548a27	-0.012972391
130	0x3d63756f	0.055531915
131	0xbbcdab22	-0.006276504
132	0xbdcfe799	-0.101515956
133	0x3d347083	0.044052612
134	0xbcbb82a8	-0.02288945
135	0x3c1f160f	0.009709849
136	0xbca6a1f6	-0.0203409
137	0x3c9da86a	0.019245345
138	0x3d7b7e3a	0.061399676
139	0x3d921896	0.07133596
140	0xbc94f833	-0.018184757
141	0xbdaa0edf	-0.08303618
142	0x3bf77401	0.0075516705
143	0x3cbe4984	0.023228414
144	0x3cf15462	0.029459182
145	0x3ce06551	0.027392061
146	0xbc90b27a	-0.01766323
147	0x3c538d98	0.012912177
148	0x3cf3e5fd	0.029772753
149	0xbc2e4415	-0.010636349
150	0x3db13c09	0.08654029
151	0xbcf31f9a	-0.029678155
152	0x3d6daa81	0.058023933
153	0xbc7ba18b	-0.015358339
154	0x3d476e5d	0.048689235
155	0x3d20c266	0.039247893
156	0x3d856f22	0.065153375
157	0xbd77acba	-0.06046746
158	0x3cbb0521	0.022829594
159	0x3c812461	0.015764417
160	0xbbb59896	-0.0055418713
161	0x3d1ce104	0.03830053
162	0xbc07aad7	-0.0082804775
163	0x3c2fbfb8	0.010726862
164	0x3c0f54fc	0.008748289
165	0x3ceaf72e	0.028682318
166	0xbcc71aa3	-0.024304694
167	0xbd5264f1	-0.051365796
168	0x3c15e7c5	0.009149496
169	0x3d4dcf20	0.050246358
170	0x3d5f650e	0.054539733
171	0xbd3e7d91	-0.04650647
172	0xbc2c7d07	-0.010527856
173	0xbd90598f	-0.07048332
174	0xbd30421f	-0.043031808
175	0x3b6a3c08	0.0035741348
176	0xbb9837ec	-0.0046453383
177	0x3d31593c	0.04329799
178	0x3d780c1e	0.06055843
179	0x3cabbace	0.020963099
180	0xbd767d73	-0.06017823
181	0xbd3a1980	-0.045434475
182	0xbda59d1f	-0.08086609
183	0x3ced75a6	0.028986763
184	0x3a777dc2	0.00094410416
185	0xbc21ff53	-0.009887534
186	0xbd1a9ab9	-0.03774521
187	0xbcaca8bf	-0.021076558
188	0xbce3585a	-0.02775209
189	0xbd161a83	-0.036646377
190	0xbd19eaaf	-0.037577327
191	0xbd8b2407	-0.06793981
192	0xbc4bc5b2	-0.012437271
193	0xbd8373f7	-0.06418603
194	0xbd552e0c	-0.052045867
195	0x3d84b69e	0.06480144
196	0xbd362956	-0.044473015
197	0xbd564822	-0.052314885
198	0xbc8a53e9	-0.016885715
199	0xbcb9acd6	-0.022665422
200	0x3dbb2845	0.0913854
201	0xbcc0a5cd	-0.02351656
202	0x3d9a1c43	0.07524922
203	0xbd5f02de	-0.054446094
204	0xbd748e1d	-0.059705842
205	0xbd9d94a9	-0.0769437
206	0xbd3056b3	-0.043051433
207	0xbccbcdf9	-0.024878489
208	0x3dab8d43	0.08376553
209	0xbc0ac38b	-0.008469473
210	0xbd92b016	-0.07162492
211	0xbd2cd8a1	-0.04219878
212	0x3b9afb6c	0.004729679
213	0xb7d77457	-2.5684172e-05
214	0xbd5e1c9f	-0.054226514
215	0x3dbffc98	0.0937435
216	0xbd38f413	-0.045154642
217	0xbd7803ad	-0.06055038
218	0xbc8850b3	-0.016640043
219	0x3b8baa3a	0.004262236
220	0xbd822e29	-0.063564606
221	0xbd957ef0	-0.07299602
222	0xbd9b3792	-0.075789586
223	0x3d939beb	0.07207473
224	0xbd8ab5f8	-0.06772989
225	0xbbc34587	-0.005959216
226	0xbcb2a521	-0.021807255
227	0x3c9a1d3a	0.018812764
228	0xbcabf737	-0.020991905
229	0xbd4b57f6	-0.049644433
230	0xbc87c257	-0.01657216
231	0x3c8d8eaa	0.017279942
232	0x3cf0e075	0.029403904
233	0xbd041235	-0.032243926
234	0x3d7f9f6b	0.062407892
235	0x3d17a8cd	0.037026215
236	0x3cecf939	0.028927432
237	0x3c8bb601	0.01705456
238	0x3cdda7b8	0.027057514
239	0xbd0c0b78	-0.034190625
240	0x3d9ab0ad	0.075532295
241	0x3cc67b79	0.024228798
242	0x3d6ccaa5	0.057810444
243	0xbd8b2ed0	-0.06796038
244	0x3da3d4e8	0.07999593
245	0x3cd42783	0.025897747
246	0x3d99b539	0.075052686
247	0x3cd0435e	0.025422748
248	0x3d46f724	0.048575535
249	0xbd472108	-0.048615485
250	0xbce5616c	-0.028000556
251	0xbc98308e	-0.01857784
252	0x3b7cd2f8	0.0038577896
253	0xbc1b28b5	-0.0094701545
254	0xbd5a236e	-0.053256445
255	0xba9499d9	-0.0011337354
