lightning_logs/version_19/checkpoints/epoch=11-step=1199.ckpt (torch, 612901 bytes, 62 tensors)

lattice_net.0.weight f4 [8, 1, 2]
000000 50 f8 0d bf 40 70 0a 3f f4 02 33 bf 1b c2 0b be
       -0.5545702 0.5407753 -0.6992638 -0.13648264
000010 05 96 45 3e 90 43 39 3e bc ae c2 3e 45 c0 c9 3e
       0.19295509 0.1809218 0.38023937 0.39404503
000020 47 b7 0f bf c3 82 0a 3d 39 6b 87 bd c5 1f 00 3f
       -0.56139034 0.03381611 -0.06612248 0.50048476
000030 58 ca 1b 3f 1e f1 db 3e 51 43 8a 3e 17 47 df 3e
       0.6085563 0.42957395 0.27004483 0.43608925

lattice_net.0.bias f4 [8]
000000 26 06 cd be 41 af d7 3e 7f fd 0c bf 82 0d 3d 3e
       -0.40043753 0.42125896 -0.55074304 0.18462184
000010 6b fe 18 3f 29 ac 35 3e d2 4b 6b be 13 57 31 bf
       0.5976321 0.17741455 -0.22978142 -0.6927349

lattice_net.2.weight f4 [16, 8, 2]
000000 ab 4e 3e bb 49 84 2b be 74 da 27 3e a5 2a db bd
       -0.002903859 -0.16749682 0.16391927 -0.10701493
000010 2e 31 3e bd e7 66 e4 3d 71 e2 1e be 78 84 ba bd
       -0.04643362 0.111524396 -0.15516068 -0.09107298
000020 c0 12 04 be 9c 5d 46 be 9f 9c f4 bc c6 ea c5 bd
       -0.12897778 -0.19371647 -0.029859839 -0.0966392
000030 86 71 b8 3d 99 27 c7 3d 25 a7 02 3e fb 27 82 3d
       0.09006028 0.097243495 0.12759073 0.06355282
000040 26 01 76 bd 93 3b 28 be 79 e0 8d bd 84 3b 57 3e
       -0.06005969 -0.16428976 -0.069275804 0.21018797
000050 69 ce 70 be 57 31 39 3e 77 43 32 3e c3 dc 30 be
       -0.23516239 0.18085228 0.17408548 -0.17271714
000060 08 47 f5 3d 62 f4 1b 3e d9 b2 d6 3d 14 c2 60 3e
       0.11976439 0.15229943 0.10483331 0.21949035
000070 c8 c1 7e bb 1c b7 53 3e 14 fd 55 be 82 73 1a 3e
       -0.0038872827 0.2067532 -0.20897323 0.15083125
000080 ab d0 22 bd 94 a0 5a 3e c6 f6 db 3d 5d b3 66 be
       -0.039749783 0.21350318 0.10740428 -0.22529359
000090 43 e9 48 3c 21 e2 80 bd 15 da 4e be 6f 52 5a 3e
       0.012262645 -0.06293131 -0.20200379 0.21320508
0000a0 49 58 56 be c0 63 84 bd 7a f1 0d be 9c ca 18 be
       -0.20932116 -0.06464338 -0.13861647 -0.1492104
0000b0 2d d6 53 3e 5b f1 a2 bd f3 0d 3f be f7 dc eb bd
       0.2068717 -0.07956191 -0.18657665 -0.11516755
0000c0 d6 3b 3d bc ce a5 73 3e 32 55 b6 3d ff 6a 03 3e
       -0.0115499105 0.23793718 0.089029685 0.12833785
0000d0 f0 3e 16 bd d2 33 68 3e e5 15 1d 3d f9 41 3c 3e
       -0.036681116 0.22676018 0.03835096 0.18384542
0000e0 71 89 d4 bd c8 c6 18 be 6b 8e cd 3c 2d 0c 33 bd
       -0.10377777 -0.14919579 0.025092324 -0.043712784
0000f0 9b 08 08 be b8 96 6a 3e 96 29 aa bd e3 c6 4d 3c
       -0.13284533 0.22909057 -0.08308713 0.012559625
000100 53 14 eb bd 60 b9 c6 bc b0 2b 42 3e 8f 99 60 3e
       -0.11478486 -0.024258316 0.18961978 0.21933578
000110 9c fa 6c bc 83 1d 88 3c f5 72 6a be 9b 55 32 3e
       -0.014464047 0.016615635 -0.22895415 0.17415468
000120 9d f8 6e bd 2d c2 89 bc b7 58 70 be 32 1c f7 bd
       -0.058342565 -0.016816223 -0.23471342 -0.12065925
000130 7c cc e2 3d 10 1e 50 bd 77 34 ee bd ab 73 73 bb
       0.110741585 -0.05080992 -0.116311006 -0.00371478
000140 70 ef b9 bd a0 01 13 be 51 80 4e 3e 16 5e d5 bd
       -0.09078872 -0.14356089 0.20166136 -0.10418336
000150 1f 5e 1e 3e 28 17 06 be 8d 65 2b 3c d9 b3 98 3d
       0.15465592 -0.13094771 0.010461223 0.07456178
000160 a1 86 4d 3e 66 52 0c 3e 0f e0 5a 3e 86 27 c9 3c
       0.20070888 0.13703308 0.21374534 0.024554979
000170 f4 35 ca bd 20 1c 2c be 67 5d 64 be 6e 94 29 3e
       -0.09873572 -0.16807604 -0.22301255 0.16560528
000180 d7 2e c9 bc d3 09 7f bb 52 32 eb bd 3c 7b bd bd
       -0.024558468 -0.0038915768 -0.11484207 -0.09252021
000190 b3 3b b9 3d e4 9b 33 3e 42 8c 37 3e e9 dc c9 bd
       0.0904459 0.17539936 0.17924598 -0.098565884
0001a0 8a 06 30 3c ef 0d 1c 3e bb eb 5e 3d 79 92 7f bd
       0.0107437465 0.1523969 0.05442403 -0.062395547
0001b0 4a b2 1f be 47 07 3f 3e c3 de 64 3e 92 dc a6 bd
       -0.15595356 0.1865512 0.22350602 -0.08147539
0001c0 9a c6 4c 3e 6d 29 3d 3d ab 9b 7a be 60 6e 92 3d
       0.19997635 0.046182085 -0.24473445 0.071499586
0001d0 e4 47 24 3e 2d bd dc 3d dc d4 e9 bd 4f e4 52 3e
       0.16043049 0.1077827 -0.11417553 0.20594905
0001e0 fb ea c7 bd cc 43 c7 3c 89 59 e6 bb 58 b8 f1 bd
       -0.09761616 0.02432432 -0.0070297164 -0.11802739
0001f0 f2 19 97 bd 33 1f a7 bd 58 9e 07 3d 7b f6 15 bd
       -0.073779956 -0.08160248 0.033109993 -0.036612015
000200 8b 73 34 3e 27 c8 06 be cc 4e a4 3d 95 80 b1 bd
       0.17622201 -0.1316229 0.08022842 -0.08667103
000210 ff c7 ed 3d 34 e8 a8 3d 70 c8 73 3e 59 6a 79 be
       0.11610412 0.08247414 0.2380693 -0.24356975
000220 58 d1 c3 bd c1 c9 00 3e 22 99 52 3e 8c a2 85 bd
       -0.095614135 0.12576963 0.20566228 -0.06525144
000230 62 0e 12 3e 82 57 95 3d b0 dc 08 be bc b8 5a be
       0.14263299 0.072920814 -0.13365436 -0.21359533
000240 6a 44 f1 bc 6f 27 59 be 89 5e bb bd 9f bc 10 3e
       -0.029451568 -0.21206449 -0.091488905 0.14134453
000250 6e 6f 6e be 0f d4 e1 3d 50 45 5c 3e f1 73 1d be
       -0.23284695 0.11026775 0.21510816 -0.1537626
000260 4d 1b 42 bd 94 c0 98 bd 5a 65 52 3d 2a c1 2d 3d
       -0.047389317 -0.07458606 0.051366188 0.042420544
000270 6b 25 df 3d 53 92 61 be 2c ce 3e 3e 4c e6 43 bb
       0.10895809 -0.22028475 0.18633336 -0.0029891906
000280 0f b1 73 be 58 52 4e be 69 8e 1c 3e eb 98 71 be
       -0.23798011 -0.20148599 0.152887 -0.2359349
000290 2d ad f1 3d 89 9c 92 3d 2f 70 5e 3d fe 93 30 3e
       0.11800609 0.07158763 0.054306205 0.17243955
0002a0 f1 18 7e 3b ea fb 31 be f2 55 5b 3e 2e 82 69 bd
       0.003877219 -0.17381254 0.21419504 -0.057008915
0002b0 94 95 7b 3d 39 a8 2f 3e 6a 1d 43 3e 4e 1b 4c 3d
       0.061421946 0.17154016 0.1905419 0.049830727
0002c0 fe 55 57 bc 7b 38 52 be 53 e1 ef 3c 0f b7 48 3e
       -0.013143061 -0.20529358 0.029282248 0.19601081
0002d0 0b cb 23 be a7 67 05 3e 99 79 b5 3d 6e 5b c6 3c
       -0.15995423 0.13027821 0.088610835 0.024213519
0002e0 dc c4 40 be 10 93 85 3c 66 05 2b bd 93 55 53 be
       -0.18825096 0.016305476 -0.041753195 -0.20638113
0002f0 34 84 02 be 8a 17 22 be 86 94 93 bd b0 6f c3 3d
       -0.12745744 -0.15829292 -0.07206063 0.09542787
000300 6c 5a 48 3d 0a 7a 66 3d 92 ea 4b 3d 12 0f 35 be
       0.048914358 0.05626873 0.04978425 -0.1768153
000310 81 b3 9b bd db 9d 0c 3d 42 28 e4 bd 53 f2 2d 3d
       -0.07602597 0.03433023 -0.11140491 0.042467427
000320 16 3a a1 3d e2 de 96 bd f7 17 5b 3a bc c1 b1 bd
       0.07872407 -0.0736673 0.0008357758 -0.0867953
000330 11 db 18 be 94 84 31 3e e9 fc 17 3d e6 0d 7b 3e
       -0.14927317 0.17335731 0.03710643 0.2451702
000340 d6 04 66 3e 81 f5 25 3e fa 3c 1a 3d 2e 4c d0 bd
       0.22462782 0.16206934 0.037655808 -0.1017078
000350 c1 45 fd bd bb fa 98 3c 63 7a 8a bd f2 01 63 3e
       -0.1236682 0.018674245 -0.06761625 0.22168711
000360 18 56 67 bb 56 74 75 3e 83 e1 14 3e d8 ca 6b 3e
       -0.0035299119 0.2397016 0.14539151 0.23026597
000370 3e ba 56 be 12 85 99 bd 40 95 66 3e 37 88 0c be
       -0.20969483 -0.07496084 0.22517872 -0.13723837
000380 00 74 03 3e 4c 22 0d 3e 91 35 53 be ac e5 43 3e
       0.12837219 0.13782614 -0.20625903 0.19130582
000390 ec d9 4e 3e 86 0b 06 3e 7f 25 fa 3d 6d 52 3c 3e
       0.20200318 0.13090333 0.12214183 0.18390818
0003a0 e5 01 73 be 2a c1 b3 bd 9c 78 7f be a2 ed 9e bd
       -0.23731191 -0.087770775 -0.24948353 -0.077601686
0003b0 75 c5 71 3e 26 3e 72 3c 07 1f 62 be 61 9e 41 bd
       0.2361048 0.014785325 -0.22082148 -0.047270183
0003c0 7a f6 53 be 23 41 52 be 20 eb 11 be 62 28 16 be
       -0.20699492 -0.2053266 -0.1424985 -0.14663842
0003d0 f1 2e 39 3e f6 e2 47 be 9f 16 a2 bc 74 39 93 bd
       0.18084313 -0.19520172 -0.019786177 -0.07188693
0003e0 30 7f 43 3e 47 00 f9 3d 97 15 8e 3d 40 d3 dc 3d
       0.19091487 0.12158256 0.06937712 0.1078248
0003f0 0d 3f 45 be 95 31 f4 bd 44 fa 32 be cf ad b9 bd
       -0.19262333 -0.119235195 -0.17478281 -0.090663545

lattice_net.2.bias f4 [16]
000000 dd d5 e4 3a 73 6d 68 3e b0 9f 57 3e 35 57 e7 3b
       0.0017458756 0.22698002 0.2105701 0.0070599564
000010 56 71 60 be 53 c5 50 3e a1 e6 f1 3d 2b 36 9c bc
       -0.21918234 0.20387773 0.11811567 -0.019068798
000020 2a 23 2f 3e 63 50 52 3e d4 e5 07 be e6 2d 49 be
       0.17103258 0.20538478 -0.13271266 -0.19646415
000030 e5 16 06 3e 19 ec 6a 3d 32 9b f3 3d 10 c7 27 3d
       0.13094671 0.057354067 0.118948355 0.040961325

lattice_net.4.weight f4 [32, 16, 2]
000000 f9 a6 fd 3d 8e 74 25 bd 57 de 5b bd 76 7d d3 3d
       0.12385363 -0.04039436 -0.053678837 0.10326664
000010 4d 06 01 be 0f 37 2e 3e 8e 54 97 bc f8 ed 06 be
       -0.1260006 0.1701319 -0.018472936 -0.13176715
000020 48 75 21 bd 1e 98 e8 bd 91 af 91 3d c7 8f 8c 3d
       -0.03941849 -0.11357139 0.07113565 0.06863361
000030 75 29 28 bd d4 5b 8e 3d 6c 1c 4a bc e2 e8 d0 bd
       -0.04105516 0.069511086 -0.012335878 -0.10200669
000040 f1 d7 9d 3d 1e b1 b5 bd 29 20 e5 3d 1e 48 03 be
       0.07707203 -0.08871673 0.11187775 -0.1282048
000050 83 5b 20 be 15 55 cc 3d 04 5c 28 be eb e0 3b bc
       -0.15659909 0.099771656 -0.16441351 -0.011467199
000060 a7 ae ec bd 68 0d 34 3e 41 56 b2 3d 81 11 fd bc
       -0.1155675 0.17583239 0.08707858 -0.030892136
000070 82 66 3f bd 50 91 11 be f6 eb 24 3e 62 47 a7 3d
       -0.04672862 -0.14215589 0.16105637 0.08167912
000080 31 46 05 be 96 c6 d4 bc d1 1d 25 3e c7 e2 02 be
       -0.13015057 -0.0259736 0.16124655 -0.12781821
000090 5a f6 17 3e bc 49 2b 3d e6 0f 04 be 63 d6 1f be
       0.1484007 0.041818365 -0.1289669 -0.15609126
0000a0 93 e7 77 bd 9e 8f a1 3d 5a 6a 92 3b 9e 86 06 3e
       -0.06052358 0.07888721 0.0044682445 0.1313729
0000b0 1a 66 35 3e de ff f5 bd aa 75 1e 3d 42 53 ce 3c
       0.1771473 -0.120116934 0.038686432 0.025186185
0000c0 be 7f d4 bb 13 a5 8b bd cd 96 c8 3d 88 73 ab 3d
       -0.0064849546 -0.06818595 0.09794388 0.08371645
0000d0 db ff 20 3e f9 43 01 be 6d 4b a0 3d ec 31 80 3d
       0.15722601 -0.12623586 0.07826886 0.06259522
0000e0 d9 ce be bd 26 b3 dd 3d 9d 23 fb 3d a4 1b 37 3d
       -0.09316797 0.108251855 0.12262652 0.044704095
0000f0 b9 f5 bf 3d f3 21 b2 3c 69 3b 9a bd 2f 0a 16 3e
       0.0937304 0.021744704 -0.07530863 0.14652322
000100 91 f1 e4 3d 41 07 d2 3d fe 22 18 be 8a 07 0e 3e
       0.11178888 0.1025529 -0.14857098 0.13870063
000110 d9 a7 31 be 9c f8 99 3c a0 36 b5 3d 1b 07 ec 3d
       -0.17349185 0.018795304 0.088483095 0.11524793
000120 f0 ca 4f 3d 28 60 2f 3e d5 04 aa 3d 24 64 30 3e
       0.050730646 0.17126524 0.08301703 0.172257
000130 0f fd 20 be c5 b0 1d 3e 0c 92 af bd 28 80 23 3e
       -0.15721534 0.15399463 -0.08572778 0.15966856
000140 ee d1 47 bd 51 51 38 bd 97 41 1f 3e 35 ab c6 3d
       -0.04878419 -0.044999424 0.15552364 0.09700624
000150 7c ed df bd 92 1b 0f 3e 85 df f3 3c 35 10 eb 3d
       -0.109339684 0.13975361 0.029769668 0.114777006
000160 65 f0 14 be b5 e9 e8 bd d1 4c bb 3d 13 7c 64 3c
       -0.14544828 -0.11372701 0.09145511 0.013945597
000170 ff 05 43 bd f7 57 cc bd 8f fc 6c 3d a5 3b c1 3d
       -0.04761314 -0.099777155 0.057858046 0.094352044
000180 b6 ad 14 3e ab bf c4 3d 5a da 22 bd 5e d1 18 3e
       0.1451939 0.0960687 -0.039759018 0.14923617
000190 05 99 0e be 65 ca 0d 3d 45 ad ff 3d 7b 7a 07 3e
       -0.1392556 0.034616847 0.124842204 0.13230316
0001a0 81 6d c3 3d 32 fa e6 bd 6a be 39 bd 91 91 d9 bd
       0.095423706 -0.1127819 -0.04534761 -0.10623468
0001b0 0b 83 bb 3d 52 2d 10 be 71 9c b8 bd a1 9b b7 3d
       0.09155854 -0.14079788 -0.09014214 0.08965231
0001c0 6b 79 96 3c cf f3 23 bc c8 19 ad bd bc f4 c7 3d
       0.018368443 -0.010006859 -0.08452183 0.09763476
0001d0 0e c5 a8 3d 01 a1 2b be 58 6f cc bc 15 80 12 3e
       0.0824071 -0.16760637 -0.024955437 0.14306672
0001e0 de 06 73 bd 9c b2 95 3c 6f 93 1b 3e 16 80 8d bc
       -0.05933272 0.018273644 0.1519296 -0.01727299
0001f0 1d e0 a1 3d 16 2b cb 3d 0b ab e0 bd bb bf 02 be
       0.07904074 0.09920327 -0.10970124 -0.12768452
000200 53 94 22 3e c5 94 32 be f2 e5 1c bc fa 46 8d bd
       0.15876894 -0.17439564 -0.009576308 -0.06898303
000210 eb 28 5d 3d bf 8e 86 3d 4e 38 23 bb 88 4e 00 3e
       0.0539941 0.065701954 -0.0024905386 0.12529957
000220 c1 4f c0 bd 26 18 0c be db 23 8c 3d 09 cc d4 3d
       -0.09390212 -0.13681087 0.068427764 0.10390479
000230 23 20 08 be 7d 1e ca 3d 5d 1e 69 3d 82 9f 22 3e
       -0.13293509 0.098690964 0.056913722 0.1588116
000240 58 a8 02 3e eb 06 28 3e 4b 64 d9 bd 5b 52 01 be
       0.1275953 0.16408889 -0.106148325 -0.12629072
000250 f5 7d 65 bd 7e 88 f8 bd 98 21 71 3c f7 55 0d 3e
       -0.056028325 -0.12135409 0.014717482 0.13802324
000260 53 e3 11 be 68 a1 2d 3c 4e 70 af 3d 68 78 98 bd
       -0.14246874 0.010597564 0.08566342 -0.07444841
000270 c0 33 35 3e be 18 e8 bd 7d 41 a0 3b 4d d2 db bd
       0.17695522 -0.11332844 0.0048906193 -0.10733471
000280 60 f8 9a 3d 08 24 41 3c bf 73 98 3d 89 32 99 3d
       0.07566905 0.011788376 0.07443952 0.07480342
000290 85 2c bb bd d8 d6 d2 3c e0 8e 2a 3c 4a 9e 18 3e
       -0.09139351 0.025737211 0.010410041 0.14904132
0002a0 48 26 08 3e 9b 97 2b 3e c5 5a 9b bd 4f b2 9d 3d
       0.13295853 0.16757052 -0.07585672 0.07700025
0002b0 d2 43 96 bd a0 ed 29 3e 95 53 b3 bd ca a9 fc bd
       -0.073371544 0.16594553 -0.087561764 -0.12337072
0002c0 58 52 d2 3d a1 a9 e0 3d a3 0a 14 3d 1f c7 d6 3d
       0.10269612 0.10969854 0.036142956 0.10487198
0002d0 3f 39 07 3e 23 4b f1 3d 2e 63 c9 bd 0b 68 11 3e
       0.13205431 0.11781909 -0.0983337 0.14199845
0002e0 02 be bf 3d bf 6d b0 3c 19 3d 8f bd 56 86 f1 bd
       0.09362413 0.021536706 -0.06994075 -0.11793201
0002f0 33 c0 16 3e a6 5f 29 3e 00 96 9c bd 4d f4 0e bd
       0.14721756 0.16540393 -0.07645798 -0.034900952
000300 2e b1 b3 3d 9a de 20 be 3d 09 a5 bd 7d 27 e6 bd
       0.08774029 -0.15709916 -0.08058403 -0.112380005
000310 36 6c b9 bd 16 7f c8 bd 7d f9 fe bd ba 39 95 3c
       -0.09053843 -0.09789865 -0.1244993 0.018216003
000320 a2 5a d3 3c 88 9c 1d 3e 6c ec 08 3e 0b bb 80 bb
       0.025800053 0.15391743 0.13371438 -0.0039285473
000330 b7 db 0d bb 13 65 8f 3d ad 8f 0a be a9 a4 94 3d
       -0.0021645853 0.070017 -0.1353137 0.07257969
000340 47 57 25 3d 31 fa 64 bc 73 73 74 bc e4 9f 1f be
       0.040366437 -0.013975666 -0.014920103 -0.15588337
000350 6f db 1c bd 6b 1e 25 be 95 df b5 bc 12 75 0b 3d
       -0.038295206 -0.16124885 -0.022201339 0.034047194
000360 98 91 26 be ea 56 cb bb 98 88 db 3d 54 67 28 3e
       -0.16266477 -0.0062054293 0.107194126 0.16445667
000370 fd ca ff bd 1f ec 9f bd 1f 2a 0f 3e 7d c7 33 be
       -0.12489889 -0.078087084 0.13980912 -0.17556567
000380 e5 c1 93 bc b5 44 a1 bd 80 8c 57 3d a7 0c 0d 3d
       -0.018036792 -0.07874433 0.052624226 0.034435894
000390 f1 08 08 bc c8 c9 91 bc 84 e6 1e be 58 50 47 3d
       -0.008302913 -0.017796412 -0.15517622 0.048660606
0003a0 d0 43 10 be ee bc c6 3d d5 93 e5 3c d3 56 49 bd
       -0.14088368 0.09704004 0.028024593 -0.049155068
0003b0 98 d1 2c be ce 3c 1d 3e 06 68 3e bc b3 19 19 be
       -0.16876829 0.15355226 -0.011621481 -0.1495121
0003c0 f1 fc 56 3c 0f 4d 48 bd 80 31 df bc 5f 0f 18 3e
       0.013121829 -0.048901614 -0.027245283 0.14849614
0003d0 d6 b2 8c bd cb 64 e9 bd 50 0b 8a bd 5a ba a6 3c
       -0.06870048 -0.11396178 -0.06740439 0.020352531
0003e0 86 43 3a 3c 88 18 36 be 8b 49 24 be d2 3a e2 3d
       0.011368638 -0.17782795 -0.1604368 0.11046375
0003f0 52 49 d6 3d 5b e6 28 bd 08 16 70 bd 19 f0 00 3e
       0.104632035 -0.04123531 -0.05861476 0.1259159

lattice_net.4.bias f4 [32]
000000 c0 ae 9b bd e9 fc d9 3d cb 02 fd 3d 4b d9 ae 3d
       -0.0760169 0.10643942 0.12354048 0.08537539
000010 1c 58 d9 3d 9d e8 28 3d 9e 45 1c bc 4b 59 ee bd
       0.10612509 0.041237462 -0.009538082 -0.11638125
000020 62 ff 9d 3d ab bf b1 3c 25 84 42 3d d9 1e 31 be
       0.07714726 0.02169784 0.047489304 -0.17296924
000030 ae f3 8c bd cc 86 21 3e 25 41 0b be 52 12 ca 3c
       -0.06882416 0.15774077 -0.1359907 0.024666939
000040 93 94 2d 3e 52 2e a1 3d 29 96 29 3e 5b 4a 31 be
       0.16951208 0.07870163 0.16561188 -0.1731352
000050 e3 a8 bd 3d 97 f7 29 be 50 0a 35 be cb 54 31 3e
       0.09260728 -0.16598354 -0.17679715 0.17317502
000060 27 08 fa 3d 8d ef c9 3d 78 8a 49 3d 34 75 0f be
       0.12208586 0.09860144 0.04920432 -0.14009553
000070 84 2f f0 3c 05 a3 fb 3d 5c e4 86 3b 30 13 da bd
       0.029319532 0.12286953 0.004116578 -0.10648191

tNN.0.weight f4 [2]
000000 ae bb 7d 3f 36 08 7f 3f
       0.991145 0.99621904

tNN.0.bias f4 [2]
000000 55 5d 0d 3b d6 fb 95 ba
       0.0021570523 -0.0011442851

tNN.0.running_mean f4 [2]
000000 b5 f6 2a 3f 98 1b 40 40
       0.66782695 3.0016842

tNN.0.running_var f4 [2]
000000 de 15 aa 3e ff a0 ab 3d
       0.33219808 0.08380317

tNN.1.weight f4 [16, 2]
000000 d9 d1 b2 be 34 e0 b9 bd 58 80 0b bd af 09 31 bf
       -0.34925726 -0.090759665 -0.034057945 -0.691554
000010 53 40 1f bf a4 be 9b 3c 99 b3 b4 be 38 68 a9 bb
       -0.62207526 0.019011803 -0.35293272 -0.0051698945
000020 40 20 35 bd ea cb 21 bd 52 16 29 bf 8c ac 17 3e
       -0.04422021 -0.03950111 -0.66049683 0.14811915
000030 1f 5f b4 3e cb b1 0c 3d a1 68 3b 3c 3f 83 0b 3f
       0.35228822 0.034349244 0.01143852 0.5449714
000040 a1 ba 22 bd fe 05 8f be 54 a0 3f 3d 7c 1d 1e bf
       -0.039728764 -0.2793426 0.04678376 -0.6176374
000050 02 e9 cf be db 76 b0 be e1 28 09 3f 58 b3 ff be
       -0.40607458 -0.3446568 0.53578 -0.49941516
000060 31 9f 10 3d 3b 50 86 3e e4 a5 b7 be 36 40 23 3f
       0.035308067 0.26233086 -0.35868752 0.63769853
000070 f9 65 07 bf 7b d8 51 3e 89 99 7a 3d 95 e4 a7 3e
       -0.5288997 0.20492737 0.06118158 0.32791582

tNN.1.bias f4 [16]
000000 c6 20 b9 3d 1e 4b 8c bd 88 12 dc 3e b3 ed b4 3e
       0.09039454 -0.06850265 0.42982888 0.353376
000010 83 dc e3 be bb f8 e8 be b1 88 0a 3f b7 39 b0 3d
       -0.44504175 -0.45502266 0.54114825 0.08604758
000020 da e2 2f bf 69 49 cf be f7 08 81 3e 6c e0 28 bf
       -0.68705523 -0.40485695 0.25202152 -0.6596744
000030 66 cd 0f bf d2 26 bc 3e ed 34 29 3f f2 c1 b0 be
       -0.5617279 0.36748368 0.66096383 -0.3452297

tNN.3.weight f4 [32, 16]
000000 ff 58 df 3c 06 78 ef bd f2 d9 1c 3d 60 c6 17 bd
       0.027264116 -0.116928145 0.038293786 -0.03705442
000010 54 37 6e be 92 c6 e2 3d c0 7a 66 be 47 1f ec bd
       -0.23263294 0.110730305 -0.22507763 -0.11529403
000020 97 d1 28 be f0 63 be 3d 07 29 cc 3d 53 96 92 3d
       -0.16486202 0.09296405 0.09968763 0.07157578
000030 de c9 4c 3e b8 36 4f be 15 7f 1c be 16 a0 fc bd
       0.19998881 -0.20235717 -0.15282853 -0.123352215
000040 41 a5 e4 bd f9 d5 f9 3c 5a c5 56 3e bd 8b 30 3e
       -0.11164332 0.030497538 0.20973721 0.17240806
000050 9a ed 0f 3e eb a9 3b 3e 6a 43 62 be dd 69 23 3d
       0.14055482 0.18326537 -0.22096029 0.03989588
000060 17 47 26 3e 35 03 30 3e 10 f9 43 3d c7 b0 11 be
       0.16238056 0.17188723 0.047844946 -0.14227591
000070 86 be 9e bd 3f c9 2a 3c ae e0 a8 3d 7d 17 33 3d
       -0.07751183 0.010423957 0.08245979 0.043723572
000080 03 9c 0d be 5b a7 95 bc 7f a7 59 be 3a e3 b4 3c
       -0.13829045 -0.018268278 -0.21255301 0.022081006
000090 68 e0 0c 3e 8c 0e df bd dc df 3c 3e 09 f7 1e be
       0.13757479 -0.108914465 0.1844477 -0.15523924
0000a0 e8 45 65 3e 65 66 0a be 1b 9b 08 3d 68 ed 0b 3e
       0.22389948 -0.13515623 0.033351045 0.13664782
0000b0 f1 c8 01 3b 7d 12 59 3d 9c 8e 98 bd 35 15 33 3d
       0.0019803608 0.052996147 -0.074490756 0.043721396
0000c0 da 3e 77 3d 4f 31 5c 3e 37 56 d5 3d 5a 8e 40 bd
       0.060362674 0.21503185 0.10416835 -0.047010757
0000d0 8a e0 68 3e 5c 36 04 be 51 c1 89 3c b7 58 41 3e
       0.22741905 -0.12911361 0.016815813 0.18881498
0000e0 52 9f 67 3d 73 fa 52 be 14 dc 78 bd 43 1b 06 be
       0.056548424 -0.20603351 -0.060756758 -0.13096337
0000f0 af 42 d9 3d df 1c 1e 3e 25 98 aa 3d b2 b3 32 3e
       0.10608422 0.15440701 0.083298005 0.17451361
000100 b7 b0 ce bd 6c 66 0b be b1 d1 16 3e 03 0c 32 3e
       -0.100922994 -0.1361329 0.14728428 0.17387395
000110 da 5f 70 bd e4 87 88 bd 63 7a f4 bd b9 72 74 be
       -0.05868516 -0.06666544 -0.11937406 -0.23871888
000120 92 24 48 be 97 3e 12 3e 4e 55 7d be df 1d 50 3e
       -0.195452 0.14281689 -0.24739572 0.20323895
000130 f4 be 58 3b f8 1b ed 3d e8 63 07 be cb 54 95 3d
       0.0033072801 0.115776 -0.13221705 0.072915636
000140 c0 2e 12 be 79 91 8a bd 30 69 d9 3b 99 95 4c be
       -0.14275646 -0.06766028 0.006634854 -0.19978942
000150 5a 06 06 be 81 7f 15 3e 51 20 ea 3c f1 94 39 bb
       -0.1308836 0.1459942 0.028579863 -0.0028317536
000160 06 76 72 be fb 3a 3b 3d e2 0d 86 3d 44 b7 bb 3d
       -0.23677835 0.045710545 0.06545617 0.091658145
000170 e5 ef be bc ef 0c 3c 3c 52 6e 20 be 32 c2 37 3e
       -0.02330775 0.011477693 -0.15667084 0.17945173
000180 01 b3 0e 3e a4 dd 10 3e 3f 8c 0a be d3 44 f3 3d
       0.13935472 0.14147049 -0.13530062 0.118783616
000190 5e d1 eb 3c d5 a7 f7 bd 81 f7 12 3e e2 77 36 bd
       0.028786357 -0.12092558 0.14352228 -0.044547923
0001a0 3d 3d 79 3e e0 32 ad bd 35 19 69 3e 3a 3b 22 bd
       0.24339767 -0.08456969 0.22763522 -0.039607264
0001b0 ac d6 7f 3e 5a fe 43 be 41 a0 3a 3e f6 a6 64 3e
       0.24984235 -0.19139996 0.18225195 0.22329316
0001c0 e9 39 30 3e e7 34 db 3d 08 d0 32 bd 86 85 3b be
       0.17209591 0.1070345 -0.043655425 -0.18312654
0001d0 05 33 c3 bd 6c 15 7c be 36 f0 50 3e 20 a8 7d 3e
       -0.095312156 -0.24617547 0.20404133 0.24771166
0001e0 02 13 30 bd 8c 25 6d 3e 81 e6 7d be 00 f5 e1 bd
       -0.042986877 0.23158854 -0.24794962 -0.11033058
0001f0 ff 58 00 be 18 54 24 bd 53 b0 6a 3e 76 01 d0 3c
       -0.1253395 -0.04011926 0.22918825 0.025391322
000200 ed 90 b0 bd ef e2 65 3d 3b 09 e5 3d 38 de 4c bd
       -0.086213924 0.056124624 0.11183401 -0.05001661
000210 60 8c 54 3e 78 f5 ff 3d 1c 86 2f b9 84 c7 0f be
       0.20756674 0.12497991 -0.0001673926 -0.14040953
000220 dc a2 09 3e a1 b7 4f be a2 35 32 be 46 2d 65 be
       0.13441032 -0.20284893 -0.17403272 -0.22380552
000230 08 0a 1d be b2 84 d6 bc 0d e5 7f bd de ed 35 be
       -0.15335858 -0.02618632 -0.0624743 -0.1776652
000240 96 3f 14 be a3 00 06 3e e7 8e 4b be 34 29 0f 3d
       -0.14477381 0.1308618 -0.19878732 0.034951404
000250 9b 4e c7 3d 0c 05 14 3e b9 1f 01 be de 9b 8c bd
       0.0973179 0.1445505 -0.12609757 -0.06865667
000260 fc a5 9c 3c a6 5d de 3d a3 8c ab bc 1e 7f 37 3e
       0.019122116 0.10857706 -0.020941084 0.17919585
000270 95 66 b0 bc 9b 07 78 be 11 87 f2 3d c7 bb b5 bd
       -0.02153329 -0.24221651 0.11842168 -0.08873706
000280 e8 a8 5b 3e 97 4a 90 3d 11 2e 47 3d 2e 17 ef bd
       0.21451151 0.07045477 0.048627917 -0.11674343
000290 ff af 28 3e 6b a4 9a 3d 05 67 49 3e 70 60 81 3d
       0.16473387 0.075508915 0.19668205 0.06317222
0002a0 13 15 00 bc b7 7c 99 3c a1 28 62 bd 2b 92 5c 3d
       -0.0078175245 0.018736226 -0.055214528 0.053850334
0002b0 17 25 8c bd 0f 4e f4 bc 1c b2 6f 3e 76 df 7e 3d
       -0.06843012 -0.029822377 0.23407787 0.062224828
0002c0 91 ad 3d be 61 eb 59 3c c6 5a 50 be 4e 5e 05 3e
       -0.18523242 0.013300748 -0.20347127 0.13024256
0002d0 84 44 65 3e 4a b3 34 3e da ae 44 3d 08 b8 30 be
       0.22389418 0.17646518 0.048018314 -0.17257702
0002e0 00 03 b1 bd 3d e9 44 3d d2 50 65 3e 8e 4c 3b be
       -0.0864315 0.048073996 0.22394112 -0.18290922
0002f0 82 7f 0f 3d d0 dd 60 3e f4 59 0d be 1a c8 cd bd
       0.03503371 0.21959615 -0.13803846 -0.10047932
000300 31 d7 de 3b 5d 81 0e 3e 9d 06 45 be e3 9f 17 3e
       0.006800555 0.13916536 -0.19240804 0.14807086
000310 ca 09 01 3e a1 ee 35 be 35 67 67 be c8 e7 9d 3d
       0.1260139 -0.17766811 -0.22597964 0.077102244
000320 7e a4 07 ba 5d e8 b0 3d 2f 67 75 bc 4b d5 0f 3e
       -0.00051743526 0.0863807 -0.014978214 0.14046209
000330 d1 a9 74 3c 9c 70 f0 3d b0 ed ed bd fa f1 dc 3d
       0.0149330655 0.117402285 -0.11617601 0.10788341
000340 d8 c4 6f bd 77 75 93 3c c7 fa f5 bc c0 8f 32 bd
       -0.058537334 0.018000348 -0.030026807 -0.043594122
000350 b6 fe 0b bd 62 30 7d 3e 04 08 62 be 73 2a 31 3e
       -0.03417846 0.24725488 -0.2207337 0.1730135
000360 19 2d 34 bd d3 d2 40 3e 4c e6 cd bd bf d9 74 3c
       -0.04398832 0.18830423 -0.10053691 0.014944493
000370 ec e0 39 be 06 fb 88 3d a3 56 9d bd 66 79 f6 3d
       -0.18152207 0.06688504 -0.0768254 0.12034874
000380 b2 5c 3c be 00 11 eb 3d ba d2 60 3e 36 b7 4f 3e
       -0.18394735 0.11477852 0.21955386 0.20284733
000390 77 5c 0a 3e ac 1e 42 3e 41 31 58 3e 87 1b 58 3e
       0.13511835 0.18957013 0.21112539 0.21104251
0003a0 1b 47 fe bd 8c be 1c 3e b1 38 db 3d f7 40 5f bd
       -0.12415906 0.15307063 0.107041724 -0.054505315
0003b0 aa b7 77 3e 64 7b 1a 3e ca 7b 05 3c 5e 35 1e 3e
       0.24191156 0.15086132 0.008147189 0.15450045
0003c0 55 9a 42 be 83 86 02 3a bc 9d b0 39 ac 21 2d 3e
       -0.19004185 0.000497915 0.00033686857 0.16907376
0003d0 19 41 21 3e f6 5f 14 3e 8c e3 d9 3c 26 07 49 3e
       0.15747489 0.14489731 0.02659776 0.19631633
0003e0 1b d2 22 3e 3f 95 7c 3e 48 88 72 3e 94 c8 35 be
       0.15900461 0.24666308 0.236848 -0.17752296
0003f0 9a c7 fd 3c 4e 23 27 3e 00 69 25 3e d7 3c 16 3e
       0.030978967 0.16322061 0.16153336 0.14671646

tNN.3.bias f4 [32]
000000 fa 8a bc bc c8 44 5a bd fd f6 ec 3d 41 f1 72 3e
       -0.023015488 -0.05328825 0.11570547 0.23724844
000010 a5 d4 f8 bd 31 1c 4d 3e 3d 76 6d 3e b4 d1 b5 bc
       -0.12149934 0.20030285 0.23189636 -0.02219472
000020 37 79 cd 3d 7b 2e 6e 3e b6 9f 4d 3e 3b c1 44 3e
       0.100328855 0.23259918 0.20080456 0.19214337
000030 fa de 9b 3c 25 95 9b 3d 5f 07 69 3e b6 d0 06 3e
       0.019027222 0.075968064 0.22756718 0.13165554
000040 d7 ce ba 3a 01 8e 63 3e 78 d4 3f be b3 31 70 3e
       0.0014252317 0.22222139 -0.18733394 0.23456459
000050 86 01 d8 3d 28 b3 05 3e f3 f6 35 bd 24 45 1f 3d
       0.105471656 0.13056624 -0.044424962 0.038884297
000060 f1 12 9d bd 78 6d 27 3e 6f 6d fc bd b1 5a 25 3e
       -0.076696284 0.16350353 -0.1232556 0.16147877
000070 d1 2b 5c 3e c6 5f 69 be 79 79 5f be dd a9 1a 3e
       0.2150109 -0.22790441 -0.21823682 0.1510386

tNN.5.weight f4 [64, 32]
000000 df 5c a8 bd 5b 71 0f be 85 7e ce bd 7e fd 04 be
       -0.08220839 -0.14008085 -0.100827254 -0.12987325
000010 00 72 c4 bb 4a 7b 23 3e 65 d4 89 3c 60 d4 6b bc
       -0.005995035 0.15965 0.01682491 -0.014393896
000020 80 e6 fc 3c 25 42 17 bd fc e6 0f 3e c8 12 01 be
       0.03087163 -0.036928315 0.14052957 -0.1260482
000030 0f 6e b1 bd 56 7c f3 3c 3f 08 2e bd b4 d4 d9 bd
       -0.0866357 0.029722374 -0.042488333 -0.10636273
000040 3d ae 1a be d3 a3 2c 3e 0c 84 30 3d 8f 89 03 3e
       -0.15105529 0.16859369 0.04309468 0.12845443
000050 51 05 02 3e 43 4d 25 be 11 bd b7 bd 87 97 e4 bc
       0.1269734 -0.16142754 -0.089716084 -0.027904285
000060 8f 9b 16 3e 4f 0c fe 3d 51 89 c1 bd 21 2d 0d be
       0.14707778 0.124046914 -0.09450019 -0.13786747
000070 06 05 bf 3d a4 ab 2c 3e 74 e0 32 3d c3 c2 1a 3e
       0.0932713 0.1686235 0.043671086 0.15113358
000080 9b 62 d2 3d 06 d6 86 3d b7 46 de 3d d8 11 ae 3d
       0.10272714 0.065837905 0.108533315 0.08499497
000090 70 b9 86 bd d5 8b 33 3c 74 65 6d bd d1 d4 01 be
       -0.06578338 0.0109586315 -0.05795808 -0.1267884
0000a0 47 29 67 3d c4 3b 33 be ff ee 16 be e8 b0 a8 3d
       0.05643585 -0.17503268 -0.14739607 0.08236867
0000b0 24 17 25 3e 49 20 86 bc 48 56 95 3d f6 b3 4f bd
       0.16122109 -0.016372817 0.072918475 -0.050708733
0000c0 6a 8a 9c bc 75 dd 27 be 48 a6 9a 3d 0a 15 75 bc
       -0.01910897 -0.16393073 0.07551247 -0.014958629
0000d0 09 2e 03 3e d9 69 ab bd c9 3d a6 3d 04 58 0c 3e
       0.1281053 -0.08369798 0.08117253 0.1370545
0000e0 ae 55 b9 3d 9f 78 a8 bc fc ba a7 3d ca f6 fd bc
       0.09049545 -0.02056533 0.08189961 -0.031001467
0000f0 62 c6 76 bd 34 7b 0e 3e 29 b0 1f 3e 64 27 d9 3d
       -0.060247786 0.13914186 0.15594544 0.10603216
000100 e3 bb 1b 3e 18 4b 1c bc 12 a1 7b 3c 3f 38 d6 3d
       0.15208392 -0.009539388 0.015358226 0.10459947
000110 39 a8 32 be c5 45 83 bd 95 40 98 bd 85 3b cc bc
       -0.17446984 -0.06409792 -0.07434193 -0.024930725
000120 fe 3a 0e 3e 78 d4 e4 3c 7d 2d 2a bd 8d 52 c8 3d
       0.13889691 0.027933344 -0.041547287 0.0978137
000130 72 6b bf bd b0 77 94 bd 1f 47 9c bd 73 73 b4 bd
       -0.093466654 -0.07249391 -0.07630753 -0.08811083
000140 32 ea e5 3d c5 12 87 3d 42 3b 84 3c 7d 08 a8 bd
       0.1122631 0.06595377 0.016141538 -0.08204744
000150 4b 60 1e 3e a6 04 d2 bd 40 6e 82 bd 4a 41 1c 3e
       0.1546642 -0.10254793 -0.06368685 0.15259281
000160 8e 20 0a be 24 02 30 3e 58 c9 94 bd 15 d2 23 bd
       -0.13488981 0.17188317 -0.07264966 -0.03999527
000170 94 91 1a 3e 91 31 07 be ec aa 81 3d 67 fa df 3d
       0.15094596 -0.13202502 0.06331429 0.10936432
000180 57 a2 a9 3d 12 28 26 be 47 63 22 3d 29 30 95 bd
       0.08282917 -0.16226223 0.03964546 -0.072845764
000190 ab ed bc 3c 97 6a 2d bd 08 37 ed bd bf ca 01 3e
       0.023062548 -0.04233798 -0.11582762 0.12674998
0001a0 b5 9b 94 bc d4 9f d1 bc f3 45 a3 bd 77 76 9b 3d
       -0.018140653 -0.025588907 -0.07972326 0.07590955
0001b0 b8 b6 14 be 9f 43 64 bd 01 7c 99 bd e2 74 25 3e
       -0.14522827 -0.05572855 -0.07494355 0.16157869
0001c0 a4 85 c5 bd 28 f9 91 bd 8f c7 8a 3d 8e 9b 40 bd
       -0.096446306 -0.07127601 0.06776344 -0.04702335
0001d0 d1 42 7b bc 01 ad 1d 3e ca 0b 0b 3e c4 f1 aa bd
       -0.0153357545 0.15398027 0.13578716 -0.083468944
0001e0 d4 7f 36 ba 7f 3a a9 bd 43 14 e5 bc b0 f7 2f 3e
       -0.0006961797 -0.0826311 -0.027963763 0.17184329
0001f0 fd 30 03 3c 75 0d 31 bd c7 52 0f 3e 1c 2c 11 be
       0.008007285 -0.043225724 0.13996421 -0.14176983
000200 c0 db 00 be 65 44 82 3d d3 d8 cb 3d 08 96 e5 3d
       -0.12583828 0.063607015 0.09953465 0.11210257
000210 28 da eb bc 40 91 9d bd 67 db 53 bd 2e 93 1d 3e
       -0.028790548 -0.0769372 -0.05172291 0.15388176
000220 0b 46 fb 3c 9a 38 27 3e f1 e7 0d 3e 11 e5 10 3d
       0.030673048 0.16330186 0.1385801 0.035374705
000230 38 0b b0 3b c2 40 20 be 37 69 1d 3d 4c 74 e9 bd
       0.005372431 -0.15649703 0.03843042 -0.11399135
000240 8e a4 1f be 22 1f 2e bd 5e 81 24 be 07 68 9e bd
       -0.15590116 -0.04251016 -0.16064975 -0.077346854
000250 5f ec 24 3e d0 f4 33 3e ea 81 e9 3d 38 dc a5 bd
       0.16105793 0.17573857 0.11401732 -0.08098644
000260 de 2e 09 be b5 34 cf bd 9c fc 31 3c 31 84 12 be
       -0.13396785 -0.10117475 0.010863449 -0.1430824
000270 c1 85 0c bc 16 b7 b9 3c 24 a3 16 be e6 b5 1c 3e
       -0.008576811 0.02267031 -0.1471067 0.15303764
000280 3c a5 52 bd aa 5f 20 3e fc eb cd bd 6a 36 79 bd
       -0.05142711 0.15661493 -0.10054776 -0.06084291
000290 42 5e 6d bd 94 59 3f bc 60 28 cd 3d d5 ca ce bc
       -0.05795122 -0.011679072 0.100174665 -0.025243202
0002a0 8c b6 8c 3d f6 76 f3 3c d6 62 0f be b1 a5 e0 3d
       0.068707556 0.029719811 -0.14002547 0.10969103
0002b0 86 05 96 bd a0 ce fa bd 7a ae f8 3d d9 b9 43 bc
       -0.07325272 -0.12246442 0.12142654 -0.011946165
0002c0 4c ca 0b be fd 86 aa bd fd 76 91 3d 62 a6 67 bd
       -0.13651389 -0.08326528 0.07102773 -0.05655516
0002d0 92 46 ed bc 35 d5 28 be de 25 e5 bc 53 23 01 3e
       -0.028964315 -0.16487582 -0.027972158 0.12611131
0002e0 20 46 0c 3e d2 c2 8a ba b5 0a 3a bd f6 37 14 3e
       0.13698626 -0.0010586625 -0.045420367 0.14474472
0002f0 3a 13 a6 3d bf db f0 bd 6f 16 a5 3d b6 bf 97 bc
       0.08109136 -0.11760663 0.080609195 -0.018524032
000300 64 97 a7 3d 0b 88 3c 3d fe 31 2a 3e d1 26 0b 3e
       0.08183172 0.04602818 0.16620633 0.13589026
000310 94 e6 f7 3d 52 47 39 bd e0 b9 f5 3d 7e d7 97 3d
       0.12104526 -0.045234032 0.119983435 0.07414149
000320 ef 78 9b bd 3e 25 9d 3d 06 6e a4 3d 1d 55 f5 bd
       -0.075914256 0.07673119 0.08028798 -0.11979125
000330 db 7a 45 bd 51 23 9f bd 52 68 d3 bd c1 a4 90 3d
       -0.048212867 -0.07770408 -0.10322632 0.07062674
000340 9b 39 82 bd ff b9 cf bd cc d3 02 be e2 8f e0 bd
       -0.063586436 -0.10142898 -0.12776107 -0.109649435
000350 da e2 72 bd bb 0b 1f be 7c 96 f3 bd 94 2a af bc
       -0.059298374 -0.15531819 -0.11893937 -0.021382608
000360 4b 74 fe bd a5 e2 1f 3e 1e 7a 01 3e 7f cf 1b 3e
       -0.12424525 0.15613802 0.1264424 0.15215872
000370 28 fa bb 3d dc 85 66 bd 24 fa 1c bd 7b 63 56 3d
       0.09178573 -0.056280002 -0.03832449 0.052340966
000380 7b 1f c1 bd f5 04 e7 bd 8f 23 2c 3e e2 e9 0f 3e
       -0.094298325 -0.11280242 0.1681044 0.14054063
000390 8b c2 b1 3c 17 ad 1c be aa f8 8e bc fc 7c 1e be
       0.02169921 -0.15300404 -0.017452557 -0.15477365
0003a0 0f 7a a4 3d 5d f4 88 bd 40 dc e7 bc 83 32 c3 bd
       0.08031093 -0.066872336 -0.028303266 -0.09531119
0003b0 c4 01 63 bd e4 3d ed bd 63 4c f6 bd 30 8f 7c 3d
       -0.055421606 -0.1158407 -0.12026288 0.06165999
0003c0 29 a0 1d bd dc a0 bc bd 74 35 8c 3d 3d 45 a8 3c
       -0.03848282 -0.09210369 0.06846133 0.020540828
0003d0 00 10 cd bd f6 c0 09 bd 99 9c 65 3d 91 ba 6c 3d
       -0.100128174 -0.033631288 0.056057546 0.05779511
0003e0 a3 c1 d6 3d fb 9f f7 3d 18 fa 30 3e 5f d0 d8 bc
       0.10486152 0.12091061 0.17282903 -0.026466547
0003f0 d2 1e 35 3e 4a df 0d be cc 01 0c 3e 9c 13 f5 3d
       0.17687538 -0.1385471 0.1367256 0.11966631

tNN.5.bias f4 [64]
000000 c4 c8 be 3d 9b 4f d8 3d 5d 24 de bc 46 61 19 3e
       0.09315637 0.105620585 -0.027116949 0.14978513
000010 a7 d5 f2 bd f8 79 ed bb b1 b1 90 bd be c1 24 be
       -0.11857157 -0.007247206 -0.07065142 -0.16089532
000020 af 10 e6 3d de 23 05 3e c2 8d 2e be 25 f0 f3 bd
       0.11233651 0.13001963 -0.17046264 -0.11911038
000030 6a b7 ec 3d 9f 87 1b 3e b9 1e 46 3d 39 c6 2b 3e
       0.11558421 0.15188454 0.048369143 0.16774835
000040 4b a6 7b 3d c5 dd b9 3d a3 a4 19 be 7f 93 ba bc
       0.061437886 0.09075502 -0.1500421 -0.02277541
000050 c3 5f 13 be d9 56 d3 bd 74 25 09 3e 60 b7 1a 3d
       -0.14391999 -0.10319299 0.13393193 0.037772536
000060 21 8b b5 3d 96 1b 05 3d f0 67 52 3d 46 14 31 3c
       0.08864427 0.03249701 0.051368654 0.010808056
000070 f9 55 0d 3b 06 f8 19 3e cf 1c ed bd 42 ac a6 bd
       0.0021566136 0.1503602 -0.115777604 -0.08138324
000080 b5 f5 10 bd c2 7c f9 3d ed 85 2e be b9 07 28 3e
       -0.035390574 0.12181999 -0.17043276 0.16409196
000090 0a 9e e1 bd 1a 56 2d be 8f 7f 8b bc ce c5 06 be
       -0.11016472 -0.16927376 -0.017028598 -0.13161394
0000a0 29 41 88 bc a8 ba 2d bd f7 3a fa bd a4 dd 15 be
       -0.016632633 -0.042414337 -0.12218278 -0.1463533
0000b0 08 50 6f bd ef 14 cb 3d 01 49 15 be 92 2d 30 3e
       -0.058425933 0.09916102 -0.1457863 0.17204884
0000c0 55 c8 6d bd 24 58 f9 3d 73 2f 5b 3c a7 fc d7 bc
       -0.05805238 0.121750146 0.013378012 -0.026365591
0000d0 b2 25 d4 bd 8e bf dd 3c 28 ee 22 3e a5 4f 6d 3d
       -0.10358752 0.02706888 0.15911162 0.057937283
0000e0 57 79 b8 bc a5 3e d1 3d c7 65 19 bd eb 63 0f 3e
       -0.022518797 0.102170266 -0.037450578 0.1400296
0000f0 e9 f4 e9 bc 45 7d 86 bd a8 d8 45 bc d2 ff 87 3d
       -0.028559165 -0.06566862 -0.012075581 0.06640591

psi.0.weight f4 [128, 288]
000000 48 ce 94 3b 81 df 01 bd 3e fc 69 ba 64 9d e9 3c
       0.004541192 -0.03170729 -0.00089258316 0.028517433
000010 fd cb 3c bd 33 61 6a 3d 01 60 ea 3c 31 ab 61 bc
       -0.046092976 0.057221603 0.028610231 -0.013773725
000020 5d ba 23 bc e9 79 23 bd da 57 80 3c 02 54 cf 3c
       -0.009993163 -0.039911184 0.01566689 0.025308613
000030 28 5d 8e bc 90 ff 31 bb 3b e7 d7 3a 23 5a 2b 3d
       -0.017378405 -0.0027160384 0.001647211 0.041834008
000040 06 4d 06 3a a0 12 07 bb 41 0e 61 3d 93 a8 f1 3b
       0.0005123172 -0.0020610467 0.054945234 0.007374832
000050 e9 ac 4d 3d 7e 96 67 3d 25 73 4b 3c 01 ee b1 bc
       0.050213728 0.056540005 0.012417589 -0.021719934
000060 4d 35 5b 3c 27 8e 56 3c f5 ca 43 3a c4 41 24 3c
       0.013379407 0.013095415 0.00074689026 0.010025445
000070 0c 9a 17 3d fa 5e a9 3c de e3 29 bc 36 6b a9 b8
       0.037012145 0.020675171 -0.010369269 -8.0785176e-05
000080 83 da bb 3b a3 c5 5a bd fc f3 2b bd 5f 6c 44 bb
       0.0057328357 -0.053411137 -0.04198073 -0.002997182
000090 e9 b0 be bc bc 83 bd 3c f7 99 32 3c fa df a4 bc
       -0.023277717 0.023134105 0.010900966 -0.020126332
0000a0 b2 a6 3d 3d 77 74 0f 3d 46 54 63 3d 6e 75 21 bd
       0.04630155 0.03502318 0.05550029 -0.03941863
0000b0 42 f2 b6 3c cc 1e 60 bc 2b b2 37 bd c4 18 00 3c
       0.022332314 -0.013679218 -0.04484765 0.007818405
0000c0 bf 51 03 3d 08 95 f3 3c 4a d7 12 bd c6 2f 4b 3d
       0.03206038 0.02973415 -0.035849847 0.049606107
0000d0 31 26 46 3c 5f 6f 5e bd 9a f0 1c 3d 8d 82 d3 3c
       0.0120940665 -0.05430543 0.038315393 0.025819087
0000e0 63 b1 c9 3c 5d 2c 21 3d 31 58 0f 3d 6f bd 79 bc
       0.024620717 0.03934895 0.034996215 -0.015242918
0000f0 2d f5 49 3d 14 8a 54 bc 95 c1 66 3d c7 6e 50 bd
       0.049306083 -0.0129723735 0.056336958 -0.050886896
000100 a0 2c 5e bd dc ed 1c bd 54 67 0e 3c 23 09 61 3d
       -0.054241776 -0.038312778 0.0086916275 0.054940354
000110 f8 49 17 bd 03 f5 53 3d 54 b8 c5 3c 21 14 69 bc
       -0.036935776 0.051747333 0.024135746 -0.0142259905
000120 e6 05 3d 3c 6c 81 41 3d 5c 4c ca bc 57 61 f8 3b
       0.011537051 0.047242567 -0.024694614 0.007579963
000130 a2 2c ca b6 4e 70 d8 3c 11 67 6f 3d f9 0f 66 bc
       -6.025265e-06 0.026420739 0.0584479 -0.014041894
000140 06 48 aa 3c 4e 0f 40 bd de 35 2b 3a 7a cb 29 3d
       0.020786297 -0.046889596 0.0006531159 0.041453816
000150 a7 2f a2 bc 89 e7 03 bd e8 5d 05 bc f5 ac 80 bb
       -0.019798113 -0.03220323 -0.008140065 -0.003926868
000160 b5 81 0d 3d f2 e9 48 bd 77 76 25 3d 9c 7b 0b 3c
       0.034547526 -0.049051233 0.04039618 0.0085133575
000170 14 e7 0d bd e1 73 00 bb 78 56 48 bd 57 53 ac 3c
       -0.0346442 -0.001960032 -0.048910588 0.021035833
000180 9a 1a 85 3b 0f b8 97 bb f5 da d4 bc 92 b4 5d 3d
       0.004062009 -0.004630096 -0.025983313 0.054127283
000190 80 66 c6 bc 59 b1 1b 3d 11 87 70 bd a8 fc db bc
       -0.024218798 0.03801093 -0.05872256 -0.026853874
0001a0 a4 22 ef 3c 79 72 d1 3c 5b 42 52 bd 5d 7c 44 bd
       0.029191323 0.02556728 -0.051332813 -0.047970165
0001b0 cf f5 84 3c bc 6b 8c bb 54 1e f1 bc 0f 82 6a bd
       0.016230492 -0.004285304 -0.029433407 -0.05725294
0001c0 e8 ca a9 bc 2b a2 55 bc b2 8d dd bc b6 c9 0d bd
       -0.020726636 -0.013039152 -0.027045105 -0.034616195
0001d0 61 6a f3 38 dd 91 6b 3c 11 a3 5c bd aa 76 63 3b
       0.000116069576 0.014378038 -0.05386645 0.003470818
0001e0 73 a6 39 3d e9 d8 a0 3c d1 0c 82 3c a8 2d 0e 3b
       0.045324754 0.01963468 0.015875252 0.0021694694
0001f0 4c e8 41 bd 4b b4 60 3c 97 e7 c7 3c 29 0a 77 3c
       -0.047340676 0.01371486 0.024402423 0.015078106
000200 5d c1 34 bb ae c7 e9 3b a3 7b b2 bc e8 32 67 3d
       -0.0027581074 0.0071343994 -0.02178747 0.056445032
000210 b2 71 1c 3d 16 29 04 3d b6 87 f7 bc 34 9c c9 3b
       0.038194366 0.032265745 -0.03021608 0.006152654
000220 cd 15 cb 3c 8a f3 34 bc b5 6e d1 bc 36 5b e7 3c
       0.024790669 -0.011044392 -0.025565485 0.028241735
000230 1c 0a 0a bd 73 3b 4e bd bb ed ad bb b8 3e 65 3c
       -0.033701047 -0.050349664 -0.0053078807 0.013992004
000240 63 81 09 3d e6 a5 26 3d 14 47 39 3c 55 4f 39 bd
       0.03357066 0.040685557 0.01130845 -0.045241673
000250 eb 17 af bc 11 7b 1c 3d 44 30 0d bd 15 1c 9e bb
       -0.02137371 0.038203303 -0.034469858 -0.004825125
000260 8a 39 42 bd 31 f0 2a 3c 7b 95 3a 3b 39 88 30 bd
       -0.047418155 0.010433243 0.0028470445 -0.043098662
000270 49 34 cc bb 27 a9 e4 bc 1b d8 cc bb 6c 9c 1c bd
       -0.006231819 -0.02791269 -0.0062513477 -0.038235113
000280 b9 84 a8 3c 43 31 de 3c ac ba be 3c 6f 0e ab 3b
       0.0205711 0.0271231 0.023282371 0.0052202265
000290 29 af e9 bc 0f 08 c3 bc 59 54 10 bd b1 aa 04 bd
       -0.028525906 -0.023807554 -0.03523669 -0.032389347
0002a0 b1 1d 52 bd c8 9c 1b ba 9e 26 10 bd a9 16 02 bd
       -0.051297847 -0.0005936143 -0.03519308 -0.03175989
0002b0 12 10 00 bd 80 e1 6b bd f2 08 20 bd 0f 03 11 3d
       -0.031265326 -0.0575881 -0.03907103 0.035403308
0002c0 96 62 a7 3c 91 b0 42 3d 7a b7 9a bc b1 ee 1e bd
       0.020432752 0.047531668 -0.018886317 -0.038801853
0002d0 87 81 1f bd 81 97 02 3d 64 23 c9 bc 0a 97 21 3d
       -0.038941886 0.031882767 -0.024553008 0.039450683
0002e0 d7 f7 3c 3d f6 f8 5e bd bb 80 c0 bc 5d bd 06 bd
       0.046134796 -0.054436646 -0.023498883 -0.032895435
0002f0 a8 b8 18 3d 54 c8 12 bc cc de 2d bd 5f c1 bd bc
       0.037285477 -0.008958895 -0.042448804 -0.023163496
000300 11 b1 ff 3c f6 66 37 bc c8 4d 12 3d 46 0b 16 bc
       0.031212362 -0.011193981 0.03571871 -0.009157961
000310 fd 1c 2e bd 1f 1f 3b 3d 91 99 3c bc 49 87 25 3d
       -0.042508114 0.045683976 -0.011511222 0.04041222
000320 54 94 07 3d 13 9e 80 bb e7 b7 6d 3c 75 c5 2f 3c
       0.03310044 -0.003925094 0.014509178 0.01072823
000330 6b a7 b5 bc 30 b0 cb bc 2f 26 f1 bb 99 7f 07 3d
       -0.022174558 -0.024864286 -0.007359288 0.03308067
000340 05 e6 e6 3c 5f e9 e3 bb d0 74 05 bd 23 6b 26 3d
       0.028185854 -0.0069553102 -0.032582104 0.040629517
000350 a9 fa c3 bc 0b 67 b3 3c 72 60 42 3d cc f6 59 bd
       -0.023923235 0.02189972 0.04745526 -0.05321388
000360 fd c8 c4 bc ef b5 49 ba b7 5a 0e 3d 31 8a b1 3b
       -0.02402162 -0.0007694652 0.03475448 0.005418085
000370 0b 78 0f 3d e4 f3 26 bd 79 96 c0 3c e0 3d 41 bb
       0.03502659 -0.040759936 0.023509251 -0.0029486343
000380 60 26 b5 bc 27 49 19 3d 34 ee ae 3c 0e 11 fd bc
       -0.022113025 0.03742328 0.021353818 -0.030891921
000390 78 92 23 3c 2d df 31 bd 40 84 33 bd 2a c7 49 bd
       0.009983651 -0.043425728 -0.043827295 -0.049262203
0003a0 65 a7 f7 3c fb 0d 5a bc 59 7f b8 bb 1c 17 49 bd
       0.030231187 -0.013308997 -0.0056304154 -0.049094304
0003b0 51 3f 14 bd 35 90 35 3d 32 0e 5b bc f8 ad 11 3d
       -0.036193196 0.04432698 -0.013370084 0.0355663
0003c0 28 61 ef 3c e8 17 2f bd 7e 1e 77 bd 18 41 4d 3d
       0.029221132 -0.04274741 -0.060331814 0.050110906
0003d0 de 9e 26 bd 20 31 2c bd ee 91 3a bd ed 00 3e bd
       -0.04067885 -0.042039037 -0.045549326 -0.0463876
0003e0 8d 4d ed 3c 1f 7f 5e bd d2 b5 a1 bc 8a 72 bd bb
       0.028967643 -0.05432045 -0.019740019 -0.0057814764
0003f0 a1 f4 1b 3d d8 e0 21 bd bb d6 0c bd 3d bf 58 bc
       0.038075093 -0.03952107 -0.03438447 -0.0132291885

psi.0.bias f4 [128]
000000 95 9c 42 3d 1f 73 04 3d d7 ee fa 3c 92 21 63 bd
       0.04751261 0.03233635 0.030631466 -0.055451937
000010 f2 f6 08 bd 9c 84 3d bc 0f 3f c4 bc 70 ce 59 3d
       -0.03343863 -0.011567261 -0.02395585 0.05317539
000020 f1 42 08 3d 59 ac 31 bc a1 68 0f bd 5c d9 4b 3d
       0.033266965 -0.010844314 -0.03501189 0.049767837
000030 5f 73 c9 3b d5 35 18 bd 17 f1 7d 3c 8c 5a 19 3d
       0.0061477865 -0.037160713 0.015499375 0.037439868
000040 15 ec c0 3c 62 25 3b bc 48 b8 59 bd 37 21 00 3d
       0.023550073 -0.011422487 -0.05315426 0.031281676
000050 ee 86 b7 3c ce 01 31 bd d6 cb 60 bd df be a9 bc
       0.022403207 -0.04321461 -0.054881893 -0.020720897
000060 d8 2d 5d b8 da 6d 2b 3c 4f 34 ec bb c9 ff b6 3c
       -5.27332e-05 0.010463202 -0.007208384 0.022338765
000070 34 44 55 bd bf fe 39 3d bd 40 e7 3c eb dd 75 bc
       -0.052066997 0.04540896 0.028229112 -0.015006523
000080 47 28 68 bc 0b 47 2f bd c2 5e 2a bd 9c 78 03 3d
       -0.014169759 -0.04279236 -0.041594274 0.032097444
000090 92 54 de 3c 9d 0b 10 3d 7c eb 5a 3d 16 a9 30 3d
       0.027139936 0.035167325 0.05344723 0.043130003
0000a0 a6 5b 5c bd 79 d9 01 3d 3d ca 23 bd 00 6a 25 3d
       -0.05379834 0.03170154 -0.03998779 0.040384293
0000b0 bc ff 35 bc 2c 1b 9f 3c 5a ee 65 bd cf 2a 49 3d
       -0.011108335 0.019422136 -0.056135513 0.04911309
0000c0 4b 28 58 3d f5 b7 28 3d c7 53 80 3c b4 ef 19 3d
       0.0527728 0.04119106 0.015664948 0.037582114
0000d0 55 fd 12 bc 69 56 c2 3c 91 2d 9b 3c d7 90 2e 3d
       -0.008971532 0.023722844 0.018942626 0.0426186
0000e0 d6 17 12 bd e0 54 4b bc 63 50 3b 3d 75 0c 55 3d
       -0.035667263 -0.0124103725 0.04573096 0.052013833
0000f0 3b 59 1b bc 44 6a 3c 3c 14 5f 49 3d 0a 53 df bc
       -0.009481723 0.011499945 0.04916294 -0.027261276
000100 31 3c 56 bd ef 62 84 bc bb 3e 35 3d 6d cb 3b bd
       -0.052303497 -0.016160456 0.044249278 -0.0458483
000110 ec 64 f7 3c 94 ec d5 bc 94 f0 07 bd 36 52 10 bd
       0.03019949 -0.026113786 -0.033188418 -0.035234652
000120 cb dd 2f 3d a8 5d a5 3c ac 2e 4b bd 24 31 f4 bc
       0.042936128 0.02018626 -0.049605057 -0.029808588
000130 25 ba 13 3c 78 d7 59 bd 1c 2e 41 3d 54 b8 a3 bc
       0.009016548 -0.053184003 0.047163114 -0.019985355
000140 36 2e 1c 3c d7 de 38 bd 42 e2 53 bd e4 f7 db 3c
       0.009532502 -0.04513439 -0.05172945 0.026851602
000150 ac 79 9f bc b1 ef ca bc 00 e7 17 3d 7c 0b 70 bd
       -0.019467197 -0.024772497 0.037085533 -0.058604702
000160 cd 77 fc 3c 34 ad 6c 3c 6b 2c 56 3d aa 1d 17 bd
       0.030818844 0.014445592 0.052288454 -0.036893524
000170 e8 59 a0 bc a0 d7 66 3d 6c 66 88 bc b2 57 be 3c
       -0.01957412 0.05635798 -0.016650401 0.023235176
000180 95 e2 ab 3c ad 21 98 bc 59 1c 3b bd 8e de aa bc
       0.020982066 -0.018570745 -0.04568133 -0.020858075
000190 90 1a 04 bd 51 81 a4 3c 40 20 d8 bc 75 ab 3d bd
       -0.032251894 0.020081194 -0.026382565 -0.046306092
0001a0 8f 05 60 bd d3 6d 06 bd f3 4d 1c bd 2f 3e a9 3c
       -0.0546928 -0.03281958 -0.038160276 0.020659534
0001b0 62 c0 47 3c c1 84 d0 bc eb e2 50 bd ba 09 01 3c
       0.012191864 -0.025453927 -0.050997656 0.007875854
0001c0 9a b9 2e bc 3f ac 7c ba 80 49 1d 3d 11 64 e3 3c
       -0.010664368 -0.0009638704 0.038400173 0.027757676
0001d0 a3 1f 50 3d 98 4b 66 bb aa c2 34 3d 9e 74 13 3d
       0.05081142 -0.0035140272 0.04413096 0.035999887
0001e0 ba e8 42 bc cd 0a ca 3c 57 17 62 bd d9 c5 24 bd
       -0.011896307 0.024663353 -0.05519804 -0.040227745
0001f0 70 53 23 bd 89 7d 2c 3d fc 22 67 3d 49 06 19 bd
       -0.039874494 0.042111907 0.056429848 -0.03735951
