lightning_logs/version_14/checkpoints/epoch=3-step=399.ckpt (torch, 609856 bytes, 54 tensors)

lattice_net.0.weight f4 [8, 1, 2]
000000 5a 51 84 be cc f0 5e be 41 60 b4 be 3e f7 9b 3e
       -0.25843316 -0.21771544 -0.35229686 0.30462068
000010 8d f1 d4 3e 98 b7 ea be 35 71 03 bf ce b5 04 3f
       0.4159054 -0.45843196 -0.51344615 0.5183991
000020 da fd 95 be ac a6 2a 3f 88 10 9e be a3 28 f3 be
       -0.29295236 0.6666057 -0.30871987 -0.4749194
000030 3a 19 09 3f 30 a8 78 be c7 7f 0b bf e2 f0 32 bf
       0.5355412 -0.24282908 -0.5449185 -0.6989881

lattice_net.0.bias f4 [8]
000000 91 f2 01 bd 0d 64 88 3e 63 42 f6 3e 93 63 46 3d
       -0.03172547 0.26638833 0.48097524 0.048434805
000010 4b 3f f5 3d a7 f6 8b be 13 f3 04 3f d4 93 0d 3f
       0.11974963 -0.27336618 0.519334 0.5530369

lattice_net.2.weight f4 [16, 8, 2]
000000 37 57 cd bd 35 f7 6d be 24 6d 99 bd 04 77 1c be
       -0.100264005 -0.23238833 -0.0749152 -0.15279776
000010 1a 07 4a be fb 21 ef bd 78 9f 53 3e cf bf ab 3d
       -0.19729272 -0.11676403 0.20666301 0.08386194
000020 1f 20 9a b9 b8 c3 21 be f7 7e 0f 3e 61 75 8f bd
       -0.000293971 -0.15797317 0.14013277 -0.0700481
000030 2f c5 2f be a7 39 26 3e e6 44 86 3c 5e 88 32 3d
       -0.17165063 0.1623293 0.016390275 0.04358708
000040 40 e9 5f bd 18 b8 7b be 77 9a 7c 3e 19 9c 0b 3e
       -0.054665804 -0.24581945 0.24668299 0.13633765
000050 65 5b 08 3e f8 c0 a7 3d 35 86 e5 3d 6a db 2e 3d
       0.13316114 0.08191103 0.112072386 0.04268972
000060 b0 01 7f bd 06 ef 21 be d4 00 54 3e d9 0e f2 3c
       -0.06225747 -0.15813836 0.20703441 0.029548096
000070 4e bc 32 be 24 c8 3e bd e6 0a 0a 3d a6 e1 52 3e
       -0.17454645 -0.046577588 0.0337018 0.2059389
000080 c8 f2 c3 3d 85 4c e7 3d 43 12 ea 3c 67 6f 65 bd
       0.09567791 0.11293892 0.028573161 -0.056014445
000090 f3 74 26 3e 61 c8 f6 3d 5c bd 22 be 39 86 40 be
       0.1625555 0.12049938 -0.15892547 -0.18801202
0000a0 53 b0 fe 3d d1 89 7b 3e 94 50 2d be 21 be ff bd
       0.12435975 0.24564292 -0.1692527 -0.12487436
0000b0 65 99 56 bd cf 81 19 be b1 07 f2 bd cd 84 1a be
       -0.052392382 -0.14990924 -0.11817873 -0.15089722
0000c0 b7 59 0c 3e ff 8d c4 bd ac d6 15 be 5c 46 2a be
       0.13706098 -0.09597396 -0.14632672 -0.16628402
0000d0 96 2b d3 3b 64 98 55 be aa 38 d5 3b 89 bb ca 3d
       0.006444405 -0.20858914 0.006506999 0.09899051
0000e0 74 65 77 3c 11 38 62 3e 88 13 59 3e e5 9c 99 3d
       0.015099872 0.220917 0.21198857 0.075006284
0000f0 10 3d 01 3e a8 38 68 be 0a 1e 2d 3e 46 14 59 3e
       0.1262095 -0.22677863 0.1690599 0.2119914
000100 77 1a 1e be c3 f0 bd 3d 80 e3 05 3e 52 7a a4 3d
       -0.15439783 0.09274437 0.13075066 0.08031143
000110 ac f8 2e 3e df ef e5 bd 0b ec 1a be bc e7 64 3e
       0.17087048 -0.112273924 -0.15129106 0.22354025
000120 fd 17 4b 3c 83 96 80 3e 0b fd 82 3e a8 73 86 3d
       0.012395856 0.2511483 0.2558368 0.065650284
000130 52 b5 0e 3d bf f3 51 be cb d2 1b 3e 0d 6b f8 bc
       0.03484089 -0.20503138 0.1521713 -0.030324483
000140 a7 12 47 3e e1 8f 0e 3c 33 9b 42 3e d0 4c 93 3d
       0.19440709 0.008701296 0.19004516 0.07192385
000150 5f b3 28 3e c8 91 6c be e4 e8 00 be 1b 88 af 3d
       0.16474675 -0.23102486 -0.1258884 0.08570882
000160 13 9e 21 3d 3a 9c 5a 3e b5 bc 21 bc fc a5 bd 3c
       0.039457392 0.21348658 -0.009871651 0.023150437
000170 99 94 f8 3d 0f cb ca bd 49 0c 74 be 7f 69 5c 3e
       0.12137718 -0.099020116 -0.23832811 0.21524619
000180 c5 e4 25 be d1 c7 bd 3d 55 fd 46 3e 4d fd ce bd
       -0.1620055 0.092666276 0.19432576 -0.10106907
000190 70 1c 3d be e4 6a 62 be 82 46 23 bd 1d 77 78 3c
       -0.1846788 -0.22111088 -0.039862163 0.015165118
0001a0 3d 82 ab 3d f6 03 cc 3d a1 63 86 bd 6f 56 4a be
       0.0837445 0.09961693 -0.065619715 -0.19759534
0001b0 12 11 23 be 33 db d6 bd 47 f7 29 be c1 34 81 be
       -0.1592448 -0.10491028 -0.16598235 -0.2523556
0001c0 44 1c 61 be 41 ad 70 be 8b a5 8c bd 8d 48 78 3e
       -0.21983439 -0.23503591 -0.06867512 0.24246426
0001d0 9b 2f 04 3e cf 91 0d be 66 e0 23 be 52 39 1a be
       0.12908785 -0.13825153 -0.1600357 -0.15060928
0001e0 32 dd 0f be 18 d1 d8 bd 77 17 d3 bc 89 32 e0 3c
       -0.14049223 -0.105867565 -0.025768025 0.027367847
0001f0 53 49 1f 3c b8 dd da bd 37 f1 98 3d 26 20 51 be
       0.009722072 -0.10686821 0.07467883 -0.2042242
000200 5c 10 ba bd 96 34 11 be 5f fa f7 bd dd 07 ff 3d
       -0.090851516 -0.14180216 -0.12108301 0.12452672
000210 21 f3 62 be 67 ba 62 3c aa 36 2b 3e 59 89 14 be
       -0.22163059 0.013838387 0.16720071 -0.14505519
000220 f4 3a 24 be 86 20 a6 bd 99 86 b4 bd 2f 69 0d 3e
       -0.16038114 -0.08111672 -0.08814735 0.13809656
000230 01 ba 6b be 1c 45 fc 3d e7 74 2d 3e ee 32 2f be
       -0.23020174 0.12317869 0.16939126 -0.17109272
000240 6d 3a 6a 3e e0 73 c3 3d 41 d1 1c 3e bd 9c ff 3d
       0.2287385 0.09543586 0.15314199 0.12481067
000250 ae 81 71 be 99 a1 c2 3c 56 12 3f be ec b9 4f be
       -0.23584625 0.023758696 -0.18659338 -0.20285767
000260 60 80 a6 3d c2 9a 56 3e 0f e9 ff 3d 77 5e 1e be
       0.08129954 0.20957473 0.12495624 -0.15465723
000270 54 eb a0 3d 3a a8 cf bd 1c 05 6f be 48 ee 6f 3e
       0.07857385 -0.101395085 -0.23341793 0.23430741
000280 cc 79 15 be 95 af d6 3d af 04 ae bd 6c eb 56 be
       -0.14597243 0.10482708 -0.08496987 -0.20988244
000290 91 ea 84 bd 56 b1 7b be 93 be e5 bb 31 1f 18 3e
       -0.064900525 -0.24579367 -0.0070112436 0.14855649
0002a0 34 91 53 be e4 42 2b be 89 e4 fb 3d 5a 0b 16 bc
       -0.2066086 -0.16724735 0.12299449 -0.00915798
0002b0 89 94 69 3e b1 ac 7f bd f7 fd f7 3d 5e bc 65 be
       0.22810568 -0.06242055 0.12108987 -0.22435138
0002c0 68 55 0f be 6a bc 3a be ac 16 56 bb 41 f4 77 bd
       -0.13997424 -0.18235937 -0.0032667322 -0.060535673
0002d0 a9 06 49 be 2b ae 78 3d 06 e1 2a be 83 af 13 3e
       -0.19631447 0.060712975 -0.16687402 0.14422421
0002e0 9c 9b 93 3d 48 fa 7b 3e 51 39 d6 3d 8e 28 28 be
       0.072074145 0.24607193 0.10460151 -0.1642172
0002f0 6c e5 d4 3d 72 3a 74 be fb ef 8c 3c 83 b6 ad bd
       0.10395321 -0.2385042 0.017204275 -0.08482077
000300 63 d6 b1 bb 60 8f 47 bd db e6 89 bc c9 58 3a 3e
       -0.005427168 -0.048720717 -0.016833713 0.18197931
000310 b3 8a 9c bc 0e 0c 51 3e f3 2b 7a 3e 03 c5 60 be
       -0.019109106 0.20414755 0.24430828 -0.21950154
000320 11 25 58 3e 2a d8 0c bd 8f 72 74 be 23 ea e8 3d
       0.2110789 -0.034385838 -0.23871826 0.11372783
000330 ec c8 67 be db 18 49 3e 8a 19 1c 3e cb 75 d2 bb
       -0.2263524 0.19638388 0.15244117 -0.0064227334
000340 07 14 21 be b5 ec 32 3e a5 89 37 be 07 9c 5b 3e
       -0.15730296 0.17473109 -0.17923601 0.21446238
000350 e1 5b 0a be 3a c6 49 be f3 8b a7 bd eb c9 24 bd
       -0.13511612 -0.19704524 -0.0818099 -0.040231626
000360 af 3b 45 3d 2b b6 56 3e 17 a5 1b 3e b7 65 27 bc
       0.04815262 0.20967929 0.15199696 -0.010217122
000370 be b7 b9 bd e2 d3 3a bd dd 01 18 3e e8 f5 4a 3e
       -0.09068249 -0.045612223 0.14844461 0.19820368
000380 70 ea 5a 3e 03 50 e4 bd 20 68 4e 3e 18 0d 31 3e
       0.21378493 -0.111480735 0.20156908 0.17290151
000390 55 8f d0 3d b9 71 ca bd 9d c5 1b 3d cf 76 80 bd
       0.101835884 -0.09884972 0.038030256 -0.06272661
0003a0 07 55 0b be 6b ec 9e 3d 5a 8a 07 3e fe 6a b6 bd
       -0.13606654 0.07759937 0.1323637 -0.08907126
0003b0 0f 8c 69 bd 3d 76 56 3d b7 4d 4a 3d 93 65 75 be
       -0.057018336 0.052358855 0.04939052 -0.23964529
0003c0 33 26 cf bd 6a 11 0b 3e fb 17 4e 3d b8 95 7c 3e
       -0.10114708 0.13580862 0.05031584 0.24666488
0003d0 c4 8d 4c bc 73 d3 1f 3e 1c 04 a7 bd 85 61 83 3d
       -0.012484971 0.15608005 -0.08155081 0.06415085
0003e0 52 9c f7 3d 8f ec cd 3d d4 9a 68 3e 7a c7 6d be
       0.120903626 0.100548856 0.22715312 -0.23220626
0003f0 aa 9b 80 3e fd cf 4c 3e e9 23 d8 bb e1 85 01 be
       0.25118762 0.20001216 -0.0065960777 -0.12648727

lattice_net.2.bias f4 [16]
000000 2f af 40 be 02 93 e4 3d 1d 55 7b 3e dd e2 03 3e
       -0.18816827 0.11160852 0.24544187 0.1287951
000010 ce 84 6e 3e ac 33 56 3e aa 74 5e be 58 3c c6 3d
       0.23292848 0.20918149 -0.21724191 0.096794784
000020 36 0d 8a bd 36 e6 50 bd 98 cb c9 bc 09 1c 28 3c
       -0.06740801 -0.051000796 -0.024633214 0.01026059
000030 8d a0 08 bd e6 e9 41 be 30 fb 2e be b8 8d 60 3e
       -0.03335624 -0.18936881 -0.17088008 0.21929061

lattice_net.4.weight f4 [32, 16, 2]
000000 fd 97 10 3e 67 06 a1 3d e6 19 be bd a0 cc 32 3e
       0.14120479 0.07862549 -0.092822835 0.1746087
000010 38 37 2c 3d 43 a3 18 3e 7a 4c e2 3c 32 45 23 3e
       0.04204485 0.1490603 0.027624357 0.15944365
000020 f5 00 bd 3c 8e 99 68 bd 31 1c 0b 3b a6 d9 ec bd
       0.023071745 -0.056787066 0.002122652 -0.11564951
000030 23 43 9e bd 02 9a f6 3d 6e 60 24 bd 88 6a e2 3d
       -0.07727649 0.120410934 -0.040131025 0.110554755
000040 3c 9a 2f 3e bc 22 97 3d 7f b4 b2 bd 70 eb 24 be
       0.1714868 0.07379672 -0.08725833 -0.16105437
000050 04 70 db bc 85 c4 06 3e 76 fd ae 3d a6 8b 05 3e
       -0.026786812 0.13160904 0.085444376 0.13041553
000060 57 c0 06 3e 21 dc ad 3d 52 fe 35 bc 38 f1 96 3d
       0.1315931 0.08489252 -0.011107998 0.073702276
000070 41 d8 1d be 45 56 e8 3d a9 d9 c7 3d 22 1d d3 3d
       -0.15414526 0.113445796 0.09758312 0.10308291
000080 fb 26 a0 bc f1 dd c3 3d f8 f2 c9 3c 3b b5 13 3d
       -0.019549837 0.09563816 0.02465199 0.036061507
000090 0b 78 99 3c a2 39 fb 3d 91 9a 08 3e c7 8f 15 3d
       0.018733999 0.12266852 0.13340212 0.03651407
0000a0 28 40 59 3d a1 9c af bd f9 4a d9 bc d9 eb 05 3e
       0.0530397 -0.085747965 -0.026525008 0.1307825
0000b0 c1 c8 0d 3e 69 f7 49 3d 17 2d 86 3d 7d df a9 bd
       0.13846113 0.049308214 0.06551569 -0.0829458
0000c0 b7 02 b5 bb 71 70 7c bd 99 2e 36 be bb 39 0d be
       -0.0055240053 -0.06163067 -0.17791213 -0.13791554
0000d0 01 cb eb 3d 2f db 21 3e 16 60 8f bd 8e 79 b6 3d
       0.11513329 0.15806268 -0.07000749 0.089099035
0000e0 26 c5 bd bd 7f d8 12 3d d6 20 52 bc 5d 3f d7 bd
       -0.09266119 0.035850998 -0.0128252115 -0.105101325
0000f0 e6 9e ff 3d 7f f1 14 3e b7 cc 15 3e 8a ce d7 bc
       0.12481479 0.14545248 0.14628874 -0.026343603
000100 3a 3a ab 3d 0e 68 56 3b d4 23 fb bc 4b ba 15 be
       0.08360715 0.003271583 -0.030656733 -0.14621846
000110 15 0a 1a be 83 07 95 bc 76 fb 2e 3d 57 95 06 be
       -0.15042908 -0.018192058 0.04272028 -0.13142906
000120 0d 53 6f bd 16 db 67 3d bb 47 f3 3d fd 4a 30 be
       -0.058428813 0.05660542 0.11878916 -0.17216106
000130 2a 66 22 be dc 30 8d bb ee 73 aa bd 65 58 dd 3d
       -0.15859285 -0.004308803 -0.08322893 0.108078755
000140 4a 15 a1 bd 9e f8 f8 bd 48 c6 89 3d 61 48 e4 bb
       -0.07865389 -0.12156795 0.06727272 -0.006966636
000150 f7 46 b4 3d c1 98 e1 3d 25 86 f2 bd ea c4 0c be
       0.08802598 0.110154636 -0.11841992 -0.13746992
000160 73 69 30 bd ba a7 3c bd a0 5c 3f 3c 24 9a 35 bc
       -0.043069314 -0.046058394 0.011679798 -0.011084113
000170 4a da 6c 3c 10 56 38 3d 21 04 66 3d 40 19 2a 3d
       0.014456341 0.04500395 0.05615628 0.041527987
000180 ad d5 aa bd 17 f3 88 3d 3d 2e a1 bc 69 7a 2f be
       -0.08341537 0.06686991 -0.019675368 -0.1713654
000190 76 4b 79 bc 58 50 dd 3c fa 28 f4 3d 19 75 0c 3e
       -0.015215745 0.02701585 0.11921878 0.13716544
0001a0 25 42 c3 3d 5a 33 b0 3a d7 40 15 bd 6f 5c 12 3e
       0.095341004 0.0013443038 -0.03643879 0.14293073
0001b0 2b 88 14 be f4 8d 11 be 75 01 14 be e3 14 85 3d
       -0.14505069 -0.14214307 -0.14453681 0.064981245
0001c0 0d 78 22 be fb 95 21 be 14 46 dc 3d a6 7e d0 3d
       -0.15866108 -0.1577987 0.10755554 0.10180406
0001d0 bc 2b 22 3e 57 14 8a 3d e5 49 8a ba 46 8f 99 3d
       0.15836996 0.06742161 -0.0010550587 0.0749803
0001e0 c6 d5 b9 bd 39 3f 80 3d 92 2f b4 bd 0b 6c ba bd
       -0.09073977 0.06262059 -0.08798136 -0.09102639
0001f0 0f 51 1e be 65 75 1a 3e f3 48 9f 3d 46 cb 0b 3e
       -0.15460609 0.15083845 0.07777586 0.13651761
000200 ec bc 24 3e c0 8d b1 3d dd 25 2c be c3 13 a3 3d
       0.16087693 0.08669615 -0.16811319 0.079627536
000210 66 c2 30 3e a2 0a ab bc 34 7d 88 bc f8 cf 88 bd
       0.17261657 -0.020879094 -0.016661264 -0.06680292
000220 b2 a4 ad bd fe 39 b2 3d 2e b3 10 3e ad e6 f5 bd
       -0.08478679 0.087024674 0.14130852 -0.120068885
000230 d6 32 9f 3b a6 6b 12 3e c5 32 d8 3c 10 5d 94 bd
       0.004858355 0.14298877 0.026391396 -0.07244313
000240 d8 d2 b0 3d 15 a6 da 3d de ec fd 3c 90 01 2d be
       0.08633965 0.10676209 0.030996736 -0.16895127
000250 11 c4 f7 3c 90 99 b4 3c e6 16 84 bd 39 f9 91 bd
       0.030244859 0.02204588 -0.0644968 -0.071276136
000260 00 79 cd bd d4 ee cc bc 53 19 17 3e 21 32 ac 3c
       -0.100328445 -0.025016226 0.14755754 0.021019997
000270 c1 b9 25 3c 03 16 22 3e 4a 49 2a 3e 99 72 e7 3d
       0.010115088 0.1582871 0.1662952 0.11301155
000280 77 9a 8c 3d ec 5c 41 bd 71 66 1b be ac 30 2e 3d
       0.06865399 -0.047207758 -0.15175797 0.042526886
000290 73 1e 11 be 61 3c 9a bd 01 42 c1 3d 17 8a ea 3d
       -0.14171772 -0.075310476 0.09436417 0.1145212
0002a0 d8 cd 34 be f4 e5 db 3a ce 53 cb 3c 41 cc ae 3d
       -0.17656648 0.0016776905 0.024820235 0.08535052
0002b0 69 7b c0 bd 08 f1 ac 3d a1 6d 06 bd fa 11 e6 bd
       -0.093985386 0.084444106 -0.032819394 -0.112338975
0002c0 d6 ca 94 3c 5b 02 e4 3d 86 70 a0 3d 03 8a 3d 3d
       0.018163126 0.11133262 0.07833962 0.046274196
0002d0 d0 46 20 3d 71 b7 32 3e b9 1f f2 3d a0 f3 03 be
       0.039130032 0.1745279 0.11822457 -0.12885904
0002e0 de 3d 32 be 1f 1c b3 3d 9d d9 3b 3c bc 42 00 be
       -0.17406413 0.08745598 0.011465457 -0.12525457
0002f0 05 c5 db bd 89 9b b9 3d c1 c2 1a 3e 28 0e 1a 3e
       -0.10730938 0.09062869 0.15113355 0.15044463
000300 a8 13 b1 bd 5a 6a ff 3d c1 5f 45 bc 2b 46 60 bd
       -0.08646327 0.12471457 -0.012046755 -0.054754417
000310 cf b4 db bd ce 35 02 3d 0a bc 00 be e4 77 30 3e
       -0.10727846 0.031789593 -0.12571731 0.17233235
000320 2f 8a b6 bc 9f 77 d5 bd 9f 81 dc bd 78 46 7c 3d
       -0.022282688 -0.104232065 -0.10766911 0.06159064
000330 92 26 5d bd 50 73 03 3e 2d ed 6f 3d 81 cf de 3c
       -0.05399186 0.12836957 0.058575798 0.027198555
000340 1d 8e 97 bd 72 6f 06 be 3b 3d f0 bd 15 5d da 3c
       -0.07400153 -0.1312845 -0.11730429 0.026655713
000350 b9 15 cf 3c c1 2d 34 3e df 34 27 be e0 1c 09 be
       0.025278913 0.17595579 -0.16328762 -0.13389921
000360 f3 49 25 be ba 52 0c be 47 65 0c bd 4b 66 20 3e
       -0.1614149 -0.13703433 -0.034276273 0.15664022
000370 be 0c 0a 3e 78 30 88 bb e7 f7 e0 3d c7 eb b3 3d
       0.13481423 -0.0041561686 0.109847836 0.08785205
000380 ec 9e c3 3d a7 1d f4 3d 5e fd b3 bd ac d2 d4 bd
       0.09551796 0.11919718 -0.0878856 -0.10391745
000390 0a f4 fe 3d 93 7d 20 be 54 89 ff 3d 84 ee f0 3a
       0.124488905 -0.15672903 0.12477365 0.001838163
0003a0 7d 4e 4b 3d 51 0e 2b 3e 0c 10 82 3c 31 c4 d4 bd
       0.0496354 0.1670468 0.015876792 -0.10388983
0003b0 15 98 0e bd e1 f2 15 be 2d 66 10 3e 0f 38 0a be
       -0.034813005 -0.14643432 0.14101477 -0.13497947
0003c0 63 4e 0c be f2 24 00 be 84 04 1e 3e 91 d4 ab 3d
       -0.13701777 -0.12514094 0.1543141 0.08390153
0003d0 5e e9 aa 3d 1e 6b dd 3d ed 63 67 3c f1 f9 91 3c
       0.083452925 0.108114466 0.014122945 0.017819377
0003e0 95 d3 8e 38 f0 9f a0 3d d5 70 05 be df a7 af bc
       6.810498e-05 0.07843006 -0.13031323 -0.021442352
0003f0 08 59 08 3e b3 e6 d2 3b 68 0d aa 3d 0e db 4d 3d
       0.13315213 0.006436193 0.08303338 0.050257735

lattice_net.4.bias f4 [32]
000000 60 85 32 bd 21 21 9f 3b 4c 69 1f 3c 67 ce 09 3d
       -0.043584228 0.004856244 0.009729695 0.033644106
000010 a6 3a 99 3d 44 c4 25 3e e1 d4 19 be 0f 25 9f 3d
       0.074818894 0.1618815 -0.15022613 0.0777074
000020 0d 3e 49 bc 41 db 88 3d 2c 97 94 3c f7 b7 21 3d
       -0.01228286 0.06682444 0.01813849 0.039482083
000030 9a 19 10 3e 4e fe b1 3c 92 e1 2a be 7a 39 38 3d
       0.14072266 0.021727707 -0.16687611 0.04497669
000040 e9 8f 0a bc 1e ca 12 be 82 99 e0 38 44 54 07 3e
       -0.008457162 -0.14334914 0.000107097454 0.13215739
000050 f0 57 8f bd 5f de 19 3d a0 ad 1b 3d e7 6c d5 bd
       -0.069991946 0.037565585 0.03800738 -0.10421162
000060 27 ab b8 3d 2f c9 2e 3e 79 68 25 be f9 31 d2 3d
       0.0901702 0.17068933 -0.16153134 0.10263438
000070 02 87 00 be 86 74 0f 3e 8d c2 bf 3d 8b 04 2e 3e
       -0.12551501 0.14009294 0.093632795 0.1699392

tNN.0.weight f4 [16, 2]
000000 eb c7 e2 bd 63 fe 98 3e 6c f6 fe 3d 66 04 7e be
       -0.110732876 0.29881582 0.12449345 -0.24806365
000010 ea 54 6f be 0b 65 10 3d 6a c9 cf bd 5a f7 21 bf
       -0.23372236 0.035252612 -0.101458386 -0.63268054
000020 3b 91 b2 be fc 0d 19 3f 42 4e 13 bf a4 6f e0 3e
       -0.34876427 0.59786963 -0.57541287 0.43835175
000030 79 8c cf 3e 35 52 11 bf e1 ff ec be 68 98 34 bf
       0.4053686 -0.5676606 -0.4628897 -0.70545053
000040 06 e2 bc 3e 58 e6 bb be 76 f8 14 bf 72 13 01 be
       0.36891192 -0.36699176 -0.5819162 -0.12605074
000050 c4 b9 21 bf 27 d1 07 3f d2 5c 6e 3e e0 53 81 3e
       -0.6317408 0.53053516 0.23277596 0.25259304
000060 fb 2c 14 bf 03 b8 ad 3e fe 21 6b bd 2a 05 a2 be
       -0.57881135 0.33929452 -0.057405464 -0.31644565
000070 df 07 68 be 8c bd 7b be 6f c7 70 3e ce 1b 83 be
       -0.22659253 -0.24584025 0.23513578 -0.2560715

tNN.0.bias f4 [16]
000000 88 1d a2 be fb cf 59 bc 60 34 47 3d 5e 9d 83 3e
       -0.31663156 -0.013294215 0.048633933 0.25706
000010 8b f8 f2 3b 58 20 11 bf 27 f5 28 3f f1 cf d8 be
       0.0074148825 -0.5668998 0.6599907 -0.42346147
000020 29 83 1a bf 1d 09 f6 3d dd d8 3a be f0 1c b0 3d
       -0.60356385 0.12013457 -0.1824679 0.085992694
000030 36 ac ae 3e 6c 4d 33 bd 62 92 e7 bd 3a bf b6 3c
       0.34115762 -0.043775007 -0.11307217 0.02230798

tNN.2.weight f4 [32, 16]
000000 9e fe 53 be 4b c0 f6 ba 39 2b ae 3c 18 e0 26 3e
       -0.20702597 -0.0018825618 0.021260845 0.16296422
000010 56 7f 04 be 02 36 29 3e 50 7a 37 be 50 3d 76 be
       -0.129392 0.16524509 -0.17917752 -0.24046826
000020 cc 90 36 be 64 c8 19 bd 01 18 87 bd 00 65 a2 3d
       -0.17828673 -0.037544623 -0.06596375 0.079294205
000030 c5 20 78 be b4 a6 21 3c ee ba 2f be 8c 93 44 3e
       -0.2423125 0.009866405 -0.17161152 0.1919691
000040 bf 86 2e be 60 a1 95 bd 68 82 39 3e 97 df 3b be
       -0.17043589 -0.073061705 0.18116152 -0.18347012
000050 05 ad d6 bd 5b 5e 45 3d a1 44 4c be aa 1c 8b 3c
       -0.104822196 0.048185688 -0.19948055 0.016981442
000060 34 a5 ff 3d fb 7d 61 be 11 56 db bd bf ba 54 3e
       0.12482682 -0.22020714 -0.10709775 0.20774363
000070 39 ef 2f be 63 bc 13 be 64 a5 83 bc 9a bb 1a be
       -0.171811 -0.14427333 -0.016070075 -0.15110627
000080 47 45 cc bd 0e da 63 3e 98 92 6e bd d3 40 66 3e
       -0.09974151 0.2225115 -0.05824527 0.22485666
000090 86 af 14 3e e7 9a 5b be de bc e7 3d 76 b8 54 3e
       0.14520082 -0.2144581 0.113153204 0.20773491
0000a0 da d2 26 3d 57 da e7 bd bb c3 a3 3d 1f a8 0b 3e
       0.040728427 -0.11320942 0.07996317 0.13638352
0000b0 52 d4 55 3e 5a 1f a3 bc 07 78 2e 3e 8c 91 33 be
       0.20881775 -0.01991241 0.17037974 -0.1753599
0000c0 1f ac 1c 3e 6d af 8c bd b4 88 81 3d db 58 9b 3d
       0.15300034 -0.06869397 0.06324902 0.07585307
0000d0 d3 fb 0d be 5b 73 81 3e 82 06 0e 3e df 38 06 bd
       -0.13865595 0.25283322 0.1386967 -0.03276908
0000e0 8e 4a 30 be e7 5a a6 3d 94 b0 4f be 85 4b b2 bd
       -0.1721594 0.08122807 -0.20282203 -0.087058105
0000f0 0d 9a e0 3c 94 c3 69 3e f7 cc 68 3e a1 9a 92 3d
       0.027417207 0.22828513 0.22734438 0.071583994
000100 90 6c 74 3d 5e d0 51 be 2b 3f 58 be c8 4c 6f 3e
       0.059673846 -0.20489642 -0.21117847 0.23369133
000110 55 0b 0a bd d0 75 43 be e9 24 62 be ad 45 92 bd
       -0.033702213 -0.1908791 -0.22084393 -0.07142196
000120 8f 13 25 bd ee 01 7f 3e 8a 66 72 be 5e d4 b5 bd
       -0.040301856 0.2490308 -0.23671928 -0.088783965
000130 47 10 0f 3e 90 ee b0 3d c0 24 80 be 90 52 50 bd
       0.13971053 0.08639252 -0.25028038 -0.050859988
000140 46 e3 48 be 7d b8 2e 3e 50 2f 32 be b9 3d 5e 3e
       -0.19617948 0.17062564 -0.17400861 0.21703233
000150 ca 96 24 be b3 0b e3 3d 60 76 1a 3c 2f 45 fb 3c
       -0.16073146 0.11086216 0.009427637 0.030672638
000160 52 24 91 3d 5d b4 69 be 50 33 53 bd ec ec 66 bc
       0.07087006 -0.2282271 -0.051562607 -0.0140945725
000170 d7 cd 4d 3e 08 4b 5f 3e 14 4e 37 3d 39 8b c2 bd
       0.20098053 0.21805966 0.044752195 -0.09499211
000180 9b 77 39 3e 8b 79 72 be b7 db 78 be 82 e4 f2 3d
       0.18112032 -0.23679177 -0.24302565 0.11859991
000190 42 13 16 be a9 7c bb 3d 9e 39 23 3e a0 8f 68 3e
       -0.14655784 0.091546364 0.15939948 0.22711039
0001a0 46 d8 50 3c 14 5b 53 3d c2 ef 75 bd b5 23 4d be
       0.012746876 0.05160053 -0.060043104 -0.20033152
0001b0 78 a9 bb 3b 6d 5d 35 3e b5 2c 76 bd 18 cb 23 be
       0.0057269894 0.1771142 -0.06010123 -0.15995443
0001c0 0e 56 13 be 90 8f b2 3d b8 04 1c 3e 78 71 e5 bc
       -0.14388296 0.087187886 0.15236175 -0.028008208
0001d0 2e 59 a5 bc e3 43 63 3d 67 54 3d be e3 fe 0f be
       -0.020184126 0.055484664 -0.18489228 -0.14062075
0001e0 5e 18 3d bd 05 9d 09 bd 16 f7 5a be 74 12 5d be
       -0.046165816 -0.03359701 -0.21383318 -0.2158907
0001f0 cf 13 38 be 40 5b 80 be 25 e4 05 3e 9e f1 a0 bb
       -0.17976306 -0.25069618 0.13075311 -0.0049116155
000200 e5 ba b1 3d 93 54 4a 3e d6 e7 6a 3e fe 5b 5d be
       0.086782254 0.19758825 0.22940001 -0.21617123
000210 e7 46 81 3e c9 98 44 3e 51 10 4c be fc 55 41 3e
       0.25249407 0.19198908 -0.19928099 0.18880457
000220 07 8c 16 3e be 0e 24 be 1c 82 d6 bc 1c e4 14 be
       0.14701854 -0.16021249 -0.026185088 -0.14540142
000230 3d 4c b3 3c d7 41 81 3d 47 86 b4 bc 2d c7 4c 3e
       0.02188694 0.06311386 -0.022036685 0.19997855
000240 1d 7a ad 3d d6 13 56 be 6e 5c c5 3b 6f ea 4a 3e
       0.08470557 -0.20906004 0.0060229814 0.19815992
000250 31 5d f5 bd 87 15 2c 3e 69 b8 81 bd 37 38 91 3c
       -0.119806655 0.16805087 -0.063340016 0.017727
000260 34 f3 a8 3d c1 a6 86 3c 31 57 af 3c e1 3a 3f 39
       0.08249512 0.016436936 0.02140388 0.00018237114
000270 85 a8 23 3d 4d d3 19 be 92 c2 84 be 88 94 05 be
       0.039955635 -0.15022011 -0.25929695 -0.13044941
000280 a2 00 51 bd 70 07 fd bd d7 e5 63 be 3e f8 e0 bc
       -0.051025994 -0.12354934 -0.22255646 -0.027462121
000290 b7 83 5f be 85 52 7a be f3 5e a0 3d 25 12 08 be
       -0.21827589 -0.24445541 0.0783061 -0.13288172
0002a0 18 fe 0e 3b dd 8f 41 3e 66 f6 f8 3d b0 7c 0b 3d
       0.0021818932 0.18902536 0.12156372 0.03405446
0002b0 7c 9a e9 bd fc c0 05 3e 3e 70 e3 bd 38 8b 2a 3e
       -0.11406419 0.13061899 -0.11105393 0.1665467
0002c0 f2 ab e2 3d 6b 48 e1 3d 64 9d 80 be bb 2d 07 3e
       0.11067952 0.11000141 -0.2512008 0.13201039
0002d0 b6 6f 92 3c 97 cf 73 3d a7 af 65 3e 9b 02 ae bd
       0.017875534 0.059524145 0.22430287 -0.08496591
0002e0 c1 36 5c be 02 57 90 3d 89 7f c3 3d 41 ae 59 be
       -0.21505262 0.070478454 0.0954581 -0.21257879
0002f0 6c 2e 99 bd 63 8d 02 be 98 71 77 be 37 2e cc bd
       -0.074795574 -0.12749247 -0.24164426 -0.09969752
000300 76 c5 34 3e c9 20 17 be d8 5a 30 3e ef 37 16 bc
       0.1765345 -0.147586 0.17222154 -0.009168609
000310 08 0b 30 be 19 c6 16 be 7d 82 c7 bc 5e 52 62 3e
       -0.17191708 -0.14724006 -0.024354214 0.22101733
000320 23 9c ca bd 7f ba b1 3d 1a 58 08 3e 4a 54 60 be
       -0.09893062 0.086781494 0.13314858 -0.21907154
000330 6e b9 00 be 9f b7 65 be 91 77 eb 3d e3 d5 5f bd
       -0.12570736 -0.22433327 0.11497415 -0.054647338
000340 c1 4f 0d 3e bb 57 5c be 5a 07 2c be ef 37 6a 3e
       0.13799955 -0.21517842 -0.1679968 0.228729
000350 b9 05 d3 bd 00 cb bf 3d 46 a7 f4 bd 4e 29 10 be
       -0.10303826 0.09364891 -0.119459674 -0.14078256
000360 2f 15 ac ba 71 4b 80 be 9d e8 67 3e 4d 80 72 3e
       -0.0013128872 -0.25057557 0.22647329 0.23681755
000370 64 87 40 bc 8b 08 53 be c0 50 18 3e 65 04 49 3e
       -0.01175103 -0.20608728 0.14874554 0.19630583
000380 d8 71 b5 3d a8 c9 0b 3d 14 d2 b5 bd 5a 6a 22 be
       0.088596046 0.03412786 -0.0887796 -0.15860882
000390 ba 9a 10 3d a8 17 94 bd e0 6a 38 3e 90 78 68 3e
       0.03530381 -0.072310746 0.1800952 0.22702241
0003a0 07 5f 46 be 46 24 ae bd ba 8c 22 3e a0 6b 35 be
       -0.19372188 -0.08503012 0.15873995 -0.17716837
0003b0 96 d7 c7 bd 79 cb 1e be 2c c3 84 bd 50 91 e1 bd
       -0.09757917 -0.15507306 -0.064825386 -0.11014044
0003c0 d2 a6 4f 3e 3a e0 a7 3d e2 47 85 3d 3e 73 14 be
       0.2027848 0.08197065 0.06507851 -0.14497086
0003d0 fc 41 7a 3b d5 ce 16 ba e8 21 63 3e 6a 01 83 bd
       0.0038186302 -0.0005752866 0.22180903 -0.06396754
0003e0 76 86 67 3e 2c df ce 3d fc 57 23 be a1 b9 c0 3c
       0.22609887 0.101011604 -0.15951532 0.023526015
0003f0 0a d9 00 bd 07 6d bf bd 90 07 04 bd 3f 81 53 3d
       -0.031456985 -0.09346967 -0.032233775 0.05163693

tNN.2.bias f4 [32]
000000 32 46 59 bc 33 cc 1e be cb 9c 51 3e a2 9d b9 bd
       -0.013261365 -0.15507583 0.20469968 -0.09063269
000010 93 47 53 be 28 7b c5 bc 3e 35 07 3e 32 f5 55 3e
       -0.20632772 -0.024106577 0.13203904 0.20894316
000020 be dc 53 be 73 f2 76 3d 87 f4 34 3e 3f f8 70 3c
       -0.20689675 0.06028981 0.17671405 0.014707624
000030 e5 06 ff 3d b0 6c 46 3e 7e ac b1 bd fb 5a 7c be
       0.12452487 0.19377398 -0.086754784 -0.24644081
000040 96 bd 5f be 8c 6d 07 bd e6 a4 c7 3d c4 79 19 3e
       -0.21849665 -0.033063456 0.09748249 0.14987856
000050 27 04 87 bd cb c8 05 3d e4 b1 c3 3d 06 82 fb 3d
       -0.06592589 0.032662194 0.09555414 0.122806594
000060 b7 d0 21 be c1 c5 79 be 51 04 c0 3d df 98 f9 3c
       -0.15802275 -0.24391843 0.09375823 0.030468402
000070 53 14 0e be 03 dc 82 3e 88 af 85 bd f6 4f 2c be
       -0.1387494 0.2555848 -0.065276206 -0.16827378

tNN.4.weight f4 [64, 32]
000000 3d 16 f6 3b ea cf b1 bd 2a 8d 4a 3d 8c 8a 04 3e
       0.007509975 -0.086822346 0.04945103 0.12943476
000010 dc 6a cb ba 03 21 a7 3c 59 3e 3d bc 72 04 c5 bd
       -0.0015519517 0.020401483 -0.011550509 -0.096199885
000020 ee 23 5a 3e 0b 1b ca bd b5 09 c9 3d f5 bd bb bd
       0.21302769 -0.09868439 0.098163046 -0.09167091
000030 32 d6 34 be 77 29 f9 3c 18 7e ab bd d7 a8 5e 3d
       -0.17659834 0.03041528 -0.0837366 0.054360237
000040 f5 10 2e be 93 c1 98 3d 3b 44 c2 3d f5 88 0f bc
       -0.16998656 0.07458796 0.0948567 -0.00876068
000050 92 e5 db 3a e6 fc 98 3d 30 c8 18 be 88 2a cd bd
       0.0016776791 0.074701115 -0.14920115 -0.10017878
000060 bb 60 24 be 30 e4 e7 3d b7 15 88 3c a7 7f c8 bd
       -0.16052525 0.1132282 0.016611917 -0.09789973
000070 5d 8d e1 bd a9 57 0d be d9 f5 6e 3d b0 5f 29 be
       -0.11013291 -0.13802971 0.058339927 -0.16540408
000080 8a 02 20 be aa aa 6e bd 40 8a c9 3c 7e 2e d7 bd
       -0.15625969 -0.058268227 0.024602056 -0.105069146
000090 ba 5d de 3b 61 a5 13 be b5 f1 e2 bd 08 ed 88 bd
       0.0067860754 -0.14418556 -0.11081258 -0.06685835
0000a0 c3 bf 04 3e 86 1f 4e 3d 4c b0 29 be ad 54 03 3d
       0.12963776 0.05032303 -0.16571158 0.032063175
0000b0 db 74 d0 bd ec c7 d0 3d 00 e9 0d be 61 cb de bd
       -0.101785384 0.10194382 -0.13858414 -0.10878635
0000c0 c1 bb 04 3e ff 07 06 be 74 2c 56 bc a0 e5 19 be
       0.12962247 -0.13088988 -0.013072122 -0.15029001
0000d0 78 b7 56 3c 5b 30 a7 bc 56 88 93 ba 4e eb 7d bd
       0.013105266 -0.0204088 -0.0011255841 -0.061991982
0000e0 6c 17 37 3c 4f 00 fd bd 15 e4 f3 3c 04 99 e2 bd
       0.011175018 -0.123535745 0.029771844 -0.11064342
0000f0 3e 90 11 3b d3 14 2c 3e c9 35 2e be 0a 86 70 bd
       0.002221122 0.16804819 -0.17012705 -0.05872158
000100 10 38 9c bd e6 72 ca bd 1c 54 0c 3e 81 f5 2e 3d
       -0.076278806 -0.098851964 0.1370396 0.0427146
000110 d7 2e 41 3a 4b 51 fa 3d 40 0b 1d 3d 06 ae fd 3c
       0.00073693454 0.12222537 0.038340807 0.03096677
000120 a5 48 a6 3d d1 2c 3d be f7 9d a1 bd ff 4e 86 bd
       0.081193246 -0.18474127 -0.078914575 -0.06558036
000130 6d 8b 02 3e 83 13 25 3e 57 c6 1e 3e 16 55 5c bc
       0.12748499 0.16120724 0.15505348 -0.01344802
000140 32 24 25 be 01 3f 94 bd 39 bf ce bc 2f 80 23 3e
       -0.16127089 -0.072385795 -0.025237666 0.15966867
000150 dd bb a4 3d 6b 1f 2d be a3 eb 04 3e ca 94 ca 3b
       0.080436446 -0.16906516 0.12980513 0.006182288
000160 6c dd 36 be 3b af 12 be 9c 7a 03 3e 9b b4 12 be
       -0.17857903 -0.14324658 0.1283974 -0.14326708
000170 91 6d 45 bd 6e 77 1a be dd 31 63 bc fc f9 b5 bd
       -0.048200194 -0.15084621 -0.013866869 -0.08885571
000180 a9 c7 0f 3e 3d 26 59 bd 89 5f 22 3e 48 90 29 be
       0.14041008 -0.053014982 0.15856756 -0.16558945
000190 ee 90 d5 bd 08 97 0f be 8c 2a 5e bd 6d 1d 25 bd
       -0.10428034 -0.14022458 -0.054239795 -0.040311266
0001a0 0c 91 9c 3d 77 a6 b7 bd 95 ca 0e be c7 31 1a 3d
       0.07644853 -0.089672975 -0.13944466 0.037645128
0001b0 62 28 b6 3d cb 65 fe 3d 91 79 61 bc 41 50 73 3c
       0.08894421 0.12421759 -0.013761894 0.014850677
0001c0 df b6 d9 3d 8d 2f fc bd ee a3 17 be b8 60 0c 3e
       0.10630583 -0.12313757 -0.14808628 0.1370877
0001d0 95 1e b4 bb e6 fc 62 bc 1d f1 16 bc 44 59 86 3d
       -0.0054968097 -0.013854241 -0.009212759 0.06559995
0001e0 de 3e 27 3e ea f9 8e 3b d4 f0 b9 bd 49 67 b0 bd
       0.16332576 0.004363288 -0.090791374 -0.0861345
0001f0 92 ea 3a be a9 2b 15 be d4 68 10 be df 78 6a bb
       -0.18253544 -0.14567436 -0.14102489 -0.0035777611
000200 d5 dc c4 bd de e5 23 3e 77 34 1a 3d 42 66 cb bd
       -0.09612433 0.16005656 0.03764769 -0.099316135
000210 b3 e6 09 3e 2d b0 99 bd ff d0 d2 3d b8 1b 02 be
       0.13466911 -0.07504306 0.10293769 -0.12705886
000220 a0 ce 8b bd e7 d7 e1 bd 2f f2 ed 3d b1 f5 e9 3d
       -0.0682652 -0.11027508 0.116184585 0.11423815
000230 4c 89 2d bd 88 92 87 3c 7f d7 1c be 61 ef 6a 3d
       -0.042367265 0.016549364 -0.1531658 0.057357196
000240 fe 2d 4b bd 0b 27 b1 3d a8 d8 6e 3d f0 52 14 bd
       -0.04960441 0.08650025 0.05831209 -0.036211908
000250 81 24 9a 3d 8d 99 55 bd b4 15 80 3c 2c 20 a5 3d
       0.07526494 -0.05214839 0.015635349 0.08062777
000260 1d 88 7b 3d 18 41 26 3e 71 b4 fc bd ea 4d 64 3d
       0.061409105 0.16235769 -0.12339104 0.055738367
000270 53 8f 9b 3c cc d8 f8 bd d4 8b 2d 3e a7 d4 c7 bd
       0.01898924 -0.12150726 0.16947871 -0.09757357
000280 a2 25 eb 3b e6 70 73 3d c5 d7 c9 3c 0f ed a7 3d
       0.007176117 0.05943384 0.02463902 0.08199512
000290 2a 43 1d bd ad d2 28 bd c6 3f 2c 3e 14 26 ad bd
       -0.03839413 -0.04121654 0.16821203 -0.084545285
0002a0 e2 10 b7 bd 24 94 be bd 00 f2 22 3e e8 5e d7 bd
       -0.08938767 -0.09305599 0.15912628 -0.10516149
0002b0 1e 0a e2 bc 03 30 77 bc b3 cb 15 be c7 6c 9b bc
       -0.027592715 -0.0150871305 -0.14628486 -0.018972768
0002c0 ef 7b 37 bc 18 fa 2a bb f3 e6 e7 3d 34 43 eb 3d
       -0.011198982 -0.002608901 0.11323347 0.11487427
0002d0 d7 f3 24 bc 68 6f 3f bd 8e 14 bc 3c 63 a7 a6 3c
       -0.010067902 -0.046737105 0.02295902 0.020343488
0002e0 79 e3 09 3d 89 45 1e be 1e 40 e2 3d ee 51 2e 3e
       0.0336642 -0.15456213 0.11047386 0.17023441
0002f0 99 85 2a bd 32 d6 a1 3d 43 70 71 3c e8 07 9f 3d
       -0.041631315 0.07902183 0.014736238 0.0776518
000300 e5 a9 05 3e f0 3a 02 be 24 a9 34 3e 3a c0 00 3e
       0.13053091 -0.12717795 0.17642647 0.12573329
000310 31 d4 0a bd 63 4a a3 3b d1 04 27 be b2 0f 07 be
       -0.033893768 0.004983233 -0.16310431 -0.13189581
000320 27 bf 04 bd 5b a7 2c be 35 b5 2b be bb d3 16 3e
       -0.03240886 -0.16860716 -0.16768344 0.14729206
000330 ee eb 36 bd ba 62 c6 bd 9b fa ab bd 42 f8 19 be
       -0.044658594 -0.09686799 -0.083974086 -0.15036109
000340 7f 44 97 bd 1e 17 2e 3e 93 cf 8e 3c ca 3d 24 be
       -0.073861115 0.17001006 0.017432963 -0.16039196
000350 ab 92 09 3e d8 cd bb bd 1b 15 0b 3e 50 47 0f 3d
       0.13434856 -0.09170121 0.1358227 0.03498012
000360 8a 07 9d 3d 21 2b 2b be 84 a4 24 3e 5f be 11 3d
       0.076674536 -0.16715671 0.16078383 0.035581943
000370 ae a8 cf 3d 6a 18 09 3e 04 82 00 3d 17 1e 05 be
       0.10139595 0.1338822 0.031373993 -0.1299976
000380 76 53 7d bd 9e ff 2d 3d 9c 58 cc bd eb 26 42 bd
       -0.061847173 0.042480104 -0.099778384 -0.047400396
000390 0b 17 f1 bc 3e 0f 86 bd 30 ee a1 bd b4 6f 7d 3d
       -0.029429933 -0.06545876 -0.07906759 0.061874107
0003a0 81 6d ee bc 4f af 3f bd 50 9f c6 bd a9 e7 b4 bd
       -0.02910495 -0.046798047 -0.09698355 -0.08833248
0003b0 da 22 22 be 25 dc a6 3c ec 9e 5a bd 5f 10 ad 3d
       -0.15833607 0.020368645 -0.053374216 0.08450388
0003c0 6e 3e 03 be ea 29 0e 3e f3 af fb 3d a6 ef a6 bb
       -0.12816784 0.13883176 0.12289419 -0.0050944863
0003d0 02 88 9e bd 3f 39 c4 bd 32 d4 23 be ff 0f fa 3d
       -0.07740785 -0.09581231 -0.15998915 0.12210082
0003e0 41 cc 2a 3e 46 ac 92 bd ec a9 2b be 8c 12 4d bd
       0.16679479 -0.07161765 -0.16764039 -0.050066516
0003f0 11 ca 81 3d b4 81 af bd aa 6f 07 3e 1a 25 21 3e
       0.06337369 -0.08569661 0.1322619 0.1573681

tNN.4.bias f4 [64]
000000 3f a7 86 3d 6e 74 00 be 06 a7 78 bd fe 69 c6 3d
       0.065748684 -0.12544414 -0.06070616 0.09688185
000010 f2 86 1a be bb 40 ca 3c d9 1d 02 be f4 1e c5 bc
       -0.1509054 0.024689069 -0.12706698 -0.024062611
000020 0c 54 cb bd 61 11 38 3c f8 7a 8c bc fd 28 34 bd
       -0.0992814 0.011234612 -0.01714848 -0.043984402
000030 82 d0 5c 3d 39 9c d6 3c 5d 3d 85 bd fe c3 25 bd
       0.053909786 0.02619754 -0.06505845 -0.040470116
000040 6a 3d e8 bc d7 5d 0e 3e b5 9a c6 bd b0 29 11 be
       -0.028349597 0.13902985 -0.09697477 -0.14176059
000050 6a c2 8e bd a0 ff 0e 3e 5e c9 19 3d 58 28 1d 3e
       -0.06970675 0.139647 0.037545554 0.15347421
000060 79 9a e7 3d fa 34 d6 3d f7 78 0f be 4e ea 95 bd
       0.1130876 0.10459323 -0.14010988 -0.07320081
000070 df af 14 bd cf 14 c2 bd 14 82 62 bd 11 99 06 3e
       -0.036300536 -0.09476625 -0.055299833 0.13144328
000080 dd b4 1d be 54 19 4b 3c 23 c1 aa 3b 91 75 1f bd
       -0.15401025 0.012396175 0.005211012 -0.03893048
000090 09 4b 11 3e b9 bf 51 3d 10 e1 0e be a2 91 86 3d
       0.1418878 0.05120823 -0.13953042 0.06570746
0000a0 c0 86 de 3d 09 4a 30 be de 8b 1b 3e de 88 7b bd
       0.10865545 -0.17215742 0.15190074 -0.061409824
0000b0 5a c4 1d 3e 25 f0 07 3e 65 14 0f be 51 eb 1a be
       0.15406933 0.13275202 -0.13972624 -0.15128829
0000c0 14 7f d0 3c 2a e1 8c 3c eb e1 bf 3d 8b 6a 4b bc
       0.02545122 0.01719721 0.09369262 -0.012415539
0000d0 f6 67 17 be 80 f3 05 3b 80 8c 29 3e 36 ce 2b be
       -0.14785752 0.0020439327 0.16557503 -0.16777882
0000e0 f1 76 f4 bc 65 b0 12 bd f8 18 2e 3c 09 60 e4 3d
       -0.029841872 -0.035812754 0.01062607 0.1115113
0000f0 de 9f 05 3e c8 ff 0c be 80 cb be 3d 62 35 d9 bd
       0.13049266 -0.13769448 0.09316158 -0.10605885

psi.0.weight f4 [128, 288]
000000 1d 1b 6a bd f3 47 09 bd 4b a3 6b bd f2 6c 1c 3d
       -0.057154763 -0.03351588 -0.057528775 0.038189836
000010 06 6c 20 3d 6f 45 46 bd 9b ad 21 3a 15 74 b5 3c
       0.03916552 -0.04840606 0.0006167532 0.022150079
000020 9c 67 8a 3c c3 f6 05 3d 29 83 1c bc 02 c3 62 bd
       0.016895108 0.032706033 -0.009552755 -0.055361755
000030 4b be 06 3d 97 c2 14 3d 40 59 53 bc 38 c0 51 3c
       0.03289632 0.036318388 -0.012899697 0.012802176
000040 b3 bc 4f 3d 27 3f d4 bb b7 0f e3 3b f4 3a 3b bd
       0.050717067 -0.006477255 0.0069293636 -0.04571052
000050 d1 db 5b 3d 25 7b 01 bd 0a 60 d7 3c a3 a3 38 3d
       0.05367643 -0.03161158 0.026290912 0.04507793
000060 e1 99 0e bd 39 56 c9 bc 5b e1 62 3c ad 0f 0d bd
       -0.03481472 -0.024577247 0.013847674 -0.034438778
000070 b2 60 84 bd e3 dc c5 3c f2 6e b2 bc f1 f3 86 bd
       -0.06463756 0.024153179 -0.021781418 -0.06589497
000080 33 71 e2 3b 1b c0 54 3c ec ba 50 bd d0 4a f7 3c
       0.006910467 0.012985255 -0.050959513 0.03018704
000090 15 00 ca bc a7 b3 f8 3c fd 8b a5 3b 32 36 5e bd
       -0.024658242 0.030359102 0.0050520883 -0.054250903
0000a0 a6 41 58 bd 84 ec 3f 3d 3d 24 f3 3c c4 91 6e bc
       -0.052796982 0.04685642 0.029680366 -0.01456112
0000b0 8f 2a 2d bd 59 05 2b bd 6d ab 91 bc 25 85 75 3d
       -0.042276915 -0.041753147 -0.017781937 0.05994143
0000c0 cf f6 bb bc f9 8e 10 3b 34 2b fe 3c fc 65 20 bd
       -0.022944836 0.0022057875 0.03102646 -0.03915976
0000d0 fb d1 1c 3d 55 99 25 bc 6b aa 47 bd f6 9d 64 bd
       0.03828619 -0.010107358 -0.048746508 -0.055814706
0000e0 4c 94 af bc 6c 99 e0 3c cd 13 88 3c e5 0e 33 3c
       -0.021433018 0.027416907 0.016611004 0.010928844
0000f0 ca 64 1c 3d 90 a9 33 bc c1 68 53 bd 7c f8 10 3d
       0.038182057 -0.01096572 -0.051613573 0.035393223
000100 61 96 d8 bc 0c 9a 75 bd 26 e7 b3 bb 09 29 cd bc
       -0.026438894 -0.059961364 -0.0054902015 -0.025043981
000110 50 e7 83 bd 80 1f 4e bd bf c2 06 3d 73 41 7d 3d
       -0.06440604 -0.05032301 0.032900568 0.061829995
000120 61 37 97 bc 6e 13 3d 3d cf 36 b4 3c 3c 2a 4f bd
       -0.018459024 0.046161108 0.021998791 -0.050577387
000130 54 31 ed bc b3 34 32 3d 64 20 b2 3b a2 d6 2c 3d
       -0.028954186 0.04350729 0.00543599 0.042196877
000140 be a2 09 3d 90 02 13 bd ab 10 0b bd eb 8b 67 3d
       0.03360247 -0.035891116 -0.033951443 0.05652992
000150 61 7e 02 3c 42 02 b4 3c dc 75 ee bc b7 f6 39 bd
       0.007964701 0.021973733 -0.029108934 -0.0454013
000160 7d ef 36 3d fa 06 05 bd 3b 80 fb bc 60 20 31 bb
       0.044661988 -0.032477356 -0.030700793 -0.0027027354
000170 c7 40 17 3d 5c 35 85 3c 10 17 d8 bc 60 5d 40 bd
       0.03692701 0.016260795 -0.026378185 -0.04696405
000180 af b7 d3 bc 82 5d 7b 3c af 53 26 bd af bb b4 bc
       -0.025844423 0.015342118 -0.04060715 -0.02206215
000190 66 01 09 3d d8 dd 3d bd b6 0e 59 3d 71 80 f7 bc
       0.0334486 -0.046354145 0.052992545 -0.030212613
0001a0 23 7f 52 bc 81 dc c1 bc d5 15 8a bd a7 a3 58 3d
       -0.012847695 -0.023664715 -0.067424454 0.052890446
0001b0 f1 8f 26 3d b9 1e 92 3b 87 ca 78 bd 92 fd 2d bd
       0.040664617 0.004459229 -0.06074002 -0.04247815
0001c0 74 0a f5 bc a0 5f f8 3c 4e dc e8 bc 7b 90 7e bd
       -0.029912211 0.030319035 -0.028425362 -0.062149506
0001d0 40 65 4a 3d 60 ea 82 bd 43 65 9e 3b 91 e2 43 3d
       0.049412966 -0.0639236 0.0048338487 0.047823492
0001e0 52 02 3b 3d 84 66 35 bd 76 4e 56 bd f3 21 28 3c
       0.04565651 -0.04428722 -0.05232092 0.010262
0001f0 f4 7e a4 bc 79 5d 14 bd 4d bb f1 bc be 76 f9 3c
       -0.020080067 -0.036221955 -0.029508257 0.030452128
000200 73 0e 4f 3c 33 38 2c bc 5b 24 02 3d ae 85 20 3c
       0.012637722 -0.010511446 0.031772953 0.009797497
000210 3b af 35 3b 7f 3d 38 bd be b6 9f bb bb 2f 4f bd
       0.0027722854 -0.044980522 -0.0048740795 -0.05058263
000220 8b 82 5b bd 30 59 06 3d 7c 4c 51 bc 77 c1 90 bc
       -0.053591292 0.0327999 -0.012774583 -0.017670376
000230 8a 67 7b 3b ce e5 4e bd 68 d9 69 3c aa 9e 53 bd
       0.0038361275 -0.050512128 0.014273025 -0.051664986
000240 6a d1 f5 3c f1 75 4d 3d 01 ea 2a bd 6e 80 1a bb
       0.030007083 0.050161306 -0.04172707 -0.0023575085
000250 0a 18 5c 3d c2 0a c7 3c 9d 01 f5 ba 6b 04 17 bd
       0.053733863 0.024297122 -0.0018692497 -0.036869448
000260 4f fd 07 bd 37 56 58 bd f6 a4 86 3c 35 32 1c bc
       -0.03320056 -0.052816596 0.016436081 -0.009533455
000270 17 2c 03 bd c8 8f c7 3c 14 75 19 3d 0f 73 3f bd
       -0.03202447 0.024360552 0.03746517 -0.046740588
000280 23 04 1c 3d eb ae 9c bc a2 ff 31 3b bf 0e d9 bb
       0.038089883 -0.019126376 0.0027160426 -0.0066240723
000290 36 3b 4b bd 8c 5f a6 bc a8 16 89 3d 15 53 4c bc
       -0.049617015 -0.020309232 0.066937745 -0.01247098
0002a0 cb e0 1f 3d fc 5f 31 bd d2 1e 84 3c 94 92 81 bd
       0.03903274 -0.04330443 0.016127978 -0.06326786
0002b0 c1 16 63 bc b4 67 ee 3c 30 1b 28 bd 79 de cb 3b
       -0.013860405 0.029102184 -0.041041553 0.006221589
0002c0 e7 80 fe bc 1f dc 29 bd 4c d4 53 bd 52 37 78 3c
       -0.031067325 -0.04146969 -0.051716134 0.015149908
0002d0 3b 3f 2d bd 22 c4 1b 3d a5 e8 86 3c db 28 57 bd
       -0.04229663 0.038028844 0.016468355 -0.052529197
0002e0 aa fc 82 3d 44 15 fd 3c cb ca 56 bc f7 5a 93 3b
       0.06395848 0.03089393 -0.013109873 0.004496928
0002f0 27 79 58 bd 2e 47 32 3d c6 1c 8b 3d c9 f9 4e bd
       -0.052849915 0.043524913 0.067925975 -0.050531182
000300 30 17 35 3d f4 76 1e 3d 27 9f 4d 3d 97 23 3a bd
       0.044211566 0.03868766 0.050200608 -0.045444097
000310 31 0c 0f 3d 64 4f 50 3d 60 1b f2 ba d6 db ad 3b
       0.034923736 0.050856963 -0.0018471293 0.0053057475
000320 e0 31 53 3d 5e 16 1b 3d 7d bf 08 bc 5a 6b 69 bc
       0.051561236 0.037863128 -0.008346436 -0.014246786
000330 3c bd 22 bd 0c b3 27 bc 6f e3 63 bd 5c 1f 04 bd
       -0.03973125 -0.010235559 -0.05563682 -0.03225647
000340 6e 52 95 bc 28 50 40 3d 25 a0 37 3c 4e 81 10 3d
       -0.018227782 0.046951443 0.011207615 0.035279565
000350 50 81 a6 3c 7c 79 0f 3d da bf 49 3d 9e 94 e0 bb
       0.020325333 0.035027966 0.04925523 -0.006853654
000360 40 e5 fe bc d8 21 d7 3b 6b b6 38 bc 4c 79 27 bd
       -0.031115174 0.006565314 -0.011273961 -0.040887162
000370 17 0f 6d 3c c7 29 4c bd 85 10 23 3d 35 d2 cb ba
       0.01446893 -0.04984453 0.039810676 -0.0015550317
000380 f0 f5 7d bc 8d 68 f2 3c d7 5e 1a bd 79 58 68 bd
       -0.015500531 0.02959087 -0.037688103 -0.056725
000390 a0 00 39 bd 92 bc c1 bc f8 a1 41 3d c3 54 c9 3c
       -0.04516661 -0.023649488 0.047273606 0.02457655
0003a0 a4 03 74 3d cf e2 3b bd b6 66 1a bd 22 58 70 bd
       0.059573784 -0.0458706 -0.03769561 -0.0586778
0003b0 a3 73 f4 3b 59 3d 0e bd e8 77 40 bd d2 68 5b 3d
       0.007460074 -0.034726474 -0.04698935 0.05356676
0003c0 86 43 3e bd f5 3e ca 3c 1f 67 0e bd 01 72 44 3b
       -0.046451114 0.024688223 -0.034766313 0.0029975178
0003d0 64 c7 0a bd 25 3f 67 3b 25 1a 52 3d 6e e5 69 bd
       -0.03388156 0.003528544 0.051294465 -0.057103567
0003e0 28 c0 a3 bc d4 c2 3e bd 94 8b 3b 3d 6f 5c 8b bc
       -0.019989088 -0.04657252 0.04578741 -0.01701185
0003f0 6a 76 1b 3b 6f d6 40 3d b4 49 6f 3d 37 99 f4 3c
       0.0023721703 0.0470795 0.0584199 0.029858215

psi.0.bias f4 [128]
000000 bd 5e b9 bc a9 e8 d2 bc 06 c1 5b bd 43 a2 5d bc
       -0.022628183 -0.025745707 -0.05365088 -0.013527456
000010 70 f6 8d bb 22 f7 e4 bb 0f 4c 08 bd 17 4b 1c bc
       -0.004332356 -0.0069874683 -0.03327566 -0.009539387
000020 d2 27 55 3c e8 32 01 3d 71 7f 9a 3c 5d dc 60 bc
       0.013009982 0.03154269 0.018859597 -0.013724414
000030 7d 7c 64 3d 57 fb de 3a b3 b6 46 3c e6 e3 13 bc
       0.055782784 0.0017012161 0.01212852 -0.009026503
000040 9d e7 de 3c f4 ab aa 3c f7 35 2e bd 65 29 31 bd
       0.027210051 0.020833947 -0.042531934 -0.043252368
000050 41 d8 de 3c df 2b 0d bd 2f 20 f9 3c 35 c6 87 3b
       0.027202727 -0.034465667 0.030410854 0.004143501
000060 0a 6d 4c 3d 28 41 fc 3c 38 df b5 bb 28 86 5c 3d
       0.049908675 0.030792788 -0.0055502914 0.05383888
000070 26 56 71 bd d9 09 29 bd e2 64 51 3d dd 01 33 bd
       -0.05892005 -0.041269157 0.0511216 -0.04370295
000080 d3 a9 35 bd b1 6b 5e bd 98 15 31 bd 86 dd 26 bd
       -0.04435141 -0.05430192 -0.043233484 -0.040738605
000090 9f bf 5a bc e1 aa df bc 34 6d 28 bd b2 a6 0e 3d
       -0.01335135 -0.027303161 -0.04111977 0.03482694
0000a0 cf 5d c0 3c b9 96 4a 3d 40 9c 31 3d db 12 46 3d
       0.023482231 0.049460147 0.043361902 0.048357826
0000b0 61 5b 7e bc 87 68 15 bd 80 7a 5e bd 26 dd 47 3c
       -0.015524716 -0.03647664 -0.054316044 0.012198722
0000c0 a8 94 17 3d 49 a2 5e bd 17 9d 36 3b da 76 13 3d
       0.037007004 -0.054353986 0.002786463 0.036002018
0000d0 e7 57 c4 3c fc 99 80 bb 70 8f 72 3c cc 80 5a 3c
       0.023967696 -0.0039246064 0.014804706 0.013336372
0000e0 6d 75 9e 3c a7 66 4c 3d 4f 4b 5e 3d 25 3d 96 bc
       0.019343102 0.049902584 0.05427104 -0.018339703
0000f0 98 73 81 bc 8b 44 44 bd 3d 1c 50 3d 7b ec bc 3c
       -0.01580219 -0.04791693 0.05080818 0.023061981
000100 ab d6 d8 3c 98 84 f5 3b 2f 30 39 bb 2c 38 52 3d
       0.02646955 0.007492613 -0.002825748 0.0513231
000110 88 cd 14 3d df 5c 6b 3c 73 60 a4 bc 18 3d 18 bd
       0.036328822 0.014365404 -0.020065522 -0.03716764
000120 49 99 4d bd 3e 94 5b 3d 8e 7d 05 3d e2 8a 90 3c
       -0.050195012 0.05360817 0.03259044 0.01764435
000130 85 06 c9 bc ae 57 f0 bc 33 42 32 3b 3f 79 d1 bc
       -0.024539242 -0.029338684 0.0027200102 -0.02557051
000140 65 d1 88 bc 9b f5 45 3d 03 cb 81 3b 97 a8 78 3d
       -0.01670141 0.04832993 0.0039609685 0.060707655
000150 57 cf a8 bc 7d 24 58 bd f6 1b 03 bd 47 a3 38 3d
       -0.02060668 -0.052769173 -0.032009088 0.04507759
000160 14 83 b1 bc 59 08 4d bd 1f ab 36 3d e9 6a 19 bd
       -0.021668948 -0.05005679 0.044596788 -0.037455473
000170 b8 9f be bc d3 08 22 3d e5 d2 18 3d 80 45 6e 3a
       -0.02326952 0.039559197 0.0373105 0.0009089336
000180 c9 31 39 3d 7a 29 46 3d 82 0c 61 3d 14 2f 95 bb
       0.045213494 0.0483794 0.05494357 -0.0045527313
000190 3a 20 29 bd 56 44 a6 3c 25 cf 28 bd da ae 4f bd
       -0.0412905 0.020296257 -0.041213173 -0.05070386
0001a0 17 97 49 bd 5f 21 3f 3d 41 0b ca bc 37 fb 1a 3d
       -0.049216356 0.046662685 -0.02466357 0.037837233
0001b0 23 f1 3d 3d f7 ee 6f 3c ca 59 43 bd 48 33 81 3b
       0.046372544 0.014644376 -0.04769305 0.003942881
0001c0 c0 70 0d 3d e5 6a 46 bd 60 19 3f 3d 3f f3 7e ba
       0.034531355 -0.048441786 0.04665506 -0.00097255775
0001d0 1a 51 a3 bc 56 68 50 3d 0e 75 b2 bc 16 4a 45 bc
       -0.019936133 0.050880753 -0.021784332 -0.012041589
0001e0 ef 7a 0a bb 3a 9f 11 bd 20 a1 1b 3d 65 38 13 bd
       -0.0021130403 -0.03555224 0.037995458 -0.035942454
0001f0 5f 78 bd 3b 4e b9 c2 3c 4d f2 4a 3d 00 52 0d bc
       0.0057821716 0.02377 0.049547482 -0.008625507
