lightning_logs/version_13/checkpoints/epoch=0-step=99.ckpt (torch, 609856 bytes, 54 tensors)

lattice_net.0.weight f4 [8, 1, 2]
-0.5840406 -0.39941567 0.6309381 -0.13787492 0.22438847 -0.101762764 -0.5548716 -0.063061476
-0.45234105 0.014610062 -0.40450513 0.48949304 -0.5156258 -0.15798537 0.3167629 0.44219804
00000000: af83 15bf 3680 ccbe 2985 213f 152f 0dbe
00000010: 17c6 653e ff68 d0bd 110c 0ebf 6026 81bd
00000020: 3f99 e7be 0b5f 6f3c 4c1b cfbe d59e fa3e
00000030: 0d00 04bf ebc6 21be bf2e a23e c867 e23e

lattice_net.0.bias f4 [8]
-0.1398758 -0.2375675 -0.51522815 -0.3928408 0.5800883 0.57547235 0.34731618 -0.03428212
00000000: 9a3b 0fbe e544 73be fee5 03bf 6e22 c9be
00000010: ab80 143f 2852 133f 6dd3 b13e 696b 0cbd

lattice_net.2.weight f4 [16, 8, 2]
-0.095708854 -0.19113791 0.15276511 -0.13277364 -0.20104164 0.031834267 -0.23709184 0.0016745675
-0.19374305 -0.08701011 0.17598061 0.07510358 -0.23353574 0.21858187 0.1775158 0.15110506
-0.08131358 0.07958936 -0.18169694 0.2483563 0.16801593 -0.16844921 0.22711404 -0.049677517
-0.15869513 -0.22358876 0.22604987 0.19042748 0.16669148 -0.11163624 0.19553798 -0.14919475
-0.1368159 -0.19149345 -0.041008424 0.2319441 0.052103575 -0.028069837 -0.13030699 0.032200336
-0.16403158 0.14503403 0.20004274 -0.1695491 0.07942017 -0.06271759 0.09679593 -0.1414327
0.25600058 0.21867211 0.14580715 0.07307891 0.03902657 -0.11777886 -0.1372038 -0.22178471
-0.11043696 0.1954854 0.21317299 0.12305011 -0.1531696 0.18234634 0.10647139 -0.07850123
-0.037887484 0.24153684 -0.218012 -0.13797696 -0.09707344 -0.1091775 -0.05310896 -0.1970222
-0.108865835 0.06396777 0.099023536 -0.0701987 -0.21991184 -0.020274295 0.083161026 0.22865245
0.08826279 0.18614249 -0.20803967 0.07238268 -0.15417747 0.24669595 -0.06612282 0.20479743
-0.16016854 0.12504995 0.20928964 -0.01106361 0.16843888 -0.16797927 -0.123094305 -0.14522395
-0.17621212 -0.07345004 -0.09158399 -0.16462117 0.020133123 0.0047099483 -0.05211624 -0.22286658
0.12164115 0.00855029 -0.25851122 0.12344718 -0.14099754 0.18667106 -0.04414245 0.1019516
-0.03935771 -0.15965274 0.048556544 -0.13070868 0.23755126 0.048615385 0.067979105 0.18216282
-0.08118406 -0.10861269 0.1695017 -0.029406017 0.13878329 -0.22533219 0.037445553 -0.23565328
-0.04288151 0.025955195 -0.22263645 0.24111538 -0.04979107 0.1238211 -0.08768614 -0.16567142
0.14963548 -0.13218072 -0.13859217 -0.21193665 0.21083398 -0.21036755 0.17719588 0.16388308
-0.024688516 -0.25782073 -0.16953541 0.03898153 0.16145098 0.10086271 0.12335966 -0.033845074
0.1011584 -0.030169657 -0.08978282 0.0396839 0.185867 0.06640557 -0.027336331 -0.18029468
0.14802961 -0.037455168 0.18169807 -0.058875117 0.16295858 -0.2487639 0.17888936 0.05871185
-0.05597583 -0.1404067 0.16775268 0.24198723 0.008640143 -0.07066072 0.2112514 -0.21427745
-0.08318408 0.12040856 -0.11158956 0.030586565 0.20311742 0.10308558 0.10333946 0.059694994
-0.19767055 -0.006782918 -0.09248994 -0.23959148 0.061095033 0.124220446 0.16807136 0.06916296
-0.11308282 0.15915948 0.010606363 -0.05825152 0.07932157 -0.12167057 -0.14932758 0.020054815
0.17727114 -0.22072667 0.1278879 0.024862494 0.2065662 0.07680765 0.017596489 0.13437805
-0.13302098 0.03208209 -0.09032008 0.07134633 0.19242468 -0.2516477 0.15391435 0.19083582
-0.15260936 0.073807426 -0.18143503 -0.11978572 -0.21698701 -0.023934029 -0.20315447 0.08851067
0.18377803 -0.12964062 0.056546908 -0.010272146 0.022948217 0.09385941 -0.01172391 0.17994402
-0.084116004 -0.220967 -0.1939702 -0.10073252 0.02889966 0.055037472 -0.13489395 0.15657265
0.08122437 0.19161354 0.23081313 0.25612748 0.22537991 -0.10788262 0.061391275 -0.25876158
-0.05845428 0.09645085 -0.16351503 0.15906452 -0.24870895 -0.16723788 -0.19767913 0.1054432
00000000: 0103 c4bd a8b9 43be 756e 1c3e d0f5 07be
00000010: dcdd 4dbe a664 023d 34c8 72be 297d db3a
00000020: 9464 46be 5b32 b2bd 4334 343e e8cf 993d
00000030: fe23 6fbe edd3 5f3e b4c6 353e 49bb 1a3e
00000040: bc87 a6bd bfff a23d c30e 3abe 1d51 7e3e
00000050: 5e0c 2c3e f37d 2cbe 9590 683e a77a 4bbd
00000060: fa80 22be 74f4 64be 9e79 673e 6cff 423e
00000070: 2cb1 2a3e 8aa1 e4bd 1c3b 483e 82c6 18be
00000080: 7819 0cbe dc16 44be 73f8 27bd c182 6d3e
00000090: 8f6a 553d b7f2 e5bc 326f 05be 80e4 033d
000000a0: e5f7 27be cd83 143e 01d8 4c3e 479e 2dbe
000000b0: 0ba7 a23d 1472 80bd f23c c63d bcd3 10be
000000c0: 8212 833e 95eb 5f3e 784e 153e 65aa 953d
000000d0: 53da 1f3d 0b36 f1bd 277f 0cbe 881b 63be
000000e0: c62c e2bd 532d 483e 054a 5a3e b201 fc3d
000000f0: 7ed8 1cbe 00b9 3a3e ac0d da3d 41c5 a0bd
00000100: e82f 1bbd 6f55 773e 8a3e 5fbe d549 0dbe
00000110: 71ce c6bd 7498 dfbd c888 59bd 30c0 49be
00000120: 0df5 debd 8901 833d dacc ca3d 56c4 8fbd
00000130: 9230 61be 4716 a6bc 5450 aa3d de23 6a3e
00000140: 1fc3 b43d 239c 3e3e 5a08 55be 5f3d 943d
00000150: b3e0 1dbe dd9d 7c3e 676b 87bd 6bb6 513e
00000160: 3903 24be 180d 003e 0650 563e 2544 35bc
00000170: 3e7b 2c3e c202 2cbe de18 fcbd 96b5 14be
00000180: f370 34be f96c 96bd 6390 bbbd 7492 28be
00000190: 38ee a43c e955 9a3b d777 55bd 2337 64be
000001a0: ff1e f93d 8416 0c3c 955b 84be e0d1 fc3d
000001b0: a961 10be b326 3f3e b7ce 34bd 00cc d03d
000001c0: 8d35 21bd 027c 23be 3ae3 463d 7fd8 05be
000001d0: a340 733e ed20 473d a138 8b3d e488 3a3e
000001e0: d443 a6bd 5470 debd db91 2d3e e3e4 f0bc
000001f0: 351d 0e3e 7bbd 66be 8260 193d 184f 71be
00000200: 86a4 2fbd fd9f d43c cffa 63be f3e6 763e
00000210: b9f1 4bbd eb95 fd3d ca94 b3bd c5a5 29be
00000220: 0b3a 193e 625a 07be 1beb 0dbe ec05 59be
00000230: dde4 573e 976a 57be d672 353e f7d0 273e
00000240: 923f cabc 1401 84be b19a 2dbe 19ab 1f3d
00000250: 6853 253e 1c91 ce3d fda3 fc3d 22a1 0abd
00000260: 232c cf3d 5b26 f7bc 0ee0 b7bd 968b 223d
00000270: eb53 3e3e a5ff 873d 71f0 dfbc 2b9f 38be
00000280: 1395 173e 976a 19bd 0f0f 3a3e 0927 71bd
00000290: 9dde 263e f7bb 7ebe c62e 373e d67b 703d
000002a0: e946 65bd c6c6 0fbe 5cc7 2b3e 80cb 773e
000002b0: 638f 0d3c 91b6 90bd 4952 583e 8c6b 5bbe
000002c0: 6a5c aabd c398 f63d 1189 e4bd ad90 fa3c
000002d0: 03fe 4f3e 881e d33d a4a3 d33d bd82 743d
000002e0: 266a 4abe 3d43 debb 5e6b bdbd 7857 75be
000002f0: c93e 7a3d 4a67 fe3d e61a 2c3e 4fa5 8d3d
00000300: f797 e7bd b4fa 223e 50c6 2d3c 2599 6ebd
00000310: 5973 a23d 6b2e f9bd 54e9 18be ff49 a43c
00000320: 9186 353e 2c06 62be 0cf5 023e 6eac cb3c
00000330: 1786 533e 544d 9d3d 8326 903c 669a 093e
00000340: a736 08be 8268 033d bcf9 b8bd 061e 923d
00000350: fa0a 453e f8d7 80be b99b 1d3e 776a 433e
00000360: a145 1cbe 5928 973d 1bca 39be 3752 f5bd
00000370: d831 5ebe 4c11 c4bc ba07 50be 1545 b53d
00000380: 4f30 3c3e 83c0 04be bb9d 673d 814c 28bc
00000390: e6fd bb3c 5d39 c03d a515 40bc 3f43 383e
000003a0: 0345 acbd 2c45 62be 20a0 46be da4c cebd
000003b0: fbbe ec3c f96e 613d a421 0abe 9554 203e
000003c0: f658 a63d 5736 443e 475a 6c3e 2423 833e
000003d0: fec9 663e 90f1 dcbd 6b75 7b3d 667c 84be
000003e0: c16d 6fbd 0688 c53d 7c70 27be cfe1 223e
000003f0: 8fad 7ebe 6840 2bbe 666c 4abe 9bf2 d73d

lattice_net.2.bias f4 [16]
-0.05701174 -0.021563604 -0.010764665 -0.03579312 -0.14246945 0.11058235 0.081001915 -0.054041203
0.040157653 0.016041469 -0.0010635178 0.21049507 -0.17966989 0.116106644 0.10244459 0.048225798
00000000: 2485 69bd 28a6 b0bc 475e 30bc ce9b 12bd
00000010: 83e3 11be 0079 e23d 55e4 a53d 4f5a 5dbd
00000020: 5a7c 243d 6669 833c bc65 8bba 058c 573e
00000030: 62fb 37be 52c9 ed3d 78ce d13d 6a88 453d

lattice_net.4.weight f4 [32, 16, 2]
0.1342569 0.16207823 -0.17658462 0.004793027 0.07063 0.015565875 -0.026354928 -0.06938087
-0.08643279 -0.11712128 0.025610544 -0.15994495 0.1438348 0.09014278 0.017808707 -0.04319323
-0.15367323 -0.0511002 -0.09564997 -0.051206872 -0.0026739268 -0.143568 0.02303274 0.13451852
0.048294086 0.07289854 0.0850296 -0.06562266 0.033555463 -0.020804262 0.033563726 -0.00884703
0.078178875 0.17243013 -0.13491939 0.08453567 0.0060280203 -0.17628488 0.060903203 0.09018098
-0.13603175 0.02507336 -0.16482864 -0.16967607 0.16615747 0.05206088 -0.12332921 -0.08423637
-0.06215187 0.14382572 0.099799484 -0.12382468 -0.19026881 -0.08068008 0.11942762 0.055436466
-0.03508522 0.046354245 -0.11714345 -0.050335713 0.14179552 0.026822655 -0.14808151 0.06633269
-0.17886354 0.041335505 -0.1801593 -0.0019260118 0.08490326 0.037953094 -0.06348734 -0.07628872
0.06601304 0.044333372 -0.14024635 -0.14335957 -0.016159596 -0.14476009 -0.12308998 -0.03170622
-0.047244225 -0.0604353 -0.07178815 -0.160406 0.13874279 0.077286355 -0.12687382 -0.16065596
-0.09071154 -0.17214164 0.08813785 -0.06320196 -0.0716397 0.10546706 0.15516488 -0.17351112
-0.12049166 -0.08149651 -0.115474924 -0.16453359 0.15334709 0.014255183 0.0063565443 -0.1686511
0.1571005 0.15817901 0.15134676 0.10927652 0.048588514 -0.08388702 -0.16995212 0.14726181
-0.05564017 0.020776127 -0.15213515 -0.18126585 -0.118167214 -0.16587132 0.0065599107 0.13693573
-0.16822417 0.07039394 0.007576287 -0.10150311 0.13541462 -0.014638431 0.06240211 -0.056212127
-0.1723976 -0.14174865 0.12566757 0.12582007 -0.161795 -0.023006853 0.011836122 -0.021924153
0.11796979 -0.07270071 -0.066526696 0.1423065 0.004611599 -0.0012132693 -0.032594662 -0.023233417
0.12327895 -0.03485815 -0.036010597 0.17211992 -0.059904728 -0.04814326 -0.11865815 -0.08996113
0.047658432 -0.07908965 -0.07672848 0.07493337 -0.04306535 0.11274783 0.10488442 -0.10776755
-0.12819405 0.1624191 0.021737978 0.14165851 0.16607781 -0.12866524 0.06927052 -0.16373074
-0.054199677 -0.090927 0.062066287 0.115603186 0.16553824 0.053079393 0.1313827 0.07734173
-0.11879743 -0.1088976 0.1629345 0.14472942 -0.026924726 -0.10597304 -0.09304917 0.18517773
0.040339656 -0.08543387 -0.082445286 -0.044012923 0.029916178 0.12670606 0.038786538 0.17783391
0.034457605 0.093734704 0.080964215 -0.056776036 0.018946368 -0.09632286 -0.081759386 0.01693327
-0.12612519 0.11586994 0.16401953 4.023396e-05 0.16325696 -0.02612281 0.025942959 0.10724798
-0.08542575 0.07861825 -0.12555672 -0.081599906 0.043938555 0.13002414 -0.021925999 0.10662734
0.0016440606 -0.16093823 -0.12981607 -0.115571596 0.06299627 0.14056234 -0.15067014 -0.17210093
-0.068275176 0.03477155 -0.08567875 0.11336837 -0.14977278 0.15529984 -0.023988444 -0.05899164
-0.077401444 -0.13169421 0.12989862 -0.07789762 -0.09807962 0.06809373 0.13120873 0.06540933
0.014886767 0.0553864 0.15851654 -0.06920029 -0.15452 0.10009441 0.055190854 0.15431511
0.17474759 -0.1531353 -0.085119195 -0.05504228 0.1416876 0.1081207 0.06184979 0.08227053
00000000: a47a 093e d6f7 253e 99d2 34be d30e 9d3b
00000010: 76a6 903d 0308 7f3c 4ae6 d7bc 8f17 8ebd
00000020: ad03 b1bd 48dd efbd 34cd d13c 9cc8 23be
00000030: 6e49 133e c79c b83d 91e3 913c 62eb 30bd
00000040: 845c 1dbe 714e 51bd 22e4 c3bd 4cbe 51bd
00000050: 0c3d 2fbb 7d03 13be 28af bc3c 39bf 093e
00000060: 05d0 453d d44b 953d 0024 ae3d 2c65 86bd
00000070: 7471 093d b36d aabc 1e7a 093d 22f3 10bc
00000080: 3f1c a03d 8691 303e 4f28 0abe 0a21 ad3d
00000090: b386 c53b 0684 34be a375 793d ceb0 b83d
000000a0: e84b 0bbe a666 cd3c d7c8 28be 90bf 2dbe
000000b0: 2f25 2a3e ca3d 553d 0694 fcbd 1e84 acbd
000000c0: f692 7ebd 0d47 133e ac63 cc3d cb97 fdbd
000000d0: d4d5 42be 993b a5bd 7896 f43d 5911 633d
000000e0: 85b5 0fbd f3dd 3d3d e8e8 efbd d22c 4ebd
000000f0: d832 113e 2fbb db3c aea2 17be 6fd9 873d
00000100: 0128 37be 6b4f 293d ae7b 38be 3b72 fcba
00000110: c3e1 ad3d b474 1b3d a705 82bd 433d 9cbd
00000120: d831 873d e996 353d bd9c 0fbe dacc 12be
00000130: 2161 84bc fd3b 14be 9916 fcbd 62de 01bd
00000140: 2983 41bd 018b 77bd aa05 93bd 7841 24be
00000150: 9712 0e3e 4f48 9e3d 36eb 01be ff82 24be
00000160: f9c6 b9bd e645 30be 9e81 b43d 0770 81bd
00000170: d6b7 92bd 1dff d73d 8be3 1e3e e6ac 31be
00000180: 55c4 f6bd a4e7 a6bd 1e7e ecbd 7e7b 28be
00000190: 0507 1d3e 928e 693c 8f4a d03b e0b2 2cbe
000001a0: f4de 203e aef9 213e a5fa 1a3e 5ecc df3d
000001b0: c004 473d f5cc abbd ee07 2ebe cdcb 163e
000001c0: f2e6 63bd b232 aa3c 51c9 1bbe c19d 39be
000001d0: a701 f2bd 2cda 29be 85f4 d63b e138 0c3e
000001e0: f542 2cbe b32a 903d 8042 f83b dde0 cfbd
000001f0: 21aa 0a3e 08d6 6fbc 5b99 7f3d b03e 66bd
00000200: ff88 30be 8f26 11be 00af 003e fad6 003e
00000210: 97ad 25be de78 bcbc 4bec 413c 489a b3bc
00000220: 259a f13d 1ce4 94bd 263f 88bd ccb8 113e
00000230: e51c 973b 9006 9fba fb81 05bd 0254 bebc
00000240: ad79 fc3d 6bc7 0ebd d97f 13bd 3440 303e
00000250: a95e 75bd de31 45bd 0b03 f3bd 8a3d b8bd
00000260: 7d35 433d c1f9 a1bd d223 9dbd ab76 993d
00000270: 4b65 30bd 56e8 e63d a5cd d63d 3cb5 dcbd
00000280: 4d45 03be 3151 263e d813 b23c ee0e 113e
00000290: 4d10 2a3e d2c0 03be b4dd 8d3d 08a9 27be
000002a0: 7b00 5ebd ef37 babd 3839 7e3d 5dc1 ec3d
000002b0: db82 293e c769 593d 3089 063e 5765 9e3d
000002c0: 114c f3bd b405 dfbd 4dd8 263e f333 143e
000002d0: 3e91 dcbc 6508 d9bd 9090 bebd 3b9f 3d3e
000002e0: 323b 253d f4f7 aebd 13d9 a8bd e546 34bd
000002f0: c612 f53c 3cbf 013e a2de 1e3d 181a 363e
00000300: 6b23 0d3d fbf7 bf3d 91d0 a53d fd8d 68bd
00000310: 6a35 9b3c eb44 c5bd 7771 a7bd a4b7 8a3c
00000320: f626 01be 384d ed3d bcf4 273e e3c0 2838
00000330: d52c 273e 81ff d5bc 5486 d43c d4a4 db3d
00000340: b2f3 aebd 9b02 a13d f191 00be da1d a7bd
00000350: eaf8 333d 0c25 053e 279e b3bc 6f5f da3d
00000360: 857d d73a fecc 24be 81ee 04be cdb0 ecbd
00000370: 3004 813d 93ef 0f3e 4649 1abe 3a3b 30be
00000380: dbd3 8bbd 9d6c 0e3d 5778 afbd ad2d e83d
00000390: 095e 19be ec06 1f3e 6a83 c4bc 38a1 71bd
000003a0: a684 9ebd d9da 06be 2504 053e ca88 9fbd
000003b0: f8dd c8bd ba74 8b3d 955b 063e 54f5 853d
000003c0: a0e7 733c dadc 623d 2952 223e e2b8 8dbd
000003d0: 7e3a 1ebe 4cfe cc3d ce0f 623d c804 1e3e
000003e0: 08f1 323e 80cf 1cbe f952 aebd 0474 61bd
000003f0: 8e16 113e 636e dd3d 3556 7d3d 747d a83d

lattice_net.4.bias f4 [32]
-0.07481683 0.156731 0.12490884 0.01459993 -0.16191362 0.09536197 0.12950557 0.109111905
-0.021831024 0.063888706 -0.020232685 0.054173853 -0.119107544 -0.055213317 -0.026467131 -0.040950052
-0.17207599 -0.090981774 0.1628553 0.17963465 0.09478295 -0.092541575 0.121231325 -0.16658698
0.08515746 0.16411573 -0.11577976 -0.0012593943 -0.033871837 0.13067883 -0.084108 0.034441583
00000000: 9139 99bd 177e 203e 35d0 ff3d 8b34 6f3c
00000010: afcc 25be 234d c33d 1c9d 043e 1076 df3d
00000020: fad6 b2bc 15d8 823d 04bf a5bc 67e5 5d3d
00000030: a8ee f3bd 5c27 62bd 99d1 d8bc 3ebb 27bd
00000040: b034 30be a754 babd 8ac3 263e 25f2 373e
00000050: 901d c23d 7086 bdbd 2148 f83d c795 2abe
00000060: 0967 ae3d f40d 283e f01d edbd 4312 a5ba
00000070: 32bd 0abd acd0 053e d140 acbd 9e12 0d3d

tNN.0.weight f4 [16, 2]
-0.55277216 0.18562914 0.64478135 0.54373306 0.068905205 0.5272678 -0.30488068 -0.0030550486
0.056003045 -0.49131346 0.11284346 -0.49346456 0.004409066 -0.3900561 0.2748245 0.30536702
0.25065717 0.5527664 0.09126023 -0.6580137 0.5519351 0.21982676 0.13301831 0.63025147
0.55177236 -0.33844098 0.24659176 -0.099677876 0.0107434 0.22415604 0.040660497 -0.091494195
00000000: 7a82 0dbf 9115 3e3e 6410 253f 1732 0b3f
00000010: 2c1e 8d3d 06fb 063f 5219 9cbe 3637 48bb
00000020: 7363 653d 708d fbbe 791a e73d 63a7 fcbe
00000030: ed79 903b 6fb5 c7be ccb5 8c3e 1159 9c3e
00000040: 2356 803e 1982 0d3f a5e6 ba3d 9673 28bf
00000050: 9e4b 0d3f 441a 613e f435 083e 2958 213f
00000060: f440 0d3f 2348 adbe 8d82 7c3e ea23 ccbd
00000070: 1605 303c 2989 653e 9f8b 263d 4f61 bbbd

tNN.0.bias f4 [16]
-0.0067540323 0.65990543 -0.07308408 0.2873753 -0.6835551 -0.33557388 -0.60143435 0.36658967
-0.26179168 -0.0052589444 -0.46030545 0.00916924 -0.41120464 0.32388562 0.15178372 -0.28697678
00000000: ee50 ddbb 90ef 283f 1bad 95bd db22 933e
00000010: 78fd 2ebf 57d0 abbe 9af7 19bf a4b1 bb3e
00000020: 8f09 86be 3953 acbb 28ad ebbe 943a 163c
00000030: 6a89 d2be 56d4 a53e 316d 1b3e 9fee 92be

tNN.2.weight f4 [32, 16]
-0.051572442 -0.05712329 -0.0486145 0.19819696 0.24692035 0.0028319508 0.10948622 -0.19921067
0.0017712337 -0.110368945 0.10639047 -0.12084922 0.070514254 -0.1395075 -0.2394253 -0.039560948
-0.059349816 0.22127591 -0.06287073 -0.1255865 -0.053592045 0.20893644 -0.035912085 -0.18221661
-0.03690347 0.16771127 -0.1748345 0.16223367 0.23566447 0.11600113 0.054644797 0.24626894
-0.19693759 -0.06610175 -0.042998206 -0.18355958 -0.11066037 0.007229367 -0.09030717 -0.2323917
0.24929494 0.063646354 0.23970798 0.12773696 0.048797533 -0.11388771 -0.22312704 0.043515377
-0.2033728 0.2401628 -0.25097767 0.17145467 -0.15534814 -0.11510675 0.033169486 0.24317044
0.05590408 0.005948873 0.24455807 0.12898204 0.17755765 0.11459139 0.085124664 0.16183233
-0.12182473 0.13592073 0.014093619 -0.03707406 -0.01886313 0.031225445 -0.058164425 0.21822545
0.21937068 0.24631914 -0.18516524 -0.09905023 -0.10054154 0.0868818 -0.09035458 0.09413506
-0.1469005 0.031390373 0.090576895 -0.08613013 0.17349185 -0.12785761 0.15271883 -0.046428036
0.16515252 -0.05638227 0.09991644 -0.22770497 0.11776613 0.044637118 -0.18012123 -0.15971664
0.13966937 -0.23162153 -0.24456067 0.04861718 0.095295794 0.21423912 -0.19300385 -0.16258538
-0.14396612 -0.06817304 -0.04527295 0.013069306 0.04097226 0.18821837 0.044898517 0.023446862
-0.19668107 -0.11202462 -0.07388731 0.2442732 0.19171806 -0.16496079 -0.12292542 0.028703868
-0.09506466 0.027334347 -0.14192723 0.17135763 0.018906945 -0.061964277 0.034278948 0.018406745
-0.13887316 0.20702668 0.09178993 0.021884026 0.22950643 0.034095865 -0.2516012 0.16857912
-0.19604607 0.22875169 -0.13322148 -0.15691654 0.053739253 -0.16925953 -0.022544114 -0.011664358
-0.20062174 -0.04535121 -0.23313916 -0.1812277 0.05456677 0.065504394 -0.014821662 0.06914173
-0.010234511 -0.22092094 -0.15358965 0.033612676 0.146765 0.18218717 -0.10910408 0.16245651
-0.08361791 -0.0804574 0.08614743 -0.14130452 -0.24094643 -0.19910018 0.19389303 -0.18444689
0.10062766 0.21367073 -0.16869274 0.19536522 -0.07043223 -0.2332196 -0.058632787 -0.22975178
-0.18631205 0.06010726 0.20129985 -0.2357976 -0.222177 -0.023006681 0.11432825 -0.07229949
-0.056298543 -0.09321818 -0.11191208 0.22682752 0.06941736 0.15594262 -0.058674093 0.014814587
0.0818808 0.20208125 -0.20203592 0.17353968 0.10842185 0.038495637 0.17355253 0.15055099
0.22497424 -0.14881063 -0.23293902 -0.17743327 0.24021535 0.022652972 -0.14141446 0.08701504
0.069780484 -0.17976317 -0.1433252 0.1689081 0.02869779 0.10447386 0.11823994 -0.03247169
0.078458436 0.18548873 0.22324067 -0.15802401 0.038662676 0.07111158 -0.22475685 0.19503795
0.14094996 -0.06757196 0.18905263 0.1543447 0.14703143 -0.17554927 0.035852864 -0.007627989
0.099028856 0.22570495 0.22999072 0.18671763 0.08372675 0.2166936 -0.0031111517 0.2047023
0.08790763 -0.08223618 0.13667731 0.15961492 0.25095358 -0.24071795 -0.052240502 0.15181443
0.062383093 -0.07126693 -0.20237413 -0.13044724 -0.07737983 0.19199708 0.11701062 -0.14282349
00000000: a03d 53bd 1cfa 69bd ff1f 47bd 25f4 4a3e
00000010: b0d8 7c3e 4098 393b 503a e03d e2fd 4bbe
00000020: be28 e83a 1d09 e2bd 3fe3 d93d cc7f f7bd
00000030: c769 903d 0edb 0ebe e82b 75be a90a 22bd
00000040: cb18 73bd 2796 623e 5fc2 80bd bf99 00be
00000050: 5583 5bbd 6ff3 553e 8d18 13bd fe96 3abe
00000060: 1828 17bd 81bc 2b3e d107 33be 9520 263e
00000070: 0752 713e 0092 ed3d 39d3 5f3d ed2d 7c3e
00000080: 02aa 49be 5b60 87bd e31e 30bd 0bf7 3bbe
00000090: e7a1 e2bd 53e4 ec3b f7f2 b8bd 17f8 6dbe
000000a0: 2c47 7f3e 0559 823d 0276 753e 7acd 023e
000000b0: ecdf 473d f63d e9bd 6a7b 64be 2e3d 323d
000000c0: f640 50be 3ded 753e 2580 80be d091 2f3e
000000d0: 9513 1fbe 16bd ebbd badc 073d ac01 793e
000000e0: adfb 643d c3ee c23b 6e6d 7a3e de13 043e
000000f0: acd1 353e e4ae ea3d d755 ae3d 60b7 253e
00000100: 3e7f f9bd ce2e 0b3e ece8 663c f8da 17bd
00000110: da86 9abc 81cc ff3c d23d 6ebd 7e76 5f3e
00000120: b5a2 603e 163b 7c3e f59b 3dbe d9da cabd
00000130: b9e8 cdbd 16ef b13d d20b b9bd e2c9 c03d
00000140: 166d 16be 3193 003d 6180 b93d fe64 b0bd
00000150: d9a7 313e 1bed 02be 5362 1c3e 532b 3ebd
00000160: be1d 293e 18f1 66bd fea0 cc3d 7e2b 69be
00000170: 5e2f f13d 69d5 363d b371 38be c28c 23be
00000180: 7d05 0f3e 322e 6dbe 1d6e 7abe cf22 473d
00000190: 712a c33d 8061 5b3e cda2 45be c87c 26be
000001a0: db6b 13be 4f9e 8bbd 2170 39bd a420 563c
000001b0: 87d2 273d 51bc 403e 82e7 373d a213 c03c
000001c0: c366 49be 2a6d e5bd 3b52 97bd c122 7a3e
000001d0: bd51 443e 7beb 28be 53c0 fbbd 6024 eb3c
000001e0: 43b1 c2bd 48ec df3c 5f55 11be 6078 2f3e
000001f0: bde2 9a3c 41ce 7dbd 1568 0c3d bec9 963c
00000200: c434 0ebe cdfe 533e 5cfc bb3d 2146 b33c
00000210: bc03 6b3e 1ba8 0b3d dfd1 80be 01a0 2c3e
00000220: 4dc0 48be e23d 6a3e 366b 08be bbae 20be
00000230: b11d 5c3d 5f52 2dbe 6fae b8bc dd1b 3fbc
00000240: c96f 4dbe 31c2 39bd 08bc 6ebe c193 39be
00000250: 6881 5f3d 2b27 863d 8ed6 72bc 2e9a 8d3d
00000260: a7ae 27bc 1939 62be 9b46 1dbe 72ad 093d
00000270: 9049 163e 468f 3a3e f671 dfbd 005b 263e
00000280: de3f abbd d9c6 a4bd 106e b03d 22b2 10be
00000290: a9ba 76be ebe0 4bbe e58b 463e a5df 3cbe
000002a0: e015 ce3d 80cc 5a3e cabd 2cbe d20d 483e
000002b0: c63e 90bd 1ed1 6ebe ef28 70bd 0d44 6bbe
000002c0: 96c8 3ebe 0833 763d 8c21 4e3e ed74 71be
000002d0: 5e82 63be 8278 bcbc ee24 ea3d c111 94bd
000002e0: 4d99 66bd 2ce9 bebd 2932 e5bd 7945 683e
000002f0: b02a 8e3d 6caf 1f3e 3f54 70bd e2b8 723c
00000300: 1fb1 a73d 63ee 4e3e 81e2 4ebe 63b4 313e
00000310: 460c de3d 9aad 1d3d c1b7 313e 0a2a 1a3e
00000320: a65f 663e d061 18be 9187 6ebe 11b1 35be
00000330: 03fb 753e ba92 b93c f4ce 10be f134 b23d
00000340: 12e9 8e3d d613 38be d7c3 12be 3ff6 2c3e
00000350: a117 eb3c 64f6 d53d c827 f23d 0901 05bd
00000360: d1ae a03d c2f0 3d3e 3499 643e 0cd1 21be
00000370: c15c 1e3d f3a2 913d a926 66be 07b8 473e
00000380: 3055 103e 2b63 8abd 0397 413e 890c 1e3e
00000390: 688f 163e 30c3 33be 74da 123d 36f4 f9bb
000003a0: a4cf ca3d 331f 673e b082 6b3e e832 3f3e
000003b0: ee78 ab3d ede4 5d3e 77e4 4bbb 7b9d 513e
000003c0: ea08 b43d 716b a8bd 23f5 0b3e 1872 233e
000003d0: fd7c 803e c47e 76be 23fa 55bd 3e75 1b3e
000003e0: 6a85 7f3d 65f4 91bd 2a3b 4fbe f693 05be
000003f0: 5179 9ebd e29a 443e 44a3 ef3d 5240 12be

tNN.2.bias f4 [32]
-0.22275057 -0.06372782 0.007948015 -0.108862504 0.22252497 0.023208752 -0.06588154 -0.22667037
-0.2313467 0.007378545 0.06086686 -0.13824503 0.0033070017 0.06577185 -0.09898001 -0.06302082
0.029858038 0.13892016 0.1563123 -0.065158665 -0.13687682 -0.049567197 -0.20049283 -0.20399737
0.22466429 0.09467574 -0.080946125 -0.23647167 -0.10825418 -0.07088109 -0.1437888 -0.20890325
00000000: ba18 64be bb83 82bd 6438 023c 4ef3 debd
00000010: 96dd 633e 4820 be3c e7ec 86bd 471c 68be
00000020: 26e6 6cbe b9c7 f13b 874f 793d 1b90 0dbe
00000030: 48ba 583b 64b3 863d 08b6 cabd 0f11 81bd
00000040: d898 f43c 1641 0e3e 5510 203e e871 85bd
00000050: 7029 0cbe f906 4bbd fe4d 4dbe b0e4 50be
00000060: 650e 663e 5be5 c13d 15c7 a5bd a125 72be
00000070: 5eb4 ddbd 1b2a 91bd 5f3d 13be bcea 55be

tNN.4.weight f4 [64, 32]
-0.052816406 0.110855356 -0.17482297 0.13573395 0.15014073 -0.117037006 -0.05889186 0.105923906
0.023526309 0.004804903 0.11672309 0.14631706 0.11544832 0.11049761 0.14492351 0.113694154
0.03563619 0.059380453 0.17589551 -0.01728712 -0.13874868 -0.086911224 0.061214685 -0.08515728
-0.16964567 0.060314838 -0.13257943 -0.1659621 -0.07156393 0.014599538 0.015770702 0.17166318
0.015202501 0.12651674 -0.025138384 0.09278321 0.017749865 0.15134667 -0.04310785 -0.022606112
-0.06980481 -0.14636043 0.13292159 0.13836797 0.13548934 -0.048727825 0.058288258 0.02872857
-0.06414508 -0.14734744 -0.15148343 0.09465482 0.10667592 -0.171123 0.14841522 -0.018945636
0.1669458 -0.1345667 -0.10875598 -0.09741808 -0.07188472 0.054634113 0.16096416 -0.13111542
-0.082893096 -0.17847234 0.17025916 -0.06736998 -0.020721532 0.14839178 0.13320851 -0.07934963
0.09038695 -0.12840708 -0.15615472 -0.030419923 -0.053669307 0.08309338 -0.0079365885 0.15449415
-0.08385728 0.011545985 0.08356455 0.1737442 0.12670389 0.114878334 -0.060762968 0.03802249
0.046305586 0.16515097 0.07681054 0.04831049 0.035229295 0.06102374 -0.08130376 0.15793107
-0.021900779 -0.17238572 0.10644624 0.106529504 0.07505371 -0.14376415 -0.029531656 -0.067879416
-0.05268771 0.01609059 0.17364658 0.0070467247 -0.10075435 -0.14026926 0.12993698 0.12536335
0.16195002 0.14090385 0.113059476 0.1461269 0.15049346 -0.16573302 0.055966508 -0.113185875
-0.12257544 0.11322866 0.16729182 -0.10658535 -0.09248662 0.07216726 -0.12929668 0.045034513
-0.08313288 -0.016717117 0.01968346 0.14129168 0.075805664 0.15025087 0.13936336 -0.08339283
0.00264086 -0.034840576 0.108596586 0.12960444 0.11130096 -0.14785732 0.15556628 -0.021464145
-0.008040362 -0.02330959 -0.07272403 0.16207018 -0.051988572 0.022082744 -0.14106223 -0.04087977
0.04233916 -0.019625902 0.09516204 -0.11050792 0.09420237 -0.15789895 0.17860903 0.14634804
0.0011709974 0.14436276 -0.080645345 -0.016051734 0.0389362 -0.12521383 -0.14624314 -0.07279458
-0.09896275 0.13826278 0.16868457 -0.17347936 0.06662974 -0.017891342 -0.09676931 -0.063891724
-0.073507175 0.044978797 0.14941789 0.0026844423 -0.11066131 -0.024713874 -0.0721625 0.03126719
-0.06088208 -0.121284895 0.071139336 -0.044392433 0.09395057 0.02324076 -0.091098696 0.1290203
0.112771526 -0.14204861 0.13253558 -0.14572895 -0.05154952 -0.08718662 0.09914234 -0.13989927
-0.06938179 0.09008156 0.1449086 -0.09322354 0.060716055 0.0369864 -0.15729289 -0.0011167
0.043828778 -0.036471788 -0.083939746 -0.14106116 -0.08942459 -0.09862764 0.010334291 -0.15241514
0.0076526864 0.05360912 0.04257273 9.728098e-05 -0.023042938 0.14369425 -0.121447355 -0.1680797
-0.060341332 -0.0037558249 -0.08808527 -0.09870342 0.13715084 -0.16897681 0.13440205 0.15838084
-0.07337305 0.058097117 0.13038318 -0.09269888 -0.12511447 0.15266328 0.08201524 0.07407203
-0.1160892 -0.11496516 -0.10364361 -0.15171453 0.1354284 -0.16459432 -0.14720148 -0.0965787
0.03784298 -0.13304186 -0.08129255 0.13061586 -0.12574117 -0.010148331 0.16337779 0.15553449
00000000: 0456 58bd 2208 e33d cb04 33be d7fd 0a3e
00000010: 7ebe 193e 19b1 efbd 9738 71bd a2ee d83d
00000020: 3fba c03c 7372 9d3b 840c ef3d 24d4 153e
00000030: 2b70 ec3d 924c e23d d466 143e 7bd8 e83d
00000040: 41f7 113d eb38 733d f41d 343e b89d 8dbc
00000050: 2214 0ebe 83fe b1bd 40bc 7a3d f166 aebd
00000060: 98b7 2dbe b10c 773d e7c2 07be f8f1 29be
00000070: 1c90 92bd e732 6f3c 8f31 813c 79c8 2f3e
00000080: e913 793c 9b8d 013e 03ef cdbc 2005 be3d
00000090: 2a68 913c 9ffa 1a3e db91 30bd 7430 b9bc
000000a0: d3f5 8ebd 82df 15be 991c 083e 55b0 0d3e
000000b0: b8bd 0a3e d496 47bd abbf 6e3d 2e58 eb3c
000000c0: 7f5e 83bd 3fe2 16be 791e 1bbe 63da c13d
000000d0: e878 da3d de3a 2fbe 29fa 173e e133 9bbc
000000e0: d7f3 2a3e dacb 09be 75bb debd 2183 c7bd
000000f0: 4c38 93bd 05c8 5f3d cad3 243e 1f43 06be
00000100: dbc3 a9bd 74c1 36be 6b58 2e3e 46f9 89bd
00000110: 34c0 a9bc 04f4 173e d067 083e 0f82 a2bd
00000120: cb1c b93d 257d 03be 06e7 1fbe 3433 f9bc
00000130: 59d4 5bbd dd2c aa3d 7708 02bc b733 1e3e
00000140: 5ebd abbd 5f2b 3d3c e423 ab3d 00ea 313e
00000150: aabe 013e 5545 eb3d 97e2 78bd 78bd 1b3d
00000160: edaa 3d3d 561d 293e d84e 9d3d 38e1 453d
00000170: 984c 103d 07f4 793d 9682 a6bd afb8 213e
00000180: 4369 b3bc e285 30be 7c00 da3d 242c da3d
00000190: c2b5 993d e936 13be 5fec f1bc 5d04 8bbd
000001a0: 11cf 57bd 6ad0 833c 69d0 313e 36e8 e63b
000001b0: 4c58 cebd bfa2 0fbe 330e 053e 405f 003e
000001c0: 3ad6 253e 1949 103e ba8b e73d 4aa2 153e
000001d0: f51a 1a3e ebb5 29be 233d 653d ffcd e7bd
000001e0: d508 fbbd 6de4 e73d 8c4e 2b3e 6c49 dabd
000001f0: a069 bdbd 6ecc 933d 5966 04be 1c76 383d
00000200: 9241 aabd 56f2 88bc 353f a13c c4ae 103e
00000210: 0040 9b3d 5ddb 193e 45b5 0e3e dcc9 aabd
00000220: 4712 2d3b feb4 0ebd e367 de3d 07b7 043e
00000230: c2f1 e33d e967 17be c44c 1f3e 93d5 afbc
00000240: b9bb 03bc c1f3 bebc 56f0 94bd baf5 253e
00000250: f8f1 54bd dfe6 b43c 9e72 10be 8c71 27bd
00000260: d46b 2d3d 80c6 a0bc 51e4 c23d fa51 e2bd
00000270: 2ced c03d 43b0 21be 49e5 363e 43dc 153e
00000280: 277c 993a d5d3 133e 6329 a5bd ed7e 83bc
00000290: 917b 1f3d 0e38 00be c3c0 15be 5315 95bd
000002a0: fbac cabd c294 0d3e a6bb 2c3e 93a4 31be
000002b0: 2c75 883d dd90 92bc fd2e c6bd aad9 82bd
000002c0: ee8a 96bd b03b 383d 0101 193e 78ed 2f3b
000002d0: 66a2 e2bd c074 cabc efc9 93bd 0612 003d
000002e0: 7d5f 79bd 3764 f8bd 80b1 913d d7d4 35bd
000002f0: 2869 c03d 6863 be3c f491 babd e61d 043e
00000300: c2f4 e63d 3175 11be 68b7 073e f839 15be
00000310: 9725 53bd e68e b2bd 240b cb3d c141 0fbe
00000320: 0a18 8ebd ae7c b83d ec62 143e fceb bebd
00000330: 66b1 783d 0d7f 173d 6311 21be 3c5e 92ba
00000340: ce85 333d 7163 15bd 9ae8 abbd 5672 10be
00000350: 3d24 b7bd 4afd c9bd 2851 293c b712 1cbe
00000360: 63c3 fa3b 3d95 5b3d be60 2e3d 5403 cc38
00000370: 8bc4 bcbc 9624 133e 64b9 f8bd 161d 2cbe
00000380: 7928 77bd 4924 76bb 0d66 b4bd 0525 cabd
00000390: 4571 0c3e 4208 2dbe b1a0 093e 962e 223e
000003a0: 9c44 96bd 3ef7 6d3d 2b83 053e e9d8 bdbd
000003b0: 021e 00be c353 1c3e 9bf7 a73d 14b3 973d
000003c0: 2dc0 edbd db72 ebbd 1a43 d4bd 0e5b 1bbe
000003d0: bead 0a3e 6a8b 28be fcbb 16be 0ecb c5bd
000003e0: 3e01 1b3d 203c 08be b57c a6bd 2ac0 053e
000003f0: 4bc2 00be 2f45 26bc 824c 273e 6f44 1f3e

tNN.4.bias f4 [64]
-0.0054941904 -0.08396148 -0.048738286 -0.1296678 0.14669377 0.11354392 5.2733452e-05 -0.10468748
-0.13215157 0.09274776 0.10285303 0.076950215 -0.12101098 0.11205566 0.08139548 -0.1366657
0.012239844 0.062371 0.108492084 0.045807146 -0.056838263 -0.061503567 0.04067694 -0.14422561
0.10521544 -0.11776928 -0.10778703 -0.01145791 0.11520614 0.12611653 0.033541318 0.08990104
-7.8044264e-05 0.0060135466 0.000596204 -0.06344798 0.09373547 -0.089009695 -0.06286905 0.12020376
-0.009681967 0.08574579 0.0029265215 -0.12904103 -0.048744056 -0.13512196 0.056723747 0.07978669
0.13301852 0.15941162 0.068285614 0.14255875 -0.065108165 -0.13700092 -0.08660849 0.009144993
-0.09047367 -0.15967257 0.14217575 0.0937264 -0.009693681 0.021684093 -0.0044429875 0.026904874
00000000: 9c08 b4bb fff3 abbd cca1 47bd a3c7 04be
00000010: e436 163e b789 e83d 1d2e 5d38 6466 d6bd
00000020: be52 07be 8af2 bd3d 9ca4 d23d 1398 9d3d
00000030: 9bd4 f7bd 707d e53d acb2 a63d 18f2 0bbe
00000040: a089 483c bc78 7f3d 1931 de3d 46a0 3b3d
00000050: 3dcf 68bd 2aeb 7bbd dd9c 263d e1af 13be
00000060: 317b d73d 0531 f1bd 72bf dcbd f5b9 3bbc
00000070: 32f1 eb3d b124 013e 9f62 093d 091e b83d
00000080: b2ab a3b8 490d c53b 934a 1c3a 04f1 81bd
00000090: 62f8 bf3d b74a b6bd 7dc1 80bd 642d f63d
000000a0: 1da1 1ebc 7d9b af3d e2ca 3f3b 5523 04be
000000b0: d9a7 47bd 695d 0abe 2957 683d 3467 a33d
000000c0: 0236 083e cd3c 233e 54d9 8b3d ecfa 113e
000000d0: 6e57 85bd f849 0cbe cb5f b1bd e1d4 153c
000000e0: 424a b9bd 3581 23be 8596 113e a0f3 bf3d
000000f0: 3fd2 1ebc d7a2 b13c 7b96 91bb 9c67 dc3c

psi.0.weight f4 [128, 288]
0.04061026 0.031515684 -0.009728746 -0.048615716 0.047467403 0.044295732 0.031520955 -0.054756258
-0.055789392 -0.04536532 0.020191887 0.0031170284 -0.006900484 -0.052061018 0.018637432 -0.021186657
0.043701854 -0.0289745 -0.04875775 -0.036481265 0.030882228 -0.04821027 0.02898412 0.039087243
0.04911192 0.0067226 0.028556209 0.033957254 0.0044865673 0.007340989 0.0069912532 -0.05757439
-0.038362265 0.028892454 0.057332743 -0.0073971255 -0.026415367 0.049336776 -0.012419782 -0.008491058
0.0073523987 -0.02826721 0.013017796 0.029384479 -0.014955606 -0.009518393 0.035571463 0.035723176
0.05011717 -0.03200778 0.010053561 0.061521284 0.033090856 -0.04696432 0.049446356 -0.035149697
-0.012831527 -0.0026687402 0.04108886 -0.027960958 -0.011800897 0.035042893 0.037477035 -0.038388282
-0.011098357 -0.047455434 0.0050512343 0.04374357 0.0074392566 -0.037316937 0.012728675 -0.0045506046
-0.022301376 0.022448692 0.01598941 -0.03286478 0.0147208255 -0.04870714 -0.001035164 0.029692339
0.056502607 0.014067245 0.03867184 -0.060528155 -0.051220525 0.0021543368 -0.03341081 -0.018901661
-0.034903545 0.036432907 -0.04766813 -0.01235805 0.00981298 -0.029581951 -0.01874754 -0.049959216
0.0034970443 0.04263587 -0.053542927 -0.03328588 0.022648765 -0.029066782 -0.054851603 0.064461716
-0.020935116 -0.04115172 -0.029999778 -0.051560067 0.017778486 0.014596762 -0.055089526 -0.0035080106
0.026541177 0.026856754 0.031343166 -0.039136972 -0.024874263 0.006073801 -0.0065309857 -0.019681763
0.0575391 0.044895258 -0.048212096 -0.011942204 -0.06070906 -0.019575026 -0.032329272 0.00704914
0.049435597 0.050824095 0.006503652 0.0505316 -0.070448466 -0.013722335 -0.038544327 -0.013759255
0.03379981 -0.048487056 0.0028672148 -0.038076065 0.05180875 0.04743185 -0.044979457 0.025794802
-0.07074621 -0.03904954 -0.015031922 0.033918265 0.021123398 -0.040292017 -0.03531403 -0.002794184
0.014854149 -0.004624674 0.01957306 -0.026071202 0.03216641 0.02475528 0.0097718565 -0.024129335
0.04192434 -0.007261923 -0.004793578 0.014344489 0.00523474 -0.035561364 -0.040367667 -0.042081323
-0.023141451 -0.016593687 0.041660022 0.0073576323 0.012322981 0.012488467 -0.02959809 0.016996583
0.019981595 -0.02468258 0.0039044914 0.0029486225 0.06266774 -0.024208197 0.04862233 0.03722862
-0.010926684 -0.059954323 0.0035199868 0.06342921 0.05064319 0.006485785 -0.023853218 0.03560668
-0.01118948 -0.049569424 0.0082072 0.019452916 0.014400582 0.018793827 0.0051053907 0.00010815979
-0.036754884 -0.044395607 0.048719846 0.015897311 -0.039686903 0.05639933 0.021230228 -0.06333701
-0.03463101 0.0037106758 -0.024499355 -0.06672285 -0.009807464 0.031113256 0.020376528 0.023890013
-0.011887026 -0.06349116 0.06780799 0.03285922 -0.036904674 -0.018514134 -0.018412884 -0.024456028
-0.045577873 0.05613916 0.0095147425 -0.04840315 0.056360595 0.0562029 -0.04166686 -0.010308402
-0.0018759229 -0.018631212 0.02921346 0.050231297 0.057321776 0.057150632 0.03175878 -0.033601467
0.03203013 0.05591019 -0.04267132 0.05485868 -0.026443984 0.045254055 0.034855407 -0.005639948
-0.047617473 0.05737887 0.013819102 0.04384753 -0.014758911 -0.022132823 0.027523533 -0.014885512
00000000: f256 263d 9716 013d 5165 1fbc 4621 47bd
00000010: 2e6d 423d 716f 353d 1e1c 013d 1948 60bd
00000020: 6b83 64bd fcd0 39bd 7569 a53c 0f47 4c3b
00000030: 751d e2bb ef3d 55bd 87ad 983c a48f adbc
00000040: b700 333d ee5b edbc 35b6 47bd 616d 15bd
00000050: bafc fc3c 2278 45bd 1b70 ed3c f219 203d
00000060: 9529 493d 4249 dc3b b6ee e93c c316 0b3d
00000070: 0e04 933b ae8c f03b e216 e53b 20d3 6bbd
00000080: c021 1dbd deaf ec3c bdd5 6a3d 9663 f2bb
00000090: 0a65 d8bc 5c15 4a3d 577c 4bbc 141e 0bbc
000000a0: 64ec f03b a390 e7bc 9848 553c b8b7 f03c
000000b0: 5c08 75bc 09f3 1bbc 62b3 113d 7752 123d
000000c0: a947 4d3d 971a 03bd b1b7 243c befd 7b3d
000000d0: 478a 073d a95d 40bd 4388 4a3d 21f9 0fbd
000000e0: 533b 52bc 08e6 2ebb cb4c 283d 610e e5bc
000000f0: 8d58 41bc 2389 0f3d 8581 193d 083d 1dbd
00000100: e2d5 35bc a160 42bd d384 a53b 752c 333d
00000110: 02c5 f33b a5d9 18bd ef8b 503c 3d1d 95bb
00000120: 60b1 b6bc 52e6 b73c 39fc 823c 389d 06bd
00000130: 9e2f 713c 2381 47bd 57ae 87ba 593d f33c
00000140: 476f 673d 4d7a 663c 5d66 1e3d 5fec 77bd
00000150: 9dcc 51bd c62f 0d3b c6d9 08bd a8d7 9abc
00000160: 05f7 0ebd ac3a 153d a83f 43bd 6b79 4abc
00000170: 9fc6 203c d955 f2bc 7194 99bc 09a2 4cbd
00000180: ab2e 653b f3a2 2e3d d44f 5bbd c656 08bd
00000190: e789 b93c 761d eebc 13ac 60bd 8104 843d
000001a0: 1f80 abbc b58e 28bd 18c2 f5bc a630 53bd
000001b0: 30a4 913c 4227 6f3c 8ea5 61bd a7e6 65bb
000001c0: e26c d93c b202 dc3c b161 003d 174e 20bd
000001d0: 1cc5 cbbc bc06 c73b e101 d6bb a63b a1bc
000001e0: 1fae 6b3d 17e4 373d 0c7a 45bd 3ca9 43bc
000001f0: 10aa 78bd ce5b a0bc b36b 04bd 79fc e63b
00000200: fb7c 4a3d ed2c 503d 961c d53b 39fa 4e3d
00000210: 4947 90bd a5d3 60bc a8e0 1dbd 806e 61bc
00000220: ab71 0a3d 5d9a 46bd e2e7 3b3b a6f5 1bbd
00000230: 6935 543d e647 423d 613c 38bd 9f4f d33c
00000240: 64e3 90bd 69f2 1fbd 7348 76bc e1ed 0a3d
00000250: fa0a ad3c 3e09 25bd 72a5 10bd a11e 37bb
00000260: d15e 733c 948a 97bb af57 a03c 4693 d5bc
00000270: edc0 033d 96cb ca3c 231a 203c e2aa c5bc
00000280: dbb8 2b3d 6df5 edbb 7213 9dbb 2605 6b3c
00000290: 2f88 ab3b cba8 11bd 9158 25bd 775d 2cbd
000002a0: 2493 bdbc 7cef 87bc b3a3 2a3d 4b18 f13b
000002b0: 54e6 493c 6d9c 4c3c b277 f2bc 6b3c 8b3c
000002c0: 71b0 a33c 1f33 cabc 7fe2 7f3b ad3d 413b
000002d0: f257 803d 4550 c6bc 3528 473d 0a7d 183d
000002e0: d605 33bc aa92 75bd 94af 663b 2ce7 813d
000002f0: 3c6f 4f3d b586 d43b d367 c3bc 4fd8 113d
00000300: 1554 37bc 4f09 4bbd 7e77 063c b95b 9f3c
00000310: 6bf0 6b3c 83f5 993c 1f4b a73b d8d3 e238
00000320: 4a8c 16bd 2bd8 35bd 768e 473d 143b 823c
00000330: bc8e 22bd fc02 673d 04eb ad3c d6b6 81bd
00000340: 3fd9 0dbd cf2e 733b dfb2 c8bc fda5 88bd
00000350: 7caf 20bc 3ae1 fe3c adec a63c fdb4 c33c
00000360: cdc1 42bc a707 82bd eade 8a3d 6497 063d
00000370: 5b29 17bd f4aa 97bc 9ed6 96bc 0258 c8bc
00000380: ddaf 3abd 2df2 653d b9e3 1b3c 6242 46bd
00000390: 5eda 663d 0335 663d dfaa 2abd 92e4 28bc
000003a0: 87e1 f5ba 7ca0 98bc 1151 ef3c 55bf 4d3d
000003b0: 3dca 6a3d c816 6a3d 7f15 023d b1a1 09bd
000003c0: 0732 033d 1502 653d 1fc8 2ebd 7fb3 603d
000003d0: 0ea1 d8bc 515c 393d 8bc4 0e3d 50cf b8bb
000003e0: 8a0a 43bd 1b06 6b3d 8469 623c 7899 333d
000003f0: 5ccf 71bc e54f b5bc 0879 e13c 5de2 73bc

psi.0.bias f4 [128]
0.04578027 -0.021660808 0.05341825 -0.03822115 -0.021385947 0.04439394 -0.04412019 -0.051487997
-0.047774367 -0.0036486767 -0.028342746 -0.026869226 0.018312301 0.013073681 -0.050090868 0.04018806
-0.058166884 -0.028704958 0.047787614 -0.056537047 0.005485176 0.0503011 -0.048806187 -0.021309566
0.035248466 0.032720003 -0.05388701 0.01099198 0.041282255 0.049744815 0.047535527 -0.056304026
-0.033744022 0.008030561 -0.048698585 0.051012672 0.0024238692 0.0115761915 0.02250687 -0.0008023761
-0.04513356 -0.051621288 0.04304438 -0.03776385 -0.03573986 -0.035448913 0.04513049 0.038150705
0.02726 0.053833 -0.050599433 0.048369743 0.012590668 0.010122921 0.03976938 0.022855608
-0.03460877 -0.036172178 0.042797778 0.020432094 0.035478506 -0.004127151 0.019595819 0.060725655
-0.005380872 0.04554703 -0.024190685 0.05568308 -0.03375051 -0.052726135 0.0084489295 0.01134655
-0.03094968 0.019842522 0.05720261 -0.023398278 0.02597859 0.004377864 0.01695996 0.029706888
-0.03131703 -0.015276513 -0.038045615 0.041842233 -0.0350335 0.0017792479 0.03589626 -0.012152791
-0.057390653 -0.056965746 -0.03390949 0.011498706 0.025161859 -0.036911517 -0.038127374 0.027858976
0.044346433 -0.015158468 0.018052747 0.008807597 -0.059895866 -0.049955603 -0.026855398 -0.032074157
0.03654141 0.034800854 0.008235125 -0.0041554244 0.048745185 -0.040183555 0.035243217 0.0131460065
0.037563354 -0.056181516 0.041576687 -0.03746678 -0.047048725 -0.04962918 0.0043398896 -0.010702689
-0.014538634 -0.05626909 -0.027281422 -0.0544752 -0.01709377 -0.004611967 0.049171697 0.00052530423
00000000: 1884 3b3d 0272 b1bc 18cd 5a3d c88d 1cbd
00000010: 9531 afbc 6cd6 353d 5fb7 34bd 14e5 52bd
00000020: 0eaf 43bd a31e 6fbb 0c2f e8bc da1c dcbc
00000030: ae03 963c fe32 563c 152c 4dbd 3c9c 243d
00000040: 6640 6ebd a926 ebbc f2bc 433d 6493 67bd
00000050: febc b33b 8708 4e3d ffe8 47bd 6691 aebc
00000060: b260 103d 6905 063d a0b8 5cbd b517 343c
00000070: 9517 293d 38c1 4b3d 9db4 423d 0d9f 66bd
00000080: 2c37 0abd 9d92 033c 2b78 47bd aaf2 503d
00000090: c7d9 1e3b 11aa 3d3c 5460 b83c 8c56 52ba
000000a0: f8dd 38bd d870 53bd 4e4f 303d 44ae 1abd
000000b0: f663 12bd e132 11bd c0da 383d ea43 1c3d
000000c0: 5d50 df3c fe7f 5c3d 5a41 4fbd 5a1f 463d
000000d0: 1749 4e3c 9cda 253c 38e5 223d af3b bb3c
000000e0: edc1 0dbd 4729 14bd b94c 2f3d 3561 a73c
000000f0: e951 113d 0d3d 87bb 6987 a03c 77bb 783d
00000100: 0752 b0bb 868f 3a3d 8b2b c6bc f113 643d
00000110: fa3d 0abd 5cf7 57bd 616d 0a3c e1e6 393c
00000120: 2f8a fdbc c98c a23c 494d 6a3d bfad bfbc
00000130: 0dd1 d43c 2f74 8f3b 9def 8a3c dc5b f33c
00000140: 4946 00bd 574a 7abc b8d5 1bbd c362 2b3d
00000150: 4a7f 0fbd a735 e93a f507 133d 801c 47bc
00000160: 7612 6bbd ea54 69bd ade4 0abd 1265 3c3c
00000170: 3e20 ce3c 8830 17bd 732b 1cbd 8238 e43c
00000180: 9ba4 353d 395b 78bc 5be3 933c bd4d 103c
00000190: 5e55 75bd 3f9e 4cbd daff dbbc 3160 03bd
000001a0: 72ac 153d 578b 0e3d 9eec 063c 3a2a 88bb
000001b0: 08a9 473d 8397 24bd 315b 103d 5962 573c
000001c0: 08dc 193d 971e 66bd 514c 2a3d c476 19bd
000001d0: 2ab6 40bd f847 4bbd a235 8e3b 555a 2fbc
000001e0: 7333 6ebc 6b7a 66bd 4a7d dfbc 6321 5fbd
000001f0: 3c08 8cbc fc1f 97bb 4368 493d 92b4 093a

psi.2.weight f4 [64, 128]
-0.06650315 0.030263407 0.01481858 -0.0761361 0.066023536 -0.032030445 -0.0024600495 -0.058770463
-0.07446632 0.08425731 -0.049222093 0.023282563 -0.040162787 -0.078531586 0.035012525 0.05396193
0.042836737 -0.0743792 0.016836371 -0.043704417 -0.07388804 -0.01611915 0.035048436 -0.0714589
0.052854676 0.083357744 0.074454285 0.03178905 -0.057144966 0.0830538 -0.062443674 0.024925265
0.011270119 -0.091434166 0.07030236 0.035139184 -0.017174732 -0.039942782 -0.025370395 -0.019111382
-0.018969897 -0.048960175 -0.016151182 0.018470356 -0.01934827 -0.012587614 0.04503261 -0.011538488
-0.061091688 0.090253584 0.022811316 0.05921484 0.034250896 0.04480472 0.052796803 -0.044457253
-0.028893948 0.03772394 -0.06013651 0.06855631 -0.07665854 0.062269505 0.068091355 -0.041974958
0.07284249 -0.0013944681 0.027431503 0.024329705 -0.03370575 0.060326293 0.082423136 0.034930922
0.027338004 0.04977091 -0.06789536 0.020104267 -0.084849216 0.060589824 0.08835705 -0.0717229
-0.05462858 0.05260312 0.05473189 -0.033047 -0.08020628 0.020069811 0.003138054 -0.059024386
0.030526927 -0.06096068 0.060453046 0.049463283 -0.04333484 0.0675797 -0.026039228 0.012109395
0.008033331 0.088854864 -0.042788267 -0.009570584 -0.047035314 0.043195225 0.005670023 0.059516706
-0.055562902 -0.0012994604 -0.083700776 0.015238681 0.074682556 -0.0053050444 0.07833576 -0.042389408
0.027569525 -0.059942022 0.0064328574 0.02348656 -0.08720595 0.019216716 -0.052563507 -0.047693435
0.03979578 -0.07064241 0.06653983 0.07312328 -0.016198441 0.054359373 0.018308856 0.03213872
-0.03182759 0.063656755 0.033679172 -0.0980573 -0.0028177008 -0.070856005 -0.07520305 -0.077866815
-0.08173754 -0.06791612 0.07659731 -0.07646125 0.026053684 0.058257636 -0.042251427 -0.078539714
-0.03938653 -0.08620161 0.041701518 0.012205452 0.03887273 -0.05912879 0.06485338 0.0054106633
-0.074874766 -0.020713987 -0.09429612 -0.057059534 0.026803643 0.017808389 -0.095257774 -0.051351607
-0.028480051 0.002471806 -0.07151682 0.06252366 -0.074270315 -0.013380686 0.075057164 -0.03837044
-0.032749005 -0.0020377631 -0.05546634 0.029000683 -0.04004245 0.071294144 -0.086532466 -0.001663897
0.049502604 0.029137578 -0.09251335 -0.071588084 0.06477792 0.054621775 -0.039824273 -0.08225268
0.0741837 0.027868139 0.030036788 0.049932353 -0.075804606 0.0015710541 0.041944228 -0.02037558
0.06895385 0.08509828 -0.039195582 0.06868291 0.014227389 0.0703357 0.048755467 0.090980306
0.036438666 0.08130895 0.06962203 -0.057625335 0.06272831 0.033430304 -0.08715562 -0.056718025
-0.027123263 0.023307387 0.034727514 -0.018161539 -0.08715256 0.0042833365 0.048455473 -0.0855115
0.047045954 0.09004006 0.091913626 0.028136931 -0.06406159 0.00298913 -0.004102787 0.08002508
0.07042892 0.06105391 0.08346064 -0.034805756 -0.001868293 0.058273114 0.054635227 -0.07137346
-0.0069924267 0.022968255 0.08459044 -0.0067032743 0.04928052 -0.050555963 -0.045912154 -0.05623535
-0.02515614 0.056520306 -0.006529121 -0.030766571 0.06056551 0.06854097 0.09870958 -0.07221084
0.07909972 -0.05339018 -0.022637704 0.030600155 -0.05040282 -0.06490006 0.02449956 -0.05298838
00000000: ce32 88bd f7ea f73c a1c9 723c 3eed 9bbd
00000010: 5937 873d 5b32 03bd c838 21bb 4cb9 70bd
00000020: cc81 98bd 198f ac3d 1b9d 49bd 13bb be3c
00000030: bc81 24bd 2bd5 a0bd 4b69 0f3d 2f07 5d3d
00000040: 9375 2f3d 1f54 98bd 6eec 893c 6703 33bd
00000050: 9d52 97bd 4f0c 84bc f38e 0f3d 0b59 92bd
00000060: 257e 583d 77b7 aa3d 7d7b 983d 3c35 023d
00000070: d710 6abd 1c18 aa3d f0c4 7fbd 1230 cc3c
00000080: 4ea6 383c d641 bbbd affa 8f3d 1bee 0f3d
00000090: 06b2 8cbc 0b9b 23bd 93d5 cfbc 798f 9cbc
000000a0: c266 9bbc 778a 48bd 7c4f 84bc 254f 973c
000000b0: 4380 9ebc 483c 4ebc 1d74 383d ed0b 3dbc
000000c0: 473b 7abd dfd6 b83d ccde ba3c 438b 723d
000000d0: ab4a 0c3d 2785 373d 7641 583d cf18 36bd
000000e0: 00b3 ecbc 6b84 1a3d b351 76bd 4067 8c3d
000000f0: 27ff 9cbd 4f0e 7f3d 7b73 8b3d efed 2bbd
00000100: 722e 953d 96c6 b6ba 08b8 e03c 174f c73c
00000110: 0a0f 0abd b418 773d 76cd a83d ba13 0f3d
00000120: f3f3 df3c 95dc 4b3d b90c 8bbd b4b1 a43c
00000130: 6dc5 adbd 092d 783d 8bf4 b43d 75e3 92bd
00000140: 38c2 5fbd 5f76 573d 8c2e 603d 4b5c 07bd
00000150: 3143 a4bd 7269 a43c cfa7 4d3b 8ec3 71bd
00000160: 9b13 fa3c e8b1 79bd 9d9d 773d 039a 4a3d
00000170: e07f 31bd 3a67 8a3d 3850 d5bc 7c66 463c
00000180: 3b9e 033c 8af9 b53d c042 2fbd f0cd 1cbc
00000190: 1aa8 40bd 7aed 303d 9acb b93b cac7 733d
000001a0: ed95 63bd a852 aaba 506b abbd a9ab 793c
000001b0: 2bf3 983d f0d5 adbb 806e a03d 84a0 2dbd
000001c0: 7cd9 e13c c485 75bd b8ca d23b e366 c03c
000001d0: 0899 b2bd 606c 9d3c d54c 57bd 315a 43bd
000001e0: e600 233d f8ac 90bd 0946 883d a9c1 953d
000001f0: 98b2 84bc efa7 5e3d 74fc 953c e4a3 033d
00000200: a65d 02bd 795e 823d 2cf3 093d 44d2 c8bd
00000210: 2da9 38bb f41c 91bd 0f04 9abd a378 9fbd
00000220: 0366 a7bd 9b17 8bbd 0ddf 9c3d b797 9cbd
00000230: 896e d53c 8f9f 6e3d d50f 2dbd 6ed9 a0bd
00000240: c553 21bd 788a b0bd 36cf 2a3d 60f9 473c
00000250: 0339 1f3d 0831 72bd d9d1 843d ef4b b13b
00000260: f157 99bd 61b0 a9bc 531e c1bd 42b7 69bd
00000270: 5093 db3c e6e2 913c 8216 c3bd 1056 52bd
00000280: ff4e e9bc 06fe 213b 6977 92bd 680c 803d
00000290: 091b 98bd aa3a 5bbc 92b7 993d 532a 1dbd
000002a0: d223 06bd fe8b 05bb ac30 63bd d792 ed3c
000002b0: 8d03 24bd aa02 923d ef37 b1bd 1e17 daba
000002c0: 3ec3 4a3d eeb1 ee3c a477 bdbd c69c 92bd
000002d0: 49aa 843d 15bb 5f3d c71e 23bd 1874 a8bd
000002e0: a0ed 973d b94b e43c b60f f63c de85 4c3d
000002f0: 723f 9bbd d4eb cd3a b6cd 2b3d b0ea a6bc
00000300: ad37 8d3d 0248 ae3d 8c8b 20bd a0a9 8c3d
00000310: ff19 693c 2a0c 903d d0b3 473d e253 ba3d
00000320: b640 153d 4f85 a63d ff95 8e3d 8b08 6cbd
00000330: b377 803d 37ee 083d a57e b2bd 2951 68bd
00000340: 9b31 debc 22ef be3c 703e 0e3d 82c7 94bc
00000350: 0b7d b2bd 3b5b 8c3b 3f79 463d a720 afbd
00000360: 42b3 403d ec66 b83d 363d bc3d 6c7f e63c
00000370: b932 83bd 48e5 433b ac70 86bb 30e4 a33d
00000380: 0a3d 903d aa13 7a3d 69ed aa3d 7b90 0ebd
00000390: 83e1 f4ba caaf 6e3d 30c9 5f3d 402c 92bd
000003a0: ba20 e5bb ec27 bc3c c13d ad3d 24a7 dbbb
000003b0: 5fda 493d c513 4fbd 620e 3cbd 0a57 66bd
000003c0: 4014 cebc d681 673d 3df2 d5bb 2d0a fcbc
000003d0: 8a13 783d 355f 8c3d 4028 ca3d 47e3 93bd
000003e0: 09ff a13d a9af 5abd b572 b9bc 2dad fa3c
000003f0: 3073 4ebd 53ea 84bd 4db3 c83c 580a 59bd

psi.2.bias f4 [64]
-0.08342753 0.026754163 -0.038430475 0.046552025 0.052848358 -0.0678776 -0.035748348 -0.0034465108
0.017922318 -0.012133281 -0.03105689 -0.005293694 0.058734056 -0.08367081 0.019167237 -0.068329975
-0.06449832 0.0436241 0.07468699 0.059685096 -0.027139744 -0.06888574 -0.052124422 -0.07491277
-0.041443955 -0.056631032 0.045482565 0.071733005 0.05461842 0.066444516 0.02884716 -0.068390876
-0.027673405 0.055319652 -0.08125635 0.071934186 -0.050006267 0.013395744 -0.05411858 0.022538776
0.012796876 0.064916976 0.040296335 -0.04798189 -0.069505624 0.049841173 0.0614139 -0.028079454
-0.030149868 0.06613807 -0.029041624 0.06570652 0.06975152 -0.035851277 0.057800367 -0.024613857
0.03754191 0.0073087625 -0.012051767 0.012630771 0.018722158 0.03008484 -0.05214568 -0.014524222
00000000: 0edc aabd 8c2b db3c 4669 1dbd 56ad 3e3d
00000010: 8577 583d 6903 8bbd dc6c 12bd dbde 61bb
00000020: d3d1 923c abca 46bc 056b febc b976 adbb
00000030: 1f93 703d 9a5b abbd 9c04 9d3c 96f0 8bbd
00000040: b217 84bd 2faf 323d 7ef5 983d 5c78 743d
00000050: 2b54 debc f813 8dbd 6b80 55bd de6b 99bd
00000060: 23c1 29bd f1f5 67bd ed4b 3a3d c1e8 923d
00000070: 90b7 5f3d 1014 883d e150 ec3c 8410 8cbd
00000080: 56b3 e2bc dc96 623d bb69 a6bd 3b52 933d
00000090: 5fd3 4cbd d379 5b3c 72ab 5dbd 3da3 b83c
000000a0: fda9 513c 31f3 843d c50d 253d a988 44bd
000000b0: f758 8ebd 4226 4c3d 248d 7b3d e206 e6bc
000000c0: dbfc f6bc 6573 873d b3e8 edbc 2491 863d
000000d0: e3d9 8e3d cad8 12bd 14c0 6c3d 00a3 c9bc
000000e0: 8cc5 193d 587e ef3b c674 45bc 4bf1 4e3c
000000f0: 365f 993c 7b74 f63c b596 55bd 01f7 6dbc
