lightning_logs/version_17/checkpoints/epoch=10-step=1099.ckpt (torch, 609856 bytes, 54 tensors)

lattice_net.0.weight f4 [8, 1, 2]
0	0xbf1fab76	-0.62371004
1	0xbd68f70b	-0.056876224
2	0x3d33d598	0.04390487
3	0x3e84ed9c	0.25962532
4	0x3f0a6ee9	0.54075485
5	0x3f0299af	0.5101575
6	0xbe0c17f1	-0.13681008
7	0x3f210d4d	0.6291092
8	0xbef1e334	-0.47243655
9	0xbe48710c	-0.19574374
10	0xbe01a156	-0.12659201
11	0xbdc66dc9	-0.096889086
12	0xbe0e878e	-0.13918898
13	0xbf0e8448	-0.55670595
14	0x3f0ff0f7	0.5622706
15	0x3ec76932	0.38947445

lattice_net.0.bias f4 [8]
0	0xbe867440	-0.26260567
1	0xbc053f67	-0.008132792
2	0x3ed62c55	0.41830698
3	0xbf1e66d3	-0.6187565
4	0x3e496ad0	0.19669652
5	0x3ea5c2c0	0.32375145
6	0xbf2b7167	-0.66969913
7	0xbdcbcada	-0.099508

lattice_net.2.weight f4 [16, 8, 2]
0	0x3e21a61c	0.15786022
1	0x3e220ef0	0.1582601
2	0x3bd20795	0.0064095953
3	0x3d0b4781	0.03400374
4	0x3e2dda59	0.16977824
5	0x3d41e455	0.047336895
6	0xbe5b44b4	-0.21412927
7	0xbe2f5d17	-0.17125355
8	0xbe809ae4	-0.25118172
9	0xbd8e41da	-0.06946154
10	0xbe761825	-0.24032648
11	0xbce58469	-0.02801724
12	0xbe39abe5	-0.18131979
13	0xbd1c9254	-0.038225487
14	0x3b92b1a6	0.0044767438
15	0xbd4db077	-0.050217118
16	0xbd9f536b	-0.077795826
17	0xbd5c9b54	-0.05385907
18	0x3d9f04fb	0.07764622
19	0x3d3d4397	0.046207037
20	0x3da0caa4	0.07851151
21	0x3e28bcb0	0.16478229
22	0x3e8346c0	0.25639915
23	0x3dcae276	0.09906475
24	0xbe23bd9e	-0.15990302
25	0x3e455d5e	0.19273898
26	0xbe21b5b2	-0.15791968
27	0x3e0d72fa	0.13813391
28	0xbcf440ff	-0.029816149
29	0x3de16545	0.11005644
30	0xbdf269ab	-0.11836561
31	0x3e3e3bbf	0.18577479
32	0xbe33ba82	-0.17551616
33	0xbd8669a0	-0.06563115
34	0xbe1f4044	-0.15551859
35	0x3e284668	0.16433108
36	0xbe57cba5	-0.21073778
37	0x3d19ba4a	0.037531175
38	0x3e708451	0.23487975
39	0xbe0edee3	-0.13952212
40	0xbdccf776	-0.10008137
41	0x3e68b956	0.2272695
42	0xbe56ffea	-0.20996061
43	0xbd78962a	-0.060690083
44	0xbe3b4592	-0.18288258
45	0xbe08c48d	-0.13356228
46	0xbd7b5982	-0.06136466
47	0xbd14bd29	-0.03631321
48	0x3e10bade	0.14133784
49	0xbe5dac18	-0.2164768
50	0xbe29ef1c	-0.16595119
51	0xbe8354af	-0.25650546
52	0x3e30d828	0.17269957
53	0x3e00ee9e	0.12591025
54	0x3dc7b0f8	0.09750551
55	0xbd04c135	-0.03241082
56	0xbe1455c4	-0.14485842
57	0xbe5f31b0	-0.21796298
58	0x3dfa2a1e	0.122150645
59	0xbe1cc2df	-0.15308712
60	0x3e3117b8	0.17294204
61	0xbe0987f6	-0.13430771
62	0xbd7b63a2	-0.061374314
63	0x3e1b16d8	0.15145433
64	0xbdc980a0	-0.098389864
65	0xbd6edaf2	-0.05831427
66	0xbdf2dc81	-0.11858464
67	0xbe4a3485	-0.19746597
68	0x3e6eacfc	0.23308176
69	0x3d08345e	0.033253066
70	0x3ccd5f83	0.025069958
71	0x3e6cd89b	0.23129503
72	0xbe6a9282	-0.22907451
73	0x3e4121f0	0.18860602
74	0x3dcc9e0d	0.09991083
75	0xbd1d805e	-0.0384525
76	0x3e264874	0.16238576
77	0x3e3933be	0.18086144
78	0xbbff1591	-0.0077845533
79	0xbe4609a9	-0.19339623
80	0x3e1f5a54	0.15561801
81	0xbda25af6	-0.07927506
82	0xbe80ca73	-0.25154456
83	0xbe1203ea	-0.14259306
84	0xbe051f04	-0.13000113
85	0xbcb38a67	-0.021916581
86	0x3dbc9f02	0.09210016
87	0x3ddbfacc	0.10741195
88	0x3e858880	0.26080704
89	0xbbb096f3	-0.0053890883
90	0x3e6aa225	0.22913416
91	0xbe3e8774	-0.18606359
92	0x3e2b844d	0.16749687
93	0xbe22a3aa	-0.15882745
94	0x3e07145f	0.13191365
95	0x3dd0d3e4	0.10196665
96	0xbe33d9b5	-0.17563517
97	0xbdfc445c	-0.12317726
98	0xbd9a8be4	-0.07546213
99	0x3d436ce3	0.047711264
100	0x3e77dc88	0.2420522
101	0x3e3e5c58	0.18589914
102	0x3e7de0bb	0.24792759
103	0xbe530ebd	-0.20611091
104	0x3db9e7d5	0.090774216
105	0x3e433f69	0.19067158
106	0x3e65480c	0.22390765
107	0xbe04c2f2	-0.1296499
108	0x3d74c34e	0.05975657
109	0x3cfc027f	0.030762909
110	0xbd6e3962	-0.058160193
111	0x3e4d7f12	0.20068005
112	0x3c68722a	0.014187375
113	0x3d223ea5	0.039610524
114	0xbe532742	-0.20620444
115	0x3bfccca0	0.007714823
116	0xbdcdcf9b	-0.10049363
117	0x3cf415da	0.029795576
118	0x3b87f046	0.004148516
119	0xbdb7e252	-0.08978714
120	0x3e289f28	0.16466963
121	0x3de33648	0.11094338
122	0x3b5daf73	0.00338265
123	0xbdd42865	-0.10359267
124	0xbdbd1864	-0.09233168
125	0xbdc74f0c	-0.09731874
126	0xbe6a14f4	-0.22859555
127	0x3cf95a80	0.030438662
128	0xbdbc3107	-0.09189039
129	0xbe4ef493	-0.20210485
130	0x3e41807d	0.1889667
131	0xbc9b98d2	-0.018993769
132	0xbe52b27c	-0.20575899
133	0xbd7a9723	-0.06117929
134	0x3e015966	0.12631759
135	0x3d02f2f4	0.03196998
136	0xbe3c8ed0	-0.18413854
137	0xbe4aef60	-0.19817877
138	0xbe12a85d	-0.14322038
139	0xbd9289ac	-0.07155165
140	0xbe041236	-0.12897572
141	0xbdb9c982	-0.09071638
142	0xbd35ebb6	-0.044414245
143	0xbdb5685f	-0.08857798
144	0xbd63e55f	-0.055638667
145	0xbd04766a	-0.03233949
146	0x3dc0a18e	0.09405814
147	0xbdd55e2b	-0.10418352
148	0x3e71bffd	0.23608394
149	0xbde54c26	-0.11196165
150	0xbdaf630a	-0.08563812
151	0xbe1f1a0c	-0.1553728
152	0x3dd883ae	0.10571991
153	0x3d9fd4f7	0.07804292
154	0xbe7e6345	-0.24842556
155	0x3cc0d4e9	0.023539023
156	0x3e3319fe	0.17490384
157	0xbdcfa963	-0.1013973
158	0x3dd12902	0.102129
159	0xbdffad51	-0.12484229
160	0x3ddc2b99	0.10750503
161	0xbe1aa7b3	-0.15103035
162	0x3db85b3a	0.09001775
163	0x3e3516d5	0.17684491
164	0xbe01f710	-0.12691903
165	0xbc75eb28	-0.015009679
166	0xbe7906d2	-0.24319008
167	0xbd4a55cc	-0.04939823
168	0xbe07645b	-0.13221876
169	0x3d8baed7	0.068204574
170	0xbe3d6467	-0.18495332
171	0xbd22ab03	-0.03971387
172	0x3e4204c1	0.18947126
173	0x3da43335	0.080175795
174	0x3e76e5a2	0.24111035
175	0xbcb106cd	-0.021609688
176	0xbda5c15d	-0.08093522
177	0xbd196a0e	-0.037454657
178	0xbdcb4426	-0.09925108
179	0x3e09f47e	0.13472173
180	0xbd26e0a0	-0.040741563
181	0xbe5375eb	-0.20650451
182	0xbc225766	-0.009908533
183	0x3dd1f50f	0.10251819
184	0x3da41f63	0.08013799
185	0xbd6361e4	-0.055513278
186	0x3dac3b82	0.08409788
187	0xbe111f62	-0.14172128
188	0xbdaeb1ea	-0.08530028
189	0x3dbbedfa	0.0917625
190	0x3d7342e8	0.05938998
191	0x3d3d0ed7	0.04615673
192	0x3e25887b	0.16165344
193	0x3d1f3257	0.038866367
194	0xbe25b5e9	-0.16182674
195	0xbe0360fe	-0.12829968
196	0xbde5f64a	-0.112286165
197	0x3e04361b	0.12911265
198	0xbe4b8466	-0.19874725
199	0xbe02c728	-0.12771285
200	0xbe2e1f35	-0.17004092
201	0xbe27f37e	-0.16401479
202	0x3e387528	0.18013442
203	0x3e5bf72a	0.21481004
204	0x3e0ff33f	0.14057635
205	0xbcbe43d5	-0.023225704
206	0xbdc4de09	-0.09612662
207	0xbe17978f	-0.14803909
208	0xbe4f0160	-0.20215368
209	0xbc020314	-0.007935304
210	0xbe47efdd	-0.19525094
211	0x3d791637	0.0608122
212	0xbe0f35c7	-0.13985358
213	0x3da33b92	0.079703465
214	0x3e210757	0.15725456
215	0x3de340b7	0.11096328
216	0xbd251f0b	-0.040312808
217	0xbe4da4e2	-0.20082429
218	0xbda8fdda	-0.08251543
219	0xbe49d60e	-0.19710562
220	0xbdcef0f3	-0.10104551
221	0x3dff8ece	0.1247841
222	0xbe12d5e0	-0.143394
223	0xbe233aee	-0.15940449
224	0xbe09074c	-0.1338169
225	0x3de32caf	0.11092507
226	0x3d88cbbc	0.06679484
227	0xbdd4f07d	-0.10397432
228	0xbe56f869	-0.20993198
229	0xbe325f25	-0.17419107
230	0x3d2e3178	0.042527646
231	0x3de2cfeb	0.110748135
232	0x3c961467	0.018320275
233	0xbd552748	-0.052039415
234	0xbe339a0a	-0.1753923
235	0xbe32f9e5	-0.1747814
236	0x3dabc2b5	0.08386747
237	0xbe30140c	-0.17195147
238	0xbd52f82a	-0.0515062
239	0xbcec7f31	-0.028869243
240	0xbd9260a9	-0.07147343
241	0xbcb6781a	-0.022274066
242	0x3c9c63e5	0.019090602
243	0x3c8e84d4	0.017397322
244	0x3c99ec06	0.018789303
245	0x3c5a6647	0.013330049
246	0x3e14dea0	0.1453805
247	0x3a752322	0.00093512435
248	0x3d9e76c2	0.07737495
249	0xbe6c53bd	-0.23078819
250	0xbe325f72	-0.17419222
251	0xbcc58aef	-0.0241141
252	0xbe59ea96	-0.21280894
253	0xbd691fb9	-0.05691502
254	0x3e3779c5	0.17917545
255	0x3e022821	0.1271062

lattice_net.2.bias f4 [16]
0	0x3e1bafef	0.15203832
1	0x3d53f1bc	0.051744208
2	0xbe62730c	-0.221142
3	0xbe319127	-0.17340527
4	0x3d855921	0.065111406
5	0xbe1a7eec	-0.1508748
6	0xbe13f0dc	-0.1444735
7	0x3d5142b8	0.05108902
8	0x3e6fbbf2	0.23411539
9	0xbe6e9ef8	-0.2330283
10	0x3dd9cebc	0.106351346
11	0xbe24f72e	-0.16109917
12	0xbe7cccf3	-0.24687557
13	0x3e514e5e	0.20440051
14	0x3de1a732	0.11018218
15	0x3d1980a4	0.037476197

lattice_net.4.weight f4 [32, 16, 2]
0	0xbe165967	-0.14682542
1	0x3e1f4698	0.15554273
2	0x3e174e4b	0.1477596
3	0x3e02be2d	0.12767859
4	0xbdefff8d	-0.11718664
5	0x3dd18bfc	0.10231778
6	0x3db5097c	0.088396996
7	0xbde85e76	-0.11346142
8	0x3df1575a	0.11784239
9	0xbce7f06b	-0.028312882
10	0xbe08c707	-0.13357173
11	0xbd804afb	-0.062643014
12	0x3e1099cc	0.14121169
13	0x3b954235	0.0045550116
14	0xbe295e29	-0.16539825
15	0xbe255922	-0.16147283
16	0xbb1442ed	-0.0022622899
17	0x3b809e4a	0.0039251195
18	0xbc7c9b21	-0.015417845
19	0xbd915205	-0.07095722
20	0xbd8f9076	-0.070099756
21	0xbd815986	-0.06315903
22	0x3e1d75a6	0.1537691
23	0xbd92d913	-0.0717031
24	0xbd83cdd6	-0.064357445
25	0xbde155f4	-0.110027224
26	0x3e1489c9	0.14505686
27	0x3ddb801b	0.107177936
28	0x3e27908a	0.16363731
29	0xbda1c2c8	-0.0789848
30	0xbe12ddee	-0.14342472
31	0x3e18310d	0.14862461
32	0xbddff23b	-0.10934874
33	0x3dc2993f	0.095018856
34	0xbe0f65f2	-0.14003733
35	0xbd801c60	-0.06255412
36	0xbab85d68	-0.0014065923
37	0xbd8938b9	-0.06700272
38	0x3baccdf3	0.0052735745
39	0xbc439795	-0.011937995
40	0xbe028f71	-0.12750031
41	0x3db560a0	0.088563204
42	0x3e10a90a	0.14126983
43	0xbde37a7e	-0.11107348
44	0x3cc3dc04	0.023908623
45	0xbe08b970	-0.13351989
46	0x3e1e1fac	0.1544177
47	0x3e2f6321	0.17127658
48	0x3dbde1f4	0.09271613
49	0xbbb06256	-0.0053828163
50	0xbdfc721d	-0.12326453
51	0x3d588287	0.052858856
52	0xbb808726	-0.003922361
53	0x3d9f2895	0.07771412
54	0xbe18be4a	-0.1491634
55	0x3d938b9e	0.07204364
56	0x3c87bce6	0.016569566
57	0x3e274190	0.16333604
58	0x3e28ca3b	0.16483395
59	0x3de7f729	0.11326439
60	0x3dae7b39	0.085195966
61	0x3d999060	0.074982405
62	0x3dfa99e2	0.12236382
63	0xbe38b8d9	-0.18039264
64	0x3dab1440	0.08353472
65	0xbbf666b2	-0.0075195665
66	0x3d0e5490	0.034748614
67	0x3d115fb2	0.035491653
68	0xbe1d59a2	-0.15366223
69	0x3d905ec0	0.07049322
70	0x3dfda06b	0.12384113
71	0x3daa659f	0.08320164
72	0x3ca955ae	0.020670738
73	0xbd74cbbd	-0.059764612
74	0xbcd2fb0a	-0.02575447
75	0x3db6a1b6	0.08917563
76	0x3e0e1c79	0.13878049
77	0xbe2fa748	-0.17153656
78	0xbbcb7f6f	-0.0062102596
79	0x3def0a9e	0.11671947
80	0x3e2cbf30	0.16869807
81	0x3dec5e39	0.11541409
82	0x3dac2b65	0.08406714
83	0x3e096ba9	0.13419975
84	0xbdcbafdb	-0.09945651
85	0x3e2898cd	0.16464539
86	0xbd2fec95	-0.04295023
87	0xbd8a748e	-0.06760512
88	0x3c3bad4a	0.01145489
89	0x3d8f05ca	0.06983526
90	0xbe04c970	-0.12967467
91	0x3ce8d609	0.028422372
92	0xbdc49467	-0.09598618
93	0xbdd03617	-0.10166567
94	0x3dc15571	0.09440125
95	0xbdd25085	-0.10269264
96	0xbdf7ff45	-0.12109236
97	0xbd84ec59	-0.06490392
98	0x3e11a990	0.14224839
99	0xbdf7dbf0	-0.121024966
100	0xbdcdcfcb	-0.10049399
101	0xbd75e0bc	-0.060028777
102	0x3e2c1f2a	0.16808763
103	0xbcab2c97	-0.020895286
104	0x3d644f22	0.05573953
105	0xbe10475b	-0.1408972
106	0x3c0403b2	0.008057522
107	0xbe291b0e	-0.16514227
108	0x3c3cd954	0.011526424
109	0xbdfe1194	-0.124056965
110	0xbd0c4eb3	-0.03425474
111	0x3dc231e3	0.094821714
112	0x3dc0efc8	0.09420735
113	0x3deafd56	0.11474101
114	0xbe14719d	-0.14496465
115	0x3e2cb639	0.16866387
116	0xbe047d40	-0.12938404
117	0x3ab9b03c	0.0014166902
118	0xbe23ef1d	-0.16009183
119	0xbd866751	-0.06562675
120	0x3d765283	0.060137283
121	0x3e268368	0.16261065
122	0xbe2e47f9	-0.17019643
123	0xbd425241	-0.047441725
124	0xbc26bc72	-0.010176765
125	0xbc46d71e	-0.012136249
126	0xbda56495	-0.08075825
127	0x3e1ecb6d	0.15507288
128	0xbe3be103	-0.18347554
129	0x3db0a08d	0.08624373
130	0x3c1b3b07	0.009474522
131	0x3da50092	0.080567494
132	0x3e31ce9e	0.17363974
133	0x3d60a647	0.054846074
134	0xbda5d1d6	-0.08096664
135	0x3c9611a4	0.018318959
136	0x3deda584	0.11603835
137	0x3d88d5c1	0.06681395
138	0xbada11ef	-0.0016637425
139	0x3e1b87de	0.15188548
140	0x3e0a7f0c	0.13525027
141	0x3e25463c	0.16140074
142	0xbcbf7c6b	-0.023374757
143	0x3dbe86b0	0.09303033
144	0x3e1548a3	0.1457849
145	0x3e09d8a1	0.13461544
146	0x3b999cb6	0.004687871
147	0x3e01bbde	0.12669322
148	0x3d59456b	0.053044718
149	0xbdcefe12	-0.10107054
150	0xbd322eb0	-0.043501556
151	0xbda078ee	-0.078355655
152	0xbcb23421	-0.021753373
153	0x3e2f53f0	0.17121863
154	0x3d1b64c9	0.037937913
155	0xbad2ef3a	-0.0016093024
156	0xbe25dc5d	-0.16197343
157	0xbe0b1a04	-0.13584143
158	0xbdc110ee	-0.09427057
159	0xbe146cc0	-0.1449461
160	0xbe237001	-0.15960695
161	0x3d8651cc	0.0655857
162	0x3dab09b0	0.08351457
163	0xbd6cfc8b	-0.05785803
164	0xbda8e6cd	-0.08247147
165	0x3dbb7045	0.09152273
166	0xbd4d098b	-0.05005793
167	0xbe045ef2	-0.12926844
168	0xbd7fb299	-0.062426183
169	0xbcaea58f	-0.021319179
170	0xbe210b46	-0.15726957
171	0xbdc360ec	-0.09539971
172	0x3e19587b	0.14975159
173	0x3c500483	0.012696388
174	0xba66883d	-0.0008794105
175	0x3de50aa9	0.11183674
176	0x3c36c612	0.011155622
177	0xbcaac31d	-0.02084499
178	0x3cb6333a	0.022241224
179	0xbe1c3d6b	-0.15257804
180	0xbd8d25b8	-0.0689196
181	0xbdbf1f5e	-0.09332155
182	0x3da4d420	0.08048272
183	0x3dfbc5c6	0.12293582
184	0x3de5bf02	0.112180725
185	0x3e0e826f	0.13916944
186	0xbe0ee156	-0.13953146
187	0xbd0c1e04	-0.034208313
188	0x3e2f0ef4	0.17095548
189	0x3e2b1555	0.16707356
190	0xbdf7f82e	-0.121078834
191	0xbdf953d6	-0.121741936
192	0x3dc3232d	0.095281936
193	0x3e16dc86	0.1473256
194	0xbd92668e	-0.07148467
195	0xbd8eee26	-0.06979017
196	0x3e31cf8c	0.17364329
197	0x3d3ae109	0.045624766
198	0x3d2944a1	0.041325215
199	0xbe337764	-0.17526013
200	0xbc0c818a	-0.008575806
201	0x3ddd463d	0.108044125
202	0x3d487239	0.048937056
203	0xbe07a916	-0.13248095
204	0xbe0f278b	-0.13979928
205	0xbde7c975	-0.11317722
206	0x3cfb26d4	0.030658163
207	0xbdb0b79b	-0.0862877
208	0xbcc5dd1d	-0.024153287
209	0xbd4aa409	-0.049472842
210	0xbe22ce16	-0.15898928
211	0x3e0e5e66	0.13903198
212	0x3cefcbe6	0.029272031
213	0xbb7f3703	-0.0038942702
214	0x3e05641f	0.13026474
215	0x3dac0d33	0.08400955
216	0xbdabe72e	-0.083937034
217	0x3c0c5d21	0.008567126
218	0x3e097040	0.13421726
219	0x3da35a8c	0.07976255
220	0x3e14cf2e	0.14532158
221	0x3dc9c23e	0.09851502
222	0xbdeeebc3	-0.11666062
223	0xbc18bf64	-0.009322975
224	0xbcf0a03f	-0.029373286
225	0x3d050e22	0.03248418
226	0xbb92e621	-0.004483
227	0xbcdb24c1	-0.026750924
228	0xbd844ad2	-0.06459583
229	0x3dd2ee7d	0.10299394
230	0x3dac5b9c	0.084159106
231	0x3cf1a8d8	0.029499456
232	0x3d5ec1db	0.054384094
233	0x3d5a0acf	0.053232964
234	0xbe0a32d9	-0.1349596
235	0xbd6d131a	-0.057879545
236	0x3df82154	0.12115732
237	0x3db899b7	0.09013694
238	0x3d2010a5	0.039078373
239	0x3d2241a1	0.03961337
240	0xbd756c28	-0.0599176
241	0x3d5fbde3	0.05462445
242	0x3e33316f	0.17499326
243	0x3bf26003	0.0073966994
244	0xbd5bf8cd	-0.05370407
245	0x3dda912b	0.1067222
246	0xbdd338b9	-0.10313553
247	0xbd33347c	-0.043751225
248	0xbe2d3117	-0.16913258
249	0xbcac591e	-0.021038588
250	0xbe10848a	-0.1411306
251	0x3dec81e7	0.115482144
252	0x3c55a84b	0.013040612
253	0xbda68b4d	-0.08132038
254	0x3c4cbef1	0.012496696
255	0xbd437599	-0.04771957

lattice_net.4.bias f4 [32]
0	0x3dd4fa17	0.10399263
1	0x3dfcb145	0.12338499
2	0x3d080f3d	0.033217657
3	0x3e12ded9	0.14342822
4	0xbc96dcf7	-0.018415911
5	0x3d36cc5f	0.044628497
6	0x3dd3b0fb	0.10336491
7	0x3d5526d8	0.052038997
8	0x3d8b51ed	0.068027355
9	0x3e2a21a3	0.16614394
10	0xbd266b10	-0.040629447
11	0xbdbecefb	-0.09316822
12	0x3e203193	0.15643911
13	0xbc85e317	-0.016343636
14	0xbce0285e	-0.027362999
15	0x3d634a83	0.05549098
16	0x3dfa3a19	0.122181125
17	0xbd1dd92e	-0.038537197
18	0x3dcf55a3	0.10123756
19	0x3befbd03	0.007316233
20	0x3e0b43b0	0.1360004
21	0x3ce78c8d	0.028265262
22	0x3cbac47d	0.022798771
23	0x3e284cea	0.1643559
24	0x3d1421c3	0.03616501
25	0xbdcf7c7d	-0.10131166
26	0x3e11d26d	0.14240427
27	0x3e0c481d	0.13699384
28	0x3d2b9202	0.04188729
29	0xbcd4e73c	-0.025989167
30	0x3e20686d	0.15664835
31	0x3c9c8564	0.019106574

tNN.0.weight f4 [16, 2]
0	0x3f05c23f	0.5224952
1	0xbf19b10c	-0.6003578
2	0xbe8d1b9f	-0.27560136
3	0xbf291c88	-0.6605916
4	0xbe661ba2	-0.22471479
5	0xbf00a16c	-0.5024631
6	0x3f2801b8	0.6562762
7	0x3e8f123e	0.27943605
8	0x3e98873e	0.29790682
9	0x3e401710	0.18758798
10	0xbf22fedb	-0.6367013
11	0xbf268326	-0.65043867
12	0xbf1ff226	-0.62478864
13	0x3d23abd3	0.039958786
14	0x3d0a543e	0.033771746
15	0xbef559aa	-0.4791997
16	0xbdd4c12d	-0.10388408
17	0xbf104d12	-0.563676
18	0x3d83cc06	0.06435399
19	0x3f25be37	0.6474337
20	0xbde54862	-0.111954466
21	0x3e3ac6b3	0.1823986
22	0xbf0e2f07	-0.5554051
23	0xbeddc777	-0.43316242
24	0x3efa1b4f	0.4884896
25	0x3f0ba52d	0.54548913
26	0xbcba00fb	-0.022705546
27	0x3f0d1a68	0.5511842
28	0xbedae1a8	-0.42750287
29	0xbe8d36f7	-0.27580997
30	0x3ef5dd05	0.48020187
31	0xbf247721	-0.64244276

tNN.0.bias f4 [16]
0	0x3d87d7eb	0.0663298
1	0x3f1da027	0.615725
2	0xbf20b258	-0.6277213
3	0x3f037dcd	0.5136383
4	0xbecac34c	-0.39602125
5	0x3df5b1c6	0.11996798
6	0x3da92db9	0.08260674
7	0xbec9ef6f	-0.39440486
8	0x3ce522d8	0.027970716
9	0xbe4dec35	-0.20109637
10	0x3dd129e9	0.10213072
11	0x3f34da5c	0.7064569
12	0x3e5fd096	0.21856913
13	0x3efe797e	0.49702066
14	0x3db9a1de	0.09064077
15	0xbf0d1c7d	-0.55121595

tNN.2.weight f4 [32, 16]
0	0x3e162446	0.14662275
1	0x3d8b441e	0.06800102
2	0x3d96e89f	0.07368588
3	0x3d4fc37d	0.05072354
4	0xbcde073f	-0.027103065
5	0x3e4367f0	0.19082618
6	0x3e14da4e	0.14536402
7	0xbe367391	-0.17817523
8	0x3db4c406	0.08826451
9	0xbcb010a8	-0.021492317
10	0xbd20a810	-0.039222777
11	0x3e4474ab	0.1918513
12	0xbe6826e7	-0.2267109
13	0xbe0c3031	-0.13690259
14	0x3d194693	0.03742082
15	0xbe3fd707	-0.1873437
16	0xbbbc3cc4	-0.0057445485
17	0xbd6fbd33	-0.058530044
18	0x3e1be941	0.15225698
19	0xbe59741e	-0.21235701
20	0x3cf2fdd4	0.02966205
21	0x3b906991	0.0044071157
22	0x3e1858a0	0.14877558
23	0x3e6833c5	0.22675999
24	0x3da19484	0.07889655
25	0x3e7598d4	0.2398408
26	0x3e81914e	0.2530617
27	0xbe0c8fff	-0.13726805
28	0xbe19f016	-0.15032992
29	0xbe6de7ac	-0.23232907
30	0xbd9be0c8	-0.07611233
31	0x3e0f67e1	0.1400447
32	0x3e4b22a3	0.19837432
33	0x3d212948	0.03934601
34	0x3cd99372	0.026559565
35	0x3dadc297	0.08484381
36	0x3dc42044	0.09576467
37	0x3e534d90	0.20635056
38	0xbd9830f7	-0.07431214
39	0xbd4cb47a	-0.049976803
40	0x3e51d3c7	0.20490943
41	0xbdf61316	-0.12015359
42	0x3d21a95c	0.039468154
43	0x3d05f29f	0.032702085
44	0x3d63b364	0.055591002
45	0xbe683f45	-0.22680385
46	0xbdd4ffdb	-0.10400363
47	0xbc31d4bc	-0.0108539425
48	0xbe19b667	-0.15010987
49	0x3cd6f2d4	0.026238836
50	0xbda2c7ee	-0.0794829
51	0xbe15dafd	-0.14634319
52	0x3e060a0e	0.13089773
53	0x3ddbf038	0.107391775
54	0xbdf8a301	-0.121404655
55	0x3d320ce1	0.043469314
56	0x3e3ca1bf	0.18421076
57	0xbd5e427a	-0.054262616
58	0x3e40547d	0.1878223
59	0xbe74b8c4	-0.23898607
60	0x3df3eeb1	0.11910761
61	0xbe450171	-0.19238831
62	0x3d4d8ab4	0.050181106
63	0xbdc691f2	-0.096958056
64	0xbd6aab05	-0.057292003
65	0xbd87237d	-0.06598566
66	0xbe69b373	-0.2282236
67	0x3e036cec	0.12834519
68	0xbe5faa12	-0.2184222
69	0x3d497254	0.049181297
70	0xbe026d24	-0.12736946
71	0x3dcb650d	0.09931383
72	0xbe17b0c5	-0.14813526
73	0xbd773df7	-0.06036183
74	0xbd5b3d9a	-0.053525545
75	0xbe2b8a5a	-0.16751996
76	0x3e68c790	0.22732377
77	0x3e028878	0.12747371
78	0x3e195f1b	0.14977686
79	0xbe38d907	-0.1805154
80	0xbe54f245	-0.20795543
81	0x3d50adc2	0.05094696
82	0x3d2a9092	0.04164178
83	0x3e584732	0.21120909
84	0xbe621d20	-0.22081423
85	0xbe76ef47	-0.24114715
86	0xbcb3aeb7	-0.021933896
87	0xbe548e6d	-0.20757456
88	0x3d396f79	0.045272324
89	0x3d318273	0.043337297
90	0x3d972ec3	0.07381966
91	0x3e24ec90	0.16105866
92	0xbd826bb2	-0.063681975
93	0xbd9f3e06	-0.07775502
94	0x3bcc4c54	0.006234685
95	0x3e7d5ec1	0.24743177
96	0x3e120d59	0.14262904
97	0x3a8c2752	0.0010692871
98	0x3c359ebf	0.011085211
99	0x3def436d	0.11682782
100	0xbd31d2e9	-0.04341403
101	0xbe5562ac	-0.20838422
102	0xbd9f37a6	-0.07774286
103	0xbe81db46	-0.25362605
104	0x3e75dcc3	0.24009995
105	0xbe2b0775	-0.16702063
106	0xbe384c91	-0.17997958
107	0xbbd78ee6	-0.006578314
108	0x3d16b3ad	0.036792446
109	0xbe219c99	-0.15782394
110	0x3d4bacd5	0.049725372
111	0xbdde9132	-0.108675376
112	0xbd704b14	-0.05866535
113	0x3df69d63	0.12041738
114	0x3e4326c1	0.19057752
115	0xbd2b3c51	-0.04180557
116	0x3d4544cc	0.048161313
117	0xbd1d1769	-0.038352404
118	0xbe2b6368	-0.16737139
119	0xbe741a94	-0.23838264
120	0x3e291802	0.16513065
121	0x3da8cab5	0.08241788
122	0xbd96283b	-0.07331892
123	0xbdae43ca	-0.085090235
124	0xbc4cb1fb	-0.012493606
125	0x3c5aa994	0.013346095
126	0xbe5f5707	-0.21810542
127	0x3d306163	0.043061625
128	0x3cdb0c1a	0.026739169
129	0x3e6ebe07	0.23314677
130	0xbe26b67b	-0.16280548
131	0xbd45d185	-0.048295517
132	0xbcd9d84b	-0.026592394
133	0x3bc4720e	0.0059950417
134	0xbdb4ea7b	-0.08833786
135	0x3de761d1	0.11297954
136	0xbe3f6d86	-0.18694124
137	0x3e2d7357	0.1693853
138	0x3e01d80d	0.12680073
139	0xbe080b14	-0.13285476
140	0xbd7d79a3	-0.06188358
141	0xbe68b044	-0.2272349
142	0xbe766e7c	-0.24065584
143	0x3d112143	0.03543211
144	0x3e454cdf	0.19267605
145	0xbd1afde3	-0.03783978
146	0xbe6a0936	-0.22855076
147	0xbd817e27	-0.0632289
148	0x3e4370e8	0.19086039
149	0xbc8b3b9b	-0.016996196
150	0x3e18fb53	0.14939623
151	0x3e4a7f10	0.19775033
152	0x3c79588a	0.015218863
153	0x3d7341d9	0.05938897
154	0x3ceadacf	0.02866879
155	0x3e50c260	0.20386648
156	0xbe431c6c	-0.19053811
157	0x3ddcd183	0.10782149
158	0xbcca38ea	-0.024685342
159	0xbe3b464e	-0.18288538
160	0xbdb35b12	-0.08757605
161	0xbe159e39	-0.14611138
162	0xbe80299c	-0.25031745
163	0xbe62c801	-0.22146608
164	0xbe50e0d5	-0.20398267
165	0x3e441757	0.19149528
166	0xbc438841	-0.011934341
167	0xbddb86f9	-0.10719103
168	0x3e419780	0.18905449
169	0xbde2f059	-0.11080999
170	0xbe28f679	-0.16500272
171	0x3dd5e859	0.104447074
172	0x3e205f8f	0.15661453
173	0x3d6371c8	0.055528432
174	0xbe6ea790	-0.23306108
175	0x3e39f99a	0.18161622
176	0x3b52596c	0.0032096757
177	0x3e0a93db	0.13532965
178	0xbe374476	-0.1789721
179	0x3dfdec41	0.123985775
180	0xbe6664f6	-0.22499451
181	0x3dd422d4	0.103582054
182	0x3e25d2fd	0.16193767
183	0xbe391a89	-0.18076529
184	0x3e02ede0	0.12786055
185	0x3dc8bc49	0.098015375
186	0x3c813e49	0.01577677
187	0xbe365f82	-0.17809871
188	0xbc19cc69	-0.009387114
189	0x3e541a1d	0.20713086
190	0x3d3b0e1d	0.045667756
191	0x3dbdc1e9	0.09265501
192	0x3d9f0d64	0.07766226
193	0xbc588262	-0.013214679
194	0x3dd748cb	0.10511931
195	0xbdb6b4d9	-0.08921213
196	0xbe389588	-0.18025792
197	0xbcaf5b03	-0.021405702
198	0xbdf3a176	-0.118960306
199	0x3e483633	0.19551925
200	0xbe1297f3	-0.14315777
201	0xbdebe1bf	-0.11517667
202	0x3e5b3752	0.21407822
203	0x3dd09a29	0.10185654
204	0x3e375258	0.17902505
205	0xbccd8310	-0.02508691
206	0x3ccc091a	0.024906684
207	0xbe5bbc46	-0.2145854
208	0xbe434dc7	-0.19072638
209	0x3e6673a8	0.22505057
210	0x3e24ffcc	0.16113204
211	0x3d744363	0.059634577
212	0xbd1d136f	-0.03834861
213	0x3e55a9b8	0.20865524
214	0xbd7a1f2a	-0.061064877
215	0x3e36aeeb	0.17840163
216	0xbae2c326	-0.001730059
217	0x3dd84b63	0.10561254
218	0x3df9fa12	0.122059
219	0xbe446c7d	-0.1918201
220	0xbe20752c	-0.15669698
221	0x3e112e61	0.14177848
222	0xbcb21c34	-0.021741964
223	0x3d85db6c	0.06535992
224	0x3da4b817	0.08042925
225	0xbe3bc20a	-0.18335739
226	0x3d622559	0.0552114
227	0x3cefa3e4	0.029252954
228	0x3d2c5caf	0.042080577
229	0xbde947f2	-0.113906756
230	0xbdcf0ddb	-0.101100646
231	0x3ddd91b7	0.108188085
232	0xbe440e30	-0.19146037
233	0x3d910207	0.07080465
234	0xbdceb789	-0.100936
235	0x3d4d5f65	0.050139803
236	0x3a3a7758	0.00071131205
237	0xbe15a850	-0.14614987
238	0x3e232e23	0.15935569
239	0xbdfe280f	-0.12409984
240	0xbe0686d3	-0.13137369
241	0xbd5c4920	-0.053780675
242	0xbdadced3	-0.08486714
243	0x3ddd418b	0.10803517
244	0x3e54b3dd	0.20771737
245	0x3e6bc40b	0.23024003
246	0x3ce5a2d0	0.028031737
247	0x3c830a1a	0.015996028
248	0xbd9132e3	-0.07089784
249	0xbd9dfb12	-0.077139035
250	0x3e58b134	0.21161348
251	0x3dfed73d	0.12443397
252	0x3dca048c	0.098641485
253	0x3e59e62c	0.2127921
254	0x3c8dc247	0.017304553
255	0x3e32c9b0	0.1745975

tNN.2.bias f4 [32]
0	0xbddf8dca	-0.10915716
1	0xbacffc26	-0.0015867993
2	0x3dc89efe	0.0979595
3	0x3c8f1a7d	0.017468685
4	0xbda07a47	-0.078358226
5	0xbdb64758	-0.089003265
6	0x3dc34410	0.09534466
7	0x3dc0f11c	0.09420988
8	0xbe493a43	-0.19651131
9	0xbd39376c	-0.04521887
10	0xbe40af47	-0.18816863
11	0x3c714755	0.01472648
12	0xb8eeea9a	-0.00011392422
13	0xbe421c07	-0.18956004
14	0x3c7bed9d	0.015376476
15	0xbd66cdc9	-0.056348596
16	0x3ce485c0	0.027895808
17	0x3c623e56	0.013808807
18	0x3d766f10	0.06016451
19	0x3e8014e5	0.2501594
20	0x3e2a5a23	0.16635947
21	0xbe270b47	-0.16312896
22	0xbd536a5b	-0.0516151
23	0x3e28640a	0.16444412
24	0xbdb947fb	-0.09046932
25	0xbd5a8608	-0.05335048
26	0xbcce7cd0	-0.025206
27	0x3def0c32	0.11672248
28	0xbdadc580	-0.08484936
29	0x3e1321d9	0.1436838
30	0xbd13d99b	-0.036096197
31	0xbb9f7e89	-0.004867379

tNN.4.weight f4 [64, 32]
0	0xbcb5cd38	-0.022192582
1	0x3dc88920	0.097917795
2	0xbcb4ffad	-0.022094572
3	0x3cc5f060	0.024162471
4	0xbda3b01d	-0.07992575
5	0x3dd17543	0.10227444
6	0xbe1f3b1e	-0.15549895
7	0xbd503b32	-0.050837703
8	0x3e15b08e	0.14618132
9	0xbdfa7530	-0.12229383
10	0xbd980d2e	-0.07424389
11	0xbde03da3	-0.10949256
12	0x3d12a461	0.035801295
13	0xbe2f70aa	-0.17132822
14	0xbdefd06f	-0.117096774
15	0xbdd1ecd8	-0.102502525
16	0x3e208c14	0.15678436
17	0xbdadf612	-0.084942
18	0x3e32f80c	0.17477435
19	0xbdfee847	-0.12446647
20	0xbd5fdba0	-0.05465281
21	0x3d4dd746	0.05025413
22	0xbbea9c06	-0.0071597127
23	0xbe087a22	-0.1332784
24	0x3d8df1fc	0.069309205
25	0x3cd32eec	0.02577921
26	0x3e365e15	0.17809327
27	0x3e3a4c90	0.18193269
28	0xbd2f622d	-0.042818237
29	0x3da5d7bf	0.08097791
30	0x3dfd6a5d	0.12373803
31	0xbe26fad3	-0.1630662
32	0xbe08f5a5	-0.13374956
33	0xbdf9dc37	-0.12200206
34	0x3cddd4ce	0.027079012
35	0x3df400f3	0.119142435
36	0xbcff3c82	-0.031156782
37	0xbd20fa5f	-0.039301272
38	0xbe168b80	-0.14701653
39	0xbe235a6a	-0.15952459
40	0xbd292e24	-0.04130377
41	0x3d8e4117	0.06946009
42	0x3dbb71ca	0.09152563
43	0xbcff1669	-0.031138616
44	0x3dad0760	0.08448672
45	0xbc4d801a	-0.012542749
46	0xbda1eb27	-0.0790618
47	0x3de7ff0c	0.11327943
48	0x3e1c7a65	0.15281065
49	0x3dac76c9	0.08421094
50	0xbd0a8013	-0.033813547
51	0x3b4fcec9	0.0031708947
52	0x3cc20f93	0.023689067
53	0xbc49be6a	-0.012313465
54	0x3e2eb78b	0.17062204
55	0x3e0dd982	0.13852504
56	0xbdf91172	-0.121615306
57	0x3de498c4	0.1116195
58	0x3cdca1ff	0.026932715
59	0x3e2c6175	0.16834052
60	0xbe14d560	-0.14534521
61	0xbe1344de	-0.1438174
62	0x3d9f5c95	0.077813305
63	0x3ddaec1a	0.10689564
64	0xbdf2e07a	-0.11859222
65	0x3d1f3184	0.03886558
66	0x3e29293f	0.1651964
67	0x3e0b1172	0.13580874
68	0x3d350e39	0.044203017
69	0x3e05f2f5	0.13080962
70	0xbbbbc92c	-0.0057307687
71	0xbc7d6118	-0.0154650435
72	0x3d8bc990	0.06825554
73	0x3d878c1c	0.066185206
74	0x3c73e72c	0.014886659
75	0xbe1c90a0	-0.15289545
76	0x3d51a74a	0.05118493
77	0xbd8186f4	-0.063245684
78	0xbe1264dc	-0.14296287
79	0x3dbae237	0.09125178
80	0x3bda6d48	0.0066658594
81	0xbe137799	-0.14401092
82	0x3d90a694	0.07063022
83	0xbe0f2fb7	-0.13983046
84	0xbdeef039	-0.116669126
85	0x3d563af0	0.0523023
86	0xbdb5f03b	-0.08883711
87	0xbdeb584c	-0.11491451
88	0xbe02cb23	-0.12772803
89	0x3d1ab1ee	0.037767343
90	0xbda265b8	-0.079295576
91	0xbcdfaa16	-0.027302783
92	0xbe0f2f87	-0.13982974
93	0x3d875688	0.066083014
94	0xbde6aefc	-0.11263844
95	0xbdc47742	-0.09593059
96	0xbe116965	-0.14200361
97	0xbde08254	-0.10962358
98	0xbe03ccb7	-0.12871061
99	0xbd64d30f	-0.055865344
100	0x3d99cfd4	0.07510343
101	0x3c5931af	0.013256474
102	0x3d35be1e	0.044370763
103	0x3e02da43	0.12778573
104	0x3e0c7abc	0.13718694
105	0xbd1fc24e	-0.039003663
106	0xbd0f520d	-0.03499036
107	0x3da0d694	0.078534275
108	0xbd73e36e	-0.059543066
109	0xbc204ce3	-0.009783956
110	0x3e17d4be	0.14827248
111	0xbd670df7	-0.056409802
112	0x3de85969	0.11345179
113	0xbc9ac1a0	-0.018891156
114	0x3d52b8a8	0.051445633
115	0xbe34826c	-0.17627877
116	0xbe2131f2	-0.15741709
117	0x3e28d191	0.16486193
118	0x3d8b169c	0.06791422
119	0x3e342043	0.17590432
120	0xbe028efa	-0.12749854
121	0xbddb9522	-0.10721804
122	0xbd3b97e6	-0.04579916
123	0x3e24d0ec	0.16095322
124	0xbd2149e6	-0.039377116
125	0xbe0f1b45	-0.13975246
126	0xbc21e83c	-0.009882029
127	0x3d856a35	0.06514398
128	0xbe23ad7b	-0.15984146
129	0xbdb08ba0	-0.08620381
130	0xbddb3ddd	-0.10705159
131	0x3e31045f	0.17286824
132	0xbc9fc3ac	-0.019502483
133	0xbb718ed3	-0.0036858812
134	0xbce8b675	-0.028407315
135	0xbd4faf06	-0.050704025
136	0x3d9b06a5	0.07569627
137	0xbd0d33d3	-0.03447325
138	0xbcb48101	-0.02203417
139	0xbdccf7b1	-0.10008181
140	0x3d412ce0	0.047161937
141	0xbe1ad603	-0.15120701
142	0xbdff2019	-0.12457294
143	0xbdf5cdf6	-0.120021746
144	0x3da5cae4	0.08095339
145	0x3d893236	0.0669903
146	0x3e19df0e	0.15026495
147	0xbd8c5b18	-0.06853312
148	0x3cc16d56	0.023611706
149	0xbd60cb1a	-0.054881193
150	0x3e143678	0.14473903
151	0xbdcef96e	-0.10106169
152	0xbe3218b1	-0.17392232
153	0xbd49575c	-0.049155578
154	0xbdd14b3f	-0.1021943
155	0xbdca335a	-0.09873076
156	0xbe198eb4	-0.14995843
157	0x3d453a25	0.048151154
158	0xbe058fe0	-0.13043165
159	0x3e0229b1	0.12711217
160	0x3b237673	0.0024942427
161	0xbe19d324	-0.1502195
162	0xbe1a382f	-0.15060495
163	0xbd117b77	-0.035518136
164	0xbe2f6983	-0.17130093
165	0xbdd6f95c	-0.1049678
166	0xbe2cf71d	-0.16891141
167	0x3dc6ae4b	0.097012125
168	0xbd5e8568	-0.054326445
169	0xbe2337d2	-0.15939263
170	0xbe12433d	-0.14283462
171	0x3c01dd64	0.007926319
172	0x3e350084	0.17675978
173	0xbe10cba2	-0.1414018
174	0x3e07333f	0.13203143
175	0x3d6a313e	0.057175867
176	0xbd49cadc	-0.049265727
177	0x3db13885	0.08653358
178	0xbcedcf5c	-0.02902954
179	0xbd9b373a	-0.07578893
180	0x3d511b0c	0.051051185
181	0xbda48d98	-0.08034819
182	0x3da17960	0.078844786
183	0x3e0a4413	0.13502531
184	0x3e1813a1	0.14851238
185	0x3de9985a	0.11406012
186	0x3c59adcf	0.013286068
187	0x3dde30aa	0.10849126
188	0xbd794fe9	-0.060867224
189	0x3dee91b3	0.11648884
190	0x3d2897f2	0.04116053
191	0xbdb246ad	-0.087048866
192	0x3dbe15c5	0.09281496
193	0x3bb6fc68	0.0055842884
194	0x3ddb8b6a	0.107199505
195	0xbc588549	-0.013215371
196	0xbda02f5f	-0.07821535
197	0xbe086ede	-0.13323542
198	0xbcab0caf	-0.020880071
199	0xbdae4fe6	-0.08511333
200	0xbe10b70e	-0.1413233
201	0xbd934685	-0.07191185
202	0x3d53df3c	0.051726565
203	0x3dc8b9c1	0.09801055
204	0x3e16cda7	0.14726888
205	0xbc9398cb	-0.018017193
206	0x3d5acf2f	0.053420242
207	0xbdefaed0	-0.11703265
208	0xbdbd68cc	-0.09248504
209	0x3da2c0f5	0.0794696
210	0x3d51bbda	0.05120454
211	0xbdcbe09d	-0.09954951
212	0xbb7d38ec	-0.0038638664
213	0xbe3cbf39	-0.1843232
214	0xbd3396de	-0.04384505
215	0xbe035ca1	-0.12828304
216	0xbdfb2d40	-0.1226449
217	0x3b1bab27	0.0023753138
218	0xbe17e65b	-0.14833967
219	0x3dd12aa4	0.10213211
220	0x3e12f69c	0.14351887
221	0xbd6f2575	-0.05838533
222	0xbd8e203e	-0.069397435
223	0x3d9d9cc0	0.07695913
224	0x3cc62189	0.024185913
225	0x3d98783f	0.0744481
226	0x3e0e10de	0.13873622
227	0x3db861b8	0.09003013
228	0x3e1fa9cb	0.15592115
229	0x3e30e003	0.17272954
230	0xbd2b0e7b	-0.041761857
231	0x3e32272a	0.17397752
232	0xbd9eee7a	-0.077603295
233	0xbde5bd06	-0.11217694
234	0x3e15fd70	0.1464746
235	0x3b68c71c	0.003551907
236	0x3d70bc4b	0.05877332
237	0x3de180b2	0.11010875
238	0x3df81aee	0.121145114
239	0xbe1f493d	-0.15555282
240	0x3cba352a	0.022730429
241	0x3e18be12	0.14916256
242	0xbddbb226	-0.107273385
243	0x3d02b28c	0.031908557
244	0xbdf18f48	-0.11794907
245	0xbd96853d	-0.07349632
246	0x3da8aef6	0.08236496
247	0xbdf21bfe	-0.11821745
248	0xbd034753	-0.032050442
249	0x3d8c1421	0.06839777
250	0x3e195520	0.14973879
251	0xbc2494f8	-0.010045283
252	0xbd1be1ab	-0.03805701
253	0xbd14cc43	-0.03632761
254	0xbcfbb849	-0.030727522
255	0x3e00049c	0.12501758

tNN.4.bias f4 [64]
0	0xbe2991df	-0.16559552
1	0x3d5706e5	0.05249681
2	0x3d97cfa5	0.07412652
3	0x3e184d39	0.14873208
4	0xbe192a38	-0.14957511
5	0x3e20cf0c	0.15703982
6	0x3e2706c8	0.1631118
7	0xbd0a98f0	-0.03383726
8	0x3e133ba7	0.14378224
9	0xbdc2f1b8	-0.095187604
10	0x3dc3da21	0.09563089
11	0xbd92601e	-0.07147239
12	0x3d9c2d6c	0.07625851
13	0xbe110b30	-0.14164424
14	0x3e260fd9	0.16216983
15	0xbe081a11	-0.13291194
16	0xbdb642bc	-0.08899447
17	0x3ac5b1d6	0.0015082906
18	0xbcacf819	-0.021114396
19	0x3d8f0818	0.06983966
20	0xbd1e6a4d	-0.038675595
21	0xbe2f3224	-0.17108971
22	0xbc49c861	-0.01231584
23	0xbd867bd1	-0.06566585
24	0xbd31debd	-0.04342531
25	0x3da70068	0.08154374
26	0x3dfe0bd7	0.12404602
27	0xbde1286f	-0.1099404
28	0x3d0c310b	0.03422646
29	0xbdefc42c	-0.11707339
30	0xbe2c67c1	-0.16836454
31	0x3c3958bc	0.01131266
32	0xbdc95f9b	-0.098326884
33	0x3d9260f6	0.071474
34	0x3e0079e7	0.12546502
35	0xbc476098	-0.012169026
36	0xbcceb3a7	-0.02523215
37	0xbc5c812e	-0.013458533
38	0x3d58b856	0.05291017
39	0x3d5902c6	0.05298116
40	0xbd3c4e49	-0.045973096
41	0x3caf997e	0.021435495
42	0x3d39fe90	0.045408785
43	0xbdd39d38	-0.103327215
44	0xbd3d6af6	-0.046244584
45	0x3ce6f487	0.028192772
46	0xbe27497d	-0.16336627
47	0x3e16110d	0.14654942
48	0xbe15a62a	-0.14614168
49	0x3e07be27	0.13256131
50	0x3d952aa8	0.07283527
51	0xbd925cb3	-0.07146587
52	0xbd3ddb23	-0.046351563
53	0xbdb8f5f4	-0.09031287
54	0x3d3077aa	0.04308287
55	0x3dec805e	0.115479216
56	0xbdab7706	-0.08372311
57	0xbe1d2d83	-0.15349393
58	0xbde323e3	-0.11090829
59	0xbe2006d2	-0.15627602
60	0xbe08517e	-0.13312337
61	0x3d26f613	0.04076202
62	0x3df6d7fa	0.12052913
63	0x3ceb4d67	0.028723432

psi.0.weight f4 [128, 288]
0	0x3d2a47ae	0.041572265
1	0xbd654f19	-0.055983637
2	0xbb99c739	-0.0046929386
3	0xbb809f6b	-0.003925254
4	0xba1e7b3d	-0.00060455856
5	0x3ae97f3f	0.0017814412
6	0x3c041c39	0.008063369
7	0xbc8e94ab	-0.017404875
8	0xbd417657	-0.047232
9	0xbcaf6ed5	-0.021415154
10	0x3c125f20	0.008933812
11	0xbc7cecf9	-0.015437358
12	0xbd4353e1	-0.047687415
13	0xbd6584c8	-0.056034833
14	0xbbb41518	-0.0054956786
15	0x3c3d5581	0.01155603
16	0x3d4cb369	0.049975786
17	0x3ce3e49c	0.02781897
18	0x3ccbab68	0.024862006
19	0xbc8d6d49	-0.017264025
20	0xbd41b174	-0.047288373
21	0xbb266334	-0.002538872
22	0x3d198e51	0.03748924
23	0xbd5e3357	-0.05424818
24	0x3c95c380	0.018281698
25	0x3d55a747	0.05216148
26	0x3d16c8b9	0.036812518
27	0x3c64b445	0.013958995
28	0xbd1a17c4	-0.03762032
29	0x3d590d47	0.052991178
30	0x3c98457e	0.018587824
31	0xbc700167	-0.014648772
32	0x3d45ac80	0.048260212
33	0xbd6c22b3	-0.05765028
34	0xbd108902	-0.03528691
35	0xbce54f84	-0.027992018
36	0xbd4437ea	-0.047904886
37	0xbd1848c7	-0.03717878
38	0xbc20e933	-0.009821224
39	0x3cea1d38	0.028578386
40	0x3d489569	0.048970614
41	0xbd43a183	-0.04776145
42	0xbc96ed0a	-0.018423576
43	0xbd7b2a86	-0.06131985
44	0xbd425e1b	-0.047453027
45	0xbb544d31	-0.0032394642
46	0xbd14d3a3	-0.036334645
47	0x3d30e759	0.04318938
48	0x3d2a1e02	0.041532524
49	0x3cf5c3dd	0.030000621
50	0xbd38d34d	-0.045123387
51	0xbcd66053	-0.026168978
52	0x3d6d1b87	0.05788758
53	0x3cd6ffe9	0.026245074
54	0xbc14d149	-0.009083101
55	0x3d6bfa87	0.05761197
56	0x3b7d521f	0.0038653684
57	0xbb8843b4	-0.0041584615
58	0x3c9def7c	0.019279234
59	0xbd369f6d	-0.044585634
60	0x3d1d6cbe	0.038433783
61	0x3d6083a9	0.05481306
62	0x3cc33ecc	0.023833655
63	0xbc95ddf4	-0.018294312
64	0xbc3a456e	-0.011369092
65	0xbd4c73bb	-0.049915057
66	0x3caccdde	0.021094259
67	0x3cecc280	0.028901339
68	0x3c7db92c	0.015486043
69	0x38b807cc	8.775256e-05
70	0xbc2de3af	-0.010613366
71	0x3cb93c05	0.022611627
72	0x3d09e848	0.033668786
73	0xbc9f3ccd	-0.019438172
74	0x3c74533e	0.014912425
75	0xbbf9490d	-0.0076075853
76	0x3d59c4e9	0.053166304
77	0xbcf3a8a0	-0.029743493
78	0xbd078a00	-0.03309059
79	0xbd018e99	-0.031630132
80	0xbd6863b0	-0.056735694
81	0xbce88a56	-0.028386276
82	0x3d528704	0.051398292
83	0xbd49c0d5	-0.049256165
84	0xbc4060df	-0.011741846
85	0xbc4bd1e3	-0.012440178
86	0x3d676c24	0.056499615
87	0xbd5375ad	-0.051625896
88	0xbcf470e8	-0.029838994
89	0x3c9cfce2	0.019163553
90	0x3d64d3bf	0.055866
91	0x3d041a35	0.032251555
92	0xbc51ba07	-0.0128007
93	0xbd62bc20	-0.05535519
94	0x3d1d677c	0.03842877
95	0x3cc8e1a0	0.024521649
96	0xbb103371	-0.0022003318
97	0x3c6ffd85	0.014647846
98	0x3c381ec7	0.011237807
99	0xbd432c77	-0.047649827
100	0x3d669d7d	0.056302536
101	0x3d69d1a2	0.057084687
102	0x3d2efb67	0.042720225
103	0xbd6e0ea2	-0.058119424
104	0xbcbd015d	-0.02307194
105	0xbc8f8bc6	-0.017522704
106	0xbc65fc63	-0.014037224
107	0xbcc715ff	-0.02430248
108	0xbcacfe21	-0.021117272
109	0x3cc038a7	0.023464514
110	0xbc866075	-0.016403416
111	0xbc90df27	-0.017684532
112	0x3d5c69ae	0.05381172
113	0x3b737d90	0.0037153699
114	0x3d6ebdf2	0.058286615
115	0xbc06bdf0	-0.008223996
116	0x3c09e934	0.008417416
117	0xbd158687	-0.03650525
118	0x3c105ba9	0.008810916
119	0x3d1dbee4	0.038512126
120	0x3cc7c317	0.024385018
121	0x3cfd9a7f	0.030957459
122	0xbd41ea1b	-0.0473424
123	0x3d38204a	0.04495267
124	0x3d60a46b	0.0548443
125	0x3c0fbf69	0.008773663
126	0x3d15a87b	0.03653763
127	0xbc0742ed	-0.008255702
128	0x3cbc939e	0.023019608
129	0x3c4f2c37	0.012644819
130	0xbb96c7d6	-0.004601459
131	0xbc1dcd9c	-0.009631541
132	0x3d10f692	0.035391398
133	0x3d216495	0.039402563
134	0x3d43886c	0.047737524
135	0xbcd3c42c	-0.025850378
136	0xbd537b84	-0.051631466
137	0xbd0ac829	-0.033882294
138	0xbd3511c2	-0.04420639
139	0xbae5cd62	-0.0017532522
140	0x3d06ce83	0.03291179
141	0x3d5c1469	0.053730402
142	0x3d4451d8	0.047929615
143	0xbaff3d6f	-0.0019473265
144	0xbbf170bf	-0.0073681767
145	0xbc0c7ca1	-0.008574636
146	0x3c9127b9	0.017719137
147	0x3c21ab62	0.009867521
148	0xbd25516b	-0.04036085
149	0xbd5e3a81	-0.054255012
150	0x3d1df575	0.038564164
151	0x3d60eae1	0.054911498
152	0xbd548615	-0.051885683
153	0xbcb103f7	-0.021608336
154	0x3c88e065	0.016708562
155	0xbc990ced	-0.018682921
156	0x3ccbe041	0.024887206
157	0xbd3af8ef	-0.045647558
158	0x3d476f2f	0.048690017
159	0x3c87e23a	0.016587365
160	0xbced0e18	-0.028937384
161	0x3caa453c	0.020784967
162	0x3d6555ee	0.055990152
163	0xbc66a158	-0.014076553
164	0x3d1fd027	0.03901687
165	0xbb45600a	-0.0030117058
166	0x3d1d1a70	0.03835529
167	0x3b8fb759	0.0043858704
168	0x3d4de266	0.05026474
169	0xbc8b3587	-0.016993297
170	0x3c8da6ec	0.017291509
171	0xbbe67c2e	-0.0070338463
172	0x3c6cbf11	0.014449851
173	0x3d4f49e2	0.05060757
174	0x3d015067	0.03157082
175	0xbc4502e8	-0.012024619
176	0xbbf0464e	-0.0073325997
177	0x3d325e35	0.043546874
178	0x3d3f37ba	0.046684004
179	0x3d84853d	0.06470726
180	0x3d409f62	0.047027
181	0x3d1cc757	0.038276043
182	0xbca453fb	-0.020059576
183	0xbb954e86	-0.00455648
184	0x3d351da9	0.04421774
185	0xbc546afb	-0.012964959
186	0x3bd8cda2	0.00661631
187	0x3cb33c21	0.021879258
188	0xbd1b9f4a	-0.037993707
189	0x3cd0c578	0.025484785
190	0x3cfdcd82	0.030981783
191	0xbd374113	-0.044739794
192	0xbd3ed7ab	-0.046592396
193	0xbccc9188	-0.024971738
194	0xbd02e507	-0.0319567
195	0xbcabd74c	-0.020976685
196	0xbca0e7c2	-0.01964176
197	0xbd59fda4	-0.053220406
198	0x3d4667dc	0.04843889
199	0xbcd5ea92	-0.026112828
200	0x3be5ee1c	0.0070169102
201	0xbb7609bc	-0.0037542423
202	0x3d14cb9b	0.036326986
203	0x3cbae295	0.02281312
204	0xbca56379	-0.020189034
205	0xbd573085	-0.052536506
206	0x3d31a8e5	0.04337396
207	0xbd48e473	-0.04904599
208	0x3d37977f	0.044822212
209	0x3b92a441	0.004475147
210	0x3d199122	0.037491925
211	0xbc7f68b6	-0.01558893
212	0x3d6be33a	0.057589747
213	0x3d38ff83	0.04516555
214	0x3c9c61b4	0.019089557
215	0xbd706768	-0.058692366
216	0xbd22e463	-0.039768588
217	0xbaef6df2	-0.0018267019
218	0x3b511309	0.0031902215
219	0x3c945d50	0.018110901
220	0xbcbcc714	-0.023044147
221	0xbcd7a9b1	-0.026326032
222	0x3cdf52d0	0.027261168
223	0x3d5833bb	0.05278371
224	0x3d2291c1	0.039689783
225	0xbd688ba4	-0.056773797
226	0xbc88acdb	-0.016683986
227	0xbbbf6403	-0.0058407797
228	0xbd35b498	-0.04436168
229	0x3c38a96b	0.011270861
230	0x3c691129	0.014225283
231	0x3b6d5251	0.0036212394
232	0x3d174e6e	0.03694003
233	0x3d32aa40	0.043619394
234	0xbb7a31a3	-0.0038176558
235	0x3d26f6ba	0.04076264
236	0x3cc0c327	0.023530556
237	0x3d0d74f5	0.034535367
238	0xbd1a38f5	-0.037651975
239	0x3d66fec1	0.056395296
240	0xbd3c387b	-0.0459523
241	0x3b1aa3a3	0.002359607
242	0x3cb0a5b1	0.021563383
243	0x3c717ef5	0.014739742
244	0xbc874842	-0.016513947
245	0xbca17f38	-0.019713983
246	0x3a7ede82	0.00097224873
247	0xbd3f7c33	-0.046749305
248	0xbd198ea1	-0.037489537
249	0xbd081388	-0.03322175
250	0xbc95b90f	-0.01827672
251	0xbd228d7a	-0.039685704
252	0x3d619c68	0.0550808
253	0xbcf5496c	-0.029942237
254	0x3d292cb9	0.041302416
255	0x3d3438ab	0.043999355

psi.0.bias f4 [128]
0	0x3c6e0b35	0.014529039
1	0x3ccbfc5f	0.024900613
2	0x3d45308e	0.04814201
3	0x3cc02d2c	0.02345904
4	0x3c0aa61d	0.008462456
5	0xbd56185b	-0.05226932
6	0xbd54be84	-0.051939502
7	0xbcd31978	-0.02576898
8	0xbd4eb353	-0.050463986
9	0xbd018758	-0.031623214
10	0x3c83749e	0.016046818
11	0x3d3d57f3	0.046226453
12	0xbc1de774	-0.009637702
13	0xbd1af0c6	-0.037827276
14	0x3cffdd66	0.0312335
15	0x3d1cd82c	0.038292095
16	0x3cbd00fc	0.023071758
17	0xbd508e93	-0.05091722
18	0x3cc4ea41	0.024037482
19	0xbd23e2ad	-0.040011097
20	0x3cc13190	0.023583204
21	0xbd5006b4	-0.050787643
22	0xbcbdbd5e	-0.023161586
23	0xbc4da206	-0.012550836
24	0x3d38a11e	0.04507553
25	0x3d03ace7	0.032147314
26	0x3a80133d	0.0009771358
27	0x3cf0c27a	0.029389609
28	0x3c824a43	0.015904551
29	0x3d499626	0.04921546
30	0x3cf4f5a5	0.029902289
31	0x3ce59c90	0.028028756
32	0x3c61e193	0.013786691
33	0xbb5ab595	-0.0033372391
34	0x3c08ba4e	0.0083452
35	0xbd6963b0	-0.056979835
36	0x3d6e36f6	0.058157884
37	0xbd65a87d	-0.056068886
38	0xbbc189a7	-0.005906302
39	0x3d55ebfe	0.052227013
40	0xbd199110	-0.037491858
41	0xbd058441	-0.03259683
42	0xbcbcd035	-0.0230485
43	0x3cefccf0	0.029272527
44	0x3d486795	0.04892691
45	0x3c5ea9cd	0.013590288
46	0xbba94890	-0.005166121
47	0x3ce4f066	0.027946662
48	0xbd4e5650	-0.050375283
49	0x3d077cc0	0.033077955
50	0xbc87c929	-0.016575413
51	0xbd01101c	-0.031509504
52	0xbd09ec72	-0.033672757
53	0xbd550a27	-0.052011635
54	0xbd0a3a72	-0.033747144
55	0xbc7be9f8	-0.015375607
56	0x3cc5f955	0.024166742
57	0xbbb7331a	-0.0055908086
58	0x3c2cceab	0.01054732
59	0x3c0f9f21	0.008765967
60	0xbcddd507	-0.027079118
61	0xbd2793f5	-0.040912587
62	0xbab1cbeb	-0.0013564801
63	0xbd024ffd	-0.031814564
64	0xbd090a80	-0.03345728
65	0x3b90572f	0.0044049243
66	0x3d1cc0ca	0.038269795
67	0xbb4b9d3f	-0.0031069068
68	0x3d3199f5	0.043359715
69	0xbd623f7c	-0.055236325
70	0x3ccc0def	0.024908988
71	0xbd540964	-0.051766768
72	0x3d3ae626	0.045629643
73	0x3d035d61	0.032071475
74	0x3d6a2aca	0.057169713
75	0x3cabcbeb	0.02097126
76	0xbd5bc0c0	-0.053650618
77	0xbc990f8d	-0.018684173
78	0xbadfbcc1	-0.0017069803
79	0x3c4ff378	0.012692325
80	0x3cb073bb	0.02153956
81	0xbb09d2ba	-0.0021030144
82	0xbd3b2626	-0.045690678
83	0xbd070902	-0.032967575
84	0x3bd04ab8	0.0063565634
85	0xbbbfc5d6	-0.0058524413
86	0x3d50fd14	0.051022604
87	0xbceb9cab	-0.028761229
88	0x3ccf3323	0.025292939
89	0x3d55cd75	0.052197892
90	0x3cffed83	0.031241184
91	0xbd31852c	-0.043339893
92	0x3d2dd448	0.042438775
93	0x3cf4530d	0.029824758
94	0xbb876be4	-0.0041327346
95	0xbd52142c	-0.05128877
96	0xbc02dbef	-0.007987007
97	0xbd5f7f04	-0.05456449
98	0x3d6c13d9	0.057636116
99	0xbd028fa6	-0.031875275
100	0x3cf45ba7	0.02982886
101	0xbd2f7794	-0.042838648
102	0x3d7e3705	0.06206419
103	0xbd00c657	-0.03143915
104	0xbc480549	-0.012208291
105	0x3bb611f4	0.0055563394
106	0x3ca14c1c	0.019689612
107	0x3d2c3ec4	0.042052045
108	0x3d4433e2	0.04790104
109	0xbcd10e5e	-0.025519546
110	0xbcb10a65	-0.021611402
111	0xbcdf0a1d	-0.027226502
112	0xbc4db6ab	-0.0125557585
113	0x3cb19a37	0.02167998
114	0x3c99c031	0.018768402
115	0x3d2a92e5	0.041643996
116	0xbc519f55	-0.012794335
117	0xbd299614	-0.04140289
118	0x3cac3b9d	0.02102452
119	0x3b8872a6	0.004164058
120	0x3c652f2d	0.013988298
121	0x3cc1fb85	0.023679504
122	0x3c14352b	0.009045879
123	0xbbff7a87	-0.007796589
124	0xbd6a3140	-0.057175875
125	0x3d4391fb	0.04774664
126	0xba1bbc38	-0.00059408275
127	0x3d15eb64	0.03660144

psi.2.weight f4 [64, 128]
0	0x3c1981f5	0.009369363
1	0x3a9acf8b	0.001181112
2	0xbda285ef	-0.07935702
3	0xbd7a6573	-0.061131906
4	0x3c5decd1	0.013545231
5	0xbd4402c1	-0.04785419
6	0xbcf6bb9d	-0.030118758
7	0xbd3f9b5f	-0.046779033
8	0xbdadad98	-0.08480376
9	0xbd5a5ed3	-0.053313088
10	0xbbd0d94c	-0.00637356
11	0xbd42e227	-0.047578957
12	0xbb73cf9f	-0.003720261
13	0xbd271226	-0.040788792
14	0xbd9427cd	-0.07234154
15	0xbdc656a4	-0.09684494
16	0xbd91fe61	-0.07128597
17	0x3d8167c0	0.06318617
18	0xbd41d1e1	-0.047319297
19	0x3cd94b68	0.026525214
20	0x3d77ec63	0.06052817
21	0x3d8d611a	0.06903286
22	0xbd79ec62	-0.061016448
23	0x3d834eaa	0.06411488
24	0x3da90736	0.082533285
25	0xbbbf9f72	-0.005847865
26	0xbd8cd5e0	-0.06876731
27	0xbda7f7f9	-0.08201594
28	0x3d0924b9	0.033482287
29	0x3d3fbd36	0.046811305
30	0x3cf8108a	0.030281324
31	0xbbcf826f	-0.0063326876
32	0x3d982f98	0.07430953
33	0x3cd01b94	0.025403775
34	0xbd59717f	-0.053086754
35	0xbd651196	-0.055924974
36	0xbcafecd0	-0.021475226
37	0xbcf0b5e6	-0.029383611
38	0xbd80f34a	-0.06296404
39	0x3cb109c7	0.021611108
40	0x3daf6922	0.08564974
41	0xbcdd09ec	-0.02698227
42	0x3d1f6f92	0.03892476
43	0x3d878356	0.06616847
44	0xbbb8d694	-0.005640814
45	0xbda77109	-0.081758566
46	0xbd791dd0	-0.060819447
47	0xbcd4a33c	-0.025956742
48	0xbda04de9	-0.0782736
49	0x3da8d3e2	0.082435384
50	0x3d83869f	0.06422161
51	0x3d15b504	0.036549583
52	0x3d2c0c14	0.042003706
53	0xbdb6a844	-0.08918813
54	0xbc9c1e87	-0.019057525
55	0x3c45db41	0.0120762
56	0x3d1fc114	0.039002493
57	0x3ce6e4df	0.028185306
58	0xbd660fed	-0.05616753
59	0x3c989efe	0.0186305
60	0xbd7ccdc5	-0.061719675
61	0xbd0222fd	-0.03177165
62	0x3d4440b1	0.047913257
63	0xbc905d15	-0.01762251
64	0xbd7bcb62	-0.061473258
65	0xbce33974	-0.027737357
66	0x3d62fa17	0.055414286
67	0xbce7b9db	-0.028286865
68	0xbbf7ebc0	-0.0075659454
69	0x3d626700	0.05527401
70	0xbc2ba9c1	-0.010477484
71	0x3daa6efa	0.08321948
72	0x3b2bed1b	0.0026233855
73	0x3d237cd2	0.03991396
74	0x3ce86f47	0.028373374
75	0x3d9567cb	0.072951876
76	0xbd996d40	-0.07491541
77	0x3cdd729d	0.027032191
78	0xbc9d4b44	-0.019200929
79	0xbda6bf92	-0.08142008
80	0xbcabeaed	-0.020986045
81	0x3d613feb	0.054992598
82	0x3d6f5c39	0.05843756
83	0x3d2d1c71	0.042263452
84	0x3c20ce49	0.009814807
85	0x3d5d468a	0.05402235
86	0x3d38298e	0.044961505
87	0xbd359693	-0.044333052
88	0xbca55073	-0.020179963
89	0x3d477478	0.048695058
90	0x3d97c307	0.074102454
91	0x3d5b5e74	0.053556874
92	0x3d84d60e	0.0648614
93	0x3c98389e	0.018581685
94	0x3bb19cad	0.0054202885
95	0x3c439e61	0.011939616
96	0x3d5a9f08	0.05337432
97	0xbd8062bb	-0.06268831
98	0xbd0ac190	-0.033876
99	0x3d58ecdf	0.052960273
100	0xbd55f52d	-0.05223577
101	0xbd9d1948	-0.07670838
102	0xbd2ed0f6	-0.04267975
103	0x3d86eb2d	0.06587825
104	0x3caaacaa	0.020834286
105	0xbb012845	-0.001970784
106	0x3b166586	0.0022948696
107	0x3daf49af	0.08558976
108	0xbd725a7a	-0.059168316
109	0xbb3278f2	-0.0027232734
110	0x3c2bc500	0.01048398
111	0xbc8cc4ca	-0.01718368
112	0xbd1cfb91	-0.03832585
113	0x3dacd935	0.084398665
114	0x3d885a00	0.06657791
115	0x3d904644	0.07044652
116	0x3d1ed2e1	0.03877533
117	0xbda25a73	-0.07927408
118	0xbc9b411f	-0.01895195
119	0xbd6bdcc8	-0.0575836
120	0x3d51484c	0.05109434
121	0xbc4e47db	-0.012590374
122	0x3c442d9b	0.011973764
123	0x3db30341	0.08740855
124	0xbcb51ced	-0.02210852
125	0x3d9d471d	0.076795794
126	0x3b55c617	0.0032619291
127	0xbdaba891	-0.08381761
128	0x3d740c6a	0.05958215
129	0xbca221db	-0.019791534
130	0x3d2d132c	0.04225461
131	0xbdb41013	-0.087921284
132	0xbd77402a	-0.060363926
133	0xbcf93d10	-0.030424625
134	0x3db0d803	0.08634951
135	0xbcd51c8d	-0.02601459
136	0x3b0a1632	0.0021070358
137	0x3d28263d	0.041052092
138	0xbd1e4225	-0.0386373
139	0xbbf330f4	-0.007421607
140	0x3cd44e2f	0.025916187
141	0xbd80ed22	-0.062952295
142	0xbda56c97	-0.080773525
143	0x3d8574cd	0.065164186
144	0xbc2b481a	-0.010454202
145	0xbd882c4c	-0.06649074
146	0xbc03595c	-0.00801691
147	0xbd73a0c6	-0.059479497
148	0x3db0a322	0.08624865
149	0x3d8ecb8c	0.06972417
150	0x3d4051a8	0.046952873
151	0x3ced768b	0.02898719
152	0xbd026e74	-0.031843618
153	0xbd8502fd	-0.064947106
154	0x3da238c7	0.07920986
155	0xbd4e317d	-0.050340164
156	0xbd1a1aa7	-0.037623074
157	0x3c1d047c	0.009583589
158	0x3dacd31c	0.084387034
159	0xbc8515ef	-0.01624581
160	0xbcf90407	-0.030397428
161	0xbd49b8b1	-0.0492484
162	0xbbaf2e90	-0.005346127
163	0x3d850286	0.06494622
164	0x3b2d7c16	0.0026471666
165	0xbda0bf0f	-0.078489415
166	0xbd70193f	-0.058617827
167	0xbd3ece0a	-0.046583213
168	0x3d316224	0.043306485
169	0xbd7f4fce	-0.062331967
170	0x3d40fb35	0.04711457
171	0xbd8d4fba	-0.06899972
172	0x3c10bed3	0.008834559
173	0x3d5730bd	0.052536715
174	0x3d94fa48	0.072743
175	0xbc94d738	-0.01816903
176	0xbce26502	-0.027636055
177	0x3bfae385	0.007656517
178	0xbd97f333	-0.074194334
179	0x3c5404dc	0.012940612
180	0xbd3a62a5	-0.04550423
181	0xbd283695	-0.04106768
182	0xbc47a82d	-0.012186092
183	0x3ce591fb	0.02802371
184	0xbd51f5d2	-0.051259823
185	0xbd8b14bb	-0.067910634
186	0x3d92e703	0.07172968
187	0xbc82d2a4	-0.015969582
188	0x3d97b761	0.074080236
189	0xbd35aa4b	-0.044351857
190	0x3c0b9f22	0.008521827
191	0xbcccf688	-0.025019899
192	0x3d1b8545	0.037968893
193	0x3d2ff8c7	0.042961862
194	0x3cba5c99	0.022749232
195	0x3ce7e655	0.028308073
196	0xbd651d6a	-0.055936255
197	0xbd716928	-0.058938175
198	0x3d896115	0.0670797
199	0x3d8ffe4c	0.07030925
200	0x3c84e7e1	0.01622385
201	0x3d62ef82	0.055404194
202	0xbdb903a5	-0.09033898
203	0xbd154265	-0.036440272
204	0x3d8d1f60	0.0689075
205	0xbca5e632	-0.020251367
206	0xbb28a5c3	-0.0025733567
207	0xbd821c58	-0.063530624
208	0x3c576f75	0.013149132
209	0x3babb0a7	0.0052395645
210	0xbcab288b	-0.020893356
211	0xbd03702b	-0.032089394
212	0x3c1f8e4d	0.009738517
213	0x3d904a42	0.070454136
214	0x3d111020	0.03541577
215	0xbc9976e5	-0.018733451
216	0x3d0ebdec	0.034849092
217	0x3c9948ce	0.018711474
218	0xbd72e936	-0.05930444
219	0x3cf10f38	0.029426202
220	0xbd02ff71	-0.03198189
221	0xbc82b7a0	-0.0159567
222	0x3c3541db	0.011063064
223	0xbd4d009a	-0.0500494
224	0xbc5965d8	-0.01326891
225	0x3d9f4413	0.07776656
226	0x3d780724	0.060553685
227	0xbcea1f5c	-0.028579406
228	0xbd437299	-0.04771671
229	0xbd0fc8dc	-0.035103664
230	0xbd205aaa	-0.039148964
231	0xbce5efde	-0.02806848
232	0xbc3325a2	-0.010934265
233	0xbd02b9f1	-0.03191561
234	0xbd5dd88a	-0.054161586
235	0xbd969273	-0.07352152
236	0x3c10bbb9	0.008833819
237	0x3d70db05	0.058802623
238	0x3cd69db7	0.026198251
239	0xbd3fd962	-0.04683817
240	0xbc648f3b	-0.013950164
241	0xbd70b2bc	-0.058764204
242	0xbd85d4b4	-0.065347105
243	0x3d4e9963	0.05043925
244	0xbd7a296c	-0.06107466
245	0x3da31d2e	0.0796455
246	0xbd4372dc	-0.04771696
247	0xbd4243f9	-0.047428105
248	0xbd96100c	-0.073272794
249	0xbc9ae778	-0.018909201
250	0xba5cb526	-0.0008419327
251	0x3d91513a	0.07095571
252	0x3d9aa770	0.075514674
253	0xbc17f0e8	-0.009273745
254	0x3cb20f62	0.02173585
255	0x3ce69362	0.02814645
