lightning_logs/version_8/checkpoints/epoch=1-step=199.ckpt (torch, 398738 bytes, 48 tensors)

lattice_net.0.weight f4 [8, 1, 2]
0.27842414 0.29656577 -0.1873592 0.5421671 0.5669904 -0.42211014 0.533665 0.07759791
-0.37296286 -0.3846552 0.4315979 0.6451152 0.38929626 0.28358674 -0.53260154 0.024668602
00000000: 9c8d 8e3e 78d7 973e 17db 3fbe 77cb 0a3f
00000010: 4826 113f d21e d8be 459e 083f a7eb 9e3d
00000020: fdf4 bebe 87f1 c4be 66fa dc3e 4526 253f
00000030: d751 c73e 4832 913e 9358 08bf cf15 ca3c

lattice_net.0.bias f4 [8]
0.11843121 -0.22688514 -0.31244332 0.41165942 0.20829207 -0.5493699 0.48734167 -0.44986364
00000000: 108c f23d 9454 68be 92f8 9fbe 06c5 d23e
00000010: 844a 553e 81a3 0cbf d984 f93e 8754 e6be

lattice_net.2.weight f4 [16, 8, 2]
0.05489516 0.006817586 0.19125433 -0.04062144 0.06326043 0.13138784 -0.042385794 0.20402059
-0.0329095 0.21151078 -0.06619334 -0.17462589 0.1811985 -0.12979284 -0.112922944 -0.101105444
-0.09553235 0.007979632 -0.00045775724 0.0576192 0.004127043 -0.18450962 -0.045126908 -0.10762589
-0.13638376 -0.1670905 -0.080386296 -0.010290221 0.20710438 -0.19619732 0.112421334 -0.07737682
-0.04166194 -0.08936301 0.23635885 -0.20093012 -0.22134468 0.009242436 -0.2456328 0.08472236
-0.23630852 0.016907897 0.1606468 0.051470406 -0.089066386 -0.051905572 -0.090894334 -0.0117863715
0.1975641 -0.084613025 0.07836203 -0.020939685 -0.14675087 -0.022521898 -0.06232591 -0.15529135
-0.2090897 -0.08298497 -0.045186643 0.014237147 -0.22429477 -0.1384156 -0.24591075 0.114166826
-0.22316146 0.0783762 -0.040041983 0.1275163 0.22556204 0.10541539 0.1488923 0.19207537
0.015646784 -0.12204364 0.19230965 0.11244214 -0.20128538 -0.038733754 -0.10148128 -0.030262366
-0.14653471 -0.011654778 -0.13851856 -0.14927112 0.10328773 -0.06168344 0.13910574 0.086104214
-0.23462284 -0.21644728 0.017898582 0.09320108 -0.028212072 -0.16708542 0.20556352 -0.0946629
-0.18737996 0.21055873 0.21971202 -0.010757819 0.13578513 0.09601241 0.22665724 0.12011985
-0.12778445 0.13601288 0.121604115 -0.028195895 -0.10953533 0.035147298 -0.10684535 0.21223219
0.02489753 -0.106735095 -0.03789263 0.05649017 -0.21465328 -0.17958538 -0.16697818 -0.12797934
0.09384835 0.24605905 -0.14259517 -0.1844752 -0.19442469 0.19400252 0.12301337 -0.12473071
-0.05309728 -0.08422251 -0.18219985 0.17167945 -0.24274153 -0.15752232 -0.21392426 -0.15946798
0.035710227 -0.21952192 0.20992373 -0.21486698 0.2112538 -0.16583002 -0.21392833 -0.07351357
-0.18080215 0.012984252 -0.20164856 -0.12482581 0.041478302 0.1255635 0.11185076 -0.09224957
-0.10576685 0.04298347 -0.1157402 -0.061899167 -0.22828726 0.18193796 0.07646359 -0.08984014
0.15607843 0.12502742 0.15129608 -0.056355163 0.16134161 0.042308208 -0.07264118 -0.09155323
-0.18233341 0.22313508 -0.007453082 -0.04080905 0.13720824 0.07698801 -0.22003809 -0.10593362
0.07614208 0.11249529 0.25250646 0.2412054 0.25172728 0.011938989 -0.026803233 0.041517865
-0.13056862 0.13107206 0.18549684 0.10956463 0.08698154 -0.022958664 0.08584951 0.2236508
0.13383575 -0.18638362 0.025394652 0.18069093 0.028291501 -0.21658517 -0.11562386 -0.14032933
0.05436161 -0.03812929 0.23890334 0.24267673 0.23768757 0.13781707 0.0046842145 -0.21476465
-0.094050735 -0.09915835 -0.067913 -0.008947467 0.21783283 -0.1538373 -0.21948151 -0.17805986
-0.1355786 -0.100463435 0.0021652034 -0.21959731 -0.1906675 0.016482191 -0.015763769 0.05872008
-0.19900432 0.026500648 -0.16386592 0.0048823287 0.056748252 -0.18492682 -0.10128708 0.02815892
-0.13184918 0.15849438 0.1539139 0.17429355 0.009722352 -0.12266416 -0.21276297 0.03977452
-0.16418312 0.19387217 0.20424952 -0.03611877 -0.21253112 0.21531045 0.0223277 0.18801697
-0.22391437 0.17168288 0.14562684 0.15799564 0.22111456 -0.06029576 -0.21166989 0.09348601
00000000: bfd9 603d 0e66 df3b 2dd8 433e ab62 26bd
00000010: af8e 813d 898a 063e ba9c 2dbd c6ea 503e
00000020: 1dcc 06bd 4896 583e 6090 87bd 21d1 32be
00000030: 198c 393e 6ae8 04be 2544 e7bd 5f10 cfbd
00000040: 77a6 c3bd 01bd 023c 23ff efb9 1c02 6c3d
00000050: 253c 873b 17f0 3cbe fed6 38bd f66a dcbd
00000060: 2fa8 0bbe c619 2bbe 92a1 a4bd 5198 28bc
00000070: 2c13 543e f3e7 48be 283d e63d bd77 9ebd
00000080: b6a5 2abd f403 b7bd 0e08 723e a0c0 4dbe
00000090: 2ea8 62be 966d 173c 2a87 7bbe eb82 ad3d
000000a0: dcfa 71be 6e82 8a3c 9880 243e a2d2 523d
000000b0: 7068 b6bd f09a 54bd cf26 babd a01b 41bc
000000c0: 3e4e 4a3e 9849 adbd 467c a03d b489 abbc
000000d0: dc45 16be d87f b8bc 7449 7fbd b204 1fbe
000000e0: 9c1b 56be 06f4 a9bd a115 39bd ec42 693c
000000f0: 87ad 65be d2bc 0dbe 07d0 7bbe 4cd0 e93d
00000100: 7084 64be b383 a03d 1003 24bd a293 023e
00000110: bcf9 663e 06e4 d73d 3977 183e 68af 443e
00000120: af2d 803c 04f2 f9bd d2ec 443e 1148 e63d
00000130: c11d 4ebe 49a7 1ebd 6bd5 cfbd c8e8 f7bc
00000140: 320d 16be aff3 3ebc cfd7 0dbe 87da 18be
00000150: 8488 d33d c6a7 7cbd bc71 0e3e 6857 b03d
00000160: f840 70be 5ba4 5dbe 0ca0 923c 35e0 be3d
00000170: 011d e7bc 7118 2bbe 3e7f 523e 9fde c1bd
00000180: 88e0 3fbe b59c 573e 30fc 603e 9041 30bc
00000190: 420b 0b3e 28a2 c43d d618 683e 6501 f63d
000001a0: edd9 02be f646 0b3e 940b f93d 14fb e6bc
000001b0: 0f54 e0bd 9df6 0f3d bcd1 dabd 6553 593e
000001c0: e8f5 cb3c ee97 dabd 4d35 1bbd 3d62 673d
000001d0: 12ce 5bbe 3be5 37be 54fc 2abe 040d 03be
000001e0: 9033 c03d e7f6 7b3e 7804 12be 11e7 3cbe
000001f0: 4417 47be 99a8 463e 6fee fb3d d172 ffbd
00000200: 897c 59bd da7c acbd 9992 3abe bdcc 2f3e
00000210: 3c91 78be 884d 21be f60e 5bbe 934b 23be
00000220: e344 123d 5bca 60be 3ff6 563e 1706 5cbe
00000230: eb52 583e 58cf 29be 0710 5bbe 488e 96bd
00000240: 3324 39be e6bb 543c f67c 4ebe ada4 ffbd
00000250: 27e5 293d b893 003e 0312 e53d 58ed bcbd
00000260: 4a9c d8bd 6f0f 303d 3309 edbd fb89 7dbd
00000270: 23c4 69be f24d 3a3e f198 9c3d 1bfe b7bd
00000280: 06d3 1f3e 3007 003e 5ced 1a3e acd4 66bd
00000290: bc36 253e 5f4b 2d3d e6c4 94bd 4380 bbbd
000002a0: 9cb5 3abe 867d 643e fc38 f4bb 6427 27bd
000002b0: 5180 0c3e e4ab 9d3d aa51 61be baf3 d8bd
000002c0: 61f0 9b3d ee63 e63d 8748 813e 8cfe 763e
000002d0: 66e2 803e c09b 433c 7492 dbbc a30e 2a3d
000002e0: c8b3 05be c137 063e e2f2 3d3e 6c63 e03d
000002f0: 6123 b23d cf13 bcbc ded1 af3d b704 653e
00000300: 3d0c 093e 59db 3ebe 7208 d03c 0b07 393e
00000310: 94c3 e73c 81c8 5dbe 34cc ecbd 7eb2 0fbe
00000320: 48aa 5e3d 752d 1cbd 14a3 743e 4080 783e
00000330: 5f64 733e eb1f 0d3e 0a7e 993b 44eb 5bbe
00000340: ac9d c0bd 8813 cbbd f915 8bbd 6698 12bc
00000350: 920f 5f3e 8687 1dbe c3bf 60be 5355 36be
00000360: 1ed5 0abe c6bf cdbd 16e6 0d3b 1ede 60be
00000370: 573e 43be a905 873c 0523 81bc 7784 703d
00000380: cac7 4bbe e317 d93c 78cc 27be f1fb 9f3b
00000390: db70 683d 755d 3dbe 9a6f cfbd 89ad e63c
000003a0: 7903 07be 5a4c 223e 9b9b 1d3e 027a 323e
000003b0: 804a 1f3c 5937 fbbd 89de 59be 9bea 223d
000003c0: 9f1f 28be 6d86 463e c926 513e 46f1 13bd
000003d0: c2a1 59be 587a 5c3e 95e8 b63c 8587 403e
000003e0: cf49 65be a3cd 2f3e 341f 153e 9cc9 213e
000003f0: db6b 623e b0f8 76bd febf 58be 9875 bf3d

lattice_net.2.bias f4 [16]
0.18187404 0.09663533 0.17662585 -0.10883001 0.006367093 -0.17651632 -0.04732725 0.14009759
-0.17574328 -0.16812973 -0.011889908 0.16660659 0.021736959 0.2535688 0.10939015 0.049305096
00000000: 303d 3a3e bee8 c53d 68dd 343e 45e2 debd
00000010: 0ca3 d03b b2c0 34be 38da 41bd be75 0f3e
00000020: 0cf6 33be 332a 2cbe e4cd 42bc eb9a 2a3e
00000030: b511 b23c c5d3 813e f107 e03d 24f4 493d

tNN.0.weight f4 [16, 2]
-0.36008915 -0.1665599 0.21303898 -0.46000108 0.35153863 -0.6467466 0.25654438 0.122474186
-0.49987194 -0.45180228 0.16331108 0.66989 -0.6681035 0.30006355 -0.20117424 -0.053939834
-0.3504183 0.5091758 0.53821987 0.32885224 -0.19699027 -0.46962556 -0.16884199 0.6803305
0.2613599 0.5343334 0.10424287 -0.19936979 0.18543921 -0.67438084 -0.52164733 -0.27676916
00000000: 9b5d b8be ae8e 2abe e426 5a3e 4385 ebbe
00000010: dffc b33e 2f91 25bf c959 833e bfd3 fa3d
00000020: 37ef ffbe a152 e7be 053b 273e e97d 2b3f
00000030: d508 2bbf eea1 993e 9f00 4ebe 04f0 5cbd
00000040: 076a b3be 5859 023f c7c8 093f 525f a83e
00000050: d1b7 49be c372 f0be eae4 2cbe 242a 2e3f
00000060: f7d0 853e 13ca 083f 497d d53d 9827 4cbe
00000070: c7e3 3d3e 39a4 2cbf ae8a 05bf b0b4 8dbe

tNN.0.bias f4 [16]
-0.46653354 -0.64920753 0.4175568 -0.14419411 -0.10409522 0.39544424 0.1112605 0.34597373
-0.4699927 -0.20071144 -0.29499438 -0.3250002 -0.46981204 0.11320894 0.016066045 0.38851053
00000000: 7cdd eebe 7732 26bf 01ca d53e 9fa7 13be
00000010: e02f d5bd ab77 ca3e 8cdc e33d 7823 b13e
00000020: e2a2 f0be 4d87 4dbe 8109 97be 6d66 a6be
00000030: 348b f0be 17da e73d f09c 833c daea c63e

tNN.2.weight f4 [32, 16]
-0.22696984 0.15808955 0.17562948 -0.14802778 -0.22566351 0.13961078 -0.202812 -0.080932096
-0.14846823 -0.17783739 0.07225064 -0.14793277 0.07218654 -0.11769377 -0.103245236 -0.059096556
-0.20868127 0.06445922 0.15987797 -0.06749056 -0.16294779 0.10371406 0.20809014 0.06364621
-0.06421476 0.12769683 0.11099851 0.00055906264 0.12693462 0.12946455 0.19781438 -0.0046954555
-0.014974403 -0.16186498 -0.016948435 0.009534411 -0.122812055 -0.21625243 -0.094413534 -0.2177303
0.013203356 -0.25142956 0.03498488 -0.12996271 -0.010260363 -0.12065227 0.066279136 -0.003207774
0.056186985 -0.20012224 0.13442515 0.20680988 0.1507437 -0.023410784 0.07698406 -0.13088821
-0.19917737 0.15904492 -0.08832041 0.13702577 0.16560933 -0.18977855 -0.16315852 -0.16630837
0.2007693 0.1115701 0.09909995 0.17030849 -0.14148891 0.22847556 -0.16326937 -0.19785514
0.17882486 0.01861235 0.18972188 0.2075158 0.009181612 0.07725638 0.09836263 -0.048960138
-0.03521232 0.22908191 0.22616634 0.13980547 0.07181985 -0.04521741 -0.14765407 -0.08799228
0.24878407 -0.19628339 0.06033343 -0.10221421 0.037522107 -0.06633485 0.06474843 0.19633599
0.16020496 0.07636047 -0.15922467 -0.13567832 -0.22845231 0.107210614 0.11411553 -0.1864067
-0.20942727 -0.1000364 -0.066097945 -0.18034303 -0.003322804 -0.17161702 0.07854313 -0.04849157
0.060473125 -0.1302246 -0.073552944 0.13218293 -0.00048180658 0.12569577 -0.10210417 -0.14321327
-0.10159272 -0.020824414 -0.019638997 0.17760092 0.22197329 -0.10819337 -0.13068448 -0.18089661
0.115933046 -0.03853996 0.19316171 -0.055611018 0.07198421 -0.023980053 -0.085873485 0.11657667
0.16918388 -0.24055961 -0.10348478 0.22462308 -0.09711717 -0.1154394 -0.14353241 0.07522646
0.113966435 -0.05735491 -0.14258936 -0.12907201 -0.18607877 0.08147452 0.013834126 -0.06504022
-0.13100211 0.19057165 0.25119555 0.11906411 -0.08963538 0.20705523 0.05184172 0.1945635
0.106886536 -0.10333599 -0.04857104 -0.12322111 -0.012900545 0.16440246 -0.07038631 0.0071643307
-0.19983038 -0.17592348 -0.20379503 0.1749829 0.1358862 0.018874647 -0.23202065 0.038719706
-0.02644404 -0.10574676 0.16469824 -0.060589485 -0.053756062 -0.14356448 -0.09477534 -0.17204157
-0.14647631 0.025515031 -0.042595267 -0.15906829 0.044318505 0.045601007 0.12747902 0.0062490497
0.04809673 0.22053435 0.10404381 0.2105703 0.08254186 0.005164106 0.18269204 0.13746284
-0.18611912 -0.218198 0.023620242 0.14022541 -0.037957367 -0.19833195 0.06466109 -0.03800946
-0.21899444 0.00019663916 -0.052599445 -0.2239732 0.092839144 -0.1680795 -0.041183677 -0.020612217
0.16528107 -0.13009468 -0.14701335 -0.2201279 0.121793024 0.23340051 -0.010862831 0.23233816
0.13437106 -0.06180414 -0.25173092 -0.10451008 -0.1945314 -0.22716421 0.107917815 -0.10880257
-0.23616281 -0.21888582 -0.19778575 -0.14268792 0.11808819 -0.0246689 0.13884807 0.12712534
-0.12398708 0.14598364 0.2082153 0.06379017 0.22376783 0.25320488 -0.15268385 -0.033681326
-0.21024811 0.18749739 -0.15713997 -0.21053538 -0.17530207 0.075353004 -0.14489171 0.17470235
00000000: c86a 68be 3ae2 213e 37d8 333e 9894 17be
00000010: 5614 67be 21f6 0e3e f3ad 4fbe babf a5bd
00000020: 0e08 18be 011b 36be 25f8 933d b07b 17be
00000030: 89d6 933d 6e09 f1bd 3d72 d3bd 3b0f 72bd
00000040: 8bb0 55be 3203 843d 0db7 233e 7e38 8abd
00000050: c9db 26be 0968 d43d 9515 553e f258 823d
00000060: 0783 83bd f5c2 023e 3053 e33d 0f8e 123a
00000070: 26fb 013e 5b92 043e da8f 4a3e 56dc 99bb
00000080: 3357 75bc efbf 25be 72d7 8abc 3836 1c3c
00000090: e384 fbbd 4771 5dbe e25b c1bd b1f4 5ebe
000000a0: e452 583c 60bb 80be 4e4c 0f3d f214 05be
000000b0: 151b 28bc 8a18 f7bd 5bbd 873d 8439 52bb
000000c0: 5324 663d d8ec 4cbe bfa6 093e f8c5 533e
000000d0: 8e5c 1a3e f9c7 bfbc d2a9 9d3d 8f07 06be
000000e0: 27f5 4bbe acdc 223e 55e1 b4bd 7c50 0c3e
000000f0: 7e95 293e 4f55 42be 0713 27be be4c 2abe
00000100: 7896 4d3e dd7e e43d eaf4 ca3d 5965 2e3e
00000110: 78e2 10be 7ff5 693e 1630 27be 8a9a 4abe
00000120: dd1d 373e ed78 983c 7446 423e 067f 543e
00000130: 796e 163c 9838 9e3d 5972 c93d 6d8a 48bd
00000140: cb3a 10bd 7394 6a3e 2698 673e 2a29 0f3e
00000150: 4916 933d e435 39bd a132 17be 4c35 b4bd
00000160: 40c1 7e3e 83fe 48be 3020 773d af55 d1bd
00000170: c8b0 193d 91da 87bd d39a 843d 4d0c 493e
00000180: c50c 243e e162 9c3d cb0b 23be 42ef 0abe
00000190: 67ef 69be 3d91 db3d 67b5 e93d 66e1 3ebe
000001a0: 1a74 56be e2df ccbd 5c5e 87bd d8ab 38be
000001b0: 67c3 59bb 5fbc 2fbe 38db a03d 199f 46bd
000001c0: abb2 773d 9959 05be eda2 96bd f65a 073e
000001d0: fc9a fcb9 64b6 003e fe1b d1bd 80a6 12be
000001e0: d80f d0bd f697 aabc f6e1 a0bc 04dd 353e
000001f0: f74c 633e 7c94 ddbd 27d2 05be f63c 39be
00000200: 4e6e ed3d 14dc 1dbd 2fcc 453e 61c8 63bd
00000210: 756c 933d d171 c4bc 70de afbd c0bf ee3d
00000220: 8a3e 2d3e 4255 76be d4ef d3bd 9803 663e
00000230: 5ee5 c6bd 7e6b ecbd 29fa 12be 5510 9a3d
00000240: 3c67 e93d fbec 6abd f202 12be 742b 04be
00000250: 6f8b 3ebe 1ddc a63d 88a8 623c cf33 85bd
00000260: 6b25 06be 3725 433e b49c 803e e2d7 f33d
00000270: c192 b7bd 4906 543e fc57 543d a73b 473e
00000280: 54e7 da3d d2a1 d3bd 6df2 46bd 595b fcbd
00000290: cf5c 53bc 1e59 283e b326 90bd c3c2 ea3b
000002a0: 56a0 4cbe 4925 34be a5af 50be b82e 333e
000002b0: c125 0b3e 019f 9a3c d296 6dbe 8e98 1e3d
000002c0: 2ca1 d8bc c291 d8bd a8a6 283e ae2c 78bd
000002d0: 512f 5cbd 9102 13be 9319 c2bd aa2b 30be
000002e0: e3fd 15be e604 d13c 6078 2ebd cce2 22be
000002f0: 5287 353d 1fc8 3a3d dc89 023e d4c4 cc3b
00000300: 1401 453d c2d3 613e ec14 d53d be9f 573e
00000310: b50b a93d a937 a93b 9f13 3b3e 0fc3 0c3e
00000320: 0396 3ebe 4c6f 5fbe 3d7f c13c 4097 0f3e
00000330: 2f79 1bbd 8817 4bbe 096d 843d cfaf 1bbd
00000340: 1440 60be ec30 4e39 8472 57bd 3b59 65be
00000350: 7322 be3d 081d 2cbe 37b0 28bd f4da a8bc
00000360: 713f 293e 8a37 05be ab8a 16be 3569 61be
00000370: 9f6e f93d 8b00 6f3e 04fa 31bc 0eea 6d3e
00000380: 9198 093e 5726 7dbd e0e2 80be 6109 d6bd
00000390: 3d33 47be bc9d 68be 0404 dd3d e2d3 debd
000003a0: aad4 71be 9b23 60be 5988 4abe c81c 12be
000003b0: 39d8 f13d 6f16 cabc 302e 0e3e 252d 023e
000003c0: f0ec fdbd bc7c 153e 6436 553e 6ca4 823d
000003d0: 6523 653e 12a4 813e 2859 1cbe 6ef5 09bd
000003e0: 484b 57be 51ff 3f3e 4de9 20be 9696 57be
000003f0: 6382 33be ad52 9a3d 7e5e 14be 2ce5 323e

tNN.2.bias f4 [32]
0.19136551 0.17626636 0.15962917 -0.14263566 0.15456885 -0.003688935 0.098218545 0.2144448
0.23930241 -0.112158716 0.012032332 0.056023605 -0.23618713 -0.11410358 0.16387017 -0.05070555
-0.12833996 -0.17728074 -0.16956998 0.1713414 -0.057087924 0.06265176 -0.12124787 0.1355138
0.087681346 0.007979174 -0.1801997 0.033151656 0.25031668 -0.2426345 0.22118604 0.052989524
00000000: 52f5 433e 2b7f 343e d475 233e 150f 12be
00000010: 4c47 1e3e 0fc2 71bb ce26 c93d 6b97 5b3e
00000020: b10b 753e 78b3 e5bd 4223 453c 0279 653d
00000030: 0adb 71be 23af e9bd 95cd 273e 9fb0 4fbd
00000040: 8d6b 03be 1589 35be c1a3 2dbe 1f74 2f3e
00000050: 07d5 69bd 914f 803d ce50 f8bd 21c4 0a3e
00000060: 4792 b33d 15bb 023c 4586 38be 08ca 073d
00000070: 8229 803e 2e75 78be 987e 623e 8b0b 593d

tNN.4.weight f4 [64, 32]
-0.13509418 0.1262843 0.09360912 0.07755473 0.09298087 -0.12127275 -0.113624975 -0.053613055
-0.101738326 0.103001714 -0.051985737 0.10420329 -0.116565354 -0.05883543 0.09658861 -0.17572829
-0.07230819 -0.028335927 -0.07375332 0.009561233 0.081690386 -0.074699596 -0.063809164 0.13579303
0.16679004 0.10925426 0.091714755 -0.15697351 0.09897118 -0.062429275 0.033455577 0.031961467
-0.09820835 -0.16748369 0.01953634 -0.05378399 0.104398705 0.0134713035 -0.1306183 -0.13789672
-0.16109473 0.1333685 -0.103923105 0.14957035 0.01877779 0.050977726 -0.08573617 0.07876608
-0.0054389304 0.078738496 0.000277834 -0.13749596 0.09904642 -0.06313345 0.09417436 0.083533294
0.048112545 0.04596784 0.12855515 0.009829911 0.1546306 0.062870234 -0.022130614 -0.08071881
-0.16297683 -0.14674807 0.03347623 0.005277348 0.1761212 -0.028438183 -0.16838972 -0.11958576
0.10626036 0.037654243 -0.12800048 0.08936757 0.11356485 -0.021599066 0.07267759 -0.07375359
-0.073116675 -0.13116908 0.090071514 -0.14852276 0.080040134 0.07546326 0.063768655 -0.13333865
0.15874209 0.13472943 0.093684755 -0.032720476 -0.17178635 0.13731314 0.15358666 -0.16436501
-0.0124065885 -0.090482965 0.05304219 0.10469739 0.0827831 -0.058554124 0.11953501 0.14739907
0.12617864 0.06555219 0.04581173 0.14059733 -0.07483766 0.10270215 -0.11343354 0.097966656
0.1333929 0.14030015 -0.17255142 0.15656589 0.14777428 0.117754824 -0.011257327 -0.04996821
-0.09262635 0.13891579 -0.08268062 0.11356357 -0.08890341 -0.057303853 -0.17182703 -0.1224706
-0.04969815 -0.017416526 -0.15843983 -0.14405742 0.059674427 0.069477305 0.05288805 -0.13730763
-0.16141126 -0.12945138 0.15204437 -0.10467724 0.024151687 -0.10522006 0.071606584 0.1556074
-0.13591771 0.104645774 0.08650306 -0.119307175 0.06022639 0.0774853 0.062431898 0.08448133
0.03303768 -0.08083629 -0.09861431 0.04881386 0.060212094 -0.046933763 -0.06807272 -0.02053139
0.10880331 0.06656307 -0.15522653 -0.15117396 -0.12983878 0.0643364 -0.06292168 -0.071560934
-0.04661084 -0.12785476 -0.057910647 -0.018151445 -0.054170635 -0.08876081 0.039645474 -0.05175541
0.045045108 -0.113327205 -0.04749214 0.04467042 0.07416077 0.10528792 0.03780948 0.124996796
0.15482154 0.13809729 0.068977356 -0.108841166 -0.11268631 -0.06428854 -0.020524116 0.16292447
-0.120484 0.09725008 0.057760313 -0.1471679 0.063810624 -0.034969855 0.0012027122 0.0506959
-0.10701116 0.10506652 0.0186226 0.008923463 0.07228574 -0.14219478 -0.14802983 -0.11206388
-0.009696632 0.15791371 -0.030926237 -0.019489836 0.038406402 -0.026029475 -0.10502837 -0.15892406
0.049312823 0.10598387 0.082965836 -0.12655179 -0.16292185 0.062460825 0.16685307 0.020355165
0.018450404 -0.025237 -0.09230402 0.036091194 -0.13853876 0.077643506 -0.10134061 0.07903778
-0.13262126 -0.041766174 -0.086661376 -0.024762744 -0.060932223 0.109149165 0.003775523 -0.04598204
0.113197535 0.0057589454 0.14991505 0.09852928 -0.15723003 -0.07576606 -0.124065 0.0433178
0.09929896 -0.0038131136 -0.15555649 0.06855471 -0.09999072 0.021091096 -0.09229949 -0.03643887
00000000: 2156 0abe ac50 013e 23b6 bf3d 04d5 9e3d
00000010: c16c be3d d95d f8bd 36b4 e8bd 5d99 5bbd
00000020: 2f5c d0bd 90f2 d23d ffee 54bd 8968 d53d
00000030: d1b9 eebd 6bfd 70bd 40d0 c53d 1ef2 33be
00000040: 5116 94bd bf20 e8bc fb0b 97bd b8a6 1c3c
00000050: 4a4d a73d 1afc 98bd 61ae 82bd 540d 0b3e
00000060: 02cb 2a3e b3c0 df3d f2d4 bb3d aabd 20be
00000070: 67b1 ca3d d7b5 7fbd b708 093d 07ea 023d
00000080: 7621 c9bd d880 2bbe ad0a a03c 9a4c 5cbd
00000090: fdce d53d beb6 5c3c cec0 05be cc34 0dbe
000000a0: 04f6 24be c191 083e a3d5 d4bd f828 193e
000000b0: e1d3 993c 05ce 503d 7296 afbd 1c50 a13d
000000c0: 0e39 b2bb a641 a13d 40aa 9139 becb 0cbe
000000d0: d9d8 ca3d 1c4c 81bd 7dde c03d 8113 ab3d
000000e0: a911 453d c648 3c3d f6a3 033e a30d 213c
000000f0: 7c57 1e3e 1cc2 803d 434b b5bc e74f a5bd
00000100: 66e3 26be 2045 16be 5f1e 093d 9bed ac3b
00000110: 1e59 343e 31f7 e8bc 5b6e 2cbe 61e9 f4bd
00000120: 089f d93d 563b 1a3d 8f12 03be 5806 b73d
00000130: b094 e83d 86f0 b0bc fdd7 943d 1f0c 97bd
00000140: 32be 95bd 3051 06be 6a77 b83d 5a16 18be
00000150: 15ec a33d 7b8c 9a3d 2499 823d ed89 08be
00000160: 498d 223e 83f6 093e cbdd bf3d e805 06bd
00000170: c3e8 2fbe d19b 0c3e d245 1d3e 4d4f 28be
00000180: 0145 4bbc 224f b9bd c442 593d 966b d63d
00000190: 308a a93d 73d6 6fbd c5ce f43d c8ef 163e
000001a0: f934 013e 3a40 863d 15a5 3b3d bff8 0f3e
000001b0: 7d44 99bd 8155 d23d d84f e8bd bea2 c83d
000001c0: 2698 083e d8aa 0f3e 52b1 30be cf52 203e
000001d0: 2452 173e 7129 f13d a770 38bc 77ab 4cbd
000001e0: e2b2 bdbd f13f 0e3e 7554 a9bd 0494 e83d
000001f0: fe12 b6bd 72b7 6abd 6df3 2fbe ded1 fabd
00000200: 4a90 4bbd 1aad 8ebc 0d3e 22be ca83 13be
00000210: 2c6d 743d 1e4a 8e3d 24a1 583d 5f9a 0cbe
00000220: fe48 25be e78e 04be 85b1 1b3e 0561 d6bd
00000230: c2d9 c53c 9d7d d7bd 79a6 923d 8c57 1f3e
00000240: 032e 0bbe 8650 d63d 8428 b13d 5257 f4bd
00000250: f2af 763d 9db0 9e3d 97b8 7f3d 8c04 ad3d
00000260: 8552 073d 7f8d a5bd 4df6 c9bd 0bf1 473d
00000270: f5a0 763d 9e3d 40bd b669 8bbd 7231 a8bc
00000280: 45d4 de3d 3852 883d b4f3 1ebe 59cd 1abe
00000290: 75f4 04be cdc2 833d 15dd 80bd 8a8e 92bd
000002a0: 02eb 3ebd 5cec 02be b733 6dbd 57b2 94bc
000002b0: 07e2 5dbd 3ac8 b5bd 4b63 223d 7bfd 53bd
000002c0: 3881 383d 1818 e8bd 1e87 42bd 55f8 363d
000002d0: 9ae1 973d 31a1 d73d 1dde 1a3d 52fe ff3d
000002e0: 8a89 1e3e 6069 0d3e 0044 8d3d 1ee8 debd
000002f0: 15c8 e6bd b6a9 83bd 3122 a8bc acd5 263e
00000300: 51c0 f6bd 0d2b c73d 1496 6c3d 2fb3 16be
00000310: 25af 823d 8d3c 0fbd 53a4 9d3a 81a6 4f3d
00000320: ab28 dbbd 1e2d d73d 6c8e 983c b733 123c
00000330: 8c0a 943d 829b 11be 2295 17be bf81 e5bd
00000340: 9fde 1ebc 22b4 213e 0559 fdbc 26a9 9fbc
00000350: 0850 1d3d c43b d5bc 1d19 d7bd fdbc 22be
00000360: 3efc 493d 120e d93d fee9 a93d cb96 01be
00000370: fcd4 26be ecd6 7f3d 88db 2a3e e0bf a63c
00000380: 4d25 973c d3bd cebc e409 bdbd 5cd4 133d
00000390: 1bdd 0dbe 8f03 9f3d aa8b cfbd 8fde a13d
000003a0: decd 07be 0213 2bbd 857b b1bd 3ddb cabc
000003b0: 1194 79bd 9989 df3d c46e 773b aa57 3cbd
000003c0: 1cd4 e73d 89b5 bc3b 5583 193e b8c9 c93d
000003d0: e900 21be 3c2b 9bbd ca15 febd 016e 313d
000003e0: 415d cb3d 6ee5 79bb 334a 1fbe 6966 8c3d
000003f0: efc7 ccbd 3cc7 ac3c 8407 bdbd ed40 15bd

tNN.4.bias f4 [64]
0.06710856 -0.16621503 0.08488495 0.13917314 0.14019749 -0.05757249 0.096345104 0.1089725
-0.13421822 0.00030747429 0.05016526 -0.071583144 -0.006633281 -0.060672723 0.08420424 0.12459816
0.090450555 0.16522104 0.010697631 -0.18136983 0.09155937 0.1587833 -0.14174914 0.1809209
0.11898018 -0.1284727 0.13117115 0.13913555 0.13985273 0.099840045 0.04562429 0.11902275
-0.04444481 -0.096608505 0.15471658 0.15173411 0.06511822 0.09600908 0.019422082 0.1481771
-0.066484444 0.006190716 -0.046529476 0.11913255 0.085928075 0.082791984 -0.14366655 -0.037941687
-0.07513396 -0.10702379 -0.16305102 0.063129075 0.14772616 0.021135492 0.15468289 0.14832197
0.0121537335 -0.022267384 0.0066128746 -0.14350647 -0.033755768 0.015702302 -0.16203062 0.136086
00000000: 3670 893d 4634 2abe 29d8 ad3d 6783 0e3e
00000010: ee8f 0f3e 22d1 6bbd 9550 c53d f92c df3d
00000020: 8070 09be 8034 a139 167a 4d3d 2f9a 92bd
00000030: fe5b d9bb f683 78bd 4673 ac3d 522d ff3d
00000040: 243e b93d b42f 293e 1e45 2f3c 03b9 39be
00000050: 7b83 bb3d 1798 223e b026 11be 5443 393e
00000060: e1ab f33d 598e 03be bb51 063e 8d79 0e3e
00000070: 8e35 0f3e f078 cc3d 89e0 3a3d 33c2 f33d
00000080: c30b 36bd aeda c5bd 066e 1e3e 3060 1b3e
00000090: b45c 853d 69a0 c43d 0f1b 9f3c bdbb 173e
000000a0: ff28 88bd 7ddb ca3b b195 3ebd c4fb f33d
000000b0: 0ffb af3d d88e a93d 531d 13be be68 1bbd
000000c0: d5df 99bd 4a2f dbbd d9f6 26be d149 813d
000000d0: 8745 173e 5724 ad3c 3165 1e3e b7e1 173e
000000e0: 7420 473c 176a b6bc d0b0 d83b 5cf3 12be
000000f0: 7d43 0abd 1da2 803c 5beb 25be 215a 0b3e

psi.0.weight f4 [128, 160]
-0.020431094 0.029208021 0.013888143 -0.047165357 -0.023454621 -0.06840829 0.035283335 -0.070458055
0.024671534 -0.011754607 -0.0032577286 0.015845608 -0.0048168395 -0.03323152 0.067612104 -0.026171736
0.03275038 -0.038260166 0.06898293 -0.053605266 -0.035903342 0.056166835 -0.019510468 -0.020021738
0.04911049 -0.059449047 -0.06335694 0.024573836 0.00019435961 -0.067607276 -0.030222496 0.048431452
-0.03218331 -0.05836609 0.07537168 0.058302235 -0.014195339 0.057916168 -0.06766829 0.0489219
0.044644795 -0.010818538 0.0019631933 -0.02127142 -0.028255777 0.066313215 -0.049641933 -0.052608237
-0.05979323 -0.044274982 0.0137459645 0.041528434 0.041630164 -0.021620914 -0.007878328 0.07512864
-0.0774504 0.018157592 -0.052104596 -0.016439442 -0.038538124 0.08025153 -0.072732985 0.079575285
-0.07433592 -0.053786233 0.045108814 -0.06277505 -0.027071726 0.008865841 0.040735587 -0.07040593
0.03534426 0.055753186 -0.020905506 -0.05792935 -0.048291244 0.053617578 -0.044200957 0.005980357
-0.036939185 -0.0026065444 0.05399198 -0.0644998 0.0599365 0.031511053 -0.04341918 0.023578674
-0.03698586 0.057577405 -0.0012804338 -0.0011452206 -0.037563093 0.061297946 0.018909708 0.023292702
-0.06543751 0.07235519 -0.07148778 -0.035992764 -0.07067774 0.020084366 -0.008998694 0.027572237
0.021049932 -0.04876978 -0.025780234 0.026733603 0.05064142 -0.046210896 0.0794192 0.07532721
-0.06892927 -0.032645162 0.018050833 -0.05519674 -0.05623499 0.032090988 -0.081460334 -0.052179378
-0.062335845 -0.041882902 -0.030302448 -0.030364925 0.026118852 -0.014311867 -0.07116466 -0.057590947
-0.024112863 0.04528997 -0.037018113 -0.05341885 0.04515055 0.07829234 0.035110116 -0.062361404
-0.052828364 0.07288837 0.0013644223 -0.024173697 0.010511064 -0.055123925 0.0117772855 0.039140753
-0.04127909 0.066817835 0.03392549 -0.032435786 0.028133089 0.02243285 -0.00963495 -0.06279719
0.03741257 0.027659457 -0.04887747 0.008443485 -0.028789 -0.06512867 0.06972371 0.07441822
-0.0070620654 0.06990884 -0.04118481 -0.07322844 0.027630161 0.032423306 -0.04086733 -0.06721631
0.04920171 0.03375589 0.05538984 -0.025982236 0.020159572 0.0588781 0.061598577 0.05119713
-0.01647384 -0.024898572 0.013596728 -0.0046432666 0.06560463 0.04156176 0.038433168 -0.07777626
0.053734936 0.03848779 0.0789915 0.051453117 0.019586612 -0.06721969 0.019506667 0.06665204
0.043281645 0.005301366 0.016531345 0.05302667 0.026855292 -0.062334888 -0.018954001 0.04656662
-0.05287265 0.07223728 0.05637254 -0.063437305 -0.036215454 0.033917632 -0.0143048605 0.019023832
0.026451206 -0.075958624 0.016424011 0.015707184 0.011132174 0.039477147 -0.004554229 0.040050246
0.018934948 -0.063769095 -0.04436927 0.039499953 0.033498786 -0.04116075 0.015038328 0.037655804
0.07181177 0.07005528 0.06000939 -0.0078011705 -0.07524447 -0.06906872 0.062360767 0.0067956136
-0.06899599 0.048039336 -0.043283306 -0.0049862503 0.043536484 0.034270227 0.054138996 -0.074788086
0.0414521 -0.072770596 0.045925133 0.023129322 -0.003036391 -0.05382698 -0.0043502557 -0.06463892
0.066995256 -0.061152175 0.029028205 0.009730545 0.054834515 0.034721028 -0.04407859 -0.07275118
00000000: 1c5f a7bc a945 ef3c 188b 633c 7630 41bd
00000010: e823 c0bc a519 8cbd 4285 103d 504c 90bd
00000020: f51b ca3c 6596 40bc 9e7f 55bb a6ce 813c
00000030: 94d6 9dbb c61d 08bd 3778 8a3d 1c66 d6bc
00000040: 4325 063d b1b6 1cbd ec46 8d3d 3291 5bbd
00000050: 620f 13bd 320f 663d 6bd4 9fbc a104 a4bc
00000060: 1528 493d d880 73bd 49c1 81bd 124f c93c
00000070: 03cd 4b39 af75 8abd 2b95 f7bc 0f60 463d
00000080: a5d2 03bd 4811 6fbd 785c 9a3d 53ce 6e3d
00000090: 9193 68bc 8139 6d3d ac95 8abd 5562 483d
000000a0: 76dd 363d 3d40 31bc eba8 003b 6741 aebc
000000b0: a978 e7bc 39cf 873d 5755 4bbd bc7b 57bd
000000c0: bfe9 74bd af59 35bd c136 613c b819 2a3d
000000d0: 6484 2a3d 581e b1bc 1a14 01bc 0bdd 993d
000000e0: 519e 9ebd 3bbf 943c a16b 55bd 02ac 86bc
000000f0: 27da 1dbd ea5a a43d 08f5 94bd 5ef8 a23d
00000100: 6e3d 98bd f44e 5cbd 05c4 383d 3590 80bd
00000110: 86c5 ddbc 0842 113c 5cda 263d fc30 90bd
00000120: 25c5 103d 745d 643d 0642 abbc 5347 6dbd
00000130: 0acd 45bd 1b9e 5b3d 100c 35bd dff6 c33b
00000140: 8b4d 17bd 8fd2 2abb b226 5d3d 7918 84bd
00000150: fa7f 753d bc11 013d 4fd8 31bd 1028 c13c
00000160: 7c7e 17bd 49d6 6b3d 3bd4 a7ba 3a1b 96ba
00000170: c2db 19bd 8e13 7b3d 88e8 9a3c 56d0 be3c
00000180: 1a04 86bd f52e 943d 2f68 92bd 266d 13bd
00000190: 7ebf 90bd f887 a43c 426f 13bc 2cdf e13c
000001a0: e870 ac3c d2c2 47bd 1231 d3bc 6e00 db3c
000001b0: 616d 4f3d a347 3dbd 89a6 a23d 2745 9a3d
000001c0: ca2a 8dbd efb6 05bd 57df 933c fa15 62bd
000001d0: a956 66bd d771 033d add4 a6bd 0bba 55bd
000001e0: df53 7fbd 688d 2bbd d73c f8bc ddbf f8bc
000001f0: 34f7 d53c 527c 6abc c7be 91bd 7ce4 6bbd
00000200: 5788 c5bc fa81 393d 4ea0 17bd b9cd 5abd
00000210: c8ef 383d bc57 a03d a0cf 0f3d ac6e 7fbd
00000220: 8e62 58bd 7f46 953d 6ad6 b23a eb07 c6bc
00000230: 9936 2c3c a0c9 61bd 84f5 403c 0e52 203d
00000240: 4314 29bd cad7 883d 74f5 0a3d 63db 04bd
00000250: 5d77 e63c 19c5 b73c e9db 1dbc d09b 80bd
00000260: ec3d 193d 1696 e23c be33 48bd 8b56 0a3c
00000270: e9d6 ebbc 2e62 85bd 4ecb 8e3d 9468 983d
00000280: e668 e7bb 5e2c 8f3d 67b1 28bd cbf8 95bd
00000290: a658 e23c 4dce 043d 8064 27bd b4a8 89bd
000002a0: bb87 493d 9e43 0a3d 75e0 623d b3d8 d4bc
000002b0: b025 a53c 2a2a 713d ca4e 7c3d 15b4 513d
000002c0: 26f4 86bc 17f8 cbbc d0c4 5e3c 8b26 98bb
000002d0: b85b 863d aa3c 2a3d 196c 1d3d 2949 9fbd
000002e0: 2a19 5c3d 5fa5 1d3d 4cc6 a13d 81c0 523d
000002f0: 1a74 a03c 7aaa 89bd 72cc 9f3c dd80 883d
00000300: 1848 313d 15b7 ad3b be6c 873c 7e32 593d
00000310: a1ff db3c de52 7fbd 6c45 9bbc a4bc 3e3d
00000320: fe90 58bd 24f1 933d e4e6 663d 6beb 81bd
00000330: a856 14bd 37ed 0a3d ef5e 6abc ded7 9b3c
00000340: 33b0 d83c 3290 9bbd a68b 863c 5aac 803c
00000350: b963 363c cab2 213d a43b 95bb ba0b 243d
00000360: 771d 9b3c 5f99 82bd 8dbc 35bd b4ca 213d
00000370: 0636 093d 2d98 28bd 5263 763c f93c 1a3d
00000380: 0d12 933d 2579 8f3d 68cc 753d f6a0 ffbb
00000390: c619 9abd e773 8dbd 016e 7f3d bdad de3b
000003a0: c54d 8dbd e5c4 443d d649 31bd b363 a3bb
000003b0: 5053 323d f05e 0c3d dac0 5d3d 7f2a 99bd
000003c0: adc9 293d c008 95bd fe1b 3c3d b479 bd3c
000003d0: 30fe 46bb ae79 5cbd 978c 8ebb 6961 84bd
000003e0: cf34 893d b47a 7abd 8fcc ed3c dd6c 1f3c
000003f0: 289a 603d a337 0e3d c08b 34bd 92fe 94bd

psi.0.bias f4 [128]
-0.008532494 -0.037327755 -0.06448326 0.018466396 -0.021589916 0.025473028 -0.028820055 -0.035923876
0.006241193 0.036029935 -0.04097033 -0.038566574 0.057285022 -0.036268514 0.036150172 0.020046925
0.02695937 0.0006388172 -0.032061372 -0.07989011 0.030053554 -0.048015833 -0.072924055 0.0093690995
-0.07820939 -0.036198083 0.07503561 -0.03479498 -0.07453743 0.022037566 -0.073750995 -0.029509952
0.06518783 -0.011937241 0.06750188 -0.038493793 0.07639734 0.059392087 0.0711193 -0.014263993
0.03383801 -0.0006528938 -0.047248058 0.0043886867 0.016188966 -0.071968034 -0.022078479 -0.020518063
0.05238315 -3.0295962e-05 -0.06098285 0.01969786 -0.016500877 0.053904846 0.027391445 -0.005884658
-0.07868077 -8.438658e-05 -0.047043182 -0.06920575 0.02298559 0.05998025 -0.050528936 0.04097146
0.024196165 -0.067057475 0.029381104 -0.07068121 -0.009978736 -0.02456458 0.004212928 -0.020916047
0.011217067 -0.020200297 -0.021130616 -0.043651365 -0.044697277 0.0017409275 -0.029841416 0.070981234
0.057732966 -0.024683075 0.00526654 -0.07880823 -0.07076915 -0.03188125 -0.038599584 0.022564597
0.01399085 0.020512406 -0.00041844966 -0.06537837 -0.041889515 0.032751575 0.032009542 0.046243858
-0.06749734 -0.0042118262 0.02019601 0.012740853 0.005653993 0.036872752 0.04954858 0.06966114
0.0103523135 -0.016151011 -0.020835456 -0.035521176 0.00224849 -0.06360132 0.04121478 -0.042636488
0.06372443 -0.03243348 -0.059089184 0.04428122 0.01837848 0.0550002 0.07738136 -0.050095662
-0.06277407 -0.06737333 0.02943533 -0.001255354 0.06884808 -0.00076681044 -0.0073805167 -0.016630193
00000000: e0cb 0bbc fde4 18bd cd0f 84bd d746 973c
00000010: 56dd b0bc d0ac d03c 0918 ecbc ea24 13bd
00000020: ec82 cc3b 2094 133d 81d0 27bd fcf7 1dbd
00000030: b3a3 6a3d 4b8e 14bd 3412 143d 7339 a43c
00000040: e6d9 dc3c 4c76 273a c952 03bd 6d9d a3bd
00000050: df32 f63c 40ac 44bd 3559 95bd da80 193c
00000060: 3f2c a0bd 7144 14bd 45ac 993d 2e85 0ebd
00000070: 15a7 98bd 2088 b43c c30a 97bd dbbe f1bc
00000080: 3281 853d 6b94 43bc 6d3e 8a3d abab 1dbd
00000090: 3576 9c3d 1e45 733d ffa6 913d 86b3 69bc
000000a0: ba99 0a3d f626 2bba 2e87 41bd f9ce 8f3b
000000b0: b99e 843c fa63 93bd eddd b4bc 7f15 a8bc
000000c0: b78f 563d 1524 feb7 27c9 79bd 685d a13c
000000d0: d92c 87bc 54cb 5c3d 0664 e03c 17d4 c0bb
000000e0: 6223 a1bd b3f8 b0b8 5ab0 40bd bfbb 8dbd
000000f0: 474c bc3c daad 753d 6ef7 4ebd b1d1 273d
00000100: 0937 c63c 6e55 89bd a4b0 f03c 4fc1 90bd
00000110: da7d 23bc a83b c9bc 9a0c 8a3b 2158 abbc
00000120: cac7 373c 187b a5bc 1d1a adbc c6cb 32bd
00000130: 7e14 37bd d52f e43a fc75 f4bc 9c5e 913d
00000140: 6779 6c3d 2934 cabc f192 ac3b 3666 a1bd
00000150: 6bef 90bd ea95 02bd 991a 1ebd 64d9 b83c
00000160: e139 653c a209 a83c 5d63 dbb9 18e5 85bd
00000170: 5794 2bbd 8426 063d 701c 033d 336a 3d3d
00000180: 0c3c 8abd 5c03 8abb 1a72 a53c 03bf 503c
00000190: 2245 b93b e207 173d 74f3 4a3d 80aa 8e3d
000001a0: c09c 293c 204f 84bc 1eaf aabc a77e 11bd
000001b0: 675b 133b 6941 82bd d4d0 283d 99a3 2ebd
000001c0: f481 823d f8d8 04bd 8007 72bd 3960 353d
000001d0: 778e 963c e447 613d 1e7a 9e3d 1c31 4dbd
000001e0: b18f 80bd 07fb 89bd 5c22 f13c b18a a4ba
000001f0: 3900 8d3d c703 49ba 43d8 f1bb 0b3c 88bc

psi.2.weight f4 [64, 128]
0.05749063 0.05922714 0.070458196 0.07789248 -0.03917165 0.04774661 -0.031508386 0.0036810755
0.05572597 0.056551784 0.03759382 0.018675137 -0.08000951 0.006875964 -0.076845564 -0.045017697
-0.017195338 -0.029171763 0.008035984 0.013755208 0.039111853 -0.042455018 -0.03613243 0.07331555
0.01451327 0.036623772 -0.067276224 0.024810841 -0.013968631 0.017114114 -0.03665713 -0.033037517
0.06346554 -0.0035371103 0.03509863 -0.021264385 0.076710396 0.08040471 -0.0059970785 0.00026771025
0.014880016 -0.014648893 0.048929032 0.085909866 -0.051532213 -0.02938524 0.044467047 -0.0024537707
-0.064524725 -0.06731322 -0.039925802 0.038363457 0.027164763 0.028277878 -0.07706821 -0.04420269
0.095168225 0.07801029 0.049502738 0.018101737 -0.06761994 0.022499291 0.07803696 0.0579406
0.0008432451 -0.017525489 0.07331752 0.04434822 0.02013029 0.004145129 -0.008784608 -0.017873121
-0.07432182 0.07196016 -0.018243628 0.04018791 0.0538885 9.0419766e-05 -0.075662866 -0.06712461
-0.056834355 -0.017417774 -0.08066249 0.079956286 0.038046196 -0.07365531 0.0444473 -0.011575841
0.029134082 -0.038420733 -0.013178288 0.05083885 0.07958865 0.016978698 -0.07243131 -0.031449728
0.064902775 -0.0027067668 0.0176339 -0.01864056 0.048334274 -0.027975269 -0.061574932 0.004168363
-0.015847428 -0.00028779742 -0.014537521 0.0652419 0.053100135 0.003835687 -0.07026179 -0.028761873
0.025774337 0.021061018 -0.06578043 -0.054706004 -0.026628667 -0.040956646 -0.046344105 0.02641891
-0.049437515 -0.056800272 0.012098553 0.02652588 -0.059132498 0.08055846 -0.06324381 0.064975604
0.026688354 0.017687062 -0.048831016 0.029590182 -0.061216433 0.06865777 0.0398987 -0.020679029
-0.03508368 0.056734517 0.012682854 -0.077824004 -0.052549962 -0.08150719 -0.052635897 0.01733634
0.033736333 0.07939136 0.0354454 0.08209913 -0.022944456 0.035829026 -0.034186028 0.0071478486
0.07936845 -0.06787742 -0.06953771 -0.019376995 0.012242742 0.034773953 -0.014748871 -0.006045047
0.02644351 0.07886829 0.08683334 0.08196254 0.06511875 -0.001980638 0.0750389 0.078033656
0.08246544 0.042040326 -0.076804526 -0.054246124 0.030050997 -0.08831488 -0.07845188 -0.049416594
-0.029894141 0.03624681 0.07717324 0.0363902 0.077710785 -0.062638685 -0.022256374 -0.036733687
-0.018384801 0.06617429 0.06790291 0.03351554 0.05166508 -0.0054561575 0.029372677 0.05149901
-0.023530401 -0.062486224 0.045396265 -0.062125698 -0.04363519 0.035783775 0.009652505 -0.02356793
0.01773275 -0.05894453 -0.05041651 0.01979942 -0.017811654 -0.010401831 -0.015163894 0.024267612
0.0014607841 -0.041250035 -0.025653942 0.052887753 0.012597418 -0.045930713 -0.003086542 -0.023490699
0.033365764 -0.08262095 0.0524377 0.014584686 0.072526224 -0.075491995 -0.017759293 0.0021189905
-0.08743544 -0.038221832 -0.08121336 -0.08122065 0.00487721 0.06304301 0.005576745 -0.058394335
-0.07673097 0.027257273 -0.0416718 -0.044652082 0.03447781 -0.015550605 -0.080494486 0.0077698706
-0.06414116 0.06377363 -0.011928772 0.07303193 0.038582772 0.018457424 -0.05050353 0.08795088
0.075047344 0.008465324 -0.023217272 0.03534836 -0.050947294 -0.032379545 -0.078577064 0.03699938
00000000: 4b7b 6b3d 2898 723d 634c 903d 1886 9f3d
00000010: 7472 20bd f391 433d f00e 01bd 333e 713b
00000020: ea40 643d d8a2 673d fafb 193d 9afc 983c
00000030: 07dc a3bd c44f e13b 3561 9dbd 7a64 38bd
00000040: 3ddd 8cbc 9ff9 eebc 5ca9 033c 865d 613c
00000050: c033 203d 50e5 2dbd 99ff 13bd 7726 963d
00000060: 11c9 6d3c cf02 163d 1ec8 89bd 1b40 cb3c
00000070: afdc 64bc e632 8c3c c925 16bd 5952 07bd
00000080: 39fa 813d ddce 67bb 95c3 0f3d a632 aebc
00000090: 571a 9d3d 39ab a43d 2483 c4bb 765b 8c39
000000a0: 50cb 733c e901 70bc cf69 483d 83f1 af3d
000000b0: 7113 53bd 51b9 f0bc 1423 363d 71cf 20bb
000000c0: 8a25 84bd 83db 89bd 3d89 23bd 0023 1d3d
000000d0: a388 de3c 02a7 e73c f0d5 9dbd e10d 35bd
000000e0: 8fe7 c23d dcc3 9f3d 62c3 4a3d 184a 943c
000000f0: 537c 8abd 6f50 b83c d7d1 9f3d 1f53 6d3d
00000100: 390d 5d3a 9d91 8fbc 7f27 963d 7ba6 353d
00000110: 47e8 a43c ddd3 873b 51ed 0fbc a76a 92bc
00000120: 0a36 98bd d95f 933d a973 95bc 149c 243d
00000130: 30ba 5c3d be9f bd38 22f5 9abd a178 89bd
00000140: 24cb 68bd b8af 8ebc 6032 a5bd 1fc0 a33d
00000150: 54d6 1b3d 98d8 96bd 5f0e 363d 99a8 3dbc
00000160: 99aa ee3c 0f5f 1dbd bfe9 57bc 663c 503d
00000170: 60ff a23d e916 8b3c de56 94bd 6ed1 00bd
00000180: bfeb 843d 0364 31bb f874 903c 16b4 98bc
00000190: 29fa 453d 642c e5bc ff35 7cbd c396 883b
000001a0: 77d2 81bc 84e3 96b9 c82e 6ebc 8c9d 853d
000001b0: 877f 593d 2660 7b3b 6ae5 8fbd 059e ebbc
000001c0: b424 d33c 2888 ac3c e4b7 86bd 6713 60bd
000001d0: 5d24 dabc 28c2 27bd 51d3 3dbd 786c d83c
000001e0: fe7e 4abd 67a7 68bd 0239 463c cd4c d93c
000001f0: eb34 72bd d5fb a43d f885 81bd ee11 853d
00000200: 89a1 da3c 75e4 903c 0803 48bd 1c67 f23c
00000210: 15be 7abd 729c 8c3d d26c 233d 1167 a9bc
00000220: e8b3 0fbd 7462 683d bfcb 4f3c 3162 9fbd
00000230: a13e 57bd 3eed a6bd bd98 57bd f104 8e3c
00000240: 1c2f 0a3d f097 a23d 322f 113d 9723 a83d
00000250: 03f6 bbbc 75c1 123d a606 0cbd 8038 ea3b
00000260: ed8b a23d 5103 8bbd c969 8ebd 81bc 9ebc
00000270: c895 483c 226f 0e3d 40a5 71bc 8815 c6bb
00000280: 0fa0 d83c b385 a13d aed5 b13d fadb a73d
00000290: fb5c 853d 97cd 01bb ffad 993d 1cd0 9f3d
000002a0: a4e3 a83d 7a32 2c3d b14b 9dbd 2f31 5ebd
000002b0: 822d f63c 6fde b4bd 61ab a0bd 0e69 4abd
000002c0: 8fe4 f4bc 8977 143d 010d 9e3d e40d 153d
000002d0: d526 9f3d b648 80bd 0053 b6bc 1076 16bd
000002e0: b99b 96bc 6386 873d ae10 8b3d 9747 093d
000002f0: c39e 533d 91c9 b2bb f89e f03c a0f0 523d
00000300: d4c2 c0bc 8ef1 7fbd 6ff1 393d 8477 7ebd
00000310: d0ba 32bd 0292 123d 8a25 1e3c 8811 c1bc
00000320: 4644 913c d26f 71bd 8b81 4ebd 6532 a23c
00000330: bfe9 91bc 716c 2abc fb71 78bc dfcc c63c
00000340: c877 bf3a ccf5 28bd 3728 d2bc d4a0 583d
00000350: 6765 4e3c d821 3cbd 9547 4abb 916f c0bc
00000360: 8aaa 083d 2c35 a9bd eac8 563d 9bf4 6e3c
00000370: a188 943d 8c9b 9abd f07b 91bc c3de 0a3b
00000380: 5a11 b3bd 7f8e 1cbd 3153 a6bd 0357 a6bd
00000390: 01d1 9f3b b21c 813d 21bd b63b e62e 6fbd
000003a0: 2025 9dbd a54a df3c 0db0 2abd 1ae5 36bd
000003b0: 9b38 0d3d f7c7 7ebc 4bda a4bd 669a fe3b
000003c0: 715c 83bd c09b 823d e570 43bc c491 953d
000003d0: f808 1e3d 0634 973c cadc 4ebd 971f b43d
000003e0: 6cb2 993d 24b2 0a3c 2632 bebc 71c9 103d
000003f0: 1cae 50bd 6aa0 04bd 03ed a0bd a98c 173d

psi.2.bias f4 [64]
-0.08068308 0.042967595 0.049649183 -0.05277549 0.049223524 0.07682976 -0.07471857 0.04587246
0.061159827 -0.028309321 -0.046029255 0.07509365 -0.015135506 -0.07581783 -0.047420386 -0.007220315
0.043257836 -0.074491724 0.07353921 0.07485157 -0.070388556 -0.042547602 0.011127592 -0.04486397
0.0025763197 0.025866969 -0.023526825 0.049577996 -0.078527905 -0.05215395 -0.07041597 -0.051022667
-0.07105241 -0.06673949 -0.03453191 -0.03687363 -0.028548015 0.0071316324 -0.032185804 -0.07006331
-0.07668546 -0.031647194 -0.035006814 0.043759115 -0.049137194 -0.013181675 0.002687256 -0.057285957
-0.07461477 0.057427242 0.03846273 -0.0030085982 -0.089542516 -0.031205919 0.06170724 0.004686574
-0.061907377 0.020617323 0.08284859 0.07999586 -0.0074250256 -0.08311761 0.08057606 -0.028146751
00000000: 2c3d a5bd cafe 2f3d f15c 4b3d 1d2b 58bd
00000010: 9b9e 493d ec58 9d3d 0d06 99bd c3e4 3b3d
00000020: ba82 7a3d f3e8 e7bc 2c89 3cbd b3ca 993d
00000030: eafa 77bc 6146 9bbd e13b 42bd 6498 ecbb
00000040: 212f 313d 1e8f 98bd ba9b 963d c84b 993d
00000050: e027 90bd 6546 2ebd 8150 363c 48c3 37bd
00000060: 79d7 283b f7e6 d33c 54bb c0bc 4c12 4b3d
00000070: 3dd3 a0bd 619f 55bd 4036 90bd 25fd 50bd
00000080: ed83 91bd b7ae 88bd 5571 0dbd ce08 17bd
00000090: 87dd e9bc 78b0 e93b 43d5 03bd 5a7d 8fbd
000000a0: 440d 9dbd 7da0 01bd 4e63 0fbd c23c 333d
000000b0: 1544 49bd f4f7 57bc ad1c 303b aea4 6abd
000000c0: a1cf 98bd d438 6b3d 188b 1d3d e72b 45bb
000000d0: 1162 b7bd 8ea3 ffbc bbc0 7c3d d591 993b
000000e0: 9792 7dbd a9e5 a83c 86ac a93d dfd4 a33d
000000f0: a14d f3bb 9139 aabd 1005 a53d 0494 e6bc

psi.4.weight f4 [2, 64]
0.0670202 -0.10061108 -0.09723757 -0.008504118 0.10906616 0.10301937 0.094415374 0.08378719
-0.015115738 -0.08212508 0.079517074 0.050356522 0.07335239 0.003050667 -0.065021664 -0.102092795
0.10610937 0.057730637 -0.03802804 -0.07336759 -0.07202045 0.0059964396 -0.051972043 -0.07543504
-0.026198123 0.106908634 0.01465418 -0.08163401 -0.015929937 0.06071705 0.08839079 0.07287491
0.07747717 0.05339127 0.0827737 -0.004053417 -0.09970904 0.053130258 -0.00014588695 0.1057731
0.02176217 0.025629306 0.09268317 0.0018292761 -0.07880087 -0.062214665 -0.0014418472 -0.0359119
0.056073412 0.043820586 0.0872875 0.093523085 -0.104658395 0.08042521 0.06461902 -0.07498482
-0.04631714 -0.054309193 0.064323604 -0.01567044 -0.02205263 -0.0030858074 -0.058400966 0.09563402
0.078637466 0.03080553 0.045392446 -0.01301372 0.123131946 -0.045535848 -0.059739247 0.12574579
0.11178201 0.12097268 -0.1232129 -0.12945911 -0.065232195 0.033620257 -0.10823562 0.049287133
0.08777464 0.005894912 0.075133994 0.09336347 -0.11778923 -0.04711116 0.08969655 -0.036823098
0.08876912 -0.045342725 -0.066190034 -0.08099209 0.00012806055 -0.058571316 0.09289229 0.08729111
-0.100633465 -0.021440681 -0.09368544 -0.08332216 -0.038879164 -0.093520254 0.025663238 -0.11973516
-0.053955656 0.106117524 -0.008324456 -0.017683173 -0.013138107 0.010716972 0.021699779 -0.10149625
0.00778304 -0.04735958 0.08135474 -0.09873847 0.057363853 -0.1094929 0.0038300678 -0.10973726
-0.079109326 -0.12653321 0.09117938 -0.029409481 -0.1376837 0.03957191 -0.120843045 0.009572672
00000000: e341 893d 2f0d cebd 7e24 c7bd db54 0bbc
00000010: 145e df3d d2fb d23d d95c c13d 9e98 ab3d
00000020: 00a8 77bc 3231 a8bd d9d9 a23d a442 4e3d
00000030: c739 963d b3ed 473b 142a 85bd 0716 d1bd
00000040: df4f d93d f676 6c3d 4ac3 1bbd bf41 96bd
00000050: 757f 93bd c87d c43b a3e0 54bd b07d 9abd
00000060: 729d d6bc eaf2 da3d 1618 703c bb2f a7bd
00000070: 807f 82bc 71b2 783d 3b06 b53d 713f 953d
00000080: 5aac 9e3d ceb0 5a3d 4285 a93d 87d2 84bb
00000090: 4134 ccbd 1d9f 593d 3bf9 18b9 919f d83d
000000a0: 9446 b23c 8df4 d13c add0 bd3d 52c4 ef3a
000000b0: 5a62 a1bd ced4 7ebd 5dfc bcba 5b18 13bd
000000c0: 3cad 653d 377d 333d cac3 b23d 0889 bf3d
000000d0: 2457 d6bd f9b5 a43d fa56 843d a491 99bd
000000e0: 0bb7 3dbd 5173 5ebd 18bc 833d 4b5f 80bc
000000f0: b8a7 b4bc 423b 4abb da35 6fbd c5db c33d
00000100: ae0c a13d e15b fc3c 6eed 393d 7f37 55bc
00000110: 9a2c fc3d cc83 3abd 24b1 74bd 81c3 003e
00000120: f7ed e43d 86c0 f73d 0b57 fcbd ee90 04be
00000130: 7598 85bd 65b5 093d a3aa ddbd 4ee1 493d
00000140: 31c3 b33d 1b2a c13b dadf 993d 5935 bf3d
00000150: 7b3b f1bd a2f7 40bd d3b2 b73d d1d3 16bd
00000160: 96cc b53d 4bb9 39bd a48e 87bd 2edf a5bd
00000170: fe47 0639 7ae8 6fbd 503e be3d aec5 b23d
00000180: eb18 cebd 5ea4 afbc 27de bfbd cfa4 aabd
00000190: c23f 1fbd 8c87 bfbd b63b d23c b537 f5bd
000001a0: 9b00 5dbd 2554 d93d 4d63 08bc 4ddc 90bc
000001b0: 3741 57bc 3d96 2f3c bcc3 b13c 44dd cfbd
000001c0: df08 ff3b 1efc 41bd 509d a63d 6537 cabd
000001d0: 5cf6 6a3d d03d e0bd e001 7b3b eebd e0bd
000001e0: 1204 a2bd ec91 01be 41bc ba3d 27ec f0bc
000001f0: f5fc 0cbe 2816 223d 8f7c f7bd b2d6 1c3c

psi.4.bias f4 [2]
-0.11569347 -0.052146666
00000000: b3f0 ecbd be97 55bd

exp_avg f4 [8, 1, 2]
19989.23 21463.42 -176009.52 -43177.42 -50464.773 -113416.07 247897.94 52498.94
100075.766 -75077.66 -118332.19 -153696.5 -223070.36 -400963.47 207766.55 153528.88
00000000: 762a 9c46 d7ae a746 61e2 2bc8 6ca9 28c7
00000010: c620 45c7 0984 ddc7 7c16 7248 f112 4d47
00000020: e275 c347 d4a2 92c7 181e e7c7 2018 16c8
00000030: 97d7 59c8 6fc8 c3c8 a3e5 4a48 38ee 1548

exp_avg_sq f4 [8, 1, 2]
5.663937e+18 3.1326007e+18 3.7076597e+17 2.2692682e+19 4.0784273e+18 1.7614815e+18 2.2108433e+18 1.1655567e+18
6.2440144e+18 5.2353625e+18 2.698789e+17 2.4500943e+18 3.1177469e+18 2.2048633e+18 1.4397308e+18 4.9231186e+17
00000000: b134 9d5e efe4 2d5e 36a7 a45c 4d76 9d5f
00000010: f065 625e 5190 c35d f273 f55d 1d67 815d
00000020: 644e ad5e 7d4f 915e 5bb3 6f5c ef01 085e
00000030: d911 2d5e fcc9 f45d 9cd7 9f5d 61a1 da5c

exp_avg f4 [8]
-225049.95 -317034.66 -170018.66 129207.35 -1.566201e+06 -160133.89 -831814.9 135403.61
00000000: 7dc6 5bc8 55cd 9ac8 aa08 26c8 ad5b fc47
00000010: c82f bfc9 7961 1cc8 6e14 4bc9 e73a 0448

exp_avg_sq f4 [8]
1.1989254e+20 1.1479194e+20 2.3979667e+19 1.2979118e+20 4.2134503e+20 1.3127022e+19 2.3468108e+20 7.195681e+18
00000000: fcfa cf60 dd21 c760 7264 a65f dd26 e160
00000010: b2ba b661 8d2c 365f ab8d 4b61 63b8 c75e
