lightning_logs/version_26/checkpoints/epoch=0-step=99.ckpt (torch, 227574 bytes, 36 tensors)

lattice_net.0.weight f4 [8, 1, 2]
000000 7e 8f 17 3f bb 81 f0 3e 19 b9 0e bf 3d 32 fb be
       0.59203327 0.46973976 -0.55751187 -0.49061766
000010 00 5a 21 3e 24 8d a5 be 00 b8 03 3e d9 fa 4f bd
       0.15756989 -0.32334244 0.12863159 -0.050776336
000020 12 ed dd 3c 8f 51 4e 3e 27 05 c0 be a2 8d e6 3e
       0.027090583 0.201483 -0.3750393 0.45029932
000030 bc e3 12 bd ac d4 5b be 46 7a d9 be 6c e8 09 3d
       -0.035861716 -0.21467847 -0.424761 0.03366892

lattice_net.0.bias f4 [8]
000000 4a 59 1b bd bb cc bc bd 7d f7 bb 3d f1 69 15 3f
       -0.03792695 -0.09218737 0.09178064 0.5836478
000010 46 a0 c6 3e 52 9d e3 be 96 aa 0f bf 44 63 5e 3c
       0.38794154 -0.44455963 -0.5611967 0.013573471

lattice_net.2.weight f4 [16, 8, 2]
000000 25 3b f3 bd 5e f5 a2 bd 0e e3 ac 3d 13 10 45 3e
       -0.11876515 -0.07956956 0.08441745 0.19244413
000010 67 c6 8e bd b3 cf 44 3e 99 aa d4 3d 36 0f c2 3c
       -0.06971436 0.19219856 0.103841014 0.023688894
000020 38 2c 89 3d 31 2f 7b 3e 6b 46 b3 bb 0e 4c 09 be
       0.06697887 0.24529721 -0.005471041 -0.13407919
000030 df a3 12 be 81 41 b9 3d ac 63 1e 3a 26 22 2c be
       -0.14320324 0.09045697 0.0006042074 -0.16809902
000040 b5 5b fa 3d 87 8a 66 3e b8 65 0d bd 2f d5 bc 3d
       0.12224523 0.22513781 -0.034520835 0.09220349
000050 9f 20 ce bd 6b aa 0d be fb 03 89 bd c8 8b 09 be
       -0.10064816 -0.1383454 -0.06690212 -0.13432229
000060 71 58 3e 3e 9a 85 9a bd 84 4b 48 be e5 dd 01 3e
       0.18588425 -0.07545014 -0.19560057 0.12682302
000070 61 5d df bd 91 12 a2 3d 15 c2 8f 3e 3d 6f e9 3d
       -0.109064825 0.079136975 0.2807776 0.1139817
000080 fb 6c 93 be cb b1 2e 3e cc eb 9f 3d 9a 75 8a be
       -0.28794083 0.1706001 0.078086466 -0.27042848
000090 a0 74 2c 3e fb 85 07 3e 07 35 0f 3e 45 dc fa 3d
       0.16841364 0.13234703 0.13985072 0.12249044
0000a0 51 ab 25 bd 9c 6a 68 be 21 ea c7 bd 31 d2 99 bd
       -0.040446583 -0.22696918 -0.097614534 -0.07510794
0000b0 3c e1 53 be 4e 58 00 3e cf 73 22 3e e9 5a 81 bc
       -0.20691389 0.12533686 0.1586449 -0.01579042
0000c0 9f 90 bf bd f0 05 0e 3e 73 b2 44 be 7d ca 44 3d
       -0.09353756 0.13869452 -0.19208698 0.04804467
0000d0 90 8e f8 3d 6f 39 62 be f3 82 ab bd 06 d7 4d be
       0.12136567 -0.22092222 -0.08374586 -0.20101556
0000e0 e4 84 ad bc 4f 87 36 3e 24 13 b4 bd ef 09 2b bd
       -0.021181531 0.17825054 -0.08792713 -0.04175752
0000f0 c8 f4 a3 bc 69 b6 3a 3e ed 34 3d 3e 9f 49 45 be
       -0.020014182 0.18233646 0.18477221 -0.19266365
000100 c4 41 9b bd 5a c5 ac bd f8 42 e9 bd 24 bd ab ba
       -0.07580903 -0.08436079 -0.113897264 -0.0013102633
000110 8c 27 85 3e c4 49 3d 3e 9b c6 5d 3e 83 d5 2b 3e
       0.26006734 0.1848517 0.21657793 0.16780667
000120 4a 61 07 3e 34 76 bd bd 8c 4c e7 3d c1 10 1d be
       0.13220707 -0.09251061 0.11293897 -0.15338422
000130 46 c9 21 be 52 68 04 be 66 43 f7 bd 95 8e 8c 3e
       -0.15799436 -0.1293042 -0.12073402 0.2745253
000140 e6 14 5b bd 9d cd 24 3d 27 18 95 be 28 0f 08 be
       -0.053486727 0.04023515 -0.2911999 -0.13287032
000150 63 37 4b bd ce b1 1c bd 9b 7b 31 be 34 19 4f be
       -0.049613368 -0.038255505 -0.17332308 -0.20224458
000160 27 db 73 3d de ab a4 bd 20 53 a2 bc 0c e2 40 be
       0.05953517 -0.080405936 -0.019815028 -0.1883623
000170 04 1f 9b bd 28 42 04 3e 39 d3 d3 bd e0 5e 21 3e
       -0.07574275 0.12915862 -0.10343022 0.15758848
000180 1c 1d c2 bd a8 89 66 bd 94 3a 3a be 26 f8 2b be
       -0.094782084 -0.056283623 -0.18186408 -0.1679388
000190 6c 36 82 be 74 1d 85 be cf ec 7a be 1a 0c 81 bd
       -0.25432146 -0.25999033 -0.24504398 -0.06301136
0001a0 a1 ff a6 3d 6f 3b 3d 3d 92 f4 5e 3d ed 3a b6 bc
       0.08154226 0.04619926 0.05443246 -0.022244895
0001b0 d3 90 a7 3c 74 ac 66 be 4f 92 a3 be 89 9a 13 3d
       0.0204548 -0.22526723 -0.31947562 0.036036048
0001c0 6d 24 37 be d7 42 48 3e 23 bd b3 3c e5 f6 67 bc
       -0.17884989 0.19556747 0.021940773 -0.014157985
0001d0 10 0f 32 3d 86 79 de 3d b9 8a ad 3d 91 ae 65 3e
       0.043471396 0.108630225 0.08473725 0.22429873
0001e0 be 8e 4b 3e ce 9e 32 3e 7f 7b 43 be 11 c9 31 be
       0.1987867 0.17443392 -0.19090079 -0.17361857
0001f0 e6 ee 0e be 59 78 48 bd 3e ad 40 bd a5 77 1a 3e
       -0.1395832 -0.048942897 -0.047040217 0.15084703
000200 04 97 9a 3e 16 e4 5a 3d 22 79 b6 bc 38 0e 09 be
       0.3019334 0.053440176 -0.022274558 -0.1338433
000210 d6 e3 3f bd fa dc 63 3c 13 df 24 bd e9 cc dd 3c
       -0.04684814 0.013907665 -0.040251803 0.027075248
000220 36 16 bc ba de 5d 99 bd f5 75 8a 3e b9 6c 85 3e
       -0.0014349881 -0.07488607 0.2704312 0.2605951
000230 13 e0 9f 3e 02 2d ad 3e 7f 76 58 3e 1a d9 7d 3e
       0.31225643 0.338234 0.21138953 0.24789849
000240 e9 7e 92 be 7b cf 69 be 91 28 81 be 35 29 0a 3d
       -0.2861245 -0.22833054 -0.25226262 0.033730704
000250 cd 5f c4 3d ae 40 92 be ba a3 08 3e c3 60 88 be
       0.09588585 -0.28564972 0.13343707 -0.26636323
000260 b8 a2 03 bd 23 ea 75 be 80 6b c7 3d 4d ee 5f be
       -0.032137603 -0.24015097 0.09737301 -0.21868248
000270 33 24 32 bc 23 95 bc bc d7 70 cf bd 20 ec 9b bd
       -0.010872888 -0.023020333 -0.10128944 -0.07613397
000280 da 9c 41 3e a7 6b 2d 3e 2c 83 5a 3e eb d8 42 bd
       0.1890749 0.16935597 0.213391 -0.04757015
000290 5c e0 9a 3e b0 c5 55 3c 07 89 29 3e b1 00 45 bd
       0.30249298 0.013047621 0.16556178 -0.048096363
0002a0 49 ec 1c 3d a1 cb 1f be c7 fd 3f 3d de f7 a1 bd
       0.038311277 -0.15605022 0.04687288 -0.07908605
0002b0 ea 6e 45 3d 53 7e 4d 3e 5d 7c 0b 3d 9e 6f 75 3e
       0.04820148 0.2006772 0.03405415 0.2396836
0002c0 cb 2d 28 3e 58 17 fa 3d fa d4 00 3d fe 51 24 3e
       0.16423719 0.12211484 0.03145311 0.16046903
0002d0 0f a5 64 3e 4c ae d4 3c ed c1 e8 bd 44 45 86 3e
       0.2232859 0.025962017 -0.113651134 0.2622472
0002e0 7d a6 3a be 6e 94 8c 3e e8 33 b5 3d 99 57 af bd
       -0.18227573 0.27456993 0.08847791 -0.0856163
0002f0 e8 b4 31 be 7a ec 81 3d fc 30 43 3c 4c 2a 84 bc
       -0.17354167 0.063439324 0.011913534 -0.01613345
000300 f3 8c 48 3d 22 ac 9d 3d 56 68 dc 3d d9 ce cd 3d
       0.048962545 0.07698847 0.10762088 0.10049219
000310 5f 66 61 3e 1b 63 c0 bd 31 10 3e 3d f8 e7 57 3b
       0.22011708 -0.09393903 0.04640216 0.003294466
000320 90 c5 7a 3d 31 90 e1 bd 14 ae 43 bd 71 67 d2 3d
       0.061223567 -0.110138305 -0.047773436 0.10273636
000330 8d d6 b9 3d 88 03 c9 bd d6 04 b0 3d 97 54 fc 3d
       0.090741254 -0.09815127 0.085946724 0.12320822
000340 b4 e8 26 be 8e bd 31 be cb 6a b9 bd a9 8b 28 3e
       -0.16299707 -0.17357466 -0.09053572 0.16459526
000350 24 13 79 bd 04 b3 16 be f9 d7 67 3e 40 0e ee bd
       -0.06080927 -0.14716727 0.22640981 -0.11623812
000360 93 ec 2e 3e 14 b0 a7 bd ab e1 99 3e df 12 9d 3e
       0.17082433 -0.08187881 0.30054983 0.3067846
000370 b2 1e 2c be 41 68 fc 3d b2 a7 82 3d 83 4f 8d bd
       -0.16808584 0.12324572 0.063796416 -0.06899931
000380 0c 87 c6 bc 48 65 0c bd 36 f7 65 3e 3d c9 30 3e
       -0.024234317 -0.034276277 0.22457585 0.17264266
000390 83 56 2f bd 5b 4d af bd 7b 3d ed 3d 88 c5 f5 3c
       -0.042807113 -0.08559676 0.11583992 0.030001417
0003a0 c2 61 7d bd 8c bd 53 bc f2 23 36 3e 01 2f 9c bd
       -0.061860807 -0.012923609 0.1778715 -0.07626153
0003b0 70 a1 10 3e e8 dc 43 3e 27 04 d0 bc 29 e6 96 bd
       0.14124084 0.19127238 -0.025392605 -0.07368118
0003c0 fa ba 10 be ab fc 04 be 94 79 02 3e b7 1e 06 39
       -0.14133826 -0.1298701 0.12741691 0.00012790678
0003d0 18 f6 6f 3e 62 ae 83 3d ab c9 f1 bc 23 ef 41 be
       0.23433721 0.06429745 -0.029515108 -0.1893888
0003e0 b9 d9 54 3e 45 06 10 be 56 58 1f be ab 67 24 3e
       0.2078618 -0.14064892 -0.15561041 0.16055171
0003f0 e3 4e d9 3d ba 09 04 3d 0b 04 1e 3e 1a 4a 29 3e
       0.106107496 0.03223584 0.1543123 0.16532174

lattice_net.2.bias f4 [16]
000000 83 33 30 3e 56 50 02 be 8f 31 ad bc 64 b6 85 3d
       0.1720715 -0.12725958 -0.021141795 0.06528929
000010 53 e3 40 3e c0 2e 22 3e a0 57 28 3e 93 0f 2c 3e
       0.18836717 0.15838146 0.16439676 0.16802816
000020 76 43 fa bc 58 8c 32 bd 58 26 e0 3d 53 b5 29 3e
       -0.030549746 -0.043590873 0.109448135 0.16573076
000030 59 5c 26 be 74 d3 7a bd 10 c3 d8 3d b1 dc 4b 3c
       -0.16246165 -0.061236814 0.1058408 0.012442754

lattice_net.4.weight f4 [32, 16, 2]
000000 1c cc 73 3e 80 dc 66 3d 7b 09 36 3c 94 28 07 bb
       0.2380833 0.05636263 0.011110659 -0.0020623552
000010 2f db d9 bc 09 43 89 ba 2f 8d 3e 3c c3 a4 f3 bc
       -0.026593773 -0.0010472249 0.0116303405 -0.02974165
000020 52 3a e8 bd c9 55 a1 bd 5d 7e 70 be 06 40 ed bd
       -0.11339249 -0.0787769 -0.23485704 -0.11584477
000030 81 10 a4 3d 48 89 8e 3d a6 78 ea bb 8e d1 d4 bb
       0.0801096 0.06959778 -0.0071554957 -0.0064947074
000040 6e 12 11 3e 2a ab a2 bd 4c ee e8 bd 8f 7b 54 be
       0.14167187 -0.07942803 -0.113735765 -0.20750259
000050 4f 4a 6f 3d 89 99 d4 bd f9 59 91 3b 5e 4a a9 bd
       0.058420476 -0.10380847 0.0044357744 -0.082661375
000060 b4 ce 27 bd b4 eb 38 bd e8 3d c9 bd 2f 68 a1 bd
       -0.04096861 -0.04514666 -0.09826261 -0.078811996
000070 34 9e fb bd 48 53 ad bd 95 3f 84 bc 76 3d 04 3e
       -0.12286034 -0.0846315 -0.0161436 0.1291407
000080 c7 9d 6c 3b 76 44 4f be d5 e6 3b be a1 1f 27 3d
       0.0036104785 -0.2024096 -0.18349774 0.040801648
000090 86 f8 ae 3d 10 8b f6 bd 98 01 e0 3d fe 8c 59 bd
       0.08543496 -0.12038243 0.10937804 -0.053112976
0000a0 08 5e c7 3d 2b fe aa 3d b7 6a d8 bc 9b 34 59 3c
       0.09734732 0.0834926 -0.026418073 0.013257171
0000b0 18 92 21 3e 51 5c 4b 3e 83 1d 10 3e fa 65 03 3b
       0.15778387 0.19859435 0.14073758 0.0020049796
0000c0 ec ef dd 3d 62 a2 65 be 6e d3 8f bc 8b 54 3a 3e
       0.10836777 -0.22425225 -0.017556872 0.18196313
0000d0 5c 47 6c 3d 7f c4 18 be b2 41 20 be 10 3b 6d bd
       0.05768524 -0.14918707 -0.15650061 -0.057917655
0000e0 3a a2 8a 3d f0 e5 2e be 1d 59 9f bd ab 7b 38 be
       0.067692235 -0.17079902 -0.07780669 -0.18015926
0000f0 49 19 b7 bd fe fc 05 3e 5f 51 e0 3d a7 eb bf bc
       -0.0894037 0.1308479 0.1095302 -0.023427797
000100 f7 bd ae bd 54 ea 7d be fe 48 3a 3b e1 a9 c3 3d
       -0.08532327 -0.2479642 0.0028424854 0.09553886
000110 f5 96 20 bc f8 ef a8 3d d4 8a 36 3d a6 19 2c 3e
       -0.009801616 0.082488954 0.04456599 0.16806659
000120 f6 1c 23 bc 42 8f ea 3d de 82 05 3e 69 66 05 3e
       -0.009955635 0.114531055 0.13038203 0.13027348
000130 73 16 5c 3d 9d 38 8b bd bf c2 02 be bd 2d dd 3d
       0.053732347 -0.067979075 -0.12769602 0.107997395
000140 47 ba 21 bd 02 0b 31 be 9c de 93 bd 36 6a 39 bd
       -0.03948429 -0.17289355 -0.07220194 -0.045267306
000150 d6 06 f7 bc b0 ee ad bd f5 2d 09 3e c5 c7 a3 bd
       -0.030154627 -0.08492792 0.13396437 -0.079970874
000160 85 dd 4a 3c b4 d5 17 3d ba 44 b8 3d c5 8a 9a bd
       0.012381916 0.037069038 0.089974836 -0.075459994
000170 fd 66 d1 3d 9b 07 5b 3e 77 22 04 bd 4f 68 58 be
       0.102247216 0.2138962 -0.03225943 -0.2113354
000180 a5 e0 2a 3e e9 85 d1 bd 9e 33 96 3d e9 8e bf bd
       0.16687258 -0.102306195 0.07334064 -0.0935343
000190 0a 87 9d 3d 87 be 80 3d be 66 d9 bc 98 f7 aa bd
       0.07691772 0.0628634 -0.02653825 -0.08348006
0001a0 cc 0a 9f bd a5 1e 9d 3c 69 0f d0 bd 2a 38 e3 bd
       -0.07765731 0.019179652 -0.10159189 -0.11094697
0001b0 97 1f 2b be ed 20 20 bc be 5a ad bc b0 68 09 3d
       -0.1671127 -0.009773475 -0.021161433 0.033547103
0001c0 51 2d 92 3d a8 85 c1 3c 8a 02 52 3d 1b 93 04 be
       0.0713755 0.023623303 0.051271953 -0.12946741
0001d0 d0 e5 20 3e 6d 81 ff 3d 2d ce 59 be 0d 2f d0 bd
       0.15712667 0.12475858 -0.21270056 -0.10165224
0001e0 0c 28 3c 3e 73 44 5b 3d 83 bb e6 bd 72 11 0d 3e
       0.18374652 0.053532075 -0.11266234 0.13776186
0001f0 2f 63 46 bd 35 62 c8 bd e6 df b0 3d 68 59 94 3c
       -0.048434433 -0.097843565 0.08636455 0.018109038
000200 53 f3 f5 bd 56 fa 95 bd 4a f9 27 bd 51 3b ee bb
       -0.12009301 -0.073231384 -0.041009225 -0.0072702547
000210 56 c9 f2 3c eb 33 d1 bd 95 50 55 bd 14 8f 00 bc
       0.02963702 -0.10214981 -0.052078802 -0.0078466125
000220 2a 8a 20 3e 53 9d 45 3d 3c be 75 3e 82 b2 46 3e
       0.15677705 0.04824574 0.2399835 0.19404033
000230 81 33 11 3d b3 bd aa 3c a9 3e 46 3e d6 0f 11 3e
       0.03544951 0.020842409 0.1935984 0.14166197
000240 60 80 0f 3d 7e 5b 35 39 a1 0d e5 3d 47 ea 0a 3e
       0.035034537 0.00017295589 0.1118424 0.13565932
000250 1f 25 06 be e5 d4 cf bd 44 ad 65 bc 31 e4 b5 3d
       -0.13100098 -0.10148028 -0.0140183605 0.08881415
000260 2d 60 fb bd 4f 13 80 3d d5 e6 04 be ed 9e 6a be
       -0.122742034 0.06253683 -0.1297868 -0.22912188
000270 40 f6 93 3d 67 93 3a 3e 57 eb c1 3d 6c 3d 58 bd
       0.07224703 0.18220292 0.09468716 -0.05279295
000280 9f 4a 91 3d 13 e2 f4 bc 08 78 c4 3d 15 81 47 bc
       0.07094311 -0.029892957 0.09593207 -0.012176772
000290 16 dc a0 3d 9e b6 aa 3d ff bf c2 3d 8b 29 4c 3d
       0.07854478 0.08335613 0.095092766 0.049844306
0002a0 f4 e2 d8 bb f6 4c 86 bd e3 4e 02 3d 31 4e 57 be
       -0.006618852 -0.06557648 0.031813513 -0.21025921
0002b0 3d 44 16 be d5 67 b4 3d c9 47 0f be 6e 05 09 3d
       -0.14674468 0.08808867 -0.13992228 0.033452444
0002c0 a6 94 80 3e b3 7a a8 3a ae 76 5c be 2f 58 52 be
       0.2511341 0.001285395 -0.21529648 -0.20541452
0002d0 b4 db 73 3e b9 65 76 3e b9 78 0d be 20 47 f3 3d
       0.23814279 0.24062242 -0.13815583 0.118788004
0002e0 af 98 62 3e dc b0 75 3e 51 75 2e 3e e2 b4 55 3e
       0.22128557 0.23993248 0.1703694 0.20869783
0002f0 f9 ae 35 3d 88 47 4b be e2 fb d5 bd 84 18 d9 bd
       0.04435632 -0.19851506 -0.104484335 -0.10600379
000300 37 9c e7 bd f4 4c 82 bd 14 10 46 3d 3d 6f 79 be
       -0.113090925 -0.06362334 0.048355177 -0.2435884
000310 0a 9d fd 3d 9f f9 18 3c 16 10 0e 3e 2a 0f b2 3c
       0.123834684 0.009336858 0.13873324 0.021735746
000320 a4 aa 15 3e 63 2d bc bc 00 23 b3 bd 00 06 89 3d
       0.14615875 -0.02297086 -0.0874691 0.066905975
000330 93 68 18 3e c6 42 cf bb d3 2f ce 3d 7a 59 8b bd
       0.14883642 -0.0063250987 0.100677155 -0.06804176
000340 15 68 54 3d c3 db 2e be e5 82 83 3d aa b8 2b 3e
       0.051857073 -0.1707602 0.064214505 0.16769662
000350 ac 9e 87 bd 2f 34 50 bc 2e 3f 84 3d a4 89 25 3e
       -0.06622061 -0.012707754 0.06457363 0.16165787
000360 8f 06 93 3d e4 be 9f 3d 3c b4 b8 bd 6e 90 a8 bc
       0.07178985 0.07800081 -0.09018752 -0.020576682
000370 34 57 7c bd 6f 8d 1a 3e e5 83 e8 bd 38 fa 14 3d
       -0.0616066 0.15093015 -0.11353282 0.03637144
000380 ec ab 83 3d 7e 2f 39 3e 8c ea 89 bd 0d ef 71 bd
       0.06429276 0.18084523 -0.067341894 -0.059065867
000390 05 03 e6 bd 1d 5f 8e 3d f1 bb 9d 3d 3d ed 07 be
       -0.11231045 0.06951735 0.077018626 -0.13274093
0003a0 49 80 56 3d 9c 60 25 bd d1 e7 bc 3d e8 e7 60 be
       0.052368436 -0.040375337 0.09223903 -0.21963465
0003b0 5b 23 5f be c4 d6 49 be 88 50 d7 3d 45 29 f7 3d
       -0.21790831 -0.19710833 0.10513407 0.120684184
0003c0 e8 fb 92 3a 8b d3 28 bb 5c 29 b7 bd bb 35 83 bc
       0.001121399 -0.0025760855 -0.089434355 -0.016016832
0003d0 5b 35 ae 3c f5 b9 e9 3c a8 f3 22 be 10 fd 5e 3b
       0.021265676 0.028531054 -0.1591326 0.0034025349
0003e0 1c be a7 bd 0d 26 52 3e 2a 47 a6 bd 04 32 90 3d
       -0.08190557 0.20522328 -0.08119042 0.0704079
0003f0 bf 9f 48 be 03 f0 8f bd 30 52 73 bd df e8 80 bd
       -0.19592188 -0.070282005 -0.059404552 -0.06294417

lattice_net.4.bias f4 [32]
000000 39 2c 4a be 8b ba 5e bc 4e 04 f5 3d 34 97 df 3d
       -0.19743432 -0.01359428 0.11963712 0.109175116
000010 54 96 cd bd 77 9e 9e 3c 20 32 bb bd 8f 42 9f 3d
       -0.100384384 0.019362671 -0.0914042 0.07776367
000020 da a9 5e 3e 4d 13 52 bd 6e 9d 50 bc 60 56 0a be
       0.2174448 -0.051287938 -0.012732847 -0.13509512
000030 43 06 9d bd 2c 35 8c 3d 30 cc 6e bd cc ec e6 3c
       -0.0766721 0.06846079 -0.058300197 0.028189085
000040 fc ec 90 bb 95 f1 79 3d 66 6b 60 bd b7 c9 9b 3c
       -0.004422782 0.061021406 -0.054789923 0.019017084
000050 03 c9 90 3d 94 20 c6 3d 74 ea 9a 3c 93 c8 31 3d
       0.0706959 0.096741825 0.018910624 0.043404173
000060 2d ec b9 3d f3 77 1c 3b ea 67 40 3d 1f f5 2d 3c
       0.0907825 0.0023875206 0.0469741 0.010617523
000070 ac d7 6f bd 92 32 2c 3e ea 9c ab bd 88 3d 47 3d
       -0.05855529 0.16816166 -0.08379538 0.048642665

tNN.0.weight f4 [32, 2]
000000 c7 e9 62 be 57 8a 0c 3f 48 f4 1c bd c7 a8 01 3f
       -0.22159491 0.5489859 -0.038318902 0.5064816
000010 1f 53 eb 3e dc 24 8e 3d f6 1f 20 3f 36 70 03 3f
       0.45961854 0.06940624 0.6254877 0.51343095
000020 73 98 2e bd 42 99 94 3e 81 04 02 bf e9 33 fc 3e
       -0.042625856 0.29023176 -0.5078812 0.49258354
000030 c2 49 0e 3f 61 f1 cc be 1a 5a 19 bf 47 b3 6b 3e
       0.55581295 -0.40027907 -0.5990311 0.23017608
000040 8b 32 15 3e 4a 29 f2 bd 3d 02 27 3d ed 53 33 3e
       0.14570062 -0.118242815 0.04077362 0.17512484
000050 7b 51 fc be 95 1d dc be 75 a8 84 3e a8 a8 16 bf
       -0.49280915 -0.4299132 0.25909773 -0.588511
000060 44 c2 f9 3e 8f 06 0f 3f 73 74 03 bf f1 6e c0 be
       0.48781025 0.5586938 -0.5134956 -0.37584642
000070 7e e9 0f bd ba 73 bc bd 9e 8e 18 bf 03 40 0a 3e
       -0.035134785 -0.092017606 -0.59592617 0.13500981
000080 bc 5a 87 bc 00 ba 6c 3c 2f 7e e6 3e 2b a7 a1 bd
       -0.016522758 0.014448643 0.45018145 -0.07893213
000090 4a 65 e8 be c0 8c 7a 3d 69 12 93 3e 14 61 04 3e
       -0.45389777 0.061169386 0.28724983 0.12927657
0000a0 de c4 3d 3f b7 4c ef be c4 fa 9d 3e 30 d3 57 3d
       0.7412852 -0.46738216 0.3085538 0.05269164
0000b0 4b 02 ce 3d 47 93 26 3e ef b5 e9 3b 1d e7 0c bf
       0.10059031 0.1626712 0.007132284 -0.5504015
0000c0 9b c0 1c 3f ac 75 db bd 13 1f ea 3e 08 4d 80 3e
       0.6123139 -0.107158035 0.45726833 0.2505877
0000d0 13 fc 96 be be 8f 2d 3e 30 aa 1a bf fc ee b8 3e
       -0.29489192 0.16949365 -0.60415936 0.3611983
0000e0 fc 40 5b 3e eb c3 ba 3e 8d 10 11 bf 6d 7a 5f be
       0.21411508 0.364776 -0.5666588 -0.21824045
0000f0 da 23 c1 bd 72 71 1a 3f 77 bb e2 3e f5 ca eb be
       -0.09430666 0.60329354 0.4428365 -0.4605328

tNN.0.bias f4 [32]
000000 6f ff 6e 3e 78 f5 b0 bc 16 2f fa be 6e 4f 2f 3e
       0.23339628 -0.021601424 -0.4886405 0.17120144
000010 f8 06 01 be bc de 39 bf c5 3a 1b 3f 3a ec 21 be
       -0.12600315 -0.7260549 0.6063655 -0.1581277
000020 21 f8 a4 3e a3 d3 83 be 01 d1 76 3e 71 d1 e5 bd
       0.32220557 -0.25747404 0.24103166 -0.112215884
000030 19 4e a8 3e db b2 41 3d 37 9c 1b bf 13 29 19 3e
       0.32872084 0.04728971 -0.6078524 0.14957075
000040 94 e1 b6 3d 7d 80 1d 3f 4f c5 a0 be e8 86 e0 3e
       0.08929744 0.6152418 -0.31400535 0.43852925
000050 04 5d 0f 3f 50 29 0f bf c7 de 02 3e 83 e1 32 3f
       0.56001306 -0.5592241 0.12780295 0.69875354
000060 7a 81 f9 be e1 84 09 bf 03 49 a8 bd 51 1a 04 bf
       -0.48731595 -0.5371838 -0.08217051 -0.51602656
000070 bb 0b 3b bf 63 05 13 bd 83 1e 2a bf 71 4c c3 3d
       -0.73064774 -0.03589381 -0.6645281 0.095360644

psi.0.weight f4 [64, 256]
000000 14 f0 1a 3d d0 2d 90 3d 6f 0c 4c 3c f0 56 b7 3b
       0.037826613 0.07039988 0.012454136 0.0055950806
000010 cf 05 26 3d f8 8a 96 3d 6b 25 02 3d 06 b8 98 bb
       0.040532883 0.07350725 0.031773966 -0.004660609
000020 7c 1f 92 bb a7 e8 16 3b f5 9f 8d 3d 31 82 75 3d
       -0.0044593196 0.0023026855 0.06915275 0.059938613
000030 90 7b eb bc c7 1d b4 3d 2b c5 5e bd 5a af e0 bd
       -0.028745443 0.08794742 -0.054387253 -0.10970946
000040 37 26 7f bd 6d 76 7b bd 21 7f 9e bd ce c4 34 bd
       -0.062292304 -0.061392237 -0.07739092 -0.044133
000050 b8 e2 3e bc 4f eb 88 3d cb 41 31 3d db cf 48 3c
       -0.011650734 0.066855066 0.043275636 0.012256588
000060 80 f8 bd 3c 06 e1 82 bc 9e 7a 5a 3d aa 3d cc 3c
       0.023189783 -0.01597644 0.053339593 0.024931747
000070 1e 98 a4 bd be f0 8d bd 03 c0 ce 3c 16 d5 cc 3c
       -0.080368266 -0.069306836 0.025238043 0.025003951
000080 92 74 c6 3c 3d 29 a6 bd 54 45 ad 3a 62 3c b3 bc
       0.024225507 -0.08113334 0.0013219514 -0.021879379
000090 50 d1 7f 3c 2b b8 96 3d 37 b1 80 3c 95 7c 6a 3d
       0.015613869 0.07359346 0.015709503 0.057247717
0000a0 b5 c2 96 3d 2f 50 41 bd 68 56 a9 bd 56 fb 78 bd
       0.07361356 -0.04719561 -0.08268434 -0.060786568
0000b0 50 60 38 bd cc c6 d7 bc 5e 7e b9 bd 3a 9e b4 39
       -0.045013726 -0.02633991 -0.09057306 0.00034450163
0000c0 9d b8 6d 3c 5e 18 fc 3b 28 17 9e 3d 9b 9b a6 3d
       0.014509347 0.0076933345 0.077192605 0.08135148
0000d0 0f b0 6d 3d 96 53 4e bc 34 96 db 3c a2 17 11 3d
       0.05802923 -0.012593171 0.02680502 0.03542293
0000e0 b1 37 ac bd 15 7f 99 bc ae f8 3a bc 23 7d cb 3a
       -0.0840906 -0.018737355 -0.011411829 0.0015524965
0000f0 fc a3 fe bc 02 a4 66 bd ea 91 ba bd 1c 5b 53 bd
       -0.031084053 -0.056308754 -0.09109862 -0.05160056
000100 02 4b 7d bc 02 96 f1 bd da 2b 2e bd e2 1d b8 bc
       -0.015459778 -0.1179619 -0.04252229 -0.022475187
000110 da 80 49 bd 6d 74 43 bd 61 be 10 3d f7 12 75 bb
       -0.049195148 -0.047718454 0.03533781 -0.0037395337
000120 6f 11 7a bc 31 e1 d0 3c 3e 68 48 3d b9 3d 0c 3c
       -0.015262946 0.025498005 0.048927538 0.008559638
000130 7b 5b a5 3d 7e ce 32 3c f3 0d 13 3d 7c 4e 6f 3c
       0.08074089 0.010913489 0.035901975 0.0146061145
000140 ce e6 39 3d e1 35 61 bb 0d 58 8d bc 3e 17 ca 3d
       0.045386128 -0.003436439 -0.0172539 0.09867714
000150 f7 a2 7a 3a 4e 18 26 3c c8 ce 69 bd 29 ab 8c bc
       0.0009561027 0.010137631 -0.057081968 -0.01717146
000160 fb 18 a7 bd cd f6 6b bc e7 cc 89 3c 16 ad fb 3b
       -0.081590615 -0.014402104 0.016821338 0.0076805456
000170 3a 08 cf 3d f4 8c 84 3d 8e 50 d4 3d 2e b6 d5 3c
       0.10108991 0.06472197 0.10366927 0.026087847
000180 05 2e 9c 3b 57 42 70 3d 3e 9a 54 3c e2 c8 56 bd
       0.004766228 0.058657017 0.012976227 -0.05243767
000190 ef 79 f8 bc cf 2b 64 3c 34 55 0d bd ae ef 00 bc
       -0.03033158 0.01392646 -0.034505084 -0.007869644
0001a0 93 14 78 bd 98 d4 c8 3d 5a b1 ea bb f7 08 3f 3c
       -0.060566496 0.09806174 -0.0071622552 0.011659852
0001b0 1f bf 96 3d b8 45 a9 3c d6 1b e7 3b a0 c6 ab 3d
       0.07360672 0.020663127 0.007052879 0.08387494
0001c0 93 8f b0 3a 21 77 b5 bd e7 6a a3 bd 43 82 e9 bc
       0.0013470523 -0.08860613 -0.079793744 -0.028504496
0001d0 c7 8c 81 bc 20 8f 21 bd 4d e6 57 bb e5 03 1e 3d
       -0.015814198 -0.039443135 -0.0032943666 0.038577933
0001e0 54 ee 95 3d 37 40 00 3d 31 09 a0 3d b1 94 82 3d
       0.07320848 0.03131124 0.07814253 0.06376017
0001f0 eb 64 c4 3c 87 73 64 3d 1f 81 bc 3d e1 61 77 3d
       0.023973903 0.055774238 0.092043154 0.06039608
000200 8c 41 f9 3c 11 78 5a 3c ff 11 c0 bb c1 c5 99 3d
       0.030426763 0.01333429 -0.0058615203 0.07508422
000210 c5 f5 db 3d 61 58 82 3c da 53 37 3d ee 17 a7 3d
       0.10740236 0.015911283 0.0447577 0.08158861
000220 a7 eb 48 3d 78 1e 85 ba 0e 69 a6 3d 64 33 a1 bb
       0.04905286 -0.0010156175 0.08125506 -0.0049194563
000230 a7 64 28 3d 78 52 f4 3c 87 c2 66 3c 7f 19 47 bc
       0.041111615 0.02982448 0.014084465 -0.012152075
000240 63 0c 18 3c bf 42 14 3d ae 1b a7 3d 9c 7e 99 3d
       0.009280297 0.036196467 0.08159576 0.07494852
000250 9c 0c a8 3d f3 05 90 3d bf 01 7f bc 4a 2b 05 bd
       0.0820553 0.07032385 -0.015564381 -0.032511987
000260 9b 8b 7c 3d 65 53 ae 3d 3f 26 7a bc 28 b7 99 bd
       0.061656576 0.08512 -0.015267908 -0.075056374
000270 fc 89 ed bd 47 f0 f2 bd 43 df a1 bd a3 47 90 bd
       -0.11598584 -0.118622355 -0.07903912 -0.070449136
000280 48 d7 e0 bc 46 c4 c7 bc 66 03 b2 bd 44 00 9b 3c
       -0.027446404 -0.024385583 -0.086920545 0.018921025
000290 e9 9b 96 bd 7b b2 ad bd 6c c2 40 bd cf bb 9b bd
       -0.07353956 -0.08481308 -0.047060415 -0.07604181
0002a0 de 5d b9 3d da e8 dc 3d b4 6e 9e 3d 55 e8 d2 3c
       0.09051107 0.107866004 0.07735959 0.02574555
0002b0 14 e0 3e 3d 8b 17 e1 3b 7b 16 c0 3c 1b 7a dc 3a
       0.046600416 0.0068692616 0.02344822 0.0016821058
0002c0 85 85 3c 3b 8f 1f e0 bc 80 0f 8e bd 73 fe 9a bd
       0.0028766107 -0.027358798 -0.0693655 -0.075680636
0002d0 36 b1 9b bc d2 f4 0b bb 11 5c 81 3d a7 46 b9 3c
       -0.0190054 -0.002135564 0.063163884 0.022616697
0002e0 1c 75 b6 3d be 75 b7 3d ba 99 e6 3c 50 4c d4 bc
       0.089090556 0.089580044 0.028149474 -0.025915295
0002f0 33 4d a4 3d 61 b0 cc bd 59 1d 73 bd 66 82 26 3c
       0.08022537 -0.09994579 -0.05935416 0.010162925
000300 ef 42 b0 bc 21 50 58 bd a9 e6 bb bd f2 d7 99 bd
       -0.021516291 -0.052810792 -0.09174854 -0.075118914
000310 ee 49 a5 bd 54 34 68 3c 51 e2 8c bc 04 7a d3 3c
       -0.080707416 0.014172632 -0.01719776 0.025815018
000320 57 de 04 bd ca 3f d2 bc a0 1a 93 bc 1f 64 d7 bd
       -0.032438602 -0.025665183 -0.017957032 -0.105171435
000330 82 30 f8 bc d0 70 b4 3b 57 d8 95 bd e7 21 90 bd
       -0.030296568 0.0055066124 -0.07316654 -0.07037716
000340 d9 8c 60 bd be 89 09 bc 71 b1 68 bd 5f 70 bc bc
       -0.054821823 -0.008394657 -0.056809846 -0.023002801
000350 ba 26 0c bc bc 51 5a bc b3 08 6a 3c da 00 4e bd
       -0.008554155 -0.013325151 0.014284301 -0.05029378
000360 88 d2 9a 3b d8 b6 d9 bc bc fb 70 3c ad e9 91 3d
       0.0047248043 -0.026576445 0.014708456 0.07124648
000370 a3 70 8c bc fc aa 93 3d 93 ae 1a bd df 0a c5 3c
       -0.017143553 0.07210347 -0.037764143 0.024053035
000380 5d 8b fe 3c 4f 8c 4f 3d 9f 2b 7a 3d ba ac df 3c
       0.031072313 0.050670918 0.061076757 0.027304042
000390 60 21 b9 bc 7e 48 82 3d 5d a2 1e 3d 81 e0 89 3c
       -0.022598922 0.06361483 0.03872906 0.016830685
0003a0 61 f1 75 3d 29 26 f8 3c 88 7d dd 3c d7 38 b8 bd
       0.06004465 0.030291634 0.027037397 -0.08995216
0003b0 5a 39 91 bc 59 fd e6 bc 2e 14 04 bd 57 0d 90 3c
       -0.017727543 -0.028196977 -0.032245807 0.017584486
0003c0 58 e1 a6 3c 51 5f 5f 3d 32 23 9d bd df 78 10 bd
       0.020371124 0.05453426 -0.076727286 -0.03527152
0003d0 f6 75 a4 bc ae ef ff bb af f2 87 bb 11 7b 41 bd
       -0.02007578 -0.0078105545 -0.004148803 -0.047236506
0003e0 ed 19 22 bc ac bb 90 bc 4f 45 89 bd 3a a1 de 3d
       -0.0098938765 -0.017667614 -0.06702673 0.10870595
0003f0 99 3b 5b 3d 04 a9 92 bc ce 3e 4e 3d 46 f0 ab 3c
       0.053523634 -0.017902859 0.050352864 0.020988595

psi.0.bias f4 [64]
000000 fb 9c 12 bc af 50 9c bb 4c 8a 44 bd bf 7e 90 bd
       -0.00894856 -0.0047703604 -0.047983453 -0.07055425
000010 5c 1a 0b bd 1b 6c 92 bd fa 1d 2c 3d 28 da 41 3c
       -0.033960685 -0.07149526 0.042020775 0.011831798
000020 be 18 3d bc 0d 62 91 bd e0 3f 79 bd f3 83 65 bd
       -0.0115415435 -0.0709878 -0.06085193 -0.05603404
000030 05 9f b1 3c 93 3e 08 bc cf 23 a4 b9 f8 e0 84 3d
       0.021682272 -0.0083157 -0.00031307197 0.06488222
000040 32 60 9c bd 05 61 9a 3d 52 16 65 3c a7 35 03 3c
       -0.07635535 0.07538036 0.013982372 0.008008397
000050 b0 d5 c2 bd 55 e0 8a 3d b9 92 81 3d 4a 1d 87 3c
       -0.09513414 0.06781069 0.06326813 0.016493458
000060 0b 08 8b 3d 3d 8a e9 bc d5 d9 a5 bd 07 c1 b9 bd
       0.067886434 -0.0285083 -0.08098189 -0.0907002
000070 aa af bb 3d d5 f6 77 3c 30 eb 47 3d 2f 9b d2 3c
       0.09164365 0.015134533 0.048808277 0.025708763
000080 84 51 5e bd 75 eb 47 bd 8c de 25 3b b0 4b 08 3d
       -0.054276958 -0.048808534 0.002530965 0.033275306
000090 9d 4c 78 bd 1a 3a b4 3d 71 37 54 bd 6a 6b 07 3c
       -0.06061994 0.088001445 -0.051810686 0.008265356
0000a0 9d 64 f7 3c df 75 36 3d 10 c8 63 bc 8b 8f 83 bb
       0.030199343 0.044546004 -0.013902679 -0.0040149144
0000b0 b9 82 ca bd 06 1c 87 3c cf 79 0a bd ff cb 50 3d
       -0.098882146 0.016492855 -0.033807572 0.050975796
0000c0 83 95 8b bb fe a0 3b 3d fa 80 86 bd 52 09 9b bd
       -0.0042597665 0.04580783 -0.06567569 -0.07570137
0000d0 26 ed 18 3c 0b 46 c7 bc e4 3a c6 3d 32 30 7f bd
       0.009333884 -0.024325391 0.09679201 -0.062301822
0000e0 53 6a a3 3b 01 80 31 bd 8b 34 b3 bd 1f 26 75 bc
       0.00498704 -0.043334965 -0.08750256 -0.014962702
0000f0 8a fd 27 bd 79 bb 96 bc 07 36 b4 bd 33 3b d9 3c
       -0.041013278 -0.01839994 -0.087993674 0.026517486

psi.2.weight f4 [2, 64]
000000 b3 24 57 ba 7a f2 f6 3b 08 9e be 3c c9 95 bd 3c
       -0.0008207068 0.0075362297 0.023268715 0.023142712
000010 c9 f3 1c bd 35 02 13 3d 0d 34 8c 3d 50 06 50 3d
       -0.03831843 0.035890777 0.068458654 0.05078727
000020 2f 93 f9 bc 22 b7 5b 3d 18 5e 18 bd 97 d2 83 bd
       -0.03046569 0.053641446 -0.03719911 -0.06436651
000030 54 89 0d bd 3f 37 70 bd b5 9c 58 bd ba 40 0b 3d
       -0.034554794 -0.058646437 -0.052883822 0.033997275
000040 fd db 8b bb 55 45 c4 bc 45 57 e3 ba 0b f7 4e 3c
       -0.004268168 -0.023958841 -0.0017344734 0.012632142
000050 d9 fc 85 3c e4 88 7f 3c 2d b2 f2 bb eb 50 4c 3d
       0.016355919 0.015596602 -0.007406494 0.049881857
000060 b8 b7 25 bc 0d 0e a2 3c 07 32 df 3c c6 4c 31 bd
       -0.010114603 0.01978209 0.027245535 -0.043286107
000070 6a c0 0c bd 33 b3 aa 3b 69 78 20 bd e7 a1 86 3a
       -0.034363188 0.0052093505 -0.039177332 0.0010271639
000080 ae 17 bc bd ff 42 d9 3b f1 73 23 bd 65 b7 3e 3c
       -0.09184204 0.006630301 -0.039905492 0.011640404
000090 ec 51 09 bd 45 ed 80 3d b8 24 e9 bb c4 16 e3 3c
       -0.033525392 0.062952556 -0.007114973 0.027720816
0000a0 b9 4f 52 3b 57 bd 73 bd 7b e7 45 3c 26 73 46 bd
       0.0032090975 -0.05950674 0.012079115 -0.048449658
0000b0 23 a4 b9 bd a6 50 f2 3c 7b 84 3d bd b3 ad 00 3b
       -0.0906451 0.029579472 -0.04626892 0.0019634783
0000c0 f7 ff 60 bd 5b 9a 85 bd a2 6d 57 bd 7b 0a 7b bd
       -0.054931607 -0.065235816 -0.05259479 -0.06128929
0000d0 c8 b3 74 3d 35 10 09 bd 80 9b 16 bd 6a dd 79 3d
       0.059741765 -0.03346272 -0.03676939 0.061002173
0000e0 da dc 2d bd 2d cb ab bc 36 24 85 3c 9e 91 8f bd
       -0.04244695 -0.020970905 0.016252618 -0.07010196
0000f0 40 42 1a bd 74 10 04 bd fb 9a ef 3b e0 ed 06 3d
       -0.037660837 -0.032242253 0.0073121763 0.0329417
000100 64 dc ef bd 87 06 11 3d cb bd 5b 3b b1 62 29 3d
       -0.11711958 0.035406616 0.0033529873 0.041353885
000110 d5 39 0d bd 8e 83 75 bb 4b ab 95 3c 8c db 57 3d
       -0.03447898 -0.0037462446 0.018270155 0.05269961
000120 ef 60 2d be 8d 99 d0 3d 76 ab 08 bd d3 53 7e bd
       -0.16931508 0.101855375 -0.033366643 -0.06209166
000130 06 3e 19 be a9 98 65 bd 0a 1a 49 3d 91 b3 a9 bd
       -0.14965066 -0.05605379 0.0490971 -0.08286203
000140 4f 97 fe bc 71 34 d0 bd f6 5f 3e bd 4e 4e 04 bd
       -0.031078009 -0.101662524 -0.046478234 -0.03230124
000150 15 58 66 bd 61 78 9c 3d 84 c9 10 be cb bd 05 bd
       -0.056236345 0.07640148 -0.14139372 -0.032651704
000160 04 12 02 bd 34 ab 93 bd 30 79 e6 3d 3f 8a 52 bd
       -0.031755462 -0.07210389 0.112535834 -0.051401373
000170 45 0a 08 be 72 35 50 bd 60 c8 15 be 45 70 2f bd
       -0.13285168 -0.05083222 -0.14627218 -0.042831678
000180 b0 24 ab bd 53 95 98 3b 19 88 65 3c 93 ec 01 3e
       -0.08356607 0.0046564727 0.014009499 0.12687902
000190 b4 cd 59 bd 22 44 5a 3c 3d ae 25 bd 2b 97 0a 3e
       -0.05317469 0.013321908 -0.04044937 0.13534229
0001a0 51 48 01 3c 27 99 24 bd 05 81 c8 3d 11 b9 14 be
       0.007890777 -0.04018512 0.097902335 -0.14523722
0001b0 f3 3b 81 bd 98 d7 df bd e0 3f ab 3d 30 6a 15 be
       -0.063102625 -0.10929793 0.083617926 -0.14591289
0001c0 2c 31 05 bd 22 8f 89 3d 4d 61 76 bd c5 4c 73 3c
       -0.032517597 0.067167535 -0.060151387 0.014849846
0001d0 ab 00 6b 3b 95 5f f5 3c 07 05 b3 bd 9b db 44 3d
       0.0035858552 0.029952804 -0.08741193 0.048060995
0001e0 e2 ce 68 bc c9 99 88 bc b5 0a 77 3d 19 3f b2 bd
       -0.014209481 -0.016674893 0.060312945 -0.08703441
0001f0 3d 6a bf 3d 49 af 1c be 6a 2a b3 bd d6 11 07 3d
       0.09346435 -0.15301241 -0.08748324 0.032975994

psi.2.bias f4 [2]
000000 dc 1b 19 be 24 bb 74 bd
       -0.14952034 -0.059748784

exp_avg f4 [8, 1, 2]
000000 fe 08 92 4f 40 34 63 4f 0e ec 5c cf 3b 8e 19 cf
       4.9001257e+09 3.8118523e+09 -3.7064576e+09 -2.5762353e+09
000010 23 1d 81 ce e9 55 9e 4e 70 b0 dd cf 3a 24 4e 4d
       -1.0830852e+09 1.3282152e+09 -7.4386555e+09 2.1615504e+08
000020 49 2c 7f cc b1 be bb 4d d5 e2 17 d0 f1 f3 98 4f
       -6.6892068e+07 3.9372957e+08 -1.0192901e+10 5.1322476e+09
000030 53 8d ad cf c4 8d 11 cf c9 a8 88 cf 64 91 00 4e
       -5.8234404e+09 -2.441987e+09 -4.585526e+09 5.39253e+08

exp_avg_sq f4 [8, 1, 2]
000000 43 1d 8a 6a c9 35 1a 6a b4 40 8f 68 95 e7 51 68
       8.348497e+25 4.6607142e+25 5.411936e+24 3.964986e+24
000010 9a 6c e2 67 47 bb c3 68 1e dd 01 67 05 c3 2f 66
       2.1385163e+24 7.394529e+24 6.132642e+23 2.075029e+23
000020 27 e3 90 66 85 50 24 68 cf 99 85 67 7a a4 dd 67
       3.421055e+23 3.1038137e+24 1.261824e+24 2.0933541e+24
000030 93 ba 71 65 dd 28 8c 68 f0 06 08 68 a2 ab 88 62
       7.134575e+22 5.295081e+24 2.5694793e+24 1.2605623e+21

exp_avg f4 [8]
000000 c9 ac 52 4f e1 e8 61 cf b1 6e 5e ce 30 0a d9 cf
       3.534539e+09 -3.7901356e+09 -9.3294906e+08 -7.282647e+09
000010 74 84 2a 4e 6e 2e 15 d0 c7 bb dc cf 79 bb 78 cf
       7.152018e+08 -1.0011392e+10 -7.4065874e+09 -4.1730358e+09

exp_avg_sq f4 [8]
000000 76 d5 0c 68 f7 b4 9e 65 02 18 5b 67 b6 d9 3c 69
       2.660276e+24 9.3684015e+22 1.0346411e+24 1.4269135e+25
000010 79 b4 1c 69 ba 3b fd 67 75 e0 13 6a 31 d8 fc 63
       1.1840293e+25 2.391721e+24 4.4693016e+25 9.3283155e+21

exp_avg f4 [16, 8, 2]
000000 c8 48 9d 4e eb c3 98 4e 74 17 d6 4e 80 d4 ce 4e
       1.3193964e+09 1.2814883e+09 1.7959306e+09 1.7350164e+09
000010 7f 7f de 4d 9c 9d ee 4d 8c 64 ae 4e 2f d2 b2 4e
       4.666122e+08 5.004133e+08 1.4629125e+09 1.5000595e+09
000020 80 d5 0d 4e 02 8d 00 4e 38 15 12 4f fc 37 1d 4f
       5.9489485e+08 5.391812e+08 2.450864e+09 2.637692e+09
000030 a2 a1 88 4e 61 0b 7e 4e 8b 97 ee 4d 78 23 ef 4d
       1.1461471e+09 1.06553965e+09 5.0036362e+08 5.015099e+08
000040 4d 8a fa 4e 49 2c fa 4e f9 60 26 4f 76 4f 26 4f
       2.1016838e+09 2.0986031e+09 2.791373e+09 2.7902254e+09
000050 ac e5 2c 4e 07 7d 31 4e 74 50 06 4f 28 c1 08 4f
       7.251832e+08 7.4444026e+08 2.2534195e+09 2.29436e+09
000060 52 a4 65 4e 1c aa 5d 4e 54 66 5c 4f 19 43 65 4f
       9.6318784e+08 9.2972826e+08 3.6976937e+09 3.8463798e+09
000070 24 15 da 4e c4 b0 d4 4e 19 33 3c 4e 44 cd 3b 4e
       1.8294093e+09 1.7841772e+09 7.8936634e+08 7.876979e+08
000080 d1 d1 0b cf a9 f8 0b cf bd df 35 cf 5b 17 37 cf
       -2.3457836e+09 -2.3483292e+09 -3.051339e+09 -3.0717612e+09
000090 82 a5 47 ce 25 2b 48 ce 48 c1 15 cf eb fc 16 cf
       -8.373782e+08 -8.395677e+08 -2.512472e+09 -2.5331576e+09
0000a0 44 5b 7c ce 16 c6 7c ce f1 fa 79 cf 90 93 7c cf
       -1.0584599e+09 -1.06021005e+09 -4.1939725e+09 -4.237529e+09
0000b0 4e 64 f1 ce 7c 07 f2 ce bc 12 59 ce 40 bf 58 ce
       -2.0249413e+09 -2.0302884e+09 -9.104709e+08 -9.091031e+08
0000c0 34 65 a6 ce f4 63 a8 ce 10 ab f1 ce a2 7a f3 ce
       -1.3958252e+09 -1.4125614e+09 -2.0272599e+09 -2.0424502e+09
0000d0 71 83 de cd 3c 10 da cd e7 1a bc ce 2f dd bb ce
       -4.666445e+08 -4.5731213e+08 -1.5779398e+09 -1.5759174e+09
0000e0 79 5c 12 ce 75 d3 14 ce e0 cd 25 cf 1b d1 24 cf
       -6.1388346e+08 -6.242215e+08 -2.7817329e+09 -2.7651674e+09
0000f0 5a 28 94 ce 8a 47 95 ce 71 55 fb cd fd 90 fb cd
       -1.2428362e+09 -1.2522468e+09 -5.270851e+08 -5.275729e+08
000100 6c 0e 6c cf 43 5b 6a cf 77 f6 8f cf e4 1c 8f cf
       -3.960368e+09 -3.9318495e+09 -4.8305884e+09 -4.8020705e+09
000110 67 2a 9a ce 12 be 9b ce 94 9f 66 cf 7d a0 67 cf
       -1.2932351e+09 -1.3064625e+09 -3.8692178e+09 -3.8860547e+09
000120 e4 d3 d3 ce 9b fe d1 ce ae ec b3 cf 55 60 b6 cf
       -1.7769395e+09 -1.761562e+09 -6.0372654e+09 -6.119533e+09
000130 c8 7d 42 cf 7f 3a 41 cf 73 59 ab ce 8d 71 ab ce
       -3.263023e+09 -3.2418363e+09 -1.437383e+09 -1.4381728e+09
000140 c7 49 9a ce 40 c6 9d ce b9 1a de ce 95 75 e0 ce
       -1.2942632e+09 -1.3235077e+09 -1.8631466e+09 -1.8829011e+09
000150 9d fa e7 cd e0 77 e4 cd ae 1e ba ce 8d 97 b9 ce
       -4.8649514e+08 -4.7913267e+08 -1.5612864e+09 -1.5568585e+09
000160 e4 c7 0b ce c1 4a 0b ce cc 18 25 cf 4d 7e 24 cf
       -5.8628326e+08 -5.84233e+08 -2.7698657e+09 -2.7597407e+09
000170 0f 56 8b ce 93 af 8a ce 3c 54 f0 cd 53 37 f0 cd
       -1.1688365e+09 -1.1633811e+09 -5.0400653e+08 -5.037697e+08
000180 cb 45 64 ce be a7 6b ce 99 8b a3 ce 70 c0 a3 ce
       -9.574448e+08 -9.884097e+08 -1.3719174e+09 -1.3736489e+09
000190 8b d5 bc cd 93 40 b9 cd 67 63 90 ce 26 4c 8d ce
       -3.9601392e+08 -3.885021e+08 -1.2112168e+09 -1.185289e+09
0001a0 d5 c4 d8 cd 7f a7 d4 cd 97 84 ff ce 9a 48 f8 ce
       -4.5459728e+08 -4.4596835e+08 -2.1434397e+09 -2.0827538e+09
0001b0 5c 95 54 ce 8a fd 50 ce 43 4a bc cd 54 92 bc cd
       -8.9163955e+08 -8.765692e+08 -3.9487293e+08 -3.954633e+08
0001c0 f2 3d 48 cf 83 b1 45 cf f6 b7 75 cf 76 cb 71 cf
       -3.3595028e+09 -3.316745e+09 -4.122474e+09 -4.056643e+09
0001d0 c0 9b 95 ce b7 ae 96 ce 5e 5a 55 cf 0b 80 54 cf
       -1.2550062e+09 -1.2640163e+09 -3.5794693e+09 -3.5651612e+09
0001e0 fd 3b b8 ce 6c e2 b6 ce 84 9b ae cf 05 d7 ae cf
       -1.5454696e+09 -1.534146e+09 -5.858855e+09 -5.866654e+09
0001f0 e6 12 2a cf d1 eb 28 cf 5e 04 9c ce da 93 9c ce
       -2.8533652e+09 -2.8340268e+09 -1.308766e+09 -1.3134676e+09
000200 46 64 c3 4e c1 99 cb 4e 0b 27 01 4f 72 d9 05 4f
       1.6390643e+09 1.7079256e+09 2.1668196e+09 2.2456202e+09
000210 e7 26 04 4e d4 ae 00 4e 3c 42 cf 4e c9 30 d0 4e
       5.542855e+08 5.397353e+08 1.7386122e+09 1.746429e+09
000220 98 78 31 4e 3b 3f 33 4e 6f 83 2c 4f 72 c5 2a 4f
       7.443676e+08 7.518164e+08 2.8942948e+09 2.8650665e+09
000230 c8 aa a9 4e b2 f0 aa 4e 5a fa 12 4e 4d da 11 4e
       1.4232709e+09 1.4339505e+09 6.1647014e+08 6.117507e+08
000240 52 21 8c ce 83 ed 98 ce 5a e6 bb ce 38 2c c6 ce
       -1.175497e+09 -1.2828512e+09 -1.5762179e+09 -1.6623933e+09
000250 93 73 08 ce ff 45 02 ce bb 3d bb ce ef 48 b8 ce
       -5.723189e+08 -5.4640634e+08 -1.5706925e+09 -1.5458938e+09
000260 24 0f 02 ce 9a f7 01 ce 80 a6 2d cf 5c ab 27 cf
       -5.455076e+08 -5.451219e+08 -2.91337e+09 -2.8130253e+09
000270 88 5a 80 ce ac 1b 80 ce f2 84 ff cd 6e 96 fd cd
       -1.0767084e+09 -1.0746486e+09 -5.3586285e+08 -5.3181178e+08
000280 c3 c1 74 4e 18 82 77 4e 5f c3 9c 4e 18 e7 9c 4e
       1.02658477e+09 1.03812454e+09 1.3150248e+09 1.3161953e+09
000290 6d f8 c2 4d 88 96 c7 4d ad 53 8b 4e 51 b6 8d 4e
       4.088826e+08 4.185664e+08 1.1687584e+09 1.1887679e+09
0002a0 15 40 dc 4d c8 15 d1 4d c1 e1 f4 4e 9e ad fd 4e
       4.618984e+08 4.384832e+08 2.0542179e+09 2.1280069e+09
0002b0 68 c1 54 4e a9 1b 4c 4e 92 4e c9 4d a3 af c8 4d
       8.923612e+08 8.560912e+08 4.221712e+08 4.2086922e+08
0002c0 3f 0e 58 cf d0 ef 52 cf a6 15 83 cf 19 da 7f cf
       -3.6248123e+09 -3.5389317e+09 -4.398468e+09 -4.2924833e+09
0002d0 0f 6e a7 ce a4 f2 aa ce 48 4c 69 cf f6 05 6a cf
       -1.4045039e+09 -1.4340142e+09 -3.9140905e+09 -3.9262592e+09
0002e0 03 46 c3 ce c4 6b bf ce 5a 4a c0 cf ba 06 c4 cf
       -1.6380727e+09 -1.6057554e+09 -6.4521964e+09 -6.5775503e+09
0002f0 35 4c 34 cf 84 67 31 cf a6 85 aa ce 14 27 ab ce
       -3.0248932e+09 -2.9763512e+09 -1.4304428e+09 -1.4357325e+09
000300 01 f7 df 4b 9f 84 d5 4b a6 32 bb 4d 5b c6 b8 4d
       2.9355522e+07 2.7986238e+07 3.9258234e+08 3.875009e+08
000310 be a4 70 cb 25 ea 07 4b c7 2a 43 4d c8 38 72 4d
       -1.5770814e+07 8.907301e+06 2.0464754e+08 2.5398797e+08
000320 4f 37 21 4c 19 05 fc c9 44 01 07 4e b7 b3 32 4e
       4.226182e+07 -2.0645471e+06 5.662518e+08 7.4953056e+08
000330 9d ac 2e 4d 65 57 e3 4c e9 33 aa 4b 93 60 96 4b
       1.8315925e+08 1.1919236e+08 2.2308818e+07 1.9710246e+07
000340 b1 6b db 4b aa 66 ae 4b 94 c7 a4 4d cb 1c a4 4d
       2.8759906e+07 2.2859092e+07 3.4556787e+08 3.441688e+08
000350 0b 44 1e cc ac 93 f0 cb c7 19 0f 4d 05 81 22 4d
       -4.1488428e+07 -3.1532888e+07 1.5005195e+08 1.7039778e+08
000360 5a 00 9b ca 8c 01 61 cb 2e e2 f0 4d c6 49 05 4e
       -5.079085e+06 -1.4745996e+07 5.0516934e+08 5.5905114e+08
000370 c4 0d bd 4c e9 78 9c 4c f3 a2 58 49 30 de a8 c9
       9.911862e+07 8.203655e+07 887343.2 -1.383366e+06
000380 ce b9 60 cf 86 96 5e cf cc f9 87 cf 98 40 87 cf
       -3.7702733e+09 -3.7344067e+09 -4.5625897e+09 -4.538315e+09
000390 4d 4c ac ce 5f be af ce 76 a0 70 cf e2 f8 73 cf
       -1.4453408e+09 -1.4742445e+09 -4.0370478e+09 -4.0931743e+09
0003a0 a6 2b d0 ce 40 18 cc ce 77 30 c5 cf 89 1c cb cf
       -1.7462607e+09 -1.7120707e+09 -6.6165755e+09 -6.81529e+09
0003b0 30 64 3f cf c5 8a 3c cf df 94 b2 ce 73 6a b2 ce
       -3.2110141e+09 -3.163211e+09 -1.4980504e+09 -1.4966604e+09
0003c0 5e 84 d5 4e d8 8f d5 4e 1a a7 13 4f 0e ff 12 4f
       1.7911109e+09 1.791487e+09 2.477202e+09 2.4661888e+09
0003d0 9b 0a 0c 4e b3 5e 0d 4e 74 38 e6 4e ab f4 e6 4e
       5.873763e+08 5.929484e+08 1.9312297e+09 1.9373971e+09
0003e0 3c 19 37 4e d4 38 33 4e 41 d2 43 4f 58 97 46 4f
       7.679711e+08 7.517115e+08 3.2853363e+09 3.3318072e+09
0003f0 88 ca b4 4e 64 fa b1 4e 8c d1 1c 4e d3 05 1d 4e
       1.516586e+09 1.4929884e+09 6.5774464e+08 6.5860115e+08

exp_avg_sq f4 [16, 8, 2]
000000 6a b2 b8 68 cb 37 ba 68 66 de 28 68 75 a6 2a 68
       6.977653e+24 7.035115e+24 3.1898404e+24 3.2234916e+24
000010 61 7f 65 67 8b a4 61 67 b0 15 5a 68 44 57 58 68
       1.08377165e+24 1.06556774e+24 4.1195038e+24 4.0865637e+24
000020 07 92 af 67 a3 f2 b1 67 74 88 70 68 6a ee 6b 68
       1.6582157e+24 1.6806694e+24 4.5435403e+24 4.4566163e+24
000030 4c d8 36 68 2a e6 38 68 b9 d0 51 67 dc 25 52 67
       3.4538427e+24 3.4926448e+24 9.9082485e+23 9.9239534e+23
000040 17 c3 c7 68 99 ea c6 68 2f 2f 36 68 fb 76 37 68
       7.5467976e+24 7.514849e+24 3.4413643e+24 3.4655515e+24
000050 00 76 35 67 24 e3 3a 67 2f 9c 3a 68 4d 51 42 68
       8.5692505e+23 8.825502e+23 3.524965e+24 3.6705553e+24
000060 90 f4 a9 67 e1 09 aa 67 10 3a 3a 68 d3 79 44 68
       1.6051826e+24 1.605969e+24 3.517725e+24 3.7113244e+24
000070 39 29 34 68 37 dd 30 68 3d 28 4d 67 c3 75 4a 67
       3.4031456e+24 3.3408688e+24 9.688274e+23 9.5609035e+23
000080 8e 3b b3 68 40 db ae 68 d3 96 24 68 b4 50 22 68
       6.7712175e+24 6.60589e+24 3.1090013e+24 3.0660483e+24
000090 b8 94 40 67 56 0f 46 67 95 0a 3d 68 a8 d3 41 68
       9.0943774e+23 9.3531146e+23 3.57089e+24 3.6612844e+24
0000a0 dd 5e a4 67 ca e1 a5 67 89 85 46 68 ac 22 4e 68
       1.552436e+24 1.5667111e+24 3.7499674e+24 3.8937883e+24
0000b0 aa 65 2d 68 ec 00 2d 68 f2 fc 43 67 e2 e6 41 67
       3.275379e+24 3.2679456e+24 9.255275e+23 9.156758e+23
0000c0 9b 9f 54 69 1f 0f 41 69 d5 3c c0 68 5f 9d ab 68
       1.6065374e+25 1.4587131e+25 7.262532e+24 6.483421e+24
0000d0 69 39 04 68 ca d5 10 68 41 8d f9 68 2e 04 fc 68
       2.4976456e+24 2.735858e+24 9.4277994e+24 9.5209076e+24
0000e0 35 1b 3b 68 22 80 30 68 05 45 0c 69 af 04 17 69
       3.5343377e+24 3.3340005e+24 1.0598472e+25 1.141062e+25
0000f0 1c e4 c4 68 ae ff bf 68 d1 53 ed 67 71 cc ec 67
       7.4383336e+24 7.2535076e+24 2.241494e+24 2.2364995e+24
000100 21 de 24 68 8f bf 22 68 ff 46 ab 67 d4 b5 a8 67
       3.1142626e+24 3.074228e+24 1.6176686e+24 1.5934234e+24
000110 06 eb b3 66 88 49 b7 66 88 84 b4 67 8a d4 b6 67
       4.248195e+23 4.3277474e+23 1.7049415e+24 1.7267827e+24
000120 62 00 13 67 9f bb 11 67 7d af bf 67 99 a7 c4 67
       6.941949e+23 6.8820414e+23 1.8104184e+24 1.8573509e+24
000130 f5 96 9e 67 23 40 9d 67 07 2f b3 66 e6 fe b2 66
       1.4978371e+24 1.4851893e+24 4.2308555e+23 4.2264164e+23
000140 45 bf 6c 68 8f 47 57 68 ba c0 de 67 43 bb c8 67
       4.4720272e+24 4.0665153e+24 2.1038411e+24 1.8958553e+24
000150 90 b0 01 67 d8 17 12 67 92 dc 02 68 1e 12 08 68
       6.124423e+23 6.8990535e+23 2.4719058e+24 2.5703042e+24
000160 eb b3 51 67 67 c4 43 67 68 98 0b 68 be e0 1c 68
       9.902935e+23 9.2448445e+23 2.6368814e+24 2.9633397e+24
000170 2c c4 d7 67 48 bb cd 67 50 2f fa 66 d7 83 f7 66
       2.037855e+24 1.9430797e+24 5.907322e+23 5.8442827e+23
000180 57 9a ee 67 48 91 ec 67 bf b5 5c 67 9d b1 5a 67
       2.2535406e+24 2.2343169e+24 1.04227325e+24 1.0327523e+24
000190 00 7b 8c 66 30 b7 88 66 bc 0c 89 67 25 a8 84 67
       3.3170013e+23 3.2281053e+23 1.2943982e+24 1.2529082e+24
0001a0 f1 ac d1 66 4b eb d6 66 d8 df 96 67 4b dc 8f 67
       4.950824e+23 5.074634e+23 1.4249683e+24 1.3587242e+24
0001b0 e2 d7 59 67 a0 5e 61 67 76 68 81 66 c6 5e 82 66
       1.02873586e+24 1.064278e+24 3.0555612e+23 3.0782795e+23
0001c0 19 2f 6d 68 62 1d 70 68 c5 c0 fb 67 68 68 fc 67
       4.4802786e+24 4.53564e+24 2.3777399e+24 2.3839246e+24
0001d0 33 55 0a 67 37 8a 0b 67 a7 be 0a 68 11 e9 0c 68
       6.532582e+23 6.5895855e+23 2.620814e+24 2.6617225e+24
0001e0 1e 46 58 67 b1 25 55 67 7c dc 16 68 44 0e 1a 68
       1.0213246e+24 1.00655934e+24 2.8496888e+24 2.9100304e+24
0001f0 4a 2d e8 67 e5 60 e3 67 60 b4 03 67 8e 78 03 67
       2.1928489e+24 2.1475292e+24 6.2195734e+23 6.2085385e+23
000200 e0 42 82 67 14 06 76 67 2d eb 00 67 c1 61 f4 66
       1.2302825e+24 1.1618143e+24 6.0880114e+23 5.7703033e+23
000210 38 5b 25 66 d8 ac 2c 66 71 b3 1a 67 61 61 1b 67
       1.9521829e+23 2.0385886e+23 7.3055455e+23 7.337631e+23
000220 4e 4d 66 66 9f 20 64 66 f9 3f 2f 67 2b f8 34 67
       2.7189258e+23 2.6932533e+23 8.275942e+23 8.5460386e+23
000230 5a fb fc 66 0d 5b fd 66 3f 3d 16 66 51 b2 15 66
       5.973365e+23 5.9821916e+23 1.7737119e+23 1.7673049e+23
000240 a5 84 80 66 83 88 78 66 35 a1 4e 66 3e e1 4a 66
       3.034549e+23 2.9341627e+23 2.4394531e+23 2.3951825e+23
000250 0f 5c e9 64 e2 16 fc 64 ac a6 12 66 a1 47 18 66
       3.44378e+22 3.7201827e+22 1.7313501e+23 1.7978026e+23
000260 35 84 43 65 e3 f9 3f 65 39 c0 16 66 c9 f8 23 66
       5.7706266e+22 5.666135e+22 1.7797521e+23 1.9358375e+23
000270 35 92 ea 65 d6 b9 e5 65 3b 4e ff 64 83 a5 fd 64
       1.3846635e+23 1.3560625e+23 3.7676455e+22 3.743162e+22
000280 7a 27 34 66 0c de 29 66 e9 d2 08 66 2f 3c 03 66
       2.1268855e+23 2.00544e+23 1.6153311e+23 1.5493505e+23
000290 fc 05 bc 64 04 e1 bf 64 9f 9b db 65 04 e7 d0 65
       2.7747353e+22 2.8316338e+22 1.2963362e+23 1.2331421e+23
0002a0 3d 75 02 65 29 c7 01 65 36 97 f2 65 ec f5 e9 65
       3.8504394e+22 3.8303696e+22 1.43200255e+23 1.3810598e+23
0002b0 bd 59 9c 65 45 f3 9f 65 ac 22 b7 64 45 c4 b9 64
       9.229307e+22 9.4417975e+22 2.702602e+22 2.7414323e+22
0002c0 5c 0d 13 68 86 52 12 68 9e f7 a2 67 be 93 a1 67
       2.7777372e+24 2.7639512e+24 1.5391822e+24 1.5260527e+24
0002d0 c9 f4 a6 66 b9 a5 a9 66 a1 23 ab 67 b0 1b ae 67
       3.9421416e+23 4.005685e+23 1.6163638e+24 1.644405e+24
0002e0 71 fd 06 67 12 3d 06 67 87 fe b7 67 a4 2d bd 67
       6.374723e+23 6.3392366e+23 1.7377765e+24 1.7867384e+24
0002f0 86 11 92 67 d8 45 90 67 2f 05 a3 66 27 6e a2 66
       1.3795775e+24 1.3626183e+24 3.8492068e+23 3.8352766e+23
000300 77 c2 3a 69 a6 aa 3c 69 a8 cb a8 68 af 73 a9 68
       1.4111159e+25 1.4255245e+25 6.376915e+24 6.4017114e+24
000310 fe 42 e8 67 3e 2b eb 67 6f 83 d8 68 f6 cd da 68
       2.1936496e+24 2.2211076e+24 8.1796455e+24 8.2662016e+24
000320 5f 3c 28 68 53 da 23 68 bf 3f f2 68 0a 2e f7 68
       3.177885e+24 3.0950924e+24 9.151909e+24 9.3381903e+24
000330 58 3c b3 68 87 04 af 68 4a 93 d4 67 c0 9d d4 67
       6.771334e+24 6.611981e+24 2.0077174e+24 2.0081033e+24
000340 6f 9b 0f 69 2b ee 14 69 7b 4d 83 68 af b3 85 68
       1.085065e+25 1.1252859e+25 4.960474e+24 5.0511146e+24
000350 0f 43 fb 67 e7 07 f0 67 09 37 d5 68 95 5e cb 68
       2.373102e+24 2.2670275e+24 8.055034e+24 7.683081e+24
000360 5f 2d 15 68 5a 51 14 68 68 30 03 69 5a bb f5 68
       2.8178782e+24 2.8016436e+24 9.912367e+24 9.2834865e+24
000370 41 0a a0 68 ce 90 a2 68 af ba bd 67 ec 5e c1 67
       6.0461423e+24 6.1415564e+24 1.791942e+24 1.8263355e+24
000380 12 7a 0d 69 56 94 0c 69 e9 c5 88 68 48 bd 87 68
       1.0689688e+25 1.0621882e+25 5.167141e+24 5.128089e+24
000390 74 e6 9f 67 03 92 a1 67 9a 29 9f 68 7f 0b a0 68
       1.5102148e+24 1.5259889e+24 6.0129895e+24 6.0463256e+24
0003a0 4f 2d 02 68 89 63 01 68 69 6b aa 68 fb 99 ac 68
       2.4589738e+24 2.4440855e+24 6.4382694e+24 6.5207e+24
0003b0 f1 19 88 68 b1 5d 87 68 ad ac 9a 67 f5 87 9a 67
       5.141763e+24 5.113982e+24 1.4608595e+24 1.4595048e+24
0003c0 ee 77 8e 69 80 a2 8a 69 7b ee 01 69 c1 25 fd 68
       2.1529227e+25 2.0949893e+25 9.817351e+24 9.563641e+24
0003d0 9a 09 3b 68 fc 65 42 68 4b 24 2c 69 50 0a 30 69
       3.5330386e+24 3.6720815e+24 1.3006664e+25 1.3301228e+25
0003e0 66 97 8e 68 97 36 8c 68 38 bf 3f 69 64 ac 48 69
       5.386951e+24 5.2971065e+24 1.448799e+25 1.5162453e+25
0003f0 06 d8 16 69 ac 3a 14 69 3b d0 29 68 bd 9d 28 68
       1.1397438e+25 1.1199881e+25 3.2076844e+24 3.1850693e+24

exp_avg f4 [16]
000000 3d e3 b9 4f 9c bb 10 50 c2 02 25 d0 41 7b cb cf
       6.2373545e+09 9.712857e+09 -1.1073686e+10 -6.827705e+09
000010 31 85 7d d0 92 f6 bd cf 0f 3d 92 cf d8 22 64 d0
       -1.7013458e+10 -6.374106e+09 -4.90695e+09 -1.5309955e+10
000020 18 1a e1 4f 86 9f bd cf 9a c6 95 4f 88 5f 78 d0
       7.5531674e+09 -6.3626967e+09 5.0256415e+09 -1.6668041e+10
000030 a6 6e 4d 4e af 72 09 4e f9 62 81 d0 f5 9f f9 4f
       8.616452e+08 5.764986e+08 -1.7365977e+10 8.3760195e+09

exp_avg_sq f4 [16]
000000 20 29 84 6a b3 32 7b 6a e5 b1 73 6a 52 5c 15 6b
       7.988621e+25 7.591995e+25 7.3652264e+25 1.8056592e+26
000010 34 e0 ed 69 a1 5c 1f 6a df 65 a4 69 98 a8 32 6a
       3.5946774e+25 4.816416e+25 2.4843113e+25 5.399624e+25
000020 1f e8 44 69 31 e9 5f 68 ea 60 1c 68 20 bd e2 69
       1.4877851e+25 4.2295574e+24 2.9539077e+24 3.4263794e+25
000030 a5 24 05 6b 91 d3 f4 6a a4 84 c7 6a 0c 29 55 6b
       1.6096018e+26 1.479885e+26 1.2060131e+26 2.5769504e+26
