lightning_logs/version_24/checkpoints/epoch=0-step=99.ckpt (torch, 227574 bytes, 36 tensors)

lattice_net.0.weight f4 [8, 1, 2]
00000000: 5943 4ebe b6b9 463e 0d47 183f 6cde 163f
00000010: d03f 11be 3e93 343e 9afc f53d ef25 1a3f
00000020: 270e 20be 5dbf 933e 6b98 503d 75ed b43e
00000030: 6503 21bf be2c 2f3e c712 023f c70b 72bd
-0.20142879 0.1940678 0.59483415 0.5893314 -0.14184499 0.17634293 0.120110705 0.6021413
-0.15630399 0.28856936 0.050926607 0.35337415 -0.62895805 0.17106912 0.508099 -0.059093263

lattice_net.0.bias f4 [8]
00000000: 9e6f 6c3e 24b7 5e3e 42f1 0a3f 0d7d b4be
00000010: 0e0c c83e fba2 80be df75 f1be 1005 0fbf
0.23089454 0.2174955 0.5427438 -0.35251656 0.39071697 -0.25124344 -0.4716024 -0.558671

lattice_net.2.weight f4 [16, 8, 2]
00000000: 5384 0a3e 10ec 3e3e 791a 863e 007a a8bd
00000010: 63c0 753e e501 5a3c d921 413e fb9f 003e
00000020: 87f1 a2bb b797 30bd a7ee a13d fd75 33be
00000030: 00ee 893e 9660 9b3d cf6c 99bc 6e4c 48be
00000040: 8356 b9bd c285 34be 71e2 c3bd d06a 91bc
00000050: a98a 04bc f9ac 33bd a048 e6bd feb0 8fbe
00000060: b06c 833c ceb8 6e3d d919 cebc 544c c9bd
00000070: 1cfb 51be bbd7 803d 1265 973d 91b6 91be
00000080: 29d8 613e dad8 c9bc f708 11be 2655 56bd
00000090: d000 77bd 6e73 2a3d 53f8 80bc 3657 1a3d
000000a0: 314d 0a3e 4c4e 20be 5fc6 f83d eab0 6abd
000000b0: c91e 4bbc 2c36 2a3e 0258 433d 3ea0 47be
000000c0: 4efc 293e 1781 883e 27ac 87bd 798f 1c3d
000000d0: 9e46 443e 6ecd b6bd ac9d eb3d 79c4 443e
000000e0: df71 ac3e c6c1 ab3e 54a4 6c3e 2e4e d23c
000000f0: e4dd e1bd 0e0b 083e caff b1bd aa4e 263e
00000100: b288 e03c 0ee0 3b3e d64a 8b3e e182 17bc
00000110: 493a 10be 973b a43c 7222 d1bd be30 5abe
00000120: e8e8 c4bd fd3c b0bc ea02 8dbd ac9f 27be
00000130: 4704 903e c399 adbd 5929 583e 6bfe 5a3e
00000140: f0cb fe3d f659 a23e 51f4 eabd bc28 2abe
00000150: bae3 8fbd 1ae1 1a3e 44a1 16be 6eb1 23be
00000160: c0ff f8bd 5dde b9bd 97c5 ccbd 927f 083e
00000170: e874 ea3d afb5 0f3e b4c1 0e3e 2235 b6bd
00000180: 68c4 54be 6f87 043e cbcc 1ebe 5bc7 2ebe
00000190: a13e 81be 6116 86be 915e 81be f1cf 033e
000001a0: 10c9 d73d 51d1 453d f37e c2bd 630d 483d
000001b0: 7c28 46be dd51 443e 5ae9 393e 8937 88be
000001c0: de0d df3d 377a 223e b848 24be 39ea 203d
000001d0: b666 4dbe 0ee7 7a3d 0130 363e 3e6d 36be
000001e0: 4d6d fdbd 016d 083e ea86 8a3e 0eaa 2b3e
000001f0: d6b3 843e 9e6f 003e 239e 633e c194 9d3c
00000200: 5b86 423e 3fd5 9e3d e6e9 4bbd 8469 4b3c
00000210: 029d 4d3e 174a 18be aaae 1abc a59f 4c3e
00000220: 1f72 cabd c07e debd 6a69 b6bd cc1b 983d
00000230: 0589 403e f530 ddbd 35cb 2e3d 5bc7 4c3e
00000240: 4d9b 93be c36a 26be 742d b03d b63b 0e3e
00000250: ceb4 883c bd25 99be 24b4 aa3d 0f05 bdbd
00000260: d46c 20bd f552 51be 4b0a c0bd af68 95be
00000270: 0ad2 28be d8b0 14be 35cb b0bc 7592 1ebe
00000280: ecc4 cdbc 56b8 bbbd 106a d7bd 6eb4 eb3c
00000290: 6cdd d53d acfc 4fbd f505 9abd 87ca a2be
000002a0: d573 3dbe 75ca 053e d502 023e f089 573d
000002b0: 34b0 0ebe ef46 a2be 9296 11be fda2 253d
000002c0: 1350 8cbd 5e83 52bd 8fc5 f8bd 1110 f53d
000002d0: b1cb 083d cbca 2bbe 2bc5 a3be 7349 1b3d
000002e0: 235f 933c 3ac7 88bd bb0f 8d3d f486 74be
000002f0: 6456 1fbe cd78 ba3d 792c a4be 522c 4ebe
00000300: 286d ed3d 62b1 413e 544c 2abe d6c9 26be
00000310: 5db4 773d 250d 0a3e 97b9 553d 72d7 083e
00000320: f264 8e3e c60f 143e a55c 483e 549c 5fbd
00000330: ba67 04bb 5388 e1bd 544e 833e 6818 e6bd
00000340: 7756 1f3e c8e0 de3d cc39 bb3d 1e7c 69be
00000350: 024a 6a3e f76b 2cbe 0d42 6dbe 1c6a 83bd
00000360: ea4e 203e 8247 10be 3f12 aabd 888a 0fbe
00000370: dc34 c2bd 1c6a 2a3e df93 043e 044b d1bc
00000380: 0b15 8e3d 6c17 873d c72f b43d b318 afbd
00000390: 212c 2a3e 877d 8d3d 3512 e1bc c184 b1bc
000003a0: eea4 02be 1440 3abe 5487 933c ecc9 3abd
000003b0: 2d18 093d 11d8 b8bd 6e18 da3d 4de8 363e
000003c0: 8e85 2bbe 61d7 abbe a1cb 92be 11e0 ee3d
000003d0: 4b19 9cbe cff1 a53c 8554 483d c7dc 613d
000003e0: 5dce 5f3d 13c2 6fbe 6b60 debc 202d 543d
000003f0: d591 15be 818e 88be eaaf 0d3e 4bd3 f53c
0.1352704 0.18644738 0.26192072 -0.08226395 0.23999171 0.013306116 0.18860568 0.12561028
-0.00497264 -0.043113437 0.079068474 -0.17525478 0.26939392 0.07586782 -0.018728642 -0.19560406
-0.09049704 -0.1762915 -0.09564675 -0.017751127 -0.0080897 -0.04386613 -0.11244321 -0.28064722
0.016043037 0.058281712 -0.02515881 -0.098290116 -0.20505947 0.06291147 0.073923245 -0.284596
0.22055115 -0.024639536 -0.14163576 -0.052327298 -0.06030351 0.04161399 -0.01574341 0.037680827
0.13506009 -0.15654868 0.12147211 -0.057297625 -0.0123974765 0.16622227 0.047691353 -0.19494721
0.16600153 0.26660988 -0.06624632 0.038222764 0.19167563 -0.08925901 0.11504683 0.19215573
0.33680627 0.33546275 0.23109561 0.025672045 -0.110286504 0.13285467 -0.08691366 0.16240945
0.027408931 0.18347189 0.27205533 -0.009247513 -0.14084734 0.020047946 -0.10211648 -0.21307656
-0.09614736 -0.021513456 -0.068853214 -0.16369504 0.28128263 -0.08476593 0.21109523 0.21386115
0.12441242 0.3170926 -0.11472381 -0.16617101 -0.07025857 0.15124932 -0.14709955 -0.15985653
-0.121581554 -0.090756156 -0.09998625 0.13329914 0.11448079 0.1403415 0.1394108 -0.08896853
-0.20778048 0.12942289 -0.1550781 -0.17068236 -0.25243095 -0.2618895 -0.2526746 0.12872292
0.105363965 0.048295323 -0.0949687 0.04884089 -0.19351381 0.19171853 0.18155423 -0.2660487
0.10891317 0.15866934 -0.16043365 0.039285872 -0.20058712 0.061255507 0.1779175 -0.1781511
-0.12374363 0.13322832 0.27056056 0.1676409 0.25918454 0.12542579 0.22228293 0.01923597
0.18996565 0.07755517 -0.04978361 0.012415294 0.20079425 -0.14872013 -0.009441057 0.19982775
-0.09885048 -0.108640194 -0.08906825 0.07427177 0.18802269 -0.108003534 0.042674262 0.19997923
-0.28829423 -0.16251664 0.086024195 0.13889965 0.016687777 -0.29911605 0.0833514 -0.092294805
-0.039166287 -0.20441802 -0.09376963 -0.2918143 -0.16486374 -0.14520586 -0.021581272 -0.15485556
-0.025118314 -0.09166019 -0.10518277 0.028772559 0.104426235 -0.050778076 -0.075206675 -0.3179514
-0.18501218 0.13065512 0.12696393 0.05262178 -0.13934404 -0.31694743 -0.14217594 0.04043864
-0.068512104 -0.051394813 -0.12147056 0.11965955 0.03339738 -0.16776578 -0.31986365 0.037911844
0.0179897 -0.066786245 0.06887766 -0.23879606 -0.15560299 0.09105072 -0.3206518 -0.20134094
0.115930855 0.18915322 -0.1663068 -0.16287932 0.060474742 0.13481577 0.052178945 0.13363436
0.2781139 0.14459142 0.19566591 -0.054592445 -0.0020203427 -0.1101233 0.25645697 -0.11235124
0.15560327 0.10882717 0.09141883 -0.22801253 0.22879794 -0.1683806 -0.23169728 -0.06416723
0.15655103 -0.14089778 -0.083042614 -0.14017689 -0.094827384 0.1664204 0.12947033 -0.025548466
0.069376074 0.06596264 0.08798175 -0.08549633 0.16618396 0.06908708 -0.027474502 -0.021669747
-0.12758228 -0.18188506 0.018008865 -0.045602724 0.03347032 -0.090255864 0.10649191 0.17862053
-0.16750166 -0.3356276 -0.28670982 0.11663831 -0.30488047 0.020256905 0.04890873 0.05514219
0.054640163 -0.23413877 -0.027145585 0.051800847 -0.14606412 -0.26671222 0.13836637 0.030007979

lattice_net.2.bias f4 [16]
00000000: 635c afbb 0374 b83d dadc 573e 0156 fb3a
00000010: 46c3 4fbd c361 42bd 515b 313e f752 703d
00000020: 7c83 b8bd 63d3 1e3e 5b48 093e 4559 7dbc
00000030: ba77 813e b1a6 45bd 70dd b63d 6061 43be
-0.0053515895 0.090065025 0.21080342 0.0019175411 -0.050723337 -0.047456514 0.1731999 0.05867287
-0.09009454 0.15510325 0.13406508 -0.015463178 0.25286657 -0.048254672 0.089289546 -0.19080114

lattice_net.4.weight f4 [32, 16, 2]
00000000: 76a3 fa3b 3586 4f3d 82ad b3bd 8d4e 803d
00000010: 6ac3 e8bb 3546 82bd c8d3 61bd bb25 a33d
00000020: 0a91 03be 41c9 563e 1f37 473d 0d44 f0bd
00000030: 6c5d 55be 6e6c 00be d5db cabd 7309 2d3d
00000040: 03b2 72bd e350 edbd 9284 56be 2c0d 45be
00000050: 22e8 da3d e54d 0a3d 5b93 a0bd b170 df3d
00000060: 0027 b5bd 7e8f 92bd ada4 083c 9add 3ebd
00000070: 6388 483e 071a a2bd e885 943d 9d3a 1bbc
00000080: c2c6 133e 1421 a1bc 1c33 ef3d f741 0abd
00000090: 5171 453d d1c1 3dbd 0f1a 493b ba3a 153e
000000a0: 4549 293e 8440 0f3e 3ebb dbbd bd94 68bd
000000b0: d406 753b 6149 0f3e 31f0 7f3e 30b9 023e
000000c0: 4756 febd 3d17 1f3d c8bf f53d df88 e2bb
000000d0: 01a9 eabd c3de 05bd 6062 ec3c d3a2 7fbd
000000e0: dd23 c5ba a6d9 71bd 045d 62bd 803c ab3d
000000f0: a800 64bc 69a1 06bd 9c44 8ebd 4664 dcbd
00000100: be7b 323d 99df b33c 0493 9e3c d52c fb3d
00000110: 51c4 343e 15d3 33bd 4f93 083e 71eb 623d
00000120: 9060 50bd efbe 973b f585 7b3c e92e 183e
00000130: 9c92 a3bd a603 8c3d 9f4c 953c c858 91bd
00000140: 2aea ff3d 807a ebbc 51f9 82bd 9712 a5bd
00000150: af84 8fbd 3015 42be 5fa5 06be 7870 303c
00000160: 0d97 6cbb 5863 273d 3fe9 073e 241f ab3d
00000170: f33d a93d 8802 bfbc 1b79 e0bd 8d57 1ebd
00000180: 67f1 87be f1cb 07be b4ce d9bd 3ae7 623d
00000190: 07fc 75bc a06d 43bd 96d3 283e 2117 1dbd
000001a0: 414d afbd 778b 3c3e d25e 2f3e 8c18 ab3d
000001b0: d193 e83d 17ed e43d ce03 e6bd 737f cd3d
000001c0: 2f1a 93bd 816a ba3d 817d 003e 2f6b 3fbe
000001d0: beca f7bb 4279 d5bc 61c1 1cbe addd 293d
000001e0: 21bd 39be 41e0 d43b ecfd 153e 095c 80bd
000001f0: 2261 483e 47c2 513e 60d4 1c3c 9316 c63c
00000200: 4000 bdbd d0a0 253d d770 c73c 611c 183d
00000210: fdac 16be 0e27 b03d d175 65bd 976e 47be
00000220: 3c68 593d 4b10 373c 3c43 2c3d ed06 12be
00000230: ad64 d63d 7b8c 873c d304 723d c906 56be
00000240: 2b60 c33d 2bc3 0cbe e9f9 3e3e 8617 21bd
00000250: da2a 553d 7c80 ccbc e27c 44bd feba 3f3e
00000260: ee78 e03c c9e6 f5bd 0fa4 1bbe 4f5d 233e
00000270: 0334 febd c8fd 503d 3d65 3a3e 48d3 673e
00000280: 52f5 42be 809f 8b3d 4614 65bd f953 43be
00000290: bd01 73bd d657 2c3e b592 4f3e 31ec 293e
000002a0: 1e25 b3bc 7493 603e 2944 8a3d b238 d43d
000002b0: 7c5b 9abd 102a b0bd 9d92 7bbd 88b5 b2bd
000002c0: 94aa 6f3e 8686 12bd 175d c73d d943 933d
000002d0: 5595 293d a3c8 acbc 62fa 79be 826c 4dbe
000002e0: 2dbb 9d3c 1eee 0bbe 11ce 613e ce17 5a3e
000002f0: f5b9 303d 028d af3d 7faf 5b3d 9c40 1e3d
00000300: fbfa 1c3e 01f1 753e 3dd5 f3bd c197 c43c
00000310: 93d5 063d 3da2 033d 06aa 57bd a9e2 d2bd
00000320: d163 f13d 5d18 bcbd b511 0cbe e84a b8bd
00000330: 0687 93ba ad27 8bbd 1439 c53d 6821 55be
00000340: 87e2 40bd c1a2 adbc 643a 3fbc 7e60 30bc
00000350: 8398 dd3c f07c fe3d 44ad 5f3d 332e 113e
00000360: 6634 683e ed0f 2f3e c770 cb3d 6195 41bd
00000370: 33fe 703d 4789 0abe af62 163e 2268 c93d
00000380: 8bc8 643e eb78 8e3d a70d 5d3d 4618 ee3d
00000390: b74f 5fbe 7247 2abe 85d2 803c b5b5 a03d
000003a0: 677f 37be 82c6 7cbc ab22 0ebe cf1f 933d
000003b0: 2027 3d3e 9c02 cebd ed7a 6cbd 571e 953b
000003c0: d435 a63d cee7 34be 6a43 1b3e c51a ff3d
000003d0: 8874 adbd 56bc b33c 6261 e33c d117 ca3c
000003e0: 26be 9d3d 8512 85bc ae41 863d 2a9d 74bd
000003f0: 4114 56bc a8c5 04bd f73a 543e 4508 b7bd
0.0076488806 0.0506651 -0.08773328 0.06264982 -0.0071033733 -0.06361047 -0.05513361 0.07966181
-0.12848297 0.2097521 0.048636552 -0.1173173 -0.20836419 -0.12541363 -0.09905211 0.04224534
-0.059251796 -0.115876935 -0.20949009 -0.19243306 0.10688807 0.033765692 -0.07840606 0.10910166
-0.08845329 -0.07156275 0.008340043 -0.046598054 0.19583277 -0.079151206 0.07252103 -0.009474424
0.14431289 -0.019669093 0.1167967 -0.033754315 0.04820377 -0.046327416 0.0030685698 0.14573184
0.16531856 0.13989455 -0.10729073 -0.056782473 0.0037388103 0.13992836 0.2499397 0.12765956
-0.124188 0.03884052 0.1199947 -0.006913289 -0.11458016 -0.032683145 0.028855503 -0.06241114
-0.0015040595 -0.059045456 -0.055264488 0.08361149 -0.013916172 -0.032868776 -0.0694668 -0.10761313
0.04357504 0.021957206 0.019357212 0.122644104 0.17653014 -0.043902475 0.13337444 0.055400316
-0.05087334 0.0046309154 0.015351762 0.14861645 -0.07986948 0.068366334 0.018225012 -0.07097012
0.12495835 -0.028744936 -0.063952096 -0.08060186 -0.07007729 -0.18953395 -0.13149022 0.010769002
-0.0036100775 0.040866226 0.1327257 0.08355549 0.08263769 -0.023316637 -0.10960599 -0.038657714
-0.26551363 -0.13261391 -0.106351286 0.055396296 -0.015013701 -0.04771197 0.16486964 -0.038352136
-0.08559657 0.18412577 0.17126015 0.08354291 0.11356319 0.11178034 -0.112311944 0.10034075
-0.071827285 0.09102345 0.12547876 -0.18693231 -0.0075620105 -0.026058797 -0.15308143 0.041471172
-0.18138553 0.0064964597 0.14647645 -0.06267554 0.19568303 0.20484267 0.0095721185 0.024180686
-0.09228563 0.040436566 0.024345798 0.03713644 -0.14714427 0.08601199 -0.05602056 -0.1947578
0.05307792 0.011173318 0.042056307 -0.14260454 0.10468421 0.016546478 0.059086632 -0.20901026
0.09539827 -0.13746326 0.1865002 -0.039329074 0.05204282 -0.02496361 -0.04797066 0.18723676
0.027401414 -0.120069094 -0.15199302 0.15953563 -0.12412264 0.051023275 0.18202682 0.22639191
-0.19038895 0.068175316 -0.055927537 -0.19075002 -0.05932783 0.16830382 0.20270808 0.16594006
-0.021868285 0.21931249 0.06751282 0.10362376 -0.075369805 -0.08601773 -0.06141912 -0.087260306
0.23404914 -0.035772823 0.09734552 0.07190675 0.04140218 -0.021091765 -0.2441192 -0.20060924
0.019254291 -0.13665053 0.22051264 0.21298143 0.043146092 0.08571817 0.053634163 0.038635835
0.15330116 0.24017717 -0.11905906 0.023998143 0.032918524 0.032137144 -0.05265238 -0.10297138
0.117866166 -0.091843344 -0.1367863 -0.08998662 -0.001125545 -0.06794677 0.096300274 -0.20813525
-0.047091033 -0.021195771 -0.011671636 -0.010765193 0.027050262 0.12426174 0.0546086 0.1417778
0.22676238 0.17095919 0.0993362 -0.0472616 0.058836173 -0.1352893 0.14686082 0.09834315
0.22342126 0.06956657 0.053968098 0.116257235 -0.21807753 -0.16628817 0.015725384 0.07847158
-0.17919694 -0.015428187 -0.13880412 0.071838014 0.18471956 -0.100590914 -0.05773442 0.004550736
0.08115736 -0.17666551 0.15162435 0.12456278 -0.08469492 0.021940392 0.027756397 0.02466956
0.077022836 -0.016244182 0.06555496 -0.059720196 -0.013066352 -0.032415062 0.20725618 -0.08937124

lattice_net.4.bias f4 [32]
00000000: c263 e2bc 9c1f 42be 7cc6 f43d 0f8a 0fbb
00000010: 5bae 6cbd 60cc c43d e5b1 923a ad20 d5bd
00000020: 55f5 0bbe 7fd1 12be b2fd 7f3d affd fbbd
00000030: e7ef 60bd a4e3 d23d 73cd 063d 1fa3 a6bc
00000040: 78ac b1bd 7b8c fbbd 52ec 97bd 5089 553d
00000050: 5044 023d a8c6 12bd 230b 15bd 6529 9bbd
00000060: c262 4abc 454d a83d 7608 5bbe 738a 3abc
00000070: d98e 05bd 8333 17bd 3969 a9bd dd6e 0f3d
-0.027635459 -0.1895737 0.119519204 -0.0021902358 -0.057783466 0.09609294 0.0011191933 -0.10406623
-0.13667805 -0.14337729 0.062497802 -0.12304246 -0.05491629 0.10297325 0.032910775 -0.020341454
-0.08675474 -0.12282654 -0.074181214 0.052132905 0.03180343 -0.035833985 -0.036387574 -0.07576255
-0.012352647 0.08217863 -0.21389946 -0.011385548 -0.032606933 -0.03691436 -0.08272023 0.035017837

tNN.0.weight f4 [32, 2]
00000000: fa6f 0a3e de06 17bf 6588 96bd 5701 163f
00000010: e31a 23bf 2ac8 e23e 0c36 e93e 60d5 203f
00000020: b429 09bf e8ea 44bd 09a9 ac3e c0b3 0a3f
00000030: 973f 3c3f f06e 06be acd9 e9be 25b3 7e3e
00000040: b618 43bf 790e 1b3f ed91 e7be d5fa f03e
00000050: 38ce 23bf 0301 b93e 0453 323f 1926 12bf
00000060: 8c1f df3c 19cf 183f f031 1dbf bc07 bfbb
00000070: 2a21 d73e 9c18 8a3e ecb6 19be a769 853c
00000080: 7e0f 25be 5663 173c 1052 023f 442c d83d
00000090: 5927 ecbe eb67 f03e b917 2b3e 8af2 b93e
000000a0: 56f8 cd3d 1a22 9b3e a439 57be 6191 f93e
000000b0: 2e9c dfbe c718 ad3d 664a 193f 8502 f8bd
000000c0: dce2 ecbe 7883 1ebf e2bf 0cbe d658 a7be
000000d0: dd78 5bbe d8fb 903e df13 cbbe 880e 9abc
000000e0: 1e25 44bf ec88 0c3f 5277 fe3e b85a 1d3f
000000f0: 47eb 46be 91ee 9c3e a714 87be a097 14bf
0.13519278 -0.58994853 -0.07350234 0.58595794 -0.637129 0.44293338 0.45549047 0.62825584
-0.5357926 -0.048075587 0.33722714 0.54180527 0.7353453 -0.13128257 -0.45673883 0.24873026
-0.7620958 0.6056896 -0.4522852 0.4706637 -0.6398654 0.36133584 0.6965792 -0.5708938
0.027236722 0.59691006 -0.61404324 -0.0058297794 0.4201749 0.269719 -0.15011185 0.01628573
-0.16119191 0.009239992 0.5090647 0.10555318 -0.4612377 0.46954283 0.16708268 0.36317855
0.10057132 0.30299455 -0.21018082 0.48743728 -0.43673843 0.084519915 0.5987915 -0.121098556
-0.4626683 -0.61919355 -0.13745072 -0.32684964 -0.21432824 0.28317142 -0.39663598 -0.018805757
-0.76619136 0.54896426 0.4970041 0.6146655 -0.19425689 0.30650762 -0.26382944 -0.5804386

tNN.0.bias f4 [32]
00000000: 6f28 493f 1788 2cbf 32a0 aabc 9c3e 49be
00000010: 2ae2 053f df43 e63e 9f69 b9be 56d4 c8be
00000020: 5ee0 43be 832a 1bbf 85f4 e8be 8e7c 313f
00000030: b7b7 f63e e0b1 213f eed4 083f fb75 44be
00000040: fc60 fd3e 0d65 68bb b7c2 783e ac98 02bf
00000050: e773 07bf 805a 18bf 571f 5a3c b926 dcbe
00000060: 64ee e73e 8105 8fbe 41dd 25bd 4258 fabe
00000070: 9516 18bf e848 1ebf 7612 36bf eaf0 143c
0.7857732 -0.67395157 -0.02082834 -0.1965279 0.52298224 0.44973657 -0.36213395 -0.392245
-0.19128558 -0.6061174 -0.45499054 0.6933068 0.48187038 0.6316204 0.53449905 -0.19185631
0.49488056 -0.0035460622 0.24293028 -0.5101421 -0.5291123 -0.5951309 0.013313136 -0.42998293
0.45299065 -0.27933887 -0.040494207 -0.4889546 -0.5940946 -0.61829996 -0.7112192 0.0090906415

psi.0.weight f4 [64, 256]
00000000: 736c a13d 32e2 873d 3f89 f03c 41a9 8c3d
00000010: 9699 ba3c 4953 5cbc 4171 a73d 0fde 57bc
00000020: 4735 113b dbee 82bc 6e16 a23d 49c1 c23d
00000030: 6b45 0a3d 71e8 2a3d bf17 d03b cdc6 853d
00000040: c8cf babc 35bf 5c3d 349c 443d 47e3 29bd
00000050: 1ff3 8b3c d35c ee3c 7c73 babc 744b 043d
00000060: cf82 debc d507 c0bc 209f 563d cc0e 393d
00000070: cdc2 b3bb a4af a4bd 1d86 7bbd a533 ff3c
00000080: 4cb9 59bd 37be abbd 6178 72bd 6075 be3d
00000090: 6bc6 243d 2014 fa3c 06ec fb3c 286d f33c
000000a0: 15a8 df3d 8809 e93a f97f 8cbd 424e d8bd
000000b0: 5e5f 57bd aaad 9ebd 9506 c7bd 4e62 96bc
000000c0: 4038 e3bc e835 92bd 6471 963c aabb 2b3d
000000d0: 7373 a3bd c42e 21bd 670b 3bbc c4b0 a2bc
000000e0: d0d2 393c 7676 43bd 16f8 ec3c 2150 db3c
000000f0: 91a6 2fbd 72eb 66bc b86e 87bd 827a b23d
00000100: afaf ec3d 4302 e53d 163c 693d 5e74 aa3d
00000110: 535d 60bb d7ce 183d 882f ddbb d7ad c43c
00000120: bd0a 813d ddd4 943d 4cca c4bb 23a2 78bc
00000130: 7df7 d7bc c875 943c ba1e 07bd 5d0e 24bd
00000140: 6a11 9fbd 4e49 f9bc 3d9a 87bd abf9 a6bc
00000150: 0717 babd 959c acbd 4695 613c c847 4ebd
00000160: c096 4ebc fc28 93bd 83e8 13bd f0e3 eb3c
00000170: 2db2 9f3d a61e 993d 0ed0 b13d 0e42 823d
00000180: 291b 9a3d f891 d93b 3b5f 42bd 3f09 b6bd
00000190: 9d8f 73bd 46e0 5ebd fbf3 cfbc 6f06 9dbd
000001a0: 92f7 f6bd 0f9f d3bd e692 bfbc 4913 cdbd
000001b0: f498 a8bd bde1 85bd 8d2f 8cbd 339a 16bd
000001c0: b2be 99bc 75bb 3bbd 2079 31bd 1cda 83bd
000001d0: 110d d23c 24a8 143c 6b76 9fbd d725 f43d
000001e0: 184f 883d 7701 bd3c d726 873c 2159 b03c
000001f0: 91e1 263d 88eb fc3d b514 093d e76d 623d
00000200: 6b04 443d c13a 2f3d 614b 86bc 4431 efbc
00000210: 005f a2bc ddc6 17bc 0797 16bb 4dee 5bbd
00000220: 9ff9 d6bd 9279 87bd 170c dcbd 94f3 16bd
00000230: a01e e7bc 9765 7fbd c94e d6bb 53c6 5dbd
00000240: e12c 55bd e8f9 08bd 66e5 00bd 8b45 09be
00000250: 831c a0bd 38e3 c5bc ab9c adbd b38a 14bd
00000260: 68d3 f7bd db28 25bd 6b3f 9f3c c96a 97bc
00000270: d8df 973d e639 8a3d cd35 b1bc 868e 243d
00000280: 7e02 443c 1970 0cbc 301f 3dbd 9c6d e7bc
00000290: 4fe1 193d 9917 eabc aa2b a8bd ff01 ebbb
000002a0: 7831 743c 787e 4d3d 31a4 413c 1f2e 8e3d
000002b0: df32 373d d90b 223c 414a b6b9 500b 1e3d
000002c0: d79d 543c c3e8 0bbd b22c 053c b523 453d
000002d0: 0f7b 803d ce17 b4bc fb21 b03d 6704 bc3d
000002e0: 579f 1b3d 0e50 c9bb 5512 8d3d 6bec be3d
000002f0: 7e08 863c 4598 edbb aa75 b63d 6fe2 243c
00000300: 035d ce3d 3c69 f9ba f965 363d 867b 963d
00000310: 6e3a debb 4f4d babd 125a 9ebd d9bd c3bd
00000320: 3124 4c3b fd2d 3dbd 6bb2 3ebd d5ef 7b3d
00000330: 199f 183d 1262 8e3d d7a6 683d 44da a13c
00000340: 129e cb3d ed40 fbbb 63d9 46bd 2227 c93c
00000350: 44b5 d2bc c27a 093c d069 333a 3cb6 8dbd
00000360: 64fe 9abb b025 3c3d bc99 0f3c 83db d53b
00000370: 962e 953c 4170 2bbd 5a5f 663d 074a 623d
00000380: d895 7b3b 0f08 88bc 0b61 27bd 5e52 50bd
00000390: da91 ff3c 9582 bc3b fb0d 373b fca5 f13c
000003a0: 00af ff3b 1b14 253d 70a7 06bb 050f 1abd
000003b0: fc50 f7bb 34cb d03c 9283 28bc 8804 e13c
000003c0: a79b 913b caa2 133d 0f43 cf3c 7616 843c
000003d0: c8be 3e3a 4502 5cbc 3e8f 673d 4301 243d
000003e0: f696 2a3d e677 a73c 43a1 563d 69dc ed3c
000003f0: 4c23 903c 45a6 51bd 768d 363d 1759 d9bc
0.07882013 0.0663494 0.029362319 0.0686822 0.022778314 -0.013447591 0.08175898 -0.0131755015
0.0022157 -0.015983036 0.079144344 0.095095225 0.03375761 0.04172558 0.006350487 0.06532059
-0.022804156 0.053893287 0.04800053 -0.041476514 0.017083703 0.029096996 -0.022760145 0.03229852
-0.027161984 -0.023441235 0.052397847 0.045180127 -0.0054858685 -0.08041313 -0.061407197 0.031152556
-0.05315523 -0.0838589 -0.059196834 0.09299731 0.04022829 0.030527174 0.030752193 0.029715136
0.10920731 0.001777933 -0.06860346 -0.105618015 -0.052581184 -0.077479675 -0.09718052 -0.018357422
-0.027736783 -0.07139188 0.018364616 0.041927017 -0.079810046 -0.03935124 -0.011416293 -0.019859679
0.0113417655 -0.047720395 0.02892689 0.026771607 -0.04288346 -0.0140942205 -0.06612915 0.08714773
0.115569465 0.11182072 0.056942068 0.083229765 -0.0034235313 0.037306633 -0.006750051 0.024008675
0.06300876 0.07267163 -0.006005561 -0.015175375 -0.026363129 0.018122569 -0.032988288 -0.04005276
-0.07766993 -0.030430462 -0.066212155 -0.020382723 -0.09086423 -0.08428303 0.0137685 -0.050361425
-0.012609184 -0.071855515 -0.036110412 0.028795213 0.07797656 0.07476549 0.086822614 0.06360255
0.07524712 0.0066397153 -0.0474541 -0.08888482 -0.059463132 -0.054413103 -0.025384894 -0.07667243
-0.12058939 -0.103330724 -0.023385476 -0.10013444 -0.082322985 -0.06537197 -0.06845007 -0.03676815
-0.018767688 -0.04583307 -0.043328404 -0.064380854 0.025640996 0.009073291 -0.07786258 0.1192128
0.06655711 0.023071988 0.016498012 0.021526875 0.04074246 0.123496115 0.033467013 0.055280592
0.047855776 0.04278064 -0.016393365 -0.029198296 -0.01982069 -0.009263721 -0.0022978203 -0.05369406
-0.1049683 -0.066149846 -0.107444935 -0.036853388 -0.028212845 -0.062352743 -0.0065401536 -0.054144215
-0.052044753 -0.033441454 -0.03146877 -0.13405435 -0.07817938 -0.024156198 -0.08477148 -0.036265086
-0.121008694 -0.040322166 0.01943942 -0.018483536 0.07415742 0.067493245 -0.0216321 0.040174983
0.011963485 -0.008571648 -0.04617232 -0.028250508 0.037568387 -0.028575705 -0.08211453 -0.007171869
0.014904372 0.050169438 0.011818931 0.06942391 0.04472625 0.00989052 -0.0003476907 0.038585007
0.012977085 -0.034157526 0.008128332 0.048129756 0.062734716 -0.021984007 0.08600231 0.09180527
0.037993755 -0.0061435765 0.06888262 0.09322437 0.016361471 -0.007250818 0.089091614 0.010063752
0.10076334 -0.0019028555 0.044530842 0.07347779 -0.0067818677 -0.09096777 -0.07732023 -0.09557695
0.0031149501 -0.046186436 -0.04655687 0.06150802 0.037261102 0.06952299 0.056799736 0.019757397
0.09942259 -0.007667652 -0.04854716 0.024554793 -0.0257212 0.008391084 0.00068440754 -0.06919524
-0.0047300328 0.04593438 0.0087646805 0.006526412 0.01821069 -0.0418551 0.056243278 0.05524638
0.0038388874 -0.016605405 -0.04086403 -0.0508598 0.031197477 0.0057528713 0.0027931917 0.029498093
0.007802844 0.040302377 -0.0020546578 -0.03761198 -0.007547496 0.02548752 -0.010285275 0.027467981
0.004443604 0.03604392 0.02530053 0.016123991 0.00072763534 -0.0134282755 0.05653309 0.040040266
0.041647874 0.020442914 0.052399885 0.029035764 0.017594956 -0.051183958 0.0445685 -0.02653174

psi.0.bias f4 [64]
00000000: a053 de3c f189 373d acf5 983d c8c4 0d3c
00000010: 1dce 333d c7e4 863d b06f 24bd 8836 bf3a
00000020: bcec 91bd e13a 6a3d f6e0 e6bd 8fc7 ce3c
00000030: bff9 d8bc 9e04 15bd f3f0 083d f34b b73d
00000040: acd7 64bd d627 98bd ae22 43bd ba34 7a3d
00000050: 3c98 aa3a 518d cebd b34e c2bc f8a9 6cbd
00000060: 9660 ac3d 2bf8 303d 8169 9abb 7dfb 9bbc
00000070: e9ca 853d d349 a6bd 1a61 ad3d 4fd8 7cbd
00000080: 2fc7 98bd 38c5 743d cfcd cc3b 8a37 0c3b
00000090: 853c b53c 862e a5bb 3eab 4e3d f300 213b
000000a0: 15b7 e1bc 7673 0abd 1311 af3c 3250 bdbd
000000b0: b4a1 c7bb 21ab 9dbc d1b6 a53d 5106 f13c
000000c0: 2682 98bd f469 b2bd 7dcc 53bd acf9 bdbd
000000d0: 89db 6fbc 5c88 183a cee0 b63d e426 1ebd
000000e0: c304 3cbd dc8e 6bbd b60d e8bc 7a06 19bc
000000f0: dd34 c4bd a507 793d f5fe 1ebc b116 5bbd
0.027139485 0.044809286 0.07468733 0.008652873 0.043897737 0.065866046 -0.040145576 0.0014588395
-0.071252316 0.057185058 -0.11273377 0.025241641 -0.026486276 -0.036381356 0.033432912 0.08950033
-0.055869743 -0.07429473 -0.047640495 0.06108544 0.001301534 -0.10085548 -0.023719167 -0.057779282
0.0841686 0.04320542 -0.004712284 -0.019040817 0.06532843 -0.081195496 0.08465786 -0.061729725
-0.07459866 0.059758395 0.0062501202 0.0021395409 0.022123585 -0.0050409464 0.050456278 0.0024567216
-0.02755312 -0.03380152 0.021370446 -0.09243812 -0.0060922746 -0.01924664 0.0809151 0.029421957
-0.07446699 -0.08711615 -0.051708687 -0.09276137 -0.014639744 0.0005818659 0.08929597 -0.038611308
-0.04590298 -0.05750929 -0.02832685 -0.009339923 -0.09580395 0.060798306 -0.009704341 -0.053488437

psi.2.weight f4 [2, 64]
00000000: 0d64 b73c b4f0 e5bc 82fd 8a3d 2b73 773d
00000010: a58e 3abd b32e acbb 6d78 953d 5f24 4b3d
00000020: f9eb 30be 5857 5c3d 1cb1 21bd 92db 583d
00000030: 9778 c23d 54cc ed3c fd3a f13c d3f1 873c
00000040: f9bf ffbd 8531 833d 2a3c 803c c00b 82bb
00000050: fba8 253d 7246 803d 158f 293d c07b 8dbd
00000060: 4cde a93b af4b 47ba 6bf3 f73d 2c21 6bbc
00000070: 65f2 6e3d f7e0 093e c5c6 63bd b846 bdbd
00000080: 9ddd 31ba 6e3b 8fbc 0430 fe3c 7dfa d5bd
00000090: 08be 4cbd 0598 51bd 968e 62bd 04da 78bd
000000a0: 8c9c d03d b8be 1f3c 0dfe 48be e7ff 073c
000000b0: 159c e73c 1024 babc 5c76 f53c 6e38 b7bc
000000c0: e582 babd f22c 143d 0d3d 02be 8883 233c
000000d0: 1fee 303c 5e2d 9dbd 4540 b13d 9517 0b3e
000000e0: 4df0 0bbe d46b 793d 354c f13c 7e37 a63d
000000f0: 05b6 cb3c 1651 16bd 32a6 273e 97d6 14bd
00000100: 5f77 11bc bc4b 553d aa6b 13bd 48ba a4bd
00000110: c4c9 89bc dcd5 773c c8db a0bd 9449 41bd
00000120: 2bd7 013d 8745 f93b d843 51bd c663 ee3c
00000130: 8016 62bc 7d43 e83c f9ac b1bc 0f0d 9cbc
00000140: 4058 0f3d 5af6 71bd e22c f7bb a35f a13c
00000150: 2fec 25bc f7f3 c6bd 7c5c c3bd 906a 16bd
00000160: e72e 8bbc 9830 ad3c 856f 503c 3e36 6fbd
00000170: faff cc3c 1801 bfbc 232d 00bd d5c8 17bb
00000180: 6146 b5bb 73de 11bd 64c3 a6bd 8e7a 32bc
00000190: 8108 313d 4b08 28bc 94a7 cbba 992c fc3c
000001a0: 650f c13b a205 dd3c 6f6f 2b3d 04d1 5fbd
000001b0: 0901 203d eec4 b1bc 65fa c4bc 8f4a 6ebc
000001c0: 7b5e febc 040a b93c c58f 2c3d 8435 a2bc
000001d0: 92aa 4c3d 1db2 493d 5647 15b9 608f 973a
000001e0: b2d3 823c 3ee2 47bd a686 f73b f1fa 5cbd
000001f0: 75cf 92bd 0e4a 14bd 1d58 4cbd ea04 6f3c
0.022386575 -0.028068878 0.06786634 0.060412567 -0.045546193 -0.0052545904 0.0729836 0.049595233
-0.17277516 0.053794235 -0.039475545 0.052943774 0.09495657 0.029028095 0.029447073 0.016594803
-0.12487788 0.064059295 0.015653688 -0.003968686 0.040444355 0.062634364 0.04139622 -0.06908369
0.0051839706 -0.00076025253 0.12106975 -0.0143511705 0.058336634 0.13464724 -0.055609483 -0.09242004
-0.0006785037 -0.017484393 0.031028755 -0.104481675 -0.049985915 -0.051170368 -0.05531176 -0.06075479
0.10186109 0.009750061 -0.19628163 0.008300758 0.028272668 -0.022722274 0.029963665 -0.022365775
-0.091069974 0.036175676 -0.12718602 0.00998009 0.01079896 -0.07674669 0.086548366 0.13583215
-0.13665886 0.06089385 0.029455284 0.08116053 0.024867067 -0.036698423 0.16371992 -0.03633746
-0.008878558 0.05207418 -0.03599135 -0.08043343 -0.016819842 0.015126672 -0.0785442 -0.04718931
0.03169934 0.0076071653 -0.05109009 0.02910031 -0.01379931 0.028352493 -0.021688925 -0.019049196
0.03499627 -0.05907283 -0.0075431922 0.019698923 -0.010127111 -0.09714501 -0.09539124 -0.03672272
-0.016990138 0.021141335 0.012721901 -0.05840134 0.025024403 -0.023315951 -0.031293046 -0.0023160477
-0.0055320715 -0.035612535 -0.081427366 -0.010893477 0.043221 -0.010255883 -0.0015537613 0.030782985
0.0058917277 0.026980225 0.04185432 -0.054642692 0.039063487 -0.021700349 -0.024045179 -0.014544143
-0.031050911 0.022587784 0.042129297 -0.019800909 0.049967356 0.049242128 -0.00014236322 0.0011563115
0.015970085 -0.048799746 0.007553893 -0.053950254 -0.071684755 -0.036203437 -0.04988872 0.014588574

psi.2.bias f4 [2]
00000000: d87d 05be f5bc adbd
-0.13036287 -0.08483306

exp_avg f4 [8, 1, 2]
00000000: f937 42d2 206b 1552 58ab f2d0 5198 9250
00000010: 7796 94d1 dd80 4051 9d7e 2150 4f79 cf52
00000020: 778c 9bd0 7f37 0c52 ccd2 8c50 0372 da51
00000030: fdc9 56d2 9caa 2651 87c5 1d52 ced4 ded1
-2.0854068e+11 1.6043685e+11 -3.2570524e+10 1.9675646e+10 -7.977244e+10 5.167473e+10 1.0837718e+10 4.4554673e+11
-2.0877392e+10 1.5055662e+11 1.8901e+10 1.1727696e+11 -2.3062795e+11 4.4739183e+10 1.6940596e+11 -1.1963163e+11

exp_avg_sq f4 [8, 1, 2]
00000000: 4c46 2b6e c217 146e 477a 6a70 00a7 5b70
00000010: 1312 426c ecd7 836c 54af a06a 4a79 ae6d
00000020: 0679 266e e9fc ef6e 8e39 006b e0aa 2f6e
00000030: ef93 2f6f da04 086d 080f fa6c a81b 106a
1.325173e+28 1.1458126e+28 2.9026927e+29 2.7191643e+29 9.3846785e+26 1.2751116e+27 9.712805e+25 6.7496276e+27
1.2880205e+28 3.7136333e+28 1.550143e+26 1.3591613e+28 5.4338717e+28 2.6309892e+27 2.4184195e+27 4.355398e+25

exp_avg f4 [8]
00000000: 2243 6d52 f103 d1d0 c783 2a52 835f 6ed2
00000010: 8831 4252 2b2b 94d1 dd91 98d1 8f9d 16d2
2.5475839e+11 -2.8053572e+10 1.8308882e+11 -2.5595116e+11 2.0851366e+11 -7.9547425e+10 -8.191028e+10 -1.6172212e+11

exp_avg_sq f4 [8]
00000000: f99e 5f6e 7f1a 9a6f e48e 0d6e d3ee 816c
00000010: 7f25 446f 11fd b96d 19b5 ad6e 57e2 236d
1.7301836e+28 9.538545e+28 1.0952533e+28 1.256634e+27 6.070439e+28 7.195083e+27 2.687992e+28 3.1699803e+27

exp_avg f4 [16, 8, 2]
00000000: 05a3 7e50 55c8 5550 73ee 7c52 9704 8752
00000010: f27d 7051 12e8 6751 6f72 5952 1fb8 5952
00000020: c491 fa50 4813 e750 dd29 b351 1f8b b251
00000030: f1bf b452 6343 b652 71e7 6c51 2f37 4d51
00000040: 0a1b 8cd0 7398 79d0 d627 9750 a85a a750
00000050: 2fc8 d9d0 ff3b bbd0 3de6 f450 2091 d650
00000060: 03f6 dbd0 34a2 bdd0 c147 6e50 5cc8 5050
00000070: 5ce3 a851 89b9 9851 7be1 78d1 0002 5fd1
00000080: 9b2a 3f50 bb17 4f50 61ba 4ad0 8ec7 4fd0
00000090: a3cf 6650 5125 8450 abdf 88d0 6d86 83d0
000000a0: d512 6c50 cd8f 8250 e0b3 16d0 212d 15d0
000000b0: 094b 2dd1 02ad 4bd1 fe05 0b51 518d 2551
000000c0: fed4 d950 4fb7 d350 ddc4 b451 b77b b451
000000d0: 9423 6b51 1ede 6551 3d64 5851 b0f0 6051
000000e0: f138 3b51 213d 3551 9e85 9c50 0438 a450
000000f0: e748 2e51 bcce 3451 6c78 cb51 14af c851
00000100: 5aef 574f ba53 754f cc27 dcd1 d6cf d8d1
00000110: d6ae 39d0 a0af 2cd0 81d8 b9d1 973c bdd1
00000120: 1502 83ce cd95 7ecc 8d0b 20d1 0f29 23d1
00000130: 086f 2fd2 4087 30d2 ab06 0850 4cb3 0f50
00000140: f932 734f 7856 8f4f 720e f9d0 3a97 efd0
00000150: 0d72 e7cf d45b b5cf 3164 c5d0 ef68 d9d0
00000160: a256 81cf 3843 17cf eee3 53d0 d7b2 67d0
00000170: 546e 2cd1 c9dc 32d1 9406 b9ce 2083 624c
00000180: 5310 c0cf 44bb e3cf 4c56 ca51 b504 cf51
00000190: 59a6 974f 75d8 534f d720 af51 f34c ab51
000001a0: c2a1 99cf 5f6c b8cf df27 1751 4fdc 1351
000001b0: 9b15 2852 0ec4 2f52 b4be 94d0 a0ea cbd0
000001c0: 4780 0e51 82fc 0451 943a 0552 ea89 ff51
000001d0: 9dcb 9e51 9bdb 9451 0f44 a451 29ac b651
000001e0: d99c 7951 0f05 6351 2428 f550 df92 0b51
000001f0: 425a ac51 3b02 b751 e7cc 0252 e632 ff51
00000200: ec5b 7bcf 8773 75cf 7b14 e4d1 d475 dfd1
00000210: 8285 ecd0 03af e8d0 7e08 b8d1 01ab bed1
00000220: bbe9 88d0 b844 81d0 79d0 20d1 b49e 26d1
00000230: 47df 14d2 0e6e 12d2 ca96 e4d0 7fcb fad0
00000240: af3c cd4f f81d 6b4f 538f c751 5d54 c151
00000250: 6b32 f150 8776 c850 b3f0 9051 4ee3 9d51
00000260: ab56 9f50 da98 6850 41a8 fa50 ca55 0951
00000270: 25b6 f751 9a75 0552 342a ee50 e7f8 b450
00000280: 8f5f dbd0 6115 d8d0 46d8 add1 d15d b5d1
00000290: 9c6a 50d1 19b5 52d1 6d41 6fd1 09cf 68d1
000002a0: 467d 22d1 276c 24d1 ee5a a3d0 af40 9bd0
000002b0: cb0a 88d1 459d 89d1 62c5 b0d1 6e1f aed1
000002c0: eb10 59d0 a741 32d0 3cee e1d0 006f 00d1
000002d0: df75 d0d0 1b83 b0d0 924c 29d0 7a9b 72d0
000002e0: 0a46 b2d0 8029 90d0 d251 2acf 2884 95cf
000002f0: bb65 8dce 155d e3cf 4c4e 37d1 5cfb 1cd1
00000300: 94c6 6750 b012 8050 1d8f 8052 ab33 7652
00000310: d1d1 6651 b883 6b51 4e6f 4d52 e4b3 4d52
00000320: 4baa f750 4927 0151 cfe8 a851 55ae a951
00000330: 8665 b752 0d72 b652 1c67 3551 a6de 4851
00000340: c7a8 3a50 1079 4d50 73c5 81d1 5064 81d1
00000350: 3d89 3e50 cc6f 6450 1fa0 7ad1 b5e8 83d1
00000360: d0bc 8750 f7e0 9b50 e28b dbd0 2b44 e8d0
00000370: 8e7d 10d2 d172 13d2 34cd 3851 faf5 4351
00000380: c1c8 1650 7fcb 1f50 967a 95cd dbfd 7f4d
00000390: 6e6a 6d50 dca8 7e50 a81c f2cf dcfd fccf
000003a0: dd36 5f50 1240 6e50 134c 8fcf adcc 96cf
000003b0: 76a9 e6d0 0bdd 00d1 23a3 0051 6c8b 0b51
000003c0: 34b7 fdd0 7bc9 edd0 749f ebd1 3693 ffd1
000003d0: face 8dd1 4765 89d1 046d bfd1 3930 c4d1
000003e0: ac6d 55d1 c9eb 4ad1 aabe 14d1 ffd6 17d1
000003f0: 2f23 c1d1 a3c5 c4d1 b0f3 f7d1 ea77 eed1
1.7088386e+10 1.4346704e+10 2.7158307e+11 2.899488e+11 6.4556573e+10 6.2251934e+10 2.3348195e+11 2.3377424e+11
3.3630855e+10 3.1014404e+10 9.618769e+10 9.585478e+10 3.8815718e+11 3.914073e+11 6.359345e+10 5.5087133e+10
-1.8804658e+10 -1.6750071e+10 2.0287762e+10 2.246189e+10 -2.92302e+10 -2.513017e+10 3.2869837e+10 2.8798681e+10
-2.9522663e+10 -2.5452192e+10 1.5990719e+10 1.4011167e+10 9.067112e+10 8.199347e+10 -6.6808426e+10 -5.9863204e+10
1.2828962e+10 1.3897756e+10 -1.3604849e+10 -1.3943847e+10 1.5489469e+10 1.7736305e+10 -1.8370877e+10 -1.7653e+10
1.5842629e+10 1.7523698e+10 -1.0113483e+10 -1.0011051e+10 -4.6518014e+10 -5.467381e+10 3.731881e+10 4.444003e+10
2.9236916e+10 2.8416047e+10 9.704962e+10 9.689621e+10 6.311964e+10 6.1704626e+10 5.8087166e+10 6.038192e+10
5.0257138e+10 4.8650916e+10 2.100802e+10 2.2041076e+10 4.6784213e+10 4.853516e+10 1.0923734e+11 1.0774135e+11
3.6227876e+09 4.115905e+09 -1.1819506e+11 -1.1639998e+11 -1.2460972e+10 -1.1588764e+10 -9.977516e+10 -1.0159567e+11
-1.0989759e+09 -6.6737972e+07 -4.2961785e+10 -4.3798032e+10 -1.8837052e+11 -1.8954584e+11 9.128553e+09 9.643569e+09
4.080204e+09 4.8096174e+09 -3.3427788e+10 -3.2157323e+10 -7.7660227e+09 -6.0853883e+09 -2.6493422e+10 -2.9180262e+10
-4.339877e+09 -2.5377649e+09 -1.4219721e+10 -1.5549029e+10 -4.6286586e+10 -4.801302e+10 -1.552108e+09 5.9378816e+07
-6.4445906e+09 -7.6414013e+09 1.086289e+11 1.1114215e+11 5.088523e+09 3.5541783e+09 9.402128e+10 9.19663e+10
-5.15503e+09 -6.18822e+09 4.057556e+10 3.9691022e+10 1.8047925e+11 1.8872713e+11 -1.9964207e+10 -2.736921e+10
3.8252343e+10 3.5698254e+10 1.4305336e+11 1.3719131e+11 8.525261e+10 7.991744e+10 8.818956e+10 9.807155e+10
6.7004895e+10 6.0940153e+10 3.2904389e+10 3.7466534e+10 9.253108e+10 9.8252055e+10 1.4044586e+11 1.37008824e+11
-4.2171054e+09 -4.117989e+09 -1.2244952e+11 -1.1996932e+11 -3.174538e+10 -3.123027e+10 -9.880206e+10 -1.02364094e+11
-1.8376153e+10 -1.7350115e+10 -4.3168272e+10 -4.47267e+10 -1.5985028e+11 -1.5722791e+11 -3.0680699e+10 -3.3661123e+10
6.8866125e+09 3.9446098e+09 1.07137884e+11 1.0379301e+11 3.2372906e+10 2.6905688e+10 7.7814194e+10 8.4765426e+10
2.1386058e+10 1.5609326e+10 3.3642646e+10 3.6865614e+10 1.329891e+11 1.4330092e+11 3.1965946e+10 2.4289688e+10
-2.9443783e+10 -2.9002238e+10 -9.333223e+10 -9.737038e+10 -5.5946363e+10 -5.656134e+10 -6.4224678e+10 -6.2494118e+10
-4.3617903e+10 -4.413682e+10 -2.1925163e+10 -2.083766e+10 -7.303708e+10 -7.388113e+10 -9.490322e+10 -9.348145e+10
-1.4567058e+10 -1.1962588e+10 -3.0323892e+10 -3.447613e+10 -2.7979086e+10 -2.3691057e+10 -1.136147e+10 -1.6281102e+10
-2.3927476e+10 -1.934911e+10 -2.857489e+09 -5.0169324e+09 -1.1861272e+09 -7.6290565e+09 -4.920579e+10 -4.21395e+10
1.5554204e+10 1.7189667e+10 2.7607843e+11 2.643572e+11 6.1960163e+10 6.322045e+10 2.2058392e+11 2.2087159e+11
3.3241061e+10 3.4669367e+10 9.068255e+10 9.1096785e+10 3.9384115e+11 3.9179875e+11 4.8694936e+10 5.3920555e+10
1.2526493e+10 1.3789053e+10 -6.967043e+10 -6.946672e+10 1.278666e+10 1.5330128e+10 -6.7276763e+10 -7.081811e+10
1.8218385e+10 2.0921694e+10 -2.9467021e+10 -3.1174253e+10 -1.5514544e+11 -1.5832162e+11 4.9607295e+10 5.260284e+10
1.0118956e+10 1.0723655e+10 -3.1347987e+08 2.6842667e+08 1.5932701e+10 1.7089917e+10 -8.1239286e+09 -8.4889907e+09
1.4979659e+10 1.5988705e+10 -4.808255e+09 -5.059992e+09 -3.0958924e+10 -3.459152e+10 3.45308e+10 3.7458723e+10
-3.4053136e+10 -3.1915235e+10 -1.2649906e+11 -1.3721081e+11 -7.613286e+10 -7.376371e+10 -1.0277097e+11 -1.0532783e+11
-5.729175e+10 -5.44712e+10 -3.9928373e+10 -4.0759194e+10 -1.0368987e+11 -1.0564117e+11 -1.33118165e+11 -1.28026755e+11

exp_avg_sq f4 [16, 8, 2]
00000000: 6a61 f46b b46e f46b c6c7 a16f d07f a36f
00000010: 664b b26e 9eac b26e 04fc 186f ca88 166f
00000020: 71e6 466e d53d 486e c573 186e 8221 166e
00000030: bf87 bc6e ff8d be6e 75ab 5d6f 5964 5a6f
00000040: c8e4 1d69 98ba 1f69 f1fc 666c 4b30 576c
00000050: 8777 896b f5ce 856b d1e3 2b6c 2c6c 3f6c
00000060: 23fd 0f6b 0015 076b a511 2d6b fb5e 406b
00000070: 6b1d d46b 2fca c76b c9cb 4a6c ae27 5d6c
00000080: d0c4 1d6b c104 126b ee76 ba6e 312d bd6e
00000090: fd85 e56d 6915 d86d 935d 336e d1f1 3b6e
000000a0: c2d5 836d e8f5 746d 557c 376d 7f6d 416d
000000b0: 6f32 f16d 7bd1 fb6d dfcf 876e 6248 816e
000000c0: e80c f169 73aa ef69 b6f7 056d 10f3 096d
000000d0: 3ba4 336c 0065 336c bac9 a16c 069f a16c
000000e0: ae7b c36b 6aa1 c26b 9cd2 9a6b 02c1 996b
000000f0: 5512 786c 026c 766c 698e f06c a6aa ef6c
00000100: 5d4b d66a 4e60 e96a 2b70 9d6e fd07 966e
00000110: 64f5 9e6d 8e92 a86d df6f 076e 4dec 006e
00000120: f21e 306d a477 3e6d 5a60 046d a3e0 fc6c
00000130: bc08 a86d 6f86 a36d 7950 436e 4599 4b6e
00000140: 21ed e76b b87e de6b 1f6f 616f 6162 5a6f
00000150: da53 a16e c45e 9a6e 9317 f56e 1bfe fa6e
00000160: d5fa 3b6e 7bd1 336e fa7b 006e e1df 056e
00000170: 471c a76e cce9 b06e 58f5 3f6f 0c73 366f
00000180: 337a b769 4c18 b869 3f0b 136d c902 136d
00000190: 452f 2a6c e55a 216c 1c10 8d6c 0fbe 946c
000001a0: a788 bc6b 6538 af6b 945e 856b 4ccb 8e6b
000001b0: ae3f 596c 4128 596c 3660 d46c f4bf ce6c
000001c0: 4488 066b b896 096b 6f51 aa6e 4395 b16e
000001d0: 8cb4 c46d 9912 cb6d 1a58 306e 3ae4 296e
000001e0: 0633 5b6d ecb3 636d b081 326d 6ccd 296d
000001f0: e8b1 d46d 8aa3 cf6d 408d 796e 558e 7c6e
00000200: 293e dd6b 4d34 d66b 64dd 786f 585c 7b6f
00000210: 2c06 a06e 5181 9c6e 3cef 116f 433f 176f
00000220: c71e 326e 6fd3 2b6e eb69 156e 9c32 1a6e
00000230: 7cfe a56e 0494 a46e 3042 536f 7c98 546f
00000240: d013 546b 2d88 656b 2e6a f76e 5962 f46e
00000250: 6070 1a6e b98d 246e 9bff 8f6e ae99 8a6e
00000260: 9da9 ab6d 88e0 b86d 53d1 936d 16eb 8c6d
00000270: efb3 266e 6b1b 1d6e 1083 ca6e c51a d76e
00000280: 0a4f 7b6b 997e 566b c30d 0d6f c731 076f
00000290: 5f8a 1e6e f5ee 086e d193 896e f1ff 9c6e
000002a0: 13d0 b26d 88d4 946d 0d78 8b6d 9f13 a36d
000002b0: 326d 466e e0bf 586e 1b97 bc6e 0030 ad6e
000002c0: 0919 8269 b777 9569 7abd af6c 7d84 a46c
000002d0: 09a8 fe6b ea79 126c 141c 866c 1222 766c
000002e0: 4f3a 886b bee9 a16b af4d 876b 57c6 746b
000002f0: 773c 1b6c 086b 0c6c c8bb bc6c a0bf d56c
00000300: 47f4 4e6b d1c5 506b 6d5e fa6e bb0d ff6e
00000310: b634 136e 9522 156e e18f 8e6e 2ca7 8e6e
00000320: fe18 a26d 5b9f a36d ae19 916d 50db 8f6d
00000330: 754b 266e 9498 216e 5e11 c26e b595 c66e
00000340: 9d25 dc6a a801 e16a 12b3 8c6e cc9f 906e
00000350: 2d2e 926d ba3f 976d a39d f96d a1e2 e86d
00000360: 38d4 216d a5a6 2a6d 2ed0 f36c 137d e26c
00000370: 74d3 a06d b55b a36d 8a3e 346e a89a 306e
00000380: abad 2a6a bd02 306a 4f1a e06d 984a d66d
00000390: 3380 ff6c 2e82 016d c9fa 526d 1c35 536d
000003a0: c485 8f6c 9b12 926c d6cd 526c 9b59 546c
000003b0: 2d57 016d f11e 006d 0ae3 9d6d 447d a16d
000003c0: 21ac 476a da89 496a 577d 936d f2a0 8f6d
000003d0: 1b9f 9d6c dade 9e6c 4b7c 016d 7d8d fe6c
000003e0: d3f0 2d6c f8b0 306c 5c3f f26b 493e ef6b
000003f0: 5be0 eb6c b49f ed6c 848f 3c6d 4386 3a6d
5.9087585e+26 5.9100136e+26 1.001372e+29 1.01201145e+29 2.7589741e+28 2.7648507e+28 4.734639e+28 4.658812e+28
1.5389155e+28 1.5492938e+28 1.179542e+28 1.1615815e+28 2.9173644e+28 2.9486907e+28 6.8603466e+28 6.7589045e+28
1.1930109e+25 1.2068773e+25 1.1169897e+27 1.0405884e+27 3.3237458e+26 3.2352892e+26 8.312086e+26 9.256626e+26
1.740718e+26 1.6330416e+26 2.0922749e+26 2.3256229e+26 5.128624e+26 4.8306205e+26 9.8066146e+26 1.06943995e+27
1.9073077e+26 1.7652562e+26 2.8853994e+28 2.927365e+28 8.879256e+27 8.3593307e+27 1.3877735e+28 1.4541509e+28
5.100119e+27 4.7382266e+27 3.549129e+27 3.7414362e+27 9.330857e+27 9.741748e+27 2.1015889e+28 2.0005536e+28
3.6426509e+25 3.6217274e+25 2.5913107e+27 2.6683307e+27 8.686931e+26 8.674987e+26 1.5647175e+27 1.5631042e+27
4.726492e+26 4.7058773e+26 3.743383e+26 3.717542e+26 1.1996007e+27 1.1916232e+27 2.3265177e+27 2.3179131e+27
1.2953301e+26 1.4106725e+26 2.4362375e+28 2.3216204e+28 6.1494113e+27 6.521332e+27 1.047893e+28 9.974938e+27
3.4066733e+27 3.6841743e+27 2.5605314e+27 2.445681e+27 6.500505e+27 6.326072e+27 1.5111716e+28 1.5752687e+28
5.6076335e+26 5.379599e+26 6.9768464e+28 6.7586665e+28 2.4964228e+28 2.3887628e+28 3.7926163e+28 3.8839224e+28
1.4544234e+28 1.3912766e+28 9.94099e+27 1.035804e+28 2.585909e+28 2.7376002e+28 5.940824e+28 5.6465355e+28
2.7726312e+25 2.7819636e+25 2.8442433e+27 2.843604e+27 8.2296245e+26 7.802652e+26 1.3642769e+27 1.4385484e+27
4.5584675e+26 4.2365667e+26 3.2246753e+26 3.45255e+26 1.0505505e+27 1.050108e+27 2.053973e+27 1.9995615e+27
1.6263956e+26 1.6633459e+26 2.635545e+28 2.7479647e+28 7.609666e+27 7.8559925e+27 1.3643967e+28 1.3144719e+28
4.2399313e+27 4.404413e+27 3.4528196e+27 3.2844567e+27 8.228237e+27 8.032638e+27 1.9308132e+28 1.9540573e+28
5.349323e+26 5.179142e+26 7.7019927e+28 7.7792374e+28 2.4762531e+28 2.4217998e+28 4.5164543e+28 4.6808715e+28
1.3781385e+28 1.3294386e+28 1.1560328e+28 1.1930469e+28 2.568634e+28 2.546724e+28 6.5381353e+28 6.5795164e+28
2.5638584e+26 2.7748708e+26 3.828558e+28 3.7816619e+28 1.1949136e+28 1.2731718e+28 2.2282682e+28 2.144736e+28
6.6408733e+27 7.1520854e+27 5.718419e+27 5.451513e+27 1.289801e+28 1.2155573e+28 3.1337208e+28 3.328582e+28
3.0381363e+26 2.5930797e+26 4.3654023e+28 4.1840653e+28 1.2266478e+28 1.0594711e+28 2.1289073e+28 2.4294538e+28
6.917485e+27 5.7575895e+27 5.3954436e+27 6.308722e+27 1.535251e+28 1.6770181e+28 2.9182929e+28 2.6799468e+28
1.9659823e+25 2.258691e+25 1.6996544e+27 1.591116e+27 6.1572136e+26 7.083156e+26 1.2970292e+27 1.1902266e+27
3.2937853e+26 3.9148175e+26 3.2714367e+26 2.9591453e+26 7.5067616e+26 6.790202e+26 1.8253186e+27 2.067249e+27
2.5019229e+26 2.5239073e+26 3.8742703e+28 3.9467638e+28 1.1389505e+28 1.1538768e+28 2.2060405e+28 2.2074485e+28
6.270848e+27 6.329838e+27 5.6132964e+27 5.565186e+27 1.2866433e+28 1.2502886e+28 3.0030544e+28 3.0729508e+28
1.3307065e+26 1.3600807e+26 2.1772192e+28 2.2379512e+28 5.6550793e+27 5.8511596e+27 9.6565423e+27 9.0093125e+27
3.1302277e+27 3.3008695e+27 2.3580166e+27 2.190463e+27 6.221654e+27 6.3196154e+27 1.3945727e+28 1.3664082e+28
5.158438e+25 5.319597e+25 8.669556e+27 8.2899963e+27 2.4710519e+27 2.505059e+27 4.0809395e+27 4.0853464e+27
1.3880647e+27 1.4127283e+27 1.0193858e+27 1.0268617e+27 2.5018097e+27 2.478218e+27 6.1079525e+27 6.2473154e+27
6.0347273e+25 6.091127e+25 5.705728e+27 5.556366e+27 1.5244217e+27 1.5365013e+27 2.5046142e+27 2.4618825e+27
8.411257e+26 8.544266e+26 5.857185e+26 5.784548e+26 2.2812565e+27 2.2981568e+27 3.6472926e+27 3.6079078e+27

exp_avg f4 [16]
00000000: cd00 4153 d99e e150 24a0 cecf 790b 8f52
00000010: 1495 95d2 06a8 8dd1 b322 8652 9458 d252
00000020: 5aa0 9fd2 ce67 8b52 ba5a 99d2 1e6f c0d1
00000030: d549 3d53 f89e 29d2 9928 5950 504d d0d2
8.289421e+11 3.028227e+10 -6.933203e+09 3.071864e+11 -3.2122562e+11 -7.605117e+10 2.880539e+11 4.517146e+11
-3.4279503e+11 2.99371e+11 -3.2932607e+11 -1.03312245e+11 8.129875e+11 -1.8212913e+11 1.4573266e+10 -4.4732514e+11

exp_avg_sq f4 [16]
00000000: b4ca e570 8db6 df6d 1e6c 0e70 4e31 846e
00000010: e137 ce6f 30bc c370 6459 6c6e 5e57 0070
00000020: e2c3 cd70 1030 4a70 971b 5870 8fb4 356e
00000030: 8e43 4670 b1c8 c06f 116f 206f d561 ea6e
5.6893696e+29 8.654481e+27 1.763103e+29 2.0455814e+28 1.2764293e+29 4.8461665e+29 1.8286632e+28 1.588788e+29
5.0944988e+29 2.502963e+29 2.6752846e+29 1.4058767e+28 2.454388e+29 1.1932749e+29 4.9651873e+28 3.6268882e+28
