lightning_logs/version_4/checkpoints/epoch=0-step=99.ckpt (torch, 398098 bytes, 48 tensors)

lattice_net.0.weight f4 [8, 1, 2]
0	0x3eb0c67c	0.34526432
1	0x3f27ddd2	0.65572846
2	0x3e58f1d6	0.21186003
3	0x3b5e44b7	0.003391547
4	0x3e6db85d	0.2321486
5	0x3e14a59c	0.145163
6	0x3ec7a29f	0.38991258
7	0xbf0f5ae4	-0.55998063
8	0xbf26546f	-0.64972585
9	0xbe70b7f2	-0.2350767
10	0xbf16b47f	-0.58869165
11	0x3c0e48db	0.008684362
12	0x3eb93814	0.36175597
13	0xbe6f0f43	-0.23345666
14	0xbea11073	-0.31457862
15	0x3f10dec5	0.5658992

lattice_net.0.bias f4 [8]
0	0x3e14e2ae	0.14539596
1	0xbe590d90	-0.2119658
2	0x3e0be700	0.13662338
3	0xbe15f6f4	-0.14644986
4	0xbed69b45	-0.41915336
5	0x3ed8f688	0.42375588
6	0xbf25e9c3	-0.6480982
7	0xbebac424	-0.36477768

lattice_net.2.weight f4 [16, 8, 2]
0	0xbe6d03a9	-0.23145927
1	0x3d7c1b15	0.061549265
2	0xbd298225	-0.04138388
3	0x3c67d312	0.014149444
4	0xbe18dbb7	-0.14927565
5	0x3e71a894	0.23599464
6	0x3e68a949	0.22720827
7	0x3e5449e9	0.2073132
8	0x3d33bedd	0.043883193
9	0x3e2ea091	0.17053439
10	0x3e53cf26	0.2068449
11	0xbe24d056	-0.16095099
12	0xbd729fa0	-0.05923426
13	0xbb7787b5	-0.0037770097
14	0xbd52ec47	-0.051494863
15	0xbe1af4fd	-0.15132518
16	0xbdbed065	-0.09317092
17	0xbc34b2fa	-0.011028999
18	0xbe34b2d3	-0.17646341
19	0xbe703767	-0.23458634
20	0x3e1cf4a8	0.15327704
21	0xbdc6feea	-0.0971659
22	0x3d321cc0	0.04348445
23	0xbdebd65b	-0.115154944
24	0x3decd341	0.11563731
25	0xbdbd70bd	-0.09250019
26	0x3e6d19e9	0.23154415
27	0x3e53de49	0.20690264
28	0x3e6b9140	0.23004627
29	0xbe5bdf43	-0.21471886
30	0x3e283c56	0.16429266
31	0x3daa4c0f	0.08315288
32	0xbe646f20	-0.22308016
33	0xbd3aa95d	-0.045571674
34	0x3e36280b	0.17788713
35	0xbd27944d	-0.040912915
36	0xbe124e48	-0.14287674
37	0xbd062582	-0.032750614
38	0x3d7c194b	0.06154756
39	0x3e290467	0.16505586
40	0x3e449e9d	0.19201131
41	0x3da2c05b	0.07946845
42	0xbdbd4486	-0.092415854
43	0xbd875984	-0.066088706
44	0x3e63ea25	0.22257288
45	0x3d8b5248	0.06802803
46	0xbe620e84	-0.2207585
47	0xbd7aa4a7	-0.06119218
48	0x3e7e8653	0.24855928
49	0x3d653ce0	0.055966258
50	0x3dc375bb	0.0954394
51	0xbd9844d4	-0.07435003
52	0x3e667e6a	0.2250916
53	0x3cad2a04	0.021138199
54	0x3b308b90	0.0026938654
55	0x3e6ef420	0.23335314
56	0x3e65c578	0.2243861
57	0xbb74908c	-0.0037317602
58	0x3e6282af	0.22120164
59	0xbe20ff94	-0.15722495
60	0x3cb8aab7	0.02254234
61	0xbc9d7908	-0.019222751
62	0xbd2f3491	-0.04277474
63	0x3c071b5e	0.008246271
64	0x3d25dec9	0.040495668
65	0xbe415d73	-0.18883304
66	0xbe132ae9	-0.14371838
67	0x3e53a1f7	0.20667253
68	0xba591326	-0.00082807464
69	0x3e666d0e	0.22502539
70	0xbe6e07eb	-0.23245208
71	0xbe633fc5	-0.22192295
72	0xbb912999	-0.0044300077
73	0x3d93d017	0.07217424
74	0x3c041dd4	0.008063752
75	0xbe2ddff6	-0.16979966
76	0x3e302987	0.17203341
77	0x3dc9a8da	0.09846659
78	0xbce46491	-0.027879985
79	0xbcb3bbe4	-0.02194018
80	0xbdb08616	-0.08619325
81	0xbe80766c	-0.2509035
82	0x3dee0046	0.11621146
83	0xbe74f983	-0.23923306
84	0x3e3cbb92	0.18430927
85	0xbdc7ea7e	-0.09761523
86	0xbe683ed6	-0.2268022
87	0xbcf215d6	-0.029551428
88	0xbe024554	-0.12721759
89	0xbe612576	-0.21986946
90	0x3c34efbd	0.011043486
91	0xbe81886c	-0.25299394
92	0x3e001a56	0.12510046
93	0x3d1267d0	0.035743535
94	0x3e822dd3	0.25425586
95	0xbe27d313	-0.16389112
96	0xbe074d74	-0.1321314
97	0xbe0e4c36	-0.1389626
98	0xbe4f8c40	-0.20268345
99	0x3e7b47c4	0.24539095
100	0xbdf7b247	-0.120945506
101	0x3e2ad628	0.16683257
102	0xbddd0bd9	-0.107932754
103	0x3de946c7	0.11390453
104	0x3e67d927	0.22641431
105	0xbe2dc1cb	-0.16968457
106	0xbe76266a	-0.24038091
107	0xbca42cb8	-0.020040855
108	0x3e5b0a1e	0.21390578
109	0xbcb57271	-0.022149296
110	0xbe0e7ba4	-0.13914353
111	0xbd2a16b2	-0.04152555
112	0xbe492a70	-0.19645095
113	0x3dc5aed0	0.096524835
114	0xbe29ab1d	-0.16569181
115	0x3d97b9d2	0.07408489
116	0xbe3071ec	-0.17230958
117	0x3c8070c1	0.015678765
118	0xbcd3115c	-0.025765114
119	0xbcda5e98	-0.026656434
120	0xbdf4242d	-0.119209625
121	0x3e474c4d	0.194627
122	0xbd94fa52	-0.07274307
123	0x3dead87f	0.114670746
124	0xbe529122	-0.20563176
125	0x3d814475	0.06311885
126	0x3e4ae202	0.19812778
127	0xbe327d32	-0.1743057
128	0x3da77659	0.0817687
129	0xbc03322a	-0.0080075655
130	0xbddf3769	-0.108992405
131	0x3cd81bd9	0.026380466
132	0x3dde5479	0.10855956
133	0xbcbf2498	-0.023332879
134	0x3e00eabf	0.12589549
135	0x3e47774a	0.19479099
136	0x3e4c9e6e	0.19982311
137	0xbe53ab0c	-0.20670718
138	0xbe6095a3	-0.21932082
139	0xbd3ff032	-0.046859927
140	0x3e667af9	0.22507848
141	0x3dad0489	0.08448131
142	0xbcf881ba	-0.030335296
143	0xbe2ecbf1	-0.17069985
144	0x3cb7e37b	0.022447338
145	0x3d3fb24e	0.046800904
146	0xbe004f91	-0.12530352
147	0x3dfd6a47	0.123737864
148	0xbdbd3cca	-0.0924011
149	0xbe6154d6	-0.22005019
150	0xbdfc1b07	-0.123098426
151	0xbe54de2d	-0.20787878
152	0xbe10d0fd	-0.14142223
153	0x3d55976e	0.052146368
154	0x3d91d142	0.07119991
155	0xbe0f0a74	-0.13968831
156	0x3ddd9fa4	0.10821465
157	0xbdc7af3e	-0.09750222
158	0x3e010474	0.12599355
159	0x3e5835e2	0.21114305
160	0xbe6576fe	-0.22408673
161	0xbe44a7a6	-0.19204578
162	0x3e42c21d	0.19019361
163	0xbd59c6c6	-0.05316808
164	0x3e56d593	0.2097991
165	0xbd2128ed	-0.03934567
166	0x3dbea936	0.09309618
167	0xbc379d6e	-0.011206968
168	0xbe33efde	-0.17571971
169	0xbe4cdd44	-0.20006281
170	0x3e5dc4b7	0.21657072
171	0x3e50edee	0.20403263
172	0x3c934466	0.01797695
173	0xbc2fc1ed	-0.010727388
174	0x3d3029d6	0.043008648
175	0x3d88c2a0	0.06677747
176	0xbd5d4268	-0.054018408
177	0x3de6e68a	0.112744406
178	0xbd899138	-0.067171514
179	0x3e168438	0.14698875
180	0x3e2af54d	0.16695137
181	0xbe44002e	-0.19140694
182	0x3ded28fe	0.11580084
183	0xbce3181e	-0.02772146
184	0x3e7dd91b	0.2478985
185	0x3e0ea33c	0.13929456
186	0xbd0ac719	-0.03388128
187	0xbc22a381	-0.009926678
188	0xbe2d8ce4	-0.16948277
189	0xbe127201	-0.14301302
190	0x3e65420b	0.22388475
191	0xbe694b10	-0.2278254
192	0x3bf84227	0.0075762453
193	0x3d985a63	0.07439115
194	0xbe6c2c8f	-0.23063873
195	0x3e6ace56	0.22930273
196	0xbd9f26e4	-0.0777109
197	0x3e5958a0	0.21225214
198	0xbda10507	-0.07862287
199	0x3e66b4de	0.22529933
200	0xbd844762	-0.06458928
201	0x3db3744c	0.08762416
202	0xbd50412c	-0.050843403
203	0x3bf40ea7	0.0074480358
204	0xbd4df9b6	-0.05028697
205	0xbd99990f	-0.07499897
206	0xbdd09ebb	-0.101865254
207	0x3c12eba2	0.008967312
208	0xbd94c280	-0.072636604
209	0x3e66b379	0.22529401
210	0xbe00af70	-0.12566924
211	0xbd01caf9	-0.03168771
212	0x3de0946d	0.1096581
213	0xbb4cc63b	-0.0031246084
214	0xbd13080d	-0.03589635
215	0x3cb747d0	0.02237311
216	0x3dc09ae6	0.094045445
217	0xbe067d67	-0.13133775
218	0xbd746770	-0.05966896
219	0xbd65a667	-0.056066897
220	0xbdbc6ebd	-0.09200809
221	0xbdc35929	-0.0953849
222	0xbe079c52	-0.13243225
223	0xbd99b73a	-0.07505651
224	0x3da18121	0.078859575
225	0x3da7c4ac	0.08191809
226	0xbd878934	-0.06617966
227	0x3e5f92f9	0.2183341
228	0xbe6f9886	-0.23398027
229	0x3e0a05cc	0.13478774
230	0xbe09f8a9	-0.13473763
231	0x3d040c88	0.032238513
232	0xbd884062	-0.06652905
233	0x3e0a8610	0.13527703
234	0xbdd27ebb	-0.10278078
235	0xbddc8938	-0.1076836
236	0x3e319e52	0.1734555
237	0xbe490764	-0.19631726
238	0xbc9ff3dd	-0.019525463
239	0xbe0e18a0	-0.13876581
240	0xbdcda888	-0.100419104
241	0xbe2381da	-0.15967503
242	0xbc943eb9	-0.018096315
243	0xbdecc07d	-0.11560152
244	0x3e159c25	0.14610346
245	0x3df1a972	0.11799897
246	0x3e389a71	0.18027665
247	0xbdd7b501	-0.10532571
248	0x3e4a2d38	0.19743812
249	0x3d5db5b6	0.05412837
250	0x3d8f7f6b	0.07006725
251	0x3e4b3521	0.19844486
252	0xbd2e00dc	-0.04248129
253	0x3d744faf	0.059646305
254	0x3e0b6005	0.13610847
255	0x3e078293	0.13233404

lattice_net.2.bias f4 [16]
0	0x3da550c2	0.08072044
1	0x3e12da21	0.14341022
2	0x3e095c2f	0.13414072
3	0xbe33b36d	-0.17548914
4	0x3cb5def5	0.02220104
5	0x3e1a1d48	0.15050232
6	0xbe11f35d	-0.14252992
7	0x3e163f74	0.14672643
8	0xbddb7c6c	-0.10717091
9	0xbc56d5e1	-0.013112516
10	0xbbec0e36	-0.0072038425
11	0x3e59b80f	0.21261619
12	0xbe1879db	-0.14890234
13	0xbd86e5c9	-0.06586797
14	0x3db28ae7	0.087179
15	0xbe456e95	-0.19280465

tNN.0.weight f4 [16, 2]
0	0x3f046c5c	0.51727843
1	0x3dda0fea	0.106475666
2	0x3e7e6f68	0.24847186
3	0xbecd1940	-0.40058327
4	0xbe5dccf6	-0.21660218
5	0xbefd5d6a	-0.49485332
6	0x3f19f335	0.6013673
7	0x3f10d2ab	0.56571454
8	0xbf293106	-0.6609043
9	0x3f0b6a90	0.54459476
10	0x3f1200a4	0.5703223
11	0x3ea4a4a8	0.32156873
12	0x3ebd0fa0	0.36925983
13	0x3d9642af	0.07336938
14	0x3f01713d	0.5056341
15	0x3d856015	0.06512467
16	0x3f0fa393	0.5610897
17	0x3ec3a03b	0.38208184
18	0x3ef45524	0.47721207
19	0xbe03db3d	-0.12876602
20	0xbf1d386c	-0.6141422
21	0x3dc97085	0.098359145
22	0x3dd66502	0.104684845
23	0x3e970514	0.29496062
24	0xbda338cc	-0.079698175
25	0x3ef764b7	0.48319027
26	0xbefd4a22	-0.4947062
27	0x3dccb5d3	0.09995618
28	0xbef19359	-0.4718273
29	0x3ecd6eca	0.40123588
30	0xbe98cc65	-0.2984344
31	0x3e07501c	0.13214153

tNN.0.bias f4 [16]
0	0xbee168df	-0.44025323
1	0x3f165b8f	0.5873346
2	0xbe6f51ba	-0.2337102
3	0x3dfafbd9	0.122550674
4	0xbf0dd345	-0.55400497
5	0xbe6d5434	-0.23176652
6	0xbe7c65bf	-0.24648188
7	0x3ea372b6	0.31923455
8	0x3f1c2842	0.6099893
9	0x3e4b5104	0.19855124
10	0xbeeabeae	-0.45848602
11	0xbf0debd6	-0.5543798
12	0xbee08524	-0.43851578
13	0xbf244754	-0.6417134
14	0xbef2c410	-0.4741521
15	0x3eb1ca7c	0.34724796

tNN.2.weight f4 [32, 16]
0	0xbe7adb7a	-0.24497786
1	0x3e33d428	0.175614
2	0x3e0423ff	0.12904356
3	0x3e1d8d01	0.1538582
4	0x3e8189bf	0.25300404
5	0x3e0262d3	0.12733011
6	0x3e4bd57e	0.1990566
7	0xbdc4df5d	-0.09612916
8	0xbe53da06	-0.20688638
9	0xbcf2cccf	-0.029638676
10	0xbe290199	-0.16504516
11	0x3e412a0d	0.18863697
12	0x3c2635ae	0.010144634
13	0x3e6202d6	0.22071394
14	0x3e184a0b	0.14871995
15	0xbe6973fb	-0.2279815
16	0x3d81897c	0.06325051
17	0x3e06acfd	0.13151927
18	0xbd2e39ab	-0.042535465
19	0xbd741d4b	-0.05959825
20	0x3e55dddc	0.20885414
21	0x3d5cbdf1	0.05389208
22	0xbe4fe4a0	-0.20302057
23	0xbe23f508	-0.16011441
24	0x3cb21736	0.021739583
25	0x3e10d367	0.14143144
26	0x3e3af520	0.1825757
27	0x3ddaabe8	0.1067732
28	0x3e524e36	0.20537648
29	0x3d5566e6	0.052100085
30	0xbe7c8448	-0.24659836
31	0x3da2c7d6	0.07948272
32	0xbe2463ea	-0.16053739
33	0xbd73aeb7	-0.059492793
34	0xbdcdfb35	-0.100576796
35	0x3d3a2257	0.045442905
36	0xbe466bad	-0.19377013
37	0x3e4ff0aa	0.2030665
38	0x3e31b779	0.17355146
39	0x3ccfaa46	0.025349747
40	0xbe3fc026	-0.18725643
41	0xbd9dd574	-0.077067286
42	0x3dd17eeb	0.10229286
43	0xbd29cfb2	-0.04145784
44	0x3e603655	0.21895726
45	0xbe287e53	-0.16454439
46	0xbe489e74	-0.19591695
47	0xbdb9a4e2	-0.09064652
48	0xbe33aea0	-0.17547083
49	0xbd0fa7a6	-0.03507199
50	0x3da7425f	0.08166956
51	0x3d1630d3	0.036667656
52	0xbc4b4fde	-0.012409179
53	0x3de4bdb4	0.111689955
54	0xbe25387d	-0.1613483
55	0xbe13629e	-0.14393088
56	0xbe0e8489	-0.13917746
57	0x3e58b369	0.2116219
58	0xbd673176	-0.056443654
59	0x3e7b3b7d	0.24534412
60	0xbdc19649	-0.09452493
61	0xbdec0e56	-0.11526172
62	0x3d876847	0.06611686
63	0x3e6c40bd	0.2307157
64	0xbd1f379c	-0.038871393
65	0xbdd1a689	-0.10236842
66	0x3db9ecce	0.0907837
67	0xbdaaf574	-0.08347598
68	0xbd4a4d52	-0.049390145
69	0x3e2dddbd	0.16979118
70	0xbe812069	-0.2522004
71	0x3e77223a	0.2413415
72	0x3b665cc4	0.0035150507
73	0xbe70a370	-0.23499846
74	0xbddb4fb0	-0.107085586
75	0xbe550ac1	-0.20804884
76	0x3df1d1e8	0.118076146
77	0xbe02a76c	-0.12759179
78	0x3e70cc1c	0.23515362
79	0xbe08f67e	-0.1337528
80	0xbe399e7a	-0.1812686
81	0xbe605f74	-0.21911412
82	0x3e4cc2c7	0.19996177
83	0x3e108cda	0.1411623
84	0xbe235b8d	-0.15952893
85	0xbe0e9601	-0.1392441
86	0xbe0df25e	-0.13861987
87	0x3d7fd1c9	0.062455926
88	0x3e05f3dc	0.13081306
89	0xbe3e3edc	-0.18578666
90	0x3e438119	0.19092216
91	0x3da38196	0.07983701
92	0x3c1cf071	0.00957881
93	0x3e07be39	0.13256158
94	0x3e6bd9b5	0.23032267
95	0xbd7cea21	-0.06174672
96	0x3e488576	0.19582161
97	0x3e3fa400	0.18714905
98	0x3c8645f5	0.01639078
99	0xbc4d007f	-0.012512325
100	0x3e0a8ab8	0.1352948
101	0xbda113ce	-0.078651056
102	0xbd129b1c	-0.035792455
103	0xbe402f07	-0.1876794
104	0xbdb64d47	-0.08901458
105	0xbe7139f7	-0.23557268
106	0x3ca5feee	0.020263162
107	0xbd94fc9a	-0.072747424
108	0xbe1321f3	-0.1436842
109	0xbd3749f4	-0.04474826
110	0x3e1f8ca0	0.15580988
111	0xbe0de0ff	-0.1385536
112	0x3d8caede	0.06869291
113	0xbe7d5d14	-0.24742538
114	0xbccbec99	-0.024893092
115	0xbe395a17	-0.18100773
116	0xbe4db609	-0.20088972
117	0x3ce51fbe	0.027969237
118	0x3e0f56d3	0.13997965
119	0xbe20da68	-0.15708315
120	0xbe04d8b5	-0.12973292
121	0x3de46fdc	0.11154148
122	0x3d6a0812	0.057136603
123	0xbd9a16f4	-0.07523909
124	0x3dcc011b	0.09961148
125	0xbdd08b14	-0.10182777
126	0x3e500a54	0.2031644
127	0xbe7a39e2	-0.24436143
128	0xbe6906ea	-0.22756544
129	0x3bb5ab05	0.0055440688
130	0x3d81333e	0.06308602
131	0xbd192c40	-0.037395716
132	0xbe5cbceb	-0.21556441
133	0x3decadfd	0.11556623
134	0x3d56e1e1	0.05246151
135	0x3cb4b7c8	0.02206029
136	0xbcffa8ee	-0.031208482
137	0xbe0b9fbb	-0.13635151
138	0xbe6105fe	-0.21974942
139	0x3b0114a5	0.0019696143
140	0x3e57cb36	0.21073613
141	0x3e55d411	0.20881678
142	0x3e335ef6	0.17516693
143	0x3e1ad338	0.15119636
144	0x3d8b94ef	0.06815516
145	0xbd36b15a	-0.04460273
146	0x3c9c768d	0.019099498
147	0xbcb4b965	-0.02206106
148	0x3e427a71	0.1899202
149	0x3d8898be	0.06669758
150	0xbd1be381	-0.03805876
151	0xbe4df7f9	-0.20114125
152	0xbe2e3cee	-0.1701543
153	0x3df159db	0.11784717
154	0x3d9af26e	0.07565771
155	0x3e6f328f	0.2335913
156	0x3db1450d	0.086557485
157	0x3d986a8b	0.074421965
158	0xbe78ac4b	-0.24284475
159	0xbe24c40b	-0.1609041
160	0xbc94805b	-0.01812761
161	0xbe384e5f	-0.17998646
162	0x3dfc5350	0.12320578
163	0xbe57b25a	-0.2106413
164	0xbcf5a9ec	-0.029988252
165	0x3d4cb349	0.049975667
166	0xbdfda50b	-0.12384995
167	0x3dad2633	0.084545515
168	0xbe43cb71	-0.19120575
169	0xbe707e02	-0.23485568
170	0xbbc92895	-0.006138871
171	0x3cf99d81	0.030470612
172	0x3e7ed021	0.24884082
173	0x3e45820d	0.19287892
174	0xbb1e95f4	-0.0024198266
175	0xbdebd177	-0.115145616
176	0xbb32d1d2	-0.0027285707
177	0xbd2a94ea	-0.04164592
178	0xbdf96a12	-0.121784344
179	0xbe3d9fcb	-0.18517987
180	0xbdde340e	-0.108497724
181	0xbe5e5a3c	-0.21714109
182	0x3c482dae	0.012217922
183	0xbe77e977	-0.24210154
184	0x3d0c4e05	0.034254093
185	0xbe06656a	-0.13124624
186	0xbcf4722a	-0.029839594
187	0xbdebefec	-0.11520371
188	0x3cbea057	0.023269815
189	0x3d7b86be	0.061407797
190	0xbd5702db	-0.052492958
191	0x3e0832b2	0.13300589
192	0x3e105b8a	0.1409742
193	0xbddc9b12	-0.10771765
194	0xba0b2ebb	-0.00053093926
195	0x3d4f6507	0.050633457
196	0x3e7b152f	0.245198
197	0xbd490817	-0.04907998
198	0x3cb61f40	0.022231698
199	0x3e55ad97	0.20867
200	0xbe0b07b0	-0.13577151
201	0x3bf3db13	0.007441887
202	0xbd55c513	-0.052189898
203	0xbdd13d58	-0.102167785
204	0x3e0323a0	0.12806559
205	0x3e042c0a	0.12907425
206	0x3e44d0d2	0.19220284
207	0x3cc46fdd	0.023979122
208	0xbe1441ca	-0.14478222
209	0xbe22e652	-0.15908173
210	0xbcebf0db	-0.028801372
211	0x3d8e94b7	0.06961959
212	0xbcb7f0db	-0.022453716
213	0x3dfa0909	0.122087546
214	0x3de1d186	0.110262915
215	0xbd93c00b	-0.07214364
216	0x3dc8bc95	0.09801594
217	0xbd0ab9ec	-0.033868715
218	0x3d83245a	0.06403418
219	0xbd62552a	-0.055257
220	0xbe6c67b6	-0.23086438
221	0x3e2d4599	0.1692108
222	0xbdffbe2a	-0.12487443
223	0xbcdb5b24	-0.026776858
224	0xbda3b840	-0.07994127
225	0x3dc01e03	0.09380724
226	0x3d99289e	0.0747845
227	0xbe4c6ba7	-0.19962941
228	0xbe44e319	-0.19227256
229	0x3e3168a6	0.17325076
230	0xbdf487a6	-0.119399354
231	0x3e716f0f	0.23577522
232	0x3e4d0771	0.2002237
233	0xbdd73e0c	-0.105098814
234	0x3e7ad305	0.2449456
235	0x3e266fa3	0.16253524
236	0xbe2ca0eb	-0.1685826
237	0x3e5ab2a3	0.21357207
238	0x3d7e0892	0.062019892
239	0x3ce1d7fd	0.027568812
240	0x3c8097a6	0.015697312
241	0xbd9664cd	-0.07343445
242	0x3e071336	0.13190922
243	0xbdce4f7a	-0.10073753
244	0x3e0ef721	0.1396146
245	0xbd908001	-0.07055665
246	0xbe4f86d9	-0.20266284
247	0xba778e5a	-0.0009443514
248	0x3e5618f1	0.20907952
249	0x3e3d8d93	0.18511038
250	0x3e599d9b	0.21251528
251	0xbdb46d32	-0.0880989
252	0x3e712f63	0.23553233
253	0x3e12a592	0.14320973
254	0x3d7429bd	0.059610117
255	0x3c8bcd7a	0.017065752

tNN.2.bias f4 [32]
0	0x3dd0b2a1	0.10190321
1	0x3e568902	0.20950702
2	0x3e756ba6	0.23966846
3	0x3e1f55bb	0.15560047
4	0x3e5ffe37	0.21874319
5	0x3e7a6f4d	0.2445652
6	0xbd3a3c5d	-0.045467723
7	0xbe53b217	-0.20673405
8	0x3e6b87b1	0.23000981
9	0x3de5d8c3	0.11222985
10	0xbe1df172	-0.15424135
11	0x3d4a668c	0.049414203
12	0xbd8d16ea	-0.06889136
13	0xbd104a70	-0.03522724
14	0xbd9b492f	-0.07582318
15	0x3d7567fc	0.05991362
16	0x3dc9d1c6	0.09854464
17	0x3e31fc2b	0.1738135
18	0xbd1a89f8	-0.037729234
19	0xbe0a5de9	-0.13512386
20	0xbe54f652	-0.20797089
21	0x3e25f850	0.16208005
22	0xbe69c473	-0.22828846
23	0x3dd60d04	0.10451701
24	0x3d78946d	0.060688425
25	0x3daf4fc4	0.08560136
26	0xbd6ca832	-0.05777759
27	0x3db74e61	0.089504965
28	0xbe30d0f7	-0.17267214
29	0x3e607cad	0.2192256
30	0xbe4a1daf	-0.19737886
31	0x3dd4cc48	0.10390526

tNN.4.weight f4 [64, 32]
0	0x3e2c9541	0.16853811
1	0x3dfc4330	0.123175025
2	0xbe2bc19e	-0.16773078
3	0x3e0548c2	0.13016036
4	0xbe32eca8	-0.1747309
5	0xbbe688ad	-0.007035336
6	0xbdd493d0	-0.103797555
7	0xbc413988	-0.011793502
8	0xbb5badc2	-0.0033520316
9	0x3e258995	0.16165765
10	0xbdee7579	-0.116435
11	0x3e21f03f	0.15814303
12	0xbda4f6c4	-0.08054879
13	0xbd63820f	-0.055543955
14	0x3de81be7	0.11333447
15	0x3e1fbd8c	0.1559965
16	0xbd2f3d6b	-0.042783182
17	0x3e3dbeef	0.18529867
18	0x3dd8f12b	0.10592874
19	0xbe0db50d	-0.13838597
20	0x3d3385a8	0.043828636
21	0x3c718502	0.014741184
22	0xbd8eede9	-0.069789715
23	0x3dd0bbc3	0.10192063
24	0xbcd8bd19	-0.026457356
25	0x3e150275	0.14551719
26	0x3e16bffb	0.14721672
27	0x3e173bd2	0.14768913
28	0xbb2330ed	-0.0024900988
29	0xbdc7c43d	-0.09754226
30	0x3daaadb6	0.08333914
31	0xbd790a1d	-0.06080066
32	0xbe07ab52	-0.13248947
33	0xbdb06a5d	-0.08614037
34	0x3ccd0993	0.02502898
35	0xbd997adb	-0.07494136
36	0x3d7db636	0.061941348
37	0x3d4c8d8e	0.049939685
38	0x3c5f4ca7	0.013629115
39	0xbdcada0d	-0.09904871
40	0xbe0f48ed	-0.13992663
41	0x3e2027f1	0.15640236
42	0xbdbfc735	-0.093641676
43	0xbd19d1d0	-0.03755361
44	0x3e037513	0.12837629
45	0x3d62f2a8	0.055407196
46	0xba94cab9	-0.001135192
47	0xbdbd86c4	-0.0925422
48	0x3deb0257	0.11475056
49	0x3cfcf9c9	0.030880826
50	0xbe2452c0	-0.16047192
51	0xbdfffe5b	-0.12499686
52	0xbdf33644	-0.11875585
53	0xbd0cbdb0	-0.034360588
54	0xbd856a45	-0.0651441
55	0xbd9f5dab	-0.077815376
56	0x3dcc72a0	0.099828005
57	0x3b08abd7	0.0020854378
58	0x3e261fc0	0.16223049
59	0xbdf2447f	-0.11829471
60	0xbd4239ba	-0.047418334
61	0x3d977d47	0.07396942
62	0x3d821a32	0.063526526
63	0xbd892809	-0.06697089
64	0xbcff1aab	-0.031140646
65	0xbe2625b2	-0.16225317
66	0xbe1d6d0b	-0.15373628
67	0xbe1f6420	-0.15565538
68	0x3dbf2ac0	0.09334326
69	0x3ca4580d	0.020061517
70	0x3dd49183	0.10379317
71	0x3ceb35c2	0.028712157
72	0xbc41d08b	-0.011829506
73	0xbe0b57df	-0.13607739
74	0x3e1fcab4	0.15604669
75	0x3db1e301	0.08685876
76	0x3d9ec3fa	0.07752223
77	0xbe048b99	-0.12943877
78	0xbd76722a	-0.06016747
79	0xbd6cf47d	-0.05785035
80	0x3d794309	0.060854945
81	0xbdc169ea	-0.0944403
82	0xbc9ee4ef	-0.019396273
83	0x3e05809a	0.13037339
84	0xbe361bc9	-0.17784037
85	0xbd733e09	-0.059385333
86	0xbdf8a60f	-0.12141048
87	0xbdc39dd8	-0.09551591
88	0x3e06b502	0.13154987
89	0x3dc336e4	0.09531954
90	0x3e288770	0.16457915
91	0xbd78ea09	-0.06077007
92	0xbd473a17	-0.048639383
93	0xbdfff446	-0.12497763
94	0xbe198320	-0.14991426
95	0xbe1e76ec	-0.15475053
96	0x3dcac95d	0.09901688
97	0x3ca193a7	0.019723726
98	0x3e0d5ffe	0.1380615
99	0xbe175c55	-0.14781316
100	0xbd8d163c	-0.068890065
101	0xbe1dced6	-0.15410933
102	0xbb83d416	-0.0040230853
103	0x3e19799a	0.14987794
104	0x3e2122ec	0.15735978
105	0x3df5281e	0.11970542
106	0x3e23a836	0.15982136
107	0x3de0a930	0.1096977
108	0x3dc231b4	0.09482136
109	0xbcac27be	-0.021015044
110	0x3dfaca7e	0.122456536
111	0xbd125822	-0.03572858
112	0xbd489478	-0.048969716
113	0x3d9eb223	0.07748821
114	0xbe0aa4e3	-0.13539462
115	0xbe1e47fe	-0.1545715
116	0x3e31a7fa	0.17349234
117	0x3dd5de0e	0.10442744
118	0x3d3448a3	0.044014584
119	0xbe28bfa5	-0.16479357
120	0xbd6e86cc	-0.05823402
121	0x3d9a9661	0.07548214
122	0x3e302800	0.17202759
123	0xbddd410b	-0.108034216
124	0xbd12c216	-0.035829626
125	0xbe1fb090	-0.15594697
126	0x3e0a193e	0.13486192
127	0x3e33e6ee	0.17568561
128	0xbe2e3b29	-0.17014755
129	0xbd8b2a0b	-0.067951284
130	0x3ddd6645	0.10810522
131	0xbd9376a2	-0.07200362
132	0x3de516f3	0.11186018
133	0x3d14fdfb	0.036375027
134	0x3d817713	0.0632154
135	0x3ca68cfa	0.020330895
136	0x3dadbb46	0.08482985
137	0x3df8c6c4	0.121472865
138	0xbe236bcd	-0.15959091
139	0xbd5acecf	-0.053419884
140	0xbe07727a	-0.13227263
141	0x3de3cca9	0.1112302
142	0xbd8a78e1	-0.06761337
143	0x3c4934c0	0.012280643
144	0xbe041de3	-0.12902026
145	0xbd9f8cbb	-0.07790514
146	0xbd96cf41	-0.07363749
147	0xbdb6dbec	-0.089286655
148	0x3d6a0d62	0.05714167
149	0x3ce724ca	0.028215785
150	0xbdebc295	-0.11511723
151	0x3d610adf	0.054942008
152	0xbd91843e	-0.07105301
153	0xbd7cbaf5	-0.061701734
154	0xbb421fd7	-0.0029621029
155	0x3db0060e	0.08594905
156	0x3e1d7938	0.15378273
157	0xbc4a75ca	-0.012357185
158	0xbe23e4c6	-0.16005239
159	0xbe030bec	-0.12797517
160	0x3d35512d	0.04426687
161	0xbe1dfdd7	-0.15428863
162	0xbe00ee9c	-0.12591022
163	0x3e02c433	0.12770157
164	0xbdec732c	-0.11545405
165	0x3b8c9ec0	0.0042913854
166	0x3dfb0ae1	0.12257934
167	0xbbb7b43c	-0.0056062024
168	0xbdec9fdf	-0.115539305
169	0xbd4fd47e	-0.050739758
170	0x3e0cd31e	0.1375241
171	0x3e21d1d9	0.15802707
172	0xbe1ed2c0	-0.15510082
173	0xbd1ba069	-0.037994776
174	0xbd4245a6	-0.047429703
175	0xbcc3cadd	-0.023900444
176	0x3e1eeb0f	0.15519355
177	0x3e28dcc3	0.16490464
178	0xbde8e084	-0.11370948
179	0xbda7a572	-0.08185853
180	0xbd914bb7	-0.070945196
181	0xbd3b5ff1	-0.045745794
182	0xbcbc0af2	-0.022954438
183	0x3d2c0695	0.041998465
184	0xbe22d5dc	-0.15901893
185	0xbddd40ed	-0.10803399
186	0xbe3adeec	-0.182491
187	0xbe0c4d59	-0.13701381
188	0xbe18264d	-0.1485836
189	0xbcfd05ec	-0.030886613
190	0xbdf183b8	-0.117927015
191	0xbcd17c4b	-0.025571963
192	0x3c4d6da1	0.012538345
193	0xbd8f34d4	-0.06992498
194	0xbd574b34	-0.052561954
195	0xbd6b9b62	-0.05752123
196	0xbddb5602	-0.10709764
197	0xbdb3c8db	-0.087785445
198	0xbd73f273	-0.05955739
199	0xbe2b03ea	-0.16700712
200	0x3d9d3cf8	0.076776445
201	0x3bef9c71	0.0073123504
202	0xbd5b67fe	-0.05356597
203	0x3d9cf432	0.07663764
204	0xbe1f83df	-0.15577649
205	0x3d375cab	0.04476611
206	0xbe2f7e4c	-0.17138022
207	0x3e11eb52	0.14249924
208	0x3de91aaa	0.11382039
209	0x3c692317	0.0142295575
210	0x3bbf8a8b	0.005845373
211	0xbcf3a53e	-0.02974188
212	0xbe2487f0	-0.16067481
213	0xbc9b19df	-0.018933235
214	0xbe036c7f	-0.12834357
215	0xbd14237a	-0.036166646
216	0x3e2e0bfc	0.16996759
217	0x3e045728	0.12923872
218	0x3bc289be	0.0059368303
219	0x3b41a63c	0.0029548546
220	0x3e01982c	0.12655705
221	0x3dcfb466	0.1014183
222	0xbd08a06a	-0.033356108
223	0xbdf6a362	-0.120428815
224	0x3dbc1d9e	0.091853365
225	0x3e35076e	0.17678615
226	0xbdd67094	-0.10470691
227	0xbe219bb5	-0.15782054
228	0xbcf72754	-0.03017012
229	0xbe2b2b80	-0.16715813
230	0xbb28fd62	-0.0025785794
231	0x3c4ced0d	0.012507689
232	0xbe2323e6	-0.15931663
233	0x3dd2559f	0.10270237
234	0x3d0f7f29	0.03503338
235	0xbd1a31ee	-0.037645273
236	0x3d2880e3	0.04113854
237	0xbdb6f408	-0.08933264
238	0xbd99d2dc	-0.07510921
239	0xbc4b373e	-0.0124033075
240	0x3dc2c204	0.09509662
241	0xbc8e0b69	-0.017339425
242	0x3e161f9f	0.146605
243	0x3dd187ae	0.10230957
244	0x3dcdcdef	0.10049044
245	0xbd44bf24	-0.04803385
246	0xbde68687	-0.11256128
247	0x3e1ae7f4	0.15127546
248	0xbe145612	-0.14485958
249	0x3d2aa153	0.041657757
250	0xbdcd1f4a	-0.100157335
251	0x3e2f0fa9	0.17095818
252	0x3c55b1bb	0.0130428625
253	0x3bbc4b41	0.0057462757
254	0x3cbb4ffa	0.022865284
255	0xbd1d3295	-0.038378317

tNN.4.bias f4 [64]
0	0x3d5f90e0	0.054581523
1	0x3d323512	0.043507643
2	0x3dddd9fe	0.10832594
3	0x3e20efae	0.1571643
4	0x3d3b7fa4	0.045776024
5	0x3e11f9af	0.14255403
6	0x3d5800ae	0.052735023
7	0xbd7ab619	-0.061208818
8	0x3db998cf	0.09062349
9	0x3e1a6996	0.1507934
10	0xbdae996b	-0.08525356
11	0x3d5fffe2	0.05468739
12	0xbd89eb75	-0.06734363
13	0xbe075be6	-0.1321865
14	0xbe16712e	-0.14691612
15	0xbcf08818	-0.02936177
16	0xbdd91b2f	-0.10600888
17	0xbd29167e	-0.041281216
18	0x3e27457c	0.163351
19	0x3d82fdb3	0.063960455
20	0x3de21401	0.11038972
21	0x3d564fb2	0.052322097
22	0x3c8256ed	0.01591059
23	0xbd9c1108	-0.07620436
24	0x3e150d34	0.14555818
25	0xbd671ab8	-0.056421965
26	0x3d9a34c1	0.07529593
27	0xbe26bae5	-0.16282232
28	0x3e00d0f4	0.1257971
29	0xbdafda1a	-0.085865214
30	0xbddc696a	-0.10762294
31	0x3d1f6797	0.03891715
32	0xbd58dc66	-0.052944563
33	0x3e13d68d	0.14437313
34	0xbdc91712	-0.098188534
35	0xbaac8a54	-0.0013163784
36	0x3dd97b6a	0.106192425
37	0xbd115d67	-0.035489466
38	0xbc1f7ce3	-0.009734365
39	0xbdcae144	-0.09906247
40	0xbdae8882	-0.085221305
41	0xbe13b046	-0.14422712
42	0xbdf9994c	-0.12187442
43	0xbe0333ee	-0.12812778
44	0x3c85cec6	0.016333949
45	0xbe0984bb	-0.13429539
46	0x3bf4aa2e	0.007466576
47	0x3e2508d3	0.16116647
48	0xbcc098cf	-0.023510365
49	0x3d14dcda	0.036343433
50	0xbd2b49d7	-0.041818466
51	0xbe165c1f	-0.14683579
52	0xbdb0e96f	-0.08638274
53	0xbd811b18	-0.06303996
54	0xbe3101e6	-0.1728588
55	0xbe193ee5	-0.14965399
56	0xbdec3797	-0.115340404
57	0x3d82abfd	0.063804604
58	0x3d6e97d7	0.058250275
59	0x3da95176	0.082674906
60	0x3d9be817	0.07612627
61	0xbb8224e6	-0.003971684
62	0x3e00eeec	0.12591141
63	0x3dd28405	0.10279087

psi.0.weight f4 [128, 160]
0	0xbca51ae6	-0.020154428
1	0x3c3accbf	0.011401354
2	0xbd946027	-0.07244902
3	0xbcb0ca6a	-0.021580894
4	0xbd39c4e3	-0.04535378
5	0xbd8904a4	-0.06690338
6	0x3a6b3eb9	0.0008973885
7	0xbdaf44ec	-0.08558068
8	0xbbaf5df6	-0.005351777
9	0xbcee1149	-0.029060977
10	0xbd53ff8a	-0.051757373
11	0xbd5b0f4f	-0.053481396
12	0x3d6a155d	0.05714928
13	0x3d5e98a7	0.0543448
14	0x3daa563b	0.083172284
15	0x3b36a475	0.002786902
16	0x3c6eff95	0.014587303
17	0xbc034e8d	-0.008014333
18	0xbd1fc159	-0.03900275
19	0x3cd8f4ff	0.02648401
20	0xbc9233a1	-0.017846884
21	0x3c1c407a	0.009536857
22	0x3ca904e4	0.020632215
23	0x3d4af004	0.049545303
24	0xbd13c615	-0.036077578
25	0xbd17dff7	-0.037078824
26	0x3c9016a3	0.017588919
27	0x3c755efb	0.014976258
28	0xbd08b052	-0.033371277
29	0x3bd864f7	0.006603833
30	0x3d69d989	0.057092223
31	0xbd813f66	-0.063109204
32	0x3d85ddf9	0.065364785
33	0x3d7cbed8	0.06170544
34	0x3d40916d	0.04701369
35	0x3d859ae0	0.06523681
36	0xbd839ac3	-0.06426003
37	0xbd16ce90	-0.036818087
38	0xbd3c5c59	-0.045986507
39	0x3d18c399	0.03729591
40	0xbd670116	-0.05639752
41	0x3d1b4d90	0.037915766
42	0xbd0c4a23	-0.03425039
43	0x3bd39d29	0.006457944
44	0xbd5754a5	-0.052570958
45	0x3cb10ebd	0.021613473
46	0xbd7fb506	-0.062428497
47	0xbd983dfe	-0.07433699
48	0xbcc2e78f	-0.023792056
49	0x3d719fad	0.05899017
50	0x3d845ea8	0.06463367
51	0x3d352802	0.044227608
52	0xbd9d9220	-0.07693887
53	0xbc57639b	-0.013146306
54	0x3d514ea0	0.051100373
55	0xbd9ae122	-0.07562472
56	0x3d0332bc	0.032030806
57	0x3bc945c2	0.006142349
58	0xbd440d99	-0.04786453
59	0x3d4952c9	0.049151216
60	0xbb6d6074	-0.003622082
61	0x3d14fb6f	0.0363726
62	0x3d91a4f9	0.07111544
63	0xbd94a490	-0.0725795
64	0xbda211e3	-0.07913568
65	0x3cc1dcdc	0.023664884
66	0x3bd0579f	0.0063581015
67	0x3d28a760	0.041175246
68	0xbc49a3df	-0.012307136
69	0xbd04f668	-0.032461554
70	0x3d964606	0.07337575
71	0xbd47c703	-0.048773777
72	0xbd89a7dd	-0.067214705
73	0x3d7c5b68	0.06161061
74	0x3c1f2b20	0.009714872
75	0x3bb261cb	0.0054437867
76	0xbd72dc66	-0.05929222
77	0xbd756fb8	-0.059920996
78	0x3c375486	0.011189586
79	0xbd6781c8	-0.056520253
80	0x3cf8b262	0.030358497
81	0xbd2f29be	-0.042764418
82	0xbba57823	-0.005049722
83	0xbd857e6d	-0.065182544
84	0xbd295fb7	-0.041351046
85	0x3d92fd1f	0.07177185
86	0x3d3b2cec	0.045697138
87	0xbd933189	-0.071871825
88	0xbd36c4fb	-0.04462145
89	0x3d590788	0.052985698
90	0xbd22aa8a	-0.03971342
91	0xbd0cb4af	-0.034352
92	0xbd054ff1	-0.03254694
93	0x3da21688	0.07914454
94	0xbc9fedab	-0.019522509
95	0xbc3d3195	-0.011547466
96	0xbd83ac10	-0.06429303
97	0xbd102ddf	-0.035199996
98	0xbd01bf4e	-0.031676583
99	0xbc826416	-0.015916865
100	0xbd0f6b2c	-0.035014316
101	0xbd468f57	-0.048476543
102	0x3bbc137b	0.005739627
103	0xbca67484	-0.02031923
104	0xbd93fdda	-0.07226153
105	0xb9fd6fb8	-0.00048339157
106	0x3d924f07	0.071439795
107	0x3d73a1f5	0.059480626
108	0xbc07619a	-0.008263016
109	0xbd305fd7	-0.04306015
110	0x3c16c2bf	0.0092017045
111	0xbd8bf0f4	-0.068330675
112	0xbd6478ac	-0.055779144
113	0xbce5b191	-0.028038772
114	0xbb11363e	-0.0022157575
115	0xbd2ae45e	-0.041721694
116	0x3d3f98a7	0.04677644
117	0x3c00edd1	0.0078692
118	0x3c51e3cd	0.01281066
119	0xbc59461b	-0.013261343
120	0x3d8aaa8d	0.06770811
121	0xbd44a477	-0.04800841
122	0xbc1ff336	-0.009762576
123	0x3d807356	0.062719986
124	0xbda4e69c	-0.08051798
125	0x3b76bcee	0.0037649232
126	0xb9926c56	-0.00027928007
127	0x3cc07ab2	0.023496006
128	0x3c79cd6b	0.015246729
129	0xbd8117b5	-0.0630335
130	0xbc5ed92e	-0.013601584
131	0xbda69335	-0.08133546
132	0x3d0cfea3	0.034422528
133	0xbd923bd0	-0.071403146
134	0xbd85cbdb	-0.06533023
135	0xbd59e431	-0.053196136
136	0xbbfb6690	-0.0076721385
137	0x3d94ee6f	0.0727204
138	0x3c9c4d15	0.019079724
139	0x3d753774	0.059867337
140	0x3d37a937	0.04483911
141	0xbc81cc1a	-0.015844394
142	0x395769f8	0.00020543474
143	0xbd6a002f	-0.05712908
144	0xbd7b52dd	-0.06135832
145	0x3d31dfd1	0.04342634
146	0x3d679b23	0.056544434
147	0xbceb2789	-0.028705375
148	0x3d6c4fcb	0.057693284
149	0x3c9c0fd7	0.019050522
150	0x3c1f32c2	0.009716691
151	0x3b74443f	0.0037272123
152	0x3c804a6b	0.015660485
153	0xbd844e78	-0.06460279
154	0x3d9e9135	0.0774254
155	0xbd948c64	-0.0725334
156	0x3c0816f9	0.008306258
157	0xbd056a00	-0.032571793
158	0x3d511cd7	0.051052894
159	0x3cb2311e	0.021751937
160	0x3da240f2	0.079225436
161	0xbd881e62	-0.0664642
162	0x3acd32ef	0.0015655438
163	0xbc242413	-0.010018366
164	0x3cdf55bc	0.027262561
165	0x3d46f32b	0.048571747
166	0xbc9b881a	-0.018985797
167	0x3d44bac5	0.04802968
168	0x3d473ea5	0.048643727
169	0xbd8bf1c3	-0.06833222
170	0x3c312b1f	0.0108135035
171	0x3d498235	0.04919644
172	0x3d708578	0.058721036
173	0x3c538eab	0.012912433
174	0x3c5e1380	0.013554454
175	0xbd2acbbe	-0.04169821
176	0x3d970e83	0.07375815
177	0x3d0ec3f4	0.034854844
178	0xbd8cefae	-0.06881653
179	0xbd73fae5	-0.059565444
180	0x3cdc981d	0.026928002
181	0xbd6936ae	-0.056936912
182	0xbd73f578	-0.05956027
183	0xbba5deb8	-0.0050619505
184	0x3ceb4f83	0.028724438
185	0xbd298f62	-0.041396506
186	0xbce9f449	-0.028558867
187	0xbd2dd813	-0.042442393
188	0x3d515676	0.051107846
189	0xbc2a0245	-0.010376518
190	0x3d78155d	0.06056725
191	0xbb4f8fc0	-0.0031671375
192	0x3d03a79b	0.032142263
193	0xbcac11dd	-0.021004612
194	0xbb5c95c2	-0.0033658599
195	0x3d3ea673	0.046545457
196	0xbc53e224	-0.012932334
197	0xbd70ea0f	-0.058816966
198	0xbd19a094	-0.037506655
199	0x3b8fe052	0.0043907547
200	0x3d922038	0.071350515
201	0x3b31adb8	0.00271116
202	0x3d5a9e0b	0.053373378
203	0xbc6f38c2	-0.014600934
204	0xbd023b6b	-0.031794947
205	0x3d192b55	0.03739484
206	0x3cb56ef4	0.022147633
207	0xbc878d59	-0.016546892
208	0xbd973348	-0.07382828
209	0x3d555364	0.05208148
210	0x3d3bd9f5	0.045862157
211	0xbcc3fb7f	-0.023923634
212	0x3d95841c	0.073005885
213	0xbd90f4b2	-0.07077922
214	0x3a48b6dc	0.00076566427
215	0x3c14bfe4	0.009078953
216	0xbd0c663d	-0.03427719
217	0xbcb05720	-0.02152592
218	0x3d3373be	0.043811552
219	0xbd99f03f	-0.075165264
220	0x3c22a09d	0.0099259885
221	0xbcfc5208	-0.030800834
222	0x3cc3e312	0.023911987
223	0xbac1df9c	-0.0014791372
224	0x3d6fd5b0	0.058553398
225	0x3d51c174	0.051209882
226	0x3b4f5374	0.0031635435
227	0xbd80c532	-0.06287612
228	0xbd11b14f	-0.035569485
229	0xbd2a331d	-0.04155265
230	0x3d7b1273	0.06129689
231	0x3d20c0eb	0.03924648
232	0xbd70c141	-0.05877805
233	0x3c2915dc	0.010320153
234	0x3d687e72	0.056761213
235	0x3d252d7f	0.04032659
236	0xbcde4ef4	-0.027137257
237	0x3d0a5064	0.033768073
238	0xbc3bb964	-0.011457775
239	0x3d684e1e	0.056715123
240	0xbd06dd5b	-0.032925945
241	0x3ce7daf0	0.02830264
242	0x3b8f23f5	0.0043683
243	0xbd1e1872	-0.03859753
244	0xbca0d080	-0.01963067
245	0xbc3055c3	-0.010762635
246	0xbd757a9e	-0.05993139
247	0xbd91eaa0	-0.07124829
248	0x3d8f1d5b	0.06988021
249	0x3bdfb6f5	0.00682723
250	0xbbdf009b	-0.006805492
251	0x3d88dd16	0.06682794
252	0x3d96b04f	0.07357847
253	0x3d7307c0	0.059333563
254	0xbd71f842	-0.059074648
255	0x3c0f2aa5	0.008738195

psi.0.bias f4 [128]
0	0xbd5dac11	-0.054119173
1	0x3d1e8a38	0.038706034
2	0xbd5f2a26	-0.054483555
3	0xbd3d2af7	-0.046183553
4	0xbce186b0	-0.027530044
5	0xbd9512da	-0.07278986
6	0xbd067104	-0.032822624
7	0xbcf9067e	-0.030398604
8	0xbd1901a0	-0.037355065
9	0x3c2d3d23	0.010573658
10	0x3cb4438d	0.022004867
11	0xbd89156e	-0.066935405
12	0xbd74e552	-0.05978901
13	0x3d48b756	0.049002968
14	0x3d1d6262	0.038423903
15	0xbd452678	-0.04813239
16	0x3d75413b	0.05987666
17	0x3d199cf8	0.037503213
18	0x3d0e68f0	0.034768045
19	0xbc173ac2	-0.009230318
20	0xbd24e6ad	-0.040259052
21	0xbce82ab6	-0.028340679
22	0x3d24b459	0.040211055
23	0x3da18683	0.07886984
24	0xbd9436ca	-0.07237013
25	0xbd9715e9	-0.07377226
26	0x3b18f5cb	0.0023339863
27	0xbbeb4665	-0.0071800225
28	0x3d4f280a	0.050575294
29	0x389de2b5	7.528571e-05
30	0x3d1d9ed0	0.038481534
31	0xbd1f6b4b	-0.038920682
32	0xbd62e575	-0.05539461
33	0xbb1a5991	-0.002355192
34	0x3b7d51f4	0.0038653584
35	0xbd835069	-0.064118214
36	0xbcd19a0e	-0.025586154
37	0xbd7fe638	-0.062475413
38	0xbd86daea	-0.06584723
39	0xbcaf953a	-0.021433461
40	0xbd43db77	-0.04781672
41	0xbd37a2dc	-0.04483305
42	0xbce9411e	-0.028473433
43	0xbd0a8839	-0.03382132
44	0xbcdb8e77	-0.026801331
45	0xbd8991d8	-0.067172706
46	0xbd78a3c4	-0.060703054
47	0x3cf78e64	0.030219264
48	0xbd6a12d7	-0.057146873
49	0xbbc116b4	-0.005892599
50	0x3cf4396a	0.029812533
51	0x3cd6dbb6	0.026227813
52	0x3d6a64e3	0.05722512
53	0x3d780251	0.060549084
54	0xbcbd0b37	-0.023076637
55	0x3cc7def7	0.02439831
56	0x3da40d3c	0.08010337
57	0x3d6627cd	0.0561903
58	0xbc41a444	-0.011818949
59	0x3d169d51	0.036771122
60	0xbda8eec0	-0.08248663
61	0x3d6c6f92	0.05772359
62	0x3d5ac484	0.05341007
63	0x3d9027d6	0.07038848
64	0xbc9b4cb7	-0.018957479
65	0x3d9bad7d	0.0760145
66	0x3d2d0d75	0.04224916
67	0xbd7de843	-0.06198908
68	0x3d06dc71	0.032925073
69	0xbda958f2	-0.08268918
70	0xbd169933	-0.036767196
71	0x3d87b60e	0.06626521
72	0xbb466877	-0.0030274668
73	0x3cd88653	0.026431238
74	0x3d936b45	0.071981944
75	0x3d1d76af	0.038443264
76	0xbd6ff74e	-0.058585458
77	0xbc5d67b9	-0.013513499
78	0xbc757b13	-0.014982956
79	0xbc981a0f	-0.018567113
80	0x3c9771a1	0.0184868
81	0xbd9fe73a	-0.07807775
82	0xbc61ac9f	-0.013774066
83	0x3ae96e02	0.0017809274
84	0x3dae68d8	0.08516091
85	0xbcecabb1	-0.028890463
86	0x3d0393ab	0.03212325
87	0xbd35feea	-0.044432558
88	0xbd0bc2e7	-0.03412142
89	0x3d2d083b	0.042244177
90	0xbdac0bd5	-0.08400694
91	0x3d7b8de9	0.061414633
92	0xbd153539	-0.03642771
93	0xbd35b553	-0.044362377
94	0xbcff73bd	-0.031183118
95	0xbd74d67c	-0.05977486
96	0xbc4b4e3c	-0.012408789
97	0x3c0002c9	0.007813164
98	0xba885070	-0.0010399949
99	0xbd8231e1	-0.0635717
100	0xbd4736c4	-0.048636213
101	0xbcccec9d	-0.02501517
102	0x3d3b9df1	0.04580492
103	0xbd8d8955	-0.0691096
104	0xbd364e54	-0.044508293
105	0xbd9767bc	-0.07392833
106	0x3c884127	0.01663263
107	0x3d7c2dd6	0.06156715
108	0xbd542f3b	-0.051802855
109	0x3d9a58cc	0.07536468
110	0xbdaab287	-0.08334833
111	0x3b3e8666	0.0029071807
112	0xbd9e48eb	-0.07728752
113	0xbd9965ff	-0.07490157
114	0x3cc24182	0.023712877
115	0x3bef63e6	0.00730561
116	0x3d2e4a36	0.04255124
117	0x3d294973	0.041329812
118	0xbd584d21	-0.05280793
119	0x3ce4dacb	0.02793636
120	0x3d8a0594	0.06739345
121	0xbd4ef09e	-0.05052244
122	0xbd2a8fe6	-0.04164114
123	0xbc8d49a6	-0.017247032
124	0xbd995775	-0.07487384
125	0x3ceaa14f	0.028641371
126	0x3c8d6183	0.017258411
127	0xbcd17b39	-0.025571452

psi.2.weight f4 [64, 128]
0	0x3c457045	0.012050693
1	0x3d409620	0.04701817
2	0xbd3c6ab6	-0.046000205
3	0x3d4db3d3	0.050220322
4	0xbd3de689	-0.046362434
5	0xbd301af2	-0.042994447
6	0x3d6948be	0.056954138
7	0x3b0bfeab	0.002136151
8	0xbd129abc	-0.035792097
9	0xbc6b12df	-0.014347761
10	0xbd08cab2	-0.03339643
11	0xbd8f1b3e	-0.06987618
12	0x3c94727b	0.018120995
13	0xbca5c7c0	-0.02023685
14	0xb9d2712b	-0.00040138638
15	0x3d259203	0.04042245
16	0xbd35dff5	-0.044403035
17	0x3d3785a5	0.044805188
18	0x3d85662f	0.065136306
19	0xbd2c74c6	-0.04210355
20	0xbca33a56	-0.019925278
21	0x3cc30ba4	0.023809262
22	0xbd91a70d	-0.071119405
23	0xbd0763be	-0.033054106
24	0xbd2084d7	-0.039189186
25	0x3d6afc1d	0.05736934
26	0x3c332804	0.010934833
27	0x3bcdf1c7	0.0062849256
28	0x3d4f1941	0.050561193
29	0xbbe57d81	-0.0070034866
30	0x3cd65af7	0.026166422
31	0xbdb07d76	-0.0861768
32	0x3d3ee614	0.04660614
33	0x3d2b57de	0.041831844
34	0xbd9d2dc5	-0.076747455
35	0x3d8012b3	0.062535666
36	0xbda71a05	-0.0815926
37	0x3d6ec08c	0.058289096
38	0xbda6c25d	-0.081425406
39	0xbdbe940b	-0.09305581
40	0x3db4b88d	0.08824263
41	0xbb448980	-0.0029989183
42	0xbb2af5b9	-0.0026086404
43	0xbc66d5c2	-0.01408905
44	0xbc59610c	-0.013267767
45	0xbd7c8ceb	-0.061657827
46	0xbc7bc3a1	-0.015366466
47	0xbd352552	-0.044225045
48	0xbc4eee54	-0.012630064
49	0xbd5e259f	-0.054235097
50	0xbd9e8219	-0.07739658
51	0x3cc14f13	0.023597276
52	0x3d2deeb0	0.04246396
53	0x3da2d74d	0.079512216
54	0xbd9f6bdb	-0.07784244
55	0x3cd858e7	0.02640958
56	0xbda7275c	-0.08161804
57	0x3d7b1389	0.061297927
58	0x3da1c828	0.07899505
59	0xbca3aa4f	-0.01997867
60	0xbb6abb97	-0.0035817379
61	0x3d9f123b	0.07767149
62	0x3d3a6d82	0.04551459
63	0x3da6308c	0.08114728
64	0x3d29a016	0.041412435
65	0xbd66c803	-0.05634309
66	0xbd9d42da	-0.076787665
67	0xbd00d36d	-0.03145163
68	0x3da277c2	0.07932998
69	0x3cb99a40	0.02265656
70	0xbd5cc946	-0.053902887
71	0xbd9877a2	-0.07444693
72	0x3ce46988	0.027882352
73	0x3da0d12c	0.07852396
74	0xbd0f7b7a	-0.035029866
75	0xbc14cfa6	-0.00908271
76	0xbd8ce448	-0.06879479
77	0x3d8e2fc9	0.06942708
78	0xbc92a5d5	-0.01790134
79	0xbd8d97d3	-0.06913724
80	0x3d45fc4e	0.04833632
81	0xbc437ea1	-0.011932046
82	0x3cf36362	0.029710475
83	0xbdb73a03	-0.08946612
84	0x3d6b92ac	0.057512924
85	0x3d55bc56	0.052181564
86	0x3c99d83f	0.018779872
87	0xbdb4c94c	-0.08827457
88	0x3d51ac1c	0.051189527
89	0x3d87d70c	0.06632814
90	0x3d39bb03	0.045344364
91	0xbd5cca79	-0.05390403
92	0x3c4f6175	0.012657513
93	0xbcda1d91	-0.026625426
94	0xbc165ea9	-0.009177842
95	0x3d99d2c1	0.07510901
96	0x3d02588b	0.031822722
97	0x3db1ef86	0.086882636
98	0xbb0798cd	-0.0020690442
99	0xbda85997	-0.08220213
100	0xbd7820c8	-0.060578138
101	0x3db3c439	0.08777661
102	0x3d32542d	0.043537308
103	0x3cfc459e	0.030794915
104	0xbc3d1c07	-0.011542327
105	0xbc8183ee	-0.01580998
106	0xbcd98ef1	-0.026557418
107	0xbcff5ce5	-0.031172225
108	0xbd45af3e	-0.048262827
109	0x3c90e558	0.017687485
110	0x3ce62b2d	0.02809676
111	0xbd80e2d5	-0.06293265
112	0xbc4a9a60	-0.012365907
113	0x3ccc85f3	0.024966216
114	0xbd87a82b	-0.06623872
115	0xbc7a2c9d	-0.015269426
116	0x3db95f2a	0.09051354
117	0x3d2a54dc	0.041584834
118	0x3b55a1e9	0.0032597727
119	0x3d1619d1	0.036645714
120	0x3d141369	0.036151323
121	0x3d427f7d	0.047484864
122	0xbd9c85f4	-0.07642737
123	0x3ce9bd89	0.02853276
124	0xbda7ea10	-0.08198941
125	0xbbd9ebfd	-0.0066504464
126	0x3d722f82	0.05912734
127	0x3d9aa6d9	0.07551355
128	0x3d4bd39f	0.049762364
129	0x3d26bdd7	0.04070839
130	0x3d751778	0.059836835
131	0xbd947e60	-0.072506666
132	0x3d564016	0.05230721
133	0xbab87b2b	-0.0014074793
134	0xbd8ae316	-0.067815945
135	0xbd3473a6	-0.044055603
136	0xbd1e97cb	-0.03871898
137	0xbd45a6ad	-0.048254658
138	0x3c95a66d	0.018267835
139	0xbc70e0c4	-0.014702026
140	0x3c380867	0.011232472
141	0x3d78dda8	0.060758263
142	0x3d044b50	0.032298386
143	0x3b9a6713	0.0047119944
144	0xbcb25cfd	-0.021772856
145	0x3b9f6836	0.004864718
146	0x3b1f6759	0.0024323075
147	0x3d9dcaeb	0.07704719
148	0x3d76c900	0.060250282
149	0x3cd3cd01	0.02585459
150	0xbc93df78	-0.018050894
151	0x3d7daa76	0.061930142
152	0xbd6482e6	-0.055788897
153	0x3db8583c	0.09001204
154	0xbd248633	-0.040167045
155	0x3d6aa4ba	0.057286
156	0xbdac32a8	-0.084080994
157	0xbd87cea9	-0.06631214
158	0xbdb1085f	-0.08644175
159	0xbc491fb5	-0.012275626
160	0x3d9b46ed	0.075818874
161	0xbd0576a2	-0.03258384
162	0xbd8c289f	-0.06843685
163	0xbce0761d	-0.02740007
164	0xbda7bf06	-0.08190732
165	0xbbc61ed8	-0.0060461573
166	0xbc532eef	-0.012889608
167	0x3d6bdabf	0.05758166
168	0x3d4b7ab1	0.049677555
169	0xbd8dcb1a	-0.06923504
170	0xbc6c9d97	-0.014441869
171	0xbd2e46bb	-0.042547923
172	0x3cb5df6f	0.022201268
173	0x3daf06cc	0.08546218
174	0xbbc5ee9a	-0.0060404064
175	0x3d01c263	0.031679522
176	0xbda05498	-0.07828635
177	0xbcd070ac	-0.025444351
178	0xbda50ac3	-0.08058693
179	0x3d99cb87	0.07509523
180	0xbd70108b	-0.058609527
181	0xbd78c0cd	-0.060730744
182	0x3d2fda33	0.0429327
183	0xbd201aed	-0.03908818
184	0xbd662541	-0.05618787
185	0x3d97b8d6	0.074083015
186	0xba50b36e	-0.00079613074
187	0xbd5404dd	-0.05176245
188	0xbd07265a	-0.03299556
189	0xbd162760	-0.036658645
190	0xbc14d6dc	-0.00908443
191	0xbd0c3802	-0.0342331
192	0x3db9e6c9	0.09077222
193	0xbda3cafe	-0.07997702
194	0x3dae4f24	0.085111886
195	0x3ccb92d0	0.02485028
196	0x3d53b3ff	0.05168533
197	0xbd67ebf8	-0.05662152
198	0xbd5e75b4	-0.05431147
199	0xbd334860	-0.043770194
200	0x3cce1106	0.025154602
201	0xbd450133	-0.048096847
202	0xbc8054e9	-0.015665488
203	0x3d871d63	0.06597402
204	0xbc92d137	-0.017922027
205	0xbc0b4451	-0.008500175
206	0xbd443700	-0.047904015
207	0x3da11b2d	0.078665115
208	0x3d235384	0.03987457
209	0x3bc366b3	0.0059631704
210	0xbc474e38	-0.012164645
211	0xbc34e432	-0.011040734
212	0xbd9681d8	-0.073489845
213	0xbd8500ed	-0.06494317
214	0xbdb687ad	-0.08912597
215	0x3dae7f3f	0.08520364
216	0x3dbaaeef	0.09115397
217	0xbd4a6409	-0.049411807
218	0x3da8e773	0.082472704
219	0xbd3b4c7c	-0.045727238
220	0x3da6bdc5	0.081416644
221	0x3d39e979	0.045388673
222	0xbd3d8463	-0.046268832
223	0x3db12a66	0.08650665
224	0xbdb16838	-0.08662456
225	0xbc079015	-0.008274098
226	0x3c718e02	0.01474333
227	0xbda4710e	-0.08029376
228	0x3d3ee428	0.046604306
229	0xbd7d0dfa	-0.061780907
230	0x3c743d24	0.014907155
231	0xbd6c8c55	-0.05775102
232	0xbca33adf	-0.019925533
233	0x3a500344	0.0007935057
234	0xbd3c0b9e	-0.045909517
235	0x3d84dab4	0.06487027
236	0x3d6a2c6b	0.057171267
237	0xbd3e59d4	-0.046472386
238	0xbced7977	-0.028988583
239	0x3ce27358	0.02764289
240	0x3ca80133	0.020508384
241	0x3d0a5a5f	0.03377759
242	0xbd6730ab	-0.056442898
243	0xbd49ce00	-0.049268723
244	0xbc17a004	-0.009254459
245	0xbd735bb7	-0.059413638
246	0x3d979fbd	0.074035145
247	0x3ca3b49c	0.019983582
248	0x3d41267e	0.04715585
249	0xbcb83c1a	-0.022489596
250	0xbd0a101d	-0.033706773
251	0x3d72613b	0.059174757
252	0x3d9fdf12	0.07806219
253	0xbd8914f8	-0.066934526
254	0xbc917cdd	-0.017759735
255	0x3d17ec88	0.03709081

psi.2.bias f4 [64]
0	0x3db1e4c9	0.086862154
1	0x396b4545	0.00022437151
2	0xbd431de2	-0.04763592
3	0xbd16e2ee	-0.03683751
4	0xbd5633a8	-0.052295357
5	0x3d993217	0.07480257
6	0x3db48a53	0.08815446
7	0xbbd1d840	-0.006403953
8	0xbd23ad03	-0.03995992
9	0xba423c38	-0.0007409486
10	0xbd328b77	-0.043590035
11	0xbca5c99b	-0.020237735
12	0xbd5ad7c7	-0.053428438
13	0xbd838170	-0.064211726
14	0x3dad9100	0.08474922
15	0xbbcdd71c	-0.0062817466
16	0xbd40cbdf	-0.047069427
17	0x3ca79cb8	0.020460472
18	0xbdb25702	-0.08708002
19	0xbc9ab724	-0.018886156
20	0xbc919f7a	-0.01777624
21	0xbcddd975	-0.02708123
22	0x3d385a96	0.045008264
23	0x3d5e230a	0.054232635
24	0x3dbd91b9	0.0925631
25	0x3da76384	0.08173278
26	0xbd074a44	-0.03302981
27	0x3d6a9c74	0.05727811
28	0xbc156be6	-0.009119963
29	0xbc77bb58	-0.01512035
30	0xbd70ba61	-0.058771495
31	0x3d9e3ff5	0.077270426
32	0xbda35fa6	-0.07977228
33	0x39bec7dc	0.0003638853
34	0x3da5afde	0.08090185
35	0x3d90b6db	0.07066127
36	0x38f9b2fd	0.000119065844
37	0xbd665488	-0.05623296
38	0x3d6e1d33	0.058133315
39	0xbd660219	-0.056154344
40	0xbc4c245b	-0.01245984
41	0xbd0da3e2	-0.03458012
42	0xbd12364f	-0.035696324
43	0xbda8c680	-0.08240986
44	0xbd4b8844	-0.0496905
45	0xbd99db5f	-0.07512545
46	0x3d9a0bfc	0.07521817
47	0xbd9b32ad	-0.07578025
48	0xbd831113	-0.06399741
49	0xbd83497d	-0.06410501
50	0x3c80b263	0.015710061
51	0x3cc6cc2d	0.02426728
52	0xbdb88fb6	-0.09011786
53	0x3d454ac1	0.048166994
54	0xbb719f56	-0.0036868653
55	0xbd98d49b	-0.07462426
56	0xbd3458a7	-0.044029858
57	0x3d5f8a4f	0.05457526
58	0xbd67d274	-0.056597188
59	0x3d1380d0	0.036011517
60	0xbdbb0620	-0.091320276
61	0xbd9d1068	-0.07669145
62	0x3d43af31	0.047774497
63	0xbd128d76	-0.03577944

psi.4.weight f4 [2, 64]
0	0x3de9b74d	0.11411915
1	0xbd83c531	-0.06434096
2	0xbd58a677	-0.05289313
3	0x3d512625	0.051061768
4	0xbd3627ba	-0.04447148
5	0xbdcf83fe	-0.101325974
6	0x3c8727d5	0.016498486
7	0x3dfe8d5e	0.124293074
8	0xbca12502	-0.019670967
9	0x3c884dee	0.016638722
10	0x3d8917c8	0.06693989
11	0xbd4351f3	-0.047685575
12	0xbdbfef53	-0.09371819
13	0xbb453f39	-0.0030097498
14	0x3de9dde7	0.11419278
15	0x3c7be5e5	0.015374635
16	0x3d726c15	0.059185106
17	0x3dd91f50	0.106016755
18	0xbc67b107	-0.014141328
19	0xbd9e3b07	-0.07726102
20	0x3cb3f154	0.02196566
21	0xbd0196ec	-0.03163807
22	0xbc68ad93	-0.01420154
23	0xbdda10a4	-0.10647705
24	0x3d20f8d6	0.03929981
25	0x3d881138	0.06643909
26	0xbc5768bb	-0.013147528
27	0x3d7dee70	0.06199497
28	0xbe098873	-0.13430957
29	0xbd0307b2	-0.03198976
30	0x3cdfd913	0.027325189
31	0x3cb2209c	0.021744065
32	0xbdff7566	-0.12473564
33	0xbd519acb	-0.051173013
34	0x3ce5dc06	0.028059017
35	0x3dce22d2	0.10065235
36	0xb83a6563	-4.444028e-05
37	0xbddd3c56	-0.10802524
38	0xbdd55dcf	-0.10418283
39	0xbba5c7eb	-0.0050592325
40	0xbd846546	-0.06464629
41	0xbd8c45f9	-0.06849284
42	0xbdb931e1	-0.09042717
43	0x3dda401b	0.106567584
44	0xbd3d69b5	-0.04624339
45	0xbd80d38e	-0.06290351
46	0xbd27529e	-0.040850274
47	0x3cef6fb8	0.029228076
48	0x3d40d7c3	0.047080766
49	0x3dae5e7e	0.08514117
50	0xbdd6c49c	-0.10486719
51	0xbdb79ea4	-0.08965805
52	0xbde176b6	-0.110089704
53	0xbc5c2d50	-0.013438538
54	0x3c3f9a66	0.011694526
55	0x3ddb2f05	0.10702328
56	0x3d747215	0.05967911
57	0xbdc8a858	-0.09797734
58	0x3d69281f	0.056923028
59	0xbd006cce	-0.031353764
60	0xbdb38420	-0.08765435
61	0x3db12ef7	0.08651536
62	0x3dd4879b	0.10377427
63	0x3df26be7	0.11836987
64	0xbd116988	-0.035501033
65	0x3d2f764e	0.042837434
66	0x3d0c6e06	0.034284614
67	0x3ddef625	0.10886792
68	0x3cbe444c	0.023225926
69	0x3db175c2	0.08665039
70	0x3cb6eaaf	0.022328703
71	0x3d675ab6	0.056482993
72	0x3ca17a3b	0.019711604
73	0xbd7cfec1	-0.06176639
74	0x3dbaa831	0.09114111
75	0xbbf440df	-0.0074540223
76	0xbc2850b2	-0.0102731455
77	0x3d2c493b	0.042062026
78	0x3dc6a488	0.096993506
79	0x3de8764f	0.113506906
80	0xbdf33a4a	-0.11876352
81	0xbc2c6544	-0.0105221905
82	0xbdeff0e8	-0.11715871
83	0xbd22791e	-0.039666288
84	0xbddadfb5	-0.106872
85	0x3df66e7f	0.12032794
86	0xbcbc8dba	-0.0230168
87	0xbd66301a	-0.056198217
88	0xbd8e1b45	-0.06938795
89	0x3d4eabd6	0.050456844
90	0xbc70f9e7	-0.014708019
91	0xbdafb541	-0.08579493
92	0x3d94693b	0.072466336
93	0x3dabd40f	0.08390056
94	0xbd174248	-0.036928445
95	0xbc019bd7	-0.00791069
96	0x3bde53e4	0.006784903
97	0x3db35701	0.08756829
98	0xbde69e21	-0.112606294
99	0x3d7b5c23	0.061367165
100	0xbc955a25	-0.01823146
101	0x3dd3939d	0.103308894
102	0x3ddc1392	0.1074592
103	0xbc96e9dc	-0.01842206
104	0xbd976e81	-0.07394124
105	0xbcc43c7f	-0.023954628
106	0xbd945c05	-0.07244114
107	0x3df00e18	0.11721438
108	0x3d74d3db	0.059772354
109	0xbdaeae1a	-0.08529301
110	0xbbe36163	-0.0069390996
111	0xbc80c744	-0.015720017
112	0xbd8a0d5c	-0.06740829
113	0xbd82dbb0	-0.06389558
114	0xbdf100f6	-0.117677614
115	0x3d7a8072	0.06115765
116	0x3d5ead78	0.05436465
117	0x3dc7cd15	0.09755913
118	0x3da1a4ac	0.07892737
119	0xbde16f8d	-0.11007605
120	0xbd343198	-0.04399261
121	0x3d48f7b6	0.04906436
122	0x3da3fe7a	0.08007522
123	0x3d1bf137	0.038071837
124	0x3daf07b9	0.08546395
125	0x3d468aff	0.0484724
126	0xbc81f9d4	-0.015866198
127	0x3bf6231c	0.0075115096

psi.4.bias f4 [2]
0	0xbd5382ac	-0.05163829
1	0xbdc1f227	-0.09470015

exp_avg f4 [8, 1, 2]
0	0xbb31cf97	-0.002713179
1	0x3c7b29ae	0.015329761
2	0x3c3902d5	0.011292179
3	0x3b800ad3	0.0039075403
4	0x3b9eb696	0.0048435433
5	0x3c075cc3	0.008261862
6	0xbc25755a	-0.01009878
7	0xbcad0c59	-0.021124052
8	0xbbc6dc52	-0.0060687447
9	0xbb535ea0	-0.0032252446
10	0xbc1e338c	-0.009655844
11	0xbc330422	-0.010926278
12	0x3b9a4b78	0.0047087036
13	0x3c15ea93	0.009150165
14	0xb981081c	-0.0002461084
15	0x3afaa825	0.0019123597

exp_avg_sq f4 [8, 1, 2]
0	0x3da1f4f0	0.07908046
1	0x3e48943f	0.19587801
2	0x3f5ffc05	0.87493926
3	0x3ee59f06	0.44847888
4	0x3e835b63	0.2565566
5	0x40149f48	2.3222218
6	0x3e4a4b5b	0.19755308
7	0x3f0c83bf	0.5488853
8	0x3e8744e7	0.26419756
9	0x3e7c9020	0.24664354
10	0x3fa556c3	1.2917103
11	0x3fe0b4cf	1.7555178
12	0x3ec37148	0.38172364
13	0x3f1b2173	0.60597914
14	0x3ef4c4e1	0.47806457
15	0x3e29a09a	0.16565171

exp_avg f4 [8]
0	0x3a0a4b31	0.00052754866
1	0x3b6cdd8c	0.0036142794
2	0xbac2691b	-0.0014832349
3	0x3c2f7db7	0.010711125
4	0x3b9fe7c8	0.0048799254
5	0xba882962	-0.001038831
6	0xbbe5cc68	-0.0070128925
7	0xbbc558b4	-0.006022537

exp_avg_sq f4 [8]
0	0x3d23431a	0.039858915
1	0x3ec4ff61	0.3847609
2	0x3c167b0c	0.00918461
3	0x3f5c6365	0.86089164
4	0x3e905712	0.2819143
5	0x3f6afe1c	0.9179399
6	0x3f870579	1.0548545
7	0x3e6d59ba	0.23178759
