lightning_logs/version_10/checkpoints/epoch=0-step=99.ckpt (torch, 609856 bytes, 54 tensors)

lattice_net.0.weight f4 [8, 1, 2]
000000 dc d8 8d 3e bf 6d bc bd 04 a7 c2 3e 5c 7c ac be
       0.27704513 -0.0920062 0.38018048 -0.3368863
000010 a6 1c 2a bf 6a d2 dc 3e 63 51 0e bf ad bb 8b be
       -0.66449964 0.43129283 -0.55592936 -0.27291623
000020 57 7c 02 bf ba dd c2 bb 7f 0b 1f 3f ec 33 1e 3f
       -0.5097098 -0.005946842 0.62126917 0.61797976
000030 de 15 9d be 74 3f a5 3e 55 83 fd be 15 7c 26 bf
       -0.30680746 0.32274973 -0.4951426 -0.65033084

lattice_net.0.bias f4 [8]
000000 f8 e9 18 3f a4 6e 0c bf 38 d9 4f 3e 3b 34 2e bf
       0.5973201 -0.54856324 0.20297706 -0.6804845
000010 55 58 86 bd 97 c4 2e bf e6 8f fb be cb 3a f2 be
       -0.06559817 -0.6826872 -0.49133223 -0.4731048

lattice_net.2.weight f4 [16, 8, 2]
000000 cd 7f c0 bd e1 2f 35 3e dc 96 76 be 31 a2 96 bd
       -0.09399376 0.17694046 -0.24080986 -0.07355154
000010 f0 e1 a7 bd 79 9b 06 3e 8c 1f b4 bd d7 6d 09 be
       -0.08197391 0.13145246 -0.087950796 -0.13420807
000020 16 ce 24 3e d0 4a 22 3e 0b ab a0 3d 5d 84 e2 bd
       0.1609424 0.15848851 0.07845124 -0.110604025
000030 03 9b 6d be f9 c9 e7 bd f7 3f 61 3e 23 07 28 3e
       -0.23203664 -0.1131782 0.21997057 0.16408972
000040 f5 5f 54 be 62 e5 45 3e 09 49 17 be d4 3b 3f 3e
       -0.2073973 0.19325784 -0.14773954 0.18675166
000050 b6 de 24 be c8 5a 48 be 48 9a 03 3e 49 9e a4 3c
       -0.16100582 -0.1956588 0.12851822 0.020095007
000060 a3 39 a6 bc 6a a0 55 3e 9b 5a 13 be d4 51 ca 3d
       -0.020291155 0.20861974 -0.14390032 0.09878889
000070 f7 f2 89 3d b8 6e 6c 3e 71 ec 06 3e 49 20 2a be
       0.06735795 0.23089111 0.13176133 -0.16613878
000080 12 b0 4b bc 29 12 d8 3c f5 25 21 3e 6b aa 2e be
       -0.012432115 0.026375847 0.15737136 -0.17057197
000090 30 b7 cf bd 71 08 c3 bd ba 82 eb 3d c1 87 a5 bd
       -0.10142362 -0.095230944 0.114995435 -0.08082534
0000a0 a1 60 13 3e 08 0b 2f 3e 7b 89 3e 3e 58 7d 04 be
       0.1439233 0.17094052 0.18607132 -0.1293844
0000b0 b1 d5 59 bd 56 72 cf bd d9 22 99 3c 5d 2c 4c 3d
       -0.053182308 -0.1012923 0.018693374 0.049846996
0000c0 0b 4b 5e be f3 50 3e be 61 a9 19 be c3 f4 18 be
       -0.21708314 -0.18585567 -0.15006019 -0.14937119
0000d0 bb 52 82 be 35 3e 07 be 90 af 5a be 42 8a 7b 3d
       -0.25453743 -0.13207324 -0.21356034 0.06141115
0000e0 07 95 08 be a4 e4 98 bd ff 54 e2 3b af 8a 3b 3d
       -0.133381 -0.07465485 0.006907105 0.045786556
0000f0 26 81 09 be 3b 47 a7 bd ab 22 99 3d bb 36 4e be
       -0.13428172 -0.08167883 0.074773155 -0.20138066
000100 e6 21 26 be 9c 91 13 be bd 33 3d be fa 68 2a 3e
       -0.16223869 -0.14411014 -0.18476768 0.16641608
000110 0d 82 58 3d e7 85 9c 3d 8c 9d 6a be 1b fb 90 bd
       0.0528584 0.07642727 -0.22911662 -0.070791446
000120 12 93 28 3e 00 fe 3a 3d f4 ef bc bc 15 a6 67 be
       0.16462353 0.04565239 -0.023063637 -0.22621949
000130 9f 86 a3 3c 47 a1 02 be d4 81 a2 3c 68 de 33 3e
       0.019961653 -0.12756835 0.019837297 0.1756531
000140 32 98 47 3e 0d 18 3d bd 33 eb 2f 3e 5d b0 25 3e
       0.19491652 -0.046165515 0.17179565 0.16180559
000150 d4 1e 84 be 54 bf 5d 3d f2 44 f3 3d b7 66 81 3e
       -0.2580477 0.054137543 0.11878385 0.25273678
000160 83 14 bf 3d fc ca 3d bd c8 c4 58 be 53 f6 0c be
       0.09330084 -0.04633616 -0.21168816 -0.1376584
000170 cb ef a9 3c 02 95 5a be e4 73 e3 bd 11 73 21 3e
       0.020744225 -0.21345904 -0.11106089 0.1576655
000180 99 d3 11 3e c9 da 35 3e 2e 22 bb 3d 7d 0e 36 3e
       0.14240874 0.17759241 0.09137379 0.17778964
000190 6f 8b eb bd ad 50 04 3e 7d 21 b5 bc 31 21 3d 3e
       -0.11501204 0.129214 -0.022110695 0.18469693
0001a0 1f 21 0a 3e 36 61 a0 bd 42 5e b0 3d 41 bc 70 be
       0.13489197 -0.078310415 0.08611728 -0.23509313
0001b0 43 2c b4 3d 97 1f 91 3d b1 56 72 3d ed 98 5c be
       0.08797505 0.070861034 0.059164707 -0.21542712
0001c0 f4 49 a5 3d b9 c2 12 bd 3a d1 82 3e da 77 f5 3d
       0.08070746 -0.035830233 0.25550252 0.119857505
0001d0 6c 25 29 3e 4d 39 e3 3d 94 54 7c bd 2e ec 17 be
       0.16518182 0.11094914 -0.061604097 -0.14836189
0001e0 9c c7 29 3e 38 5f 2c bd 31 3b 90 3d 17 40 de 3c
       0.16580051 -0.042082995 0.0704254 0.02713017
0001f0 f6 7c 4f 3c 7e 15 ee bc 8c 3f 2d 3e e0 86 95 3c
       0.01266407 -0.029062983 0.16918772 0.01825279
000200 f9 1b 66 be 0b 02 eb 3d 7d 46 5e 3e 44 d1 26 bd
       -0.22471608 0.11474999 0.21706577 -0.040726915
000210 a5 37 41 bd 7f d9 62 3d 36 95 1c be c9 15 5a be
       -0.047172207 0.0553832 -0.15291294 -0.21297373
000220 ab ba 07 3e 10 b1 32 3e 62 74 52 3e 02 d7 38 3e
       0.13254802 0.17450356 0.20552209 0.18050769
000230 6f 09 4b be 68 ab 05 3d 47 77 73 3d 64 29 5a be
       -0.19827817 0.03263417 0.059439924 -0.21304852
000240 f8 68 51 bd 8d a5 e6 bd 60 48 75 3e 3f eb e8 3c
       -0.051125497 -0.11262045 0.2395339 0.028432487
000250 8f f6 6b 3d 02 2f bf 3d 76 77 69 3e df 9a 17 3e
       0.057608183 0.09335138 0.22799477 0.14805172
000260 a0 6b f2 bd 8c 3d ce 3d 4e 31 69 be 37 b4 f1 3c
       -0.11836934 0.10070333 -0.22772714 0.029504878
000270 db 3f 06 be a1 c4 3a be 3b ef d8 bc 0e 4c a1 3d
       -0.13110296 -0.1823907 -0.026481261 0.078758344
000280 00 83 fb 3d 62 fb 58 3e 23 78 79 3e 46 7e c3 3c
       0.12280846 0.21189645 0.24362235 0.023863923
000290 c9 3f 75 3e c3 3f 21 be 8c bc 87 3d 47 6b 2c be
       0.23950113 -0.1574698 0.06627759 -0.16837798
0002a0 82 42 3b 3e 56 7a ce 3d a2 5d 2f 3e 01 f7 38 3e
       0.1828709 0.100819275 0.17125562 0.18062975
0002b0 e1 ae b3 3d d4 bd e3 bb 72 81 1b bd 23 98 67 3e
       0.0877359 -0.0069501195 -0.037965246 0.2261663
0002c0 b1 a1 41 3d 4b d1 01 be b6 d6 d2 3d 01 3d 6a 3e
       0.04727334 -0.12677495 0.10294859 0.22874834
0002d0 0c 52 c6 3d 12 1d c2 bd ab 53 21 3e dc af 54 be
       0.09683618 -0.09478201 0.15754573 -0.2077021
0002e0 4a ee 53 bc e7 02 83 be 5e 58 fb 3d a7 f3 2a 3e
       -0.0129352305 -0.25588152 0.12272714 0.16694508
0002f0 1f 1b 1a be cb fe 7c 3e cd 53 e3 3d b4 27 57 be
       -0.15049408 0.24706571 0.11099968 -0.2101124
000300 01 5d 29 3e 91 bc 6b 3d 0e 55 0e 3e 08 f5 b3 3d
       0.16539384 0.057552878 0.13899633 0.087869704
000310 87 7b 28 3e 11 d2 d1 3c 90 1f 4f be 0a e6 0a 3e
       0.16453372 0.025612863 -0.20226884 0.13564315
000320 b6 c6 84 3d e5 6f 44 3e f2 c6 a2 3d 0f 9f d0 bd
       0.064832136 0.1918331 0.07948102 -0.10186588
000330 88 6d ea 3d 0d 7a 08 3e cb f1 e6 3d 06 0a 8a bd
       0.11446673 0.13327809 0.11276587 -0.06740193
000340 6c 1f 6a be bc e4 12 3e 4c 39 a4 bb cc 23 b1 3d
       -0.22863549 0.14345068 -0.005011713 0.08649406
000350 26 f6 36 3e 76 7b 5d be 67 37 60 bd ed c0 5e 3c
       0.17867336 -0.21629128 -0.054740336 0.013595802
000360 ed f1 c4 3c 53 e5 3d 3d a1 15 06 3e 0b fa b5 3c
       0.02404114 0.04636128 0.13094188 0.022213956
000370 cc 57 1f be 6a dd 3f 3d 48 a8 53 3e a3 0d 0c be
       -0.15560836 0.046842016 0.20669663 -0.13677077
000380 5f ad b9 bd ed 1a 7a be 3d be aa bc 4e 17 7f 3e
       -0.09066271 -0.24424334 -0.020842666 0.24911234
000390 98 e6 ab bd 31 d7 cb 3d a1 5d d4 3d 81 81 31 bd
       -0.08393592 0.09953154 0.10369421 -0.043336395
0003a0 ff ee f5 bc 7c c2 4c be ea 52 64 be 9c 1a 37 be
       -0.030021189 -0.19996065 -0.22297254 -0.17881244
0003b0 8d 15 ba bd 9b 59 72 bd 62 4e 1f be ad 0a 59 be
       -0.09086142 -0.059167486 -0.15557244 -0.21195479
0003c0 6f fd dd bd a8 fd f5 3d f1 ee 79 3e 1f 91 bf bd
       -0.10839354 0.12011272 0.24407555 -0.093538515
0003d0 3b 2a 17 3e 03 89 52 3e 14 15 4d be 38 d4 61 3e
       0.14762203 0.20560078 -0.20027572 0.22053611
0003e0 57 ec ce 39 6d ec bd 3d fe 92 68 3e a8 ec e1 3d
       0.0003946747 0.0927361 0.22712323 0.11031467
0003f0 4e 56 c4 3d f5 28 44 bd ce 27 c3 3d c2 e4 bb bd
       0.09586774 -0.047890622 0.095290765 -0.091744915

lattice_net.2.bias f4 [16]
000000 ed b4 3d bd 3d 38 39 3e 17 cb 8c bc bf 66 3c bd
       -0.046315122 0.1808786 -0.017186685 -0.045996424
000010 9a ec 27 3e 13 21 56 bd 89 41 f3 3d a8 4c 53 3d
       0.1639885 -0.052277636 0.11877734 0.051586777
000020 c4 4c 7d 3e 2b 39 64 bd d5 21 e2 3d 2c c1 14 3e
       0.24736315 -0.055718582 0.11041609 0.14526814
000030 f7 1e 5d 3e 5a 50 af 3d 97 a3 09 3e 8c 92 b8 bb
       0.21593843 0.08560248 0.13441311 -0.005632704

lattice_net.4.weight f4 [32, 16, 2]
000000 d2 fc 11 3e 36 68 d0 bd 6b c1 dd bd 96 5b e0 bc
       0.142566 -0.10176127 -0.10827907 -0.027387422
000010 4e 99 09 3e ae 2a 38 3e 6f da c6 bd 02 5c 10 bd
       0.13437387 0.17985031 -0.09709632 -0.035243995
000020 ad d7 81 3d a9 21 2f 3d ae 34 b3 bd 17 2e 2d 3e
       0.06339965 0.04275671 -0.08750282 0.16912113
000030 78 63 3e bc c7 da ac 3d c9 5d 85 bd 87 49 d3 bc
       -0.011620395 0.08440166 -0.06512029 -0.025791897
000040 09 5c 22 3c da de 26 be 98 d0 d5 3d 9b 6b 0e 3e
       0.009909638 -0.16295949 0.10440177 0.13908236
000050 b5 7e e2 3d 06 8a bd 3d fb 07 96 bd a3 bf cd 3d
       0.11059324 0.092548415 -0.07325741 0.100463174
000060 61 91 2b be db 44 f8 bd 90 65 b2 bd 0d 7f a4 bd
       -0.16754676 -0.12122508 -0.08710778 -0.080320455
000070 87 70 10 3e a7 1d 98 3d 9a cc 11 3e 1a 6d af bd
       0.14105426 0.07427531 0.14238206 -0.08565731
000080 08 00 86 bc b5 30 0e 3d e3 04 64 3d 54 d0 12 3e
       -0.016357437 0.03471442 0.055668723 0.14337283
000090 a9 0f 50 3c 51 34 1e be cd d3 16 3e b6 6a 25 be
       0.012699046 -0.15449645 0.14729233 -0.16153988
0000a0 ca 5c 1d be 8c 16 fe 3c 47 cd 5e bd a3 57 6f bd
       -0.15367427 0.03101661 -0.054394986 -0.058433186
0000b0 89 8d e9 3d c4 62 25 3c 7c 17 5b 3c 80 55 cb ba
       0.11403949 0.010094348 0.013372298 -0.0015513152
0000c0 4c 33 5e 3d 96 ba 0a be d3 c7 ef bd 0a 56 10 be
       0.05424814 -0.1354774 -0.11708035 -0.14095321
0000d0 09 e1 4e 3d 29 b0 d6 bd 14 3b 13 3e 80 7e 04 3e
       0.05050758 -0.10482819 0.14378005 0.12938881
0000e0 e0 ac 13 be 0c cd 02 3e 16 f5 99 3c 0b ea 56 3d
       -0.14421415 0.12773532 0.018793624 0.052469295
0000f0 c4 f9 23 3e 91 1a b9 3d 57 1a 74 bd c0 63 0b be
       0.16013247 0.0903827 -0.059595432 -0.1361227
000100 e5 e1 60 bd 8f e4 12 3d dc 00 a0 bd 77 f5 e4 bd
       -0.05490293 0.0358625 -0.07812664 -0.11179631
000110 f4 36 c9 bd 88 9e 0f be b8 77 25 3e 83 f3 c4 3d
       -0.098249346 -0.14025319 0.1615895 0.09616759
000120 35 d4 e0 bd ca c0 2b be 03 ed 19 3e 36 f5 4f 3d
       -0.10977975 -0.16772762 0.15031819 0.05077096
000130 2e 27 36 3d f8 2e 1b be df f8 07 3d 8a cc 36 3e
       0.04447096 -0.15154636 0.033196326 0.17851463
000140 61 31 9a 3c 8e 15 1a 3e c0 12 f1 bc 50 f7 cd 3c
       0.018822374 0.15047285 -0.029427886 0.025142342
000150 e5 30 17 bb 72 00 09 3e e5 bc 33 3d 70 e8 f0 bd
       -0.0023069915 0.13379076 0.043881316 -0.11763084
000160 9a 8f 0e 3e df d5 8a 3d 96 35 75 bd b1 41 29 be
       0.13921967 0.06779074 -0.059865557 -0.16528966
000170 5b fd 1c 3e e1 22 89 3d 0c aa 31 3e 21 16 88 bd
       0.15331022 0.06696106 0.17350024 -0.06644846
000180 d0 eb fc 3d 37 7d 47 bd 9e 09 ee bc 0d 2c ce 3c
       0.12349665 -0.0487034 -0.02905732 0.02516749
000190 71 d4 06 3e f9 24 94 3d a5 7d c6 bd 37 5c 88 bc
       0.13166977 0.072336145 -0.096919335 -0.016645534
0001a0 e4 01 86 3d bd 84 c7 bd 9f 0f 6c 3a c0 eb d2 3d
       0.06543329 -0.09742115 0.0009005013 0.10298872
0001b0 3a d8 03 3e c5 95 19 3e 5c 00 5e bd 08 e1 ec bd
       0.12875453 0.14998539 -0.05419956 -0.11566359
0001c0 5f 04 85 bd 47 b9 ea bc 15 75 32 3d 9d 6b 3b 3c
       -0.06494974 -0.0286528 0.04356869 0.011439231
0001d0 2b 37 28 be e9 27 15 3e cb 94 bf 3d 9b 42 af 3d
       -0.16427295 0.14566006 0.09354552 0.08557626
0001e0 65 a2 16 3e d6 c2 7b bd c7 33 5d 3d 91 9d 12 be
       0.14710386 -0.061465107 0.054004457 -0.1431792
0001f0 c0 e2 f3 3d 49 33 a2 3d 5e ad 25 3d 5e 37 46 3d
       0.119084835 0.07919938 0.04044854 0.048392646
000200 54 8b 07 be a6 7a 4b 3c bb 45 e1 3d 43 0b b9 3d
       -0.13236743 0.012419378 0.10999628 0.09035351
000210 7d 0c 2b 3e 87 a2 b8 3d ba 6b 19 be 61 19 eb 3d
       0.16703983 0.09015375 -0.149825 0.1147945
000220 5f 9c 8c bd 2a 65 e8 3c d2 a2 91 3d 01 eb ba bd
       -0.06865763 0.028368551 0.07111134 -0.09126855
000230 cf e7 88 bd 49 c8 02 3e 0f 27 59 3d 87 1a 31 3e
       -0.06684839 0.12771715 0.053015765 0.17295276
000240 f9 1a 71 3c 61 e9 a6 bd 2c d5 69 3d c7 68 36 3e
       0.014715903 -0.08149982 0.057088062 0.17813407
000250 8d 99 9c bd af 71 3c 3d 4a ac 94 3d 57 9e 37 be
       -0.07646475 0.046006855 0.07259424 -0.17931496
000260 f0 4f e2 bd 8b 14 2f 3e b0 fb 14 3e 3c 28 0f be
       -0.11050403 0.1709768 0.14549136 -0.13980192
000270 51 c4 17 be d8 d5 11 be 10 2d 04 be 95 24 59 3d
       -0.14820983 -0.14241731 -0.12907815 0.053013403
000280 92 f3 59 bc d6 2d 86 3d c0 d3 1f be 50 ed 89 3d
       -0.013302701 0.06551711 -0.1560812 0.06734717
000290 fb 68 2c bc 5d ec c6 bd af de 31 3d 97 04 00 3d
       -0.010523076 -0.097130515 0.04342526 0.031254377
0002a0 67 6d d6 bd b5 fc e0 bd 7a 66 32 bd e0 18 c6 3d
       -0.104700856 -0.109857 -0.04355476 0.09672713
0002b0 4c 9e 90 3d be 81 11 be 3e cf 1c 3d 44 5a 02 3e
       0.07061443 -0.14209649 0.03828358 0.12729746
0002c0 c2 2d 8e 3b 62 2c d0 ba e7 71 92 bb 95 38 2a 3c
       0.004338951 -0.0015882368 -0.0044691446 0.010389467
0002d0 1a 6e 03 be 53 7f 71 3d 44 8f ad 3d 04 e3 33 3e
       -0.12834969 0.058959316 0.084745914 0.17567068
0002e0 b2 b7 24 be 91 e7 0b be c8 3a 70 bd 2b ae 55 bb
       -0.16085699 -0.13662554 -0.05864981 -0.0032605033
0002f0 e0 77 f8 3d ca 19 d4 3d 05 7b f6 bc 76 4a 1a be
       0.12132239 0.103564814 -0.030087957 -0.15067467
000300 e1 a1 d7 bd 86 99 be 3d 4e 44 06 3e 9b c9 35 be
       -0.10528923 0.09306626 0.13111994 -0.17752688
000310 35 c2 b6 3b eb 5e e2 3d f4 00 cc bd d3 4d 35 bc
       0.0055773505 0.110532604 -0.09961119 -0.011065918
000320 af 70 dc 3d c0 31 86 bd 33 34 b9 3d 9a f3 2e 3e
       0.1076368 -0.06552458 0.09043159 0.17085114
000330 bc 48 28 3e 0a c3 13 be 71 9c cf bc 2e 17 2b be
       0.16433996 -0.1442987 -0.025343152 -0.16708061
000340 58 4e fd bd 94 0a 0e bd cb 59 78 bd 14 2d 81 3d
       -0.123684585 -0.034678057 -0.06063251 0.06307426
000350 a9 54 aa 3d f9 eb af bd 0a 97 33 3d ca a2 2d be
       0.08316929 -0.0858993 0.043845214 -0.1695663
000360 5f 64 74 bd 30 97 8e bd d4 1c 02 3e 75 13 be bd
       -0.059666034 -0.069624305 0.1270631 -0.09281055
000370 86 24 d5 3d 0d 82 08 be af cf 99 3d 74 a4 ec bc
       0.10407357 -0.1333086 0.075103156 -0.028887011
000380 8f 5d 1a be 09 fd 73 3c 77 a1 ea bd f1 66 ba bc
       -0.15074752 0.014891871 -0.11456578 -0.022754164
000390 b0 e5 88 bd 90 f2 3b 3d b9 a6 f1 3c ba b2 86 bd
       -0.066844344 0.045885623 0.029498445 -0.06577058
0003a0 7e e0 2b bd 72 00 21 3e ca 94 36 be 74 43 9b 3d
       -0.04196214 0.15722826 -0.17830196 0.07581225
0003b0 7b fd d9 bc 61 a0 e1 3d 68 b5 94 3d cc 62 2f 3d
       -0.026610127 0.11016918 0.07261163 0.04281883
0003c0 b6 d5 ca bd 6c ca bf bd 22 90 a4 bb c1 c5 36 be
       -0.099040434 -0.09364781 -0.005022065 -0.17848875
0003d0 0c 36 15 bc 57 55 1d be 62 ac ed 3c c5 5a bc bd
       -0.009107124 -0.15364586 0.029012863 -0.091970004
0003e0 c5 24 21 3d 98 44 14 be 56 1c b1 bd ee 79 97 bd
       0.039341707 -0.14479291 -0.08647983 -0.07396303
0003f0 64 a2 be bd 98 dd f2 3d 5b 1a f5 3d a7 96 0e 3e
       -0.09308317 0.11858672 0.119679175 0.13924657

lattice_net.4.bias f4 [32]
000000 9f 10 21 3e 74 82 94 3d a9 f0 2a bd 72 66 15 3e
       0.15728997 0.072514445 -0.041733418 0.14589861
000010 53 e8 e8 3a 9b f6 29 bb 6a bb 79 bd 86 16 f6 bd
       0.0017769433 -0.0025934342 -0.060969748 -0.12016015
000020 b1 4d de bb 2c f0 d2 ba 0b 3e 56 3d 1a 3f 13 3e
       -0.006784164 -0.0016093305 0.052305263 0.1437954
000030 ac 0e 20 3e 76 13 4c 3d 8e 7c e1 3d 59 e1 9c bd
       0.15630597 0.049823247 0.11010085 -0.07660169
000040 ae 14 ff 3d e3 a5 1e 3e 6d a8 30 bd 5a 45 16 be
       0.12455116 0.15492968 -0.043129373 -0.14674893
000050 34 6a b0 3d 9e 94 1e 3d f3 c4 e8 3c 55 3e 2b 3c
       0.08614007 0.03871595 0.028414225 0.010451873
000060 48 37 1d be be 7b f9 3d ac 2e 07 be b4 36 00 3e
       -0.1535312 0.12181805 -0.13201398 0.12520868
000070 ff 4b 6b bd d2 e3 fc bd 6e ae 9e 3d e1 20 e2 3d
       -0.057445522 -0.12348141 0.077481136 0.110414274

tNN.0.weight f4 [16, 2]
000000 dc dc 33 3f 6c 44 7f be 93 e7 4f bd b7 0b 50 bc
       0.7025888 -0.24928445 -0.050757956 -0.012698106
000010 39 45 58 3e 46 b3 85 be 53 52 f4 3e ab a6 21 bf
       0.21120156 -0.26113337 0.47719058 -0.6314494
000020 9f 3b dc 3e 7d 66 1c bf a5 bc 2c 3e e9 87 cb ba
       0.43014237 -0.61093885 0.16868837 -0.0015528175
000030 3e 2a d4 bd c6 1a 2b be 75 c7 a9 be 8f 85 2b be
       -0.103596196 -0.16709432 -0.33159986 -0.16750167
000040 ec a7 8a 3d a3 95 12 bd 21 13 08 3f 6b e1 00 be
       0.0677031 -0.035787236 0.5315419 -0.1258599
000050 12 2c 0a 3f cc 17 78 be 22 aa 98 3e 57 e0 3e bd
       0.53973496 -0.24227828 0.298173 -0.046600666
000060 a2 ce 17 3e 07 d4 1e 3f a6 1b 30 3e 61 f0 10 be
       0.14824918 0.6204228 0.17198047 -0.14154197
000070 f7 fe b3 3e a8 35 ff be 9e da 33 be 7e 7a 73 3e
       0.3515546 -0.49845624 -0.17563865 0.23777196

tNN.0.bias f4 [16]
000000 8e e0 1a bf ca 80 bc 3e 70 a7 f9 3e 65 d2 9e 3e
       -0.60498893 0.36817008 0.48760557 0.31019893
000010 ba e0 ec 3e 2b 73 3a bc cf d1 c3 3e 75 f2 84 bd
       0.46265203 -0.011379997 0.3824601 -0.064915575
000020 31 91 3f be a1 5b e0 be ff 53 4e be db af e8 3e
       -0.1870773 -0.43819907 -0.2014923 0.45446667
000030 62 6f 2e 3f 09 b7 a8 be 29 d0 20 3f 8b 5d f2 3e
       0.68138707 -0.32952145 0.6281763 0.47336993

tNN.2.weight f4 [32, 16]
000000 51 2f cb bd 74 2c 82 3d 1f be ae 3d 08 46 cf 3d
       -0.09921134 0.06356135 0.085323565 0.10120779
000010 2d 20 22 3d 21 00 e3 3d 28 da 0f be a2 9c 35 3d
       0.039581466 0.11084009 -0.14048064 0.04433883
000020 18 28 50 be f9 cf ec 3d a0 74 31 be 7e b6 b7 bd
       -0.20327795 0.11563105 -0.17329645 -0.089703545
000030 69 13 db bd d9 09 53 be b9 1b 94 3c 69 34 f9 bd
       -0.106970616 -0.20609225 0.018079625 -0.121681996
000040 f4 69 b2 bd c9 5d 39 3e c3 e4 7a 3d d0 d3 6b be
       -0.08711615 0.18102182 0.06125332 -0.23030019
000050 78 e6 25 be 51 b8 c8 3c 7d 39 49 3d ea 80 91 3d
       -0.16201198 0.024501951 0.04912709 0.071046665
000060 7e d6 56 be 6f d5 61 be 91 00 51 3e 4e e3 78 3c
       -0.2098026 -0.22054075 0.20410372 0.015190912
000070 46 1a 58 3e 6b 3e 06 3e 78 76 b2 bd 4b ae 6d bd
       0.21103773 0.13109748 -0.08714002 -0.058027547
000080 71 a7 21 3b 66 e7 61 be 01 a5 26 be e2 9b f5 bc
       0.0024666453 -0.22060928 -0.16273881 -0.029981557
000090 68 89 35 be 2c b7 35 be c6 86 66 3e 6d ce c3 bd
       -0.17728198 -0.17745656 0.2251235 -0.09560857
0000a0 a2 17 32 bd da 54 93 3d fe 03 2a 3e 63 22 1a bd
       -0.04347957 0.071939185 0.16603085 -0.03763045
0000b0 e7 2b 05 be ad 6c 3a be ad 31 45 bd 44 43 34 3e
       -0.13005029 -0.18205519 -0.048143078 0.17603785
0000c0 19 d4 cd bc 9b fe 80 be 8f 26 bd bd da 89 11 bd
       -0.02512555 -0.2519425 -0.0923587 -0.035531856
0000d0 bc 16 f4 bc a7 98 d6 bd b0 1a 49 3c 00 8e 1f be
       -0.029795997 -0.10478335 0.012274429 -0.15581512
0000e0 2d 99 34 be 93 f3 37 be a2 4e c3 3d f6 25 71 3e
       -0.17636557 -0.1796401 0.095364824 0.23549637
0000f0 e3 34 7c be be 78 00 3e 73 9f 54 bd 08 63 05 3d
       -0.2462955 0.1254606 -0.051909875 0.032565147
000100 4a 8d 81 3d 28 99 39 3e d1 2b 07 3e a4 cd 2f 3e
       0.06325777 0.1812483 0.13200308 0.1716829
000110 6d b4 e6 bc 3d 5d 66 be 93 73 6e be 9c 65 1d 3e
       -0.028162206 -0.22496505 -0.23286276 0.15370792
000120 3a f9 31 be 4a 10 0a be 78 94 64 be eb 9a 1d be
       -0.17380229 -0.13482776 -0.22322261 -0.15391128
000130 50 be a0 bd d5 38 1b 3e 19 28 5d 3e f0 5b 92 3d
       -0.07848799 0.15158398 0.21597327 0.07146442
000140 a7 99 1a 3e 08 37 55 be 28 d1 55 be 23 b7 ec 3d
       0.15097676 -0.20821774 -0.20880568 0.11558368
000150 3b 91 1e 3e 29 2e 49 be ab c5 0b be 64 b2 d6 3d
       0.15485089 -0.19646515 -0.13649623 0.10483244
000160 17 f9 97 3d 82 f3 92 3d 88 56 06 3e 25 d7 12 3c
       0.07420557 0.07175352 0.13118947 0.008962427
000170 83 e8 08 3e 11 22 6d 3e 96 36 9f bd ba 08 07 3e
       0.13369946 0.23157527 -0.07774083 0.13186923
000180 8c 88 4b 3e 52 e4 a2 bd 12 e2 17 3e 7f dd 1e bc
       0.19876307 -0.07953705 0.14832333 -0.0096963635
000190 0d 0d 29 3e b3 b6 f7 3d 54 a5 67 be 26 29 1e 3e
       0.16508885 0.12095394 -0.22621661 0.15445384
0001a0 1d d7 f8 3d 8a 7e 6a 3e 1e cc 60 bd e9 6f ae 3d
       0.121504046 0.22899833 -0.05488216 0.08517439
0001b0 85 27 89 bd a6 0b 4b be eb d8 24 be 8e ca 64 be
       -0.06696991 -0.19828662 -0.16098373 -0.22342893
0001c0 45 37 ee bc 8d 25 7f bd b5 6b af bd 8b 64 27 be
       -0.029079089 -0.06229167 -0.08565465 -0.16346948
0001d0 72 bd 44 be 1c 06 82 3e 0f 72 16 bc 00 be d9 bd
       -0.19212893 0.25395286 -0.009182467 -0.10631943
0001e0 80 9a 9d ba ac 77 83 3e 71 ca 4c 3e e1 93 5d be
       -0.0012024194 0.2567724 0.199991 -0.21638443
0001f0 92 a8 1f be 6b 7f 40 3d d9 7a 3e be 1c a3 93 bb
       -0.15591648 0.046996515 -0.1860155 -0.004505528
000200 d0 91 6e bd 5e fa 7d bd 50 d6 c6 bd 24 d0 f0 3d
       -0.058244526 -0.062006347 -0.097088456 0.1175845
000210 f1 3c a1 3d 86 b8 4e be e9 b2 43 3e 3f 05 69 be
       0.07872952 -0.20187578 0.19111218 -0.22755907
000220 29 50 f2 3d 9a e9 91 bd 7a 7c bf 3b ec ef df bd
       0.118316956 -0.07124634 0.005843696 -0.10934433
000230 d8 44 63 be 64 57 88 3a 27 0e d2 bd 7a 80 93 3d
       -0.2219423 0.0010402021 -0.102566056 0.07202239
000240 7c 06 b4 3d ec ed 2b 3e 19 81 4d be 63 68 37 be
       0.08790299 0.16789979 -0.20068778 -0.17910914
000250 80 ed 77 be 39 04 f7 3d 85 de 3e be f0 ad 4e 3d
       -0.24211693 0.12061352 -0.18639572 0.05045885
000260 e2 24 e7 3c ae 52 fc 3c 6f aa 48 be 9a 99 78 3e
       0.02821583 0.030801143 -0.19596265 0.24277344
000270 2b a0 a6 bc a3 c8 04 be ed 89 0b be 83 43 83 3d
       -0.020340046 -0.12967162 -0.13626833 0.06409361
000280 10 a2 5d bd 05 62 34 be 76 66 4c be 0e d0 28 3e
       -0.054109633 -0.17615516 -0.19960961 0.16485617
000290 92 68 2c 3e 2a 81 a4 3c 1e 54 54 be 9b 41 62 3d
       0.16836765 0.020081121 -0.20735213 0.055238348
0002a0 1f 71 98 bd eb a6 0c bd a6 e4 94 3c 3c d9 2f be
       -0.07443451 -0.034338873 0.018175434 -0.17172712
0002b0 14 61 43 3e b3 a8 d0 3d 94 3c ec bd 12 29 83 be
       0.19080001 0.10188427 -0.11534992 -0.25617272
0002c0 59 32 8c 3c 35 84 8c bd ce 53 4e be 40 a6 1b 3e
       0.017113851 -0.06861154 -0.20149156 0.15200138
0002d0 06 be 22 be c9 7b 9c 3c f3 06 3a be 2b a7 14 3e
       -0.158928 0.019101994 -0.18166713 0.14516895
0002e0 93 c3 e3 bd 89 0e ba 3d 4f 2d dd 3d 3c e1 31 3e
       -0.11121287 0.090848036 0.107996576 0.17371076
0002f0 28 c8 69 be e7 f6 7e be 4d 19 e2 3d d0 5e 79 3e
       -0.2283026 -0.24898873 0.11039982 0.24352574
000300 0a 9f bd 3d f0 bc 42 be dd 16 25 3e 12 17 b1 3d
       0.0925885 -0.19017386 0.16122003 0.086469784
000310 4d f5 78 bd 30 bf 10 3e 04 e3 6d be 06 d4 a0 bd
       -0.060780812 0.14135432 -0.23231131 -0.0785294
000320 80 a1 d2 bd 6d b9 1c bd 34 f4 2c bd 11 00 8b 3d
       -0.1028471 -0.038262773 -0.042225078 0.06787122
000330 70 5d 49 b9 21 ab 26 be ae f3 3f 3d 38 bc 10 be
       -0.00019203662 -0.16276218 0.04686325 -0.141343
000340 99 23 1b be f1 03 f4 bd 33 47 06 3e a9 06 bd 3d
       -0.15150298 -0.11914814 0.13113098 0.09229786
000350 35 fa 6c 3d c8 45 a7 3d a7 68 a5 bd aa 90 a6 3d
       0.057855804 0.081676066 -0.080766015 0.08133061
000360 c2 e1 99 3d 07 0e b1 bd 8d 68 02 be f0 da d1 bb
       0.07513763 -0.08645254 -0.12735195 -0.006404273
000370 02 3f 45 3e bc d8 37 be 84 f5 1a 3e 96 78 1f 3e
       0.19262317 -0.17953771 0.1513272 0.15573344
000380 ff 72 1b be d0 14 8e 3d ad d7 72 be cc 2f 94 3d
       -0.15180586 0.069375634 -0.23715086 0.07235679
000390 35 17 91 3c e0 5b ac bd 8e 74 07 be ca cf bd bc
       0.017711261 -0.08415961 -0.13228056 -0.02317037
0003a0 4c fc 98 bd a1 d7 fe bc d0 f9 91 bd 3e eb f4 bd
       -0.07469997 -0.03110868 -0.07127726 -0.119589314
0003b0 10 9f ab 3d e3 ab 6d bc 77 7a 6c 3e 8c 53 cf bd
       0.08379948 -0.014506313 0.23093592 -0.10123357
0003c0 f2 ff 73 bd b8 a1 79 3c f2 e7 82 be 97 46 65 3e
       -0.05957026 0.015236311 -0.25567585 0.22390209
0003d0 2a f0 4b 3d 07 ea 57 3d 56 80 08 3e 33 c5 9e bd
       0.049789585 0.05271342 0.13330206 -0.077524565
0003e0 31 ce a6 bd cc a9 48 be 51 50 3f bd 46 32 49 3e
       -0.08144797 -0.19596022 -0.046707455 0.19648084
0003f0 35 d5 20 be b8 f5 34 be 81 e0 61 3e 5e 39 ff 3c
       -0.15706332 -0.1767186 0.22058298 0.031155284

tNN.2.bias f4 [32]
000000 f9 6c 6e be 4b 9b 64 3d 51 7b 60 3e 79 1b bf bd
       -0.23283757 0.05581216 0.21922041 -0.09331412
000010 4e e6 46 3e 60 c5 00 3e 25 0a 6f 3d 37 17 a3 bc
       0.19423792 0.12575293 0.058359284 -0.01990853
000020 f4 48 fc bb 70 2c 38 3e 06 f0 60 3e ae 68 75 3d
       -0.0076991264 0.17985702 0.21966562 0.059914283
000030 8c 7d 68 be cc 06 6b be 6a 2b 97 bd a3 91 4a 3e
       -0.22704142 -0.22951812 -0.073813275 0.19782118
000040 9e d7 22 3e 1f 4e 66 3e 43 4d 13 bd b8 77 53 be
       0.15902564 0.22490738 -0.035962354 -0.20651138
000050 cf bd f5 3d 38 90 40 3e 85 7c b0 bd 86 8e de bd
       0.11999094 0.18805015 -0.086175 -0.10867028
000060 12 94 0c be e7 a3 7b be a5 a5 5e bd 47 f0 2b 3e
       -0.1372836 -0.24574243 -0.05435719 0.16790877
000070 67 48 02 be 61 62 31 3e d9 76 6e be 67 17 b8 bd
       -0.12722932 0.17322685 -0.23287524 -0.08988839

tNN.4.weight f4 [64, 32]
000000 0d 29 ad 3d a7 7d d4 3d 12 99 e3 3d b1 f9 07 be
       0.084550954 0.10375529 0.1111318 -0.13278843
000010 35 c6 da bb 1d c6 c5 3d 2f cb 26 3d a8 42 58 3d
       -0.00667646 0.09656928 0.040721115 0.052797943
000020 f4 2f 32 3e 7f 76 02 3e b3 3d a7 3d eb 6b 96 bd
       0.17401105 0.12740515 0.08166065 -0.073448025
000030 5b 90 11 be 7f c1 b2 3c 86 7d 3c 3d da 04 00 be
       -0.14215223 0.021820782 0.046018146 -0.1250185
000040 4e aa 30 bc c5 d3 21 be b0 78 d7 3b 91 cc fa bc
       -0.010782791 -0.1580344 0.0065756664 -0.030615123
000050 b9 11 02 3e d1 84 f4 3d 4e 38 1f 3e fb 58 21 be
       0.12702073 0.11939395 0.15548822 -0.157566
000060 dc 07 7b 3d 70 33 cd bd 93 2e 31 3e 73 31 18 3e
       0.061286792 -0.100195765 0.17302923 0.14862613
000070 54 25 24 be 82 1c ff 3d 2a a8 d0 bd 09 92 7e bd
       -0.16029865 0.12456609 -0.10188325 -0.06215099
000080 b3 03 d7 bd b6 ba a5 bd 6c 05 ec 3d 8f 9f 64 bd
       -0.104987524 -0.08092253 0.11524472 -0.05581623
000090 eb 85 15 be 8c cf d5 3c 5e bc 01 bc 3d 89 e2 3d
       -0.14601867 0.026099943 -0.007918445 0.110613324
0000a0 5c 3f 2b 3e 7b 3a 0d 3e 79 d0 43 bd 08 79 db 3d
       0.16723388 0.1379184 -0.047806237 0.10716444
0000b0 10 64 19 bd c3 af c1 3d b9 b4 fc 3d b4 4d 7c bb
       -0.037448943 0.09457352 0.123391576 -0.0038498463
0000c0 b6 c3 9f 3d c0 e8 19 3e a7 c8 90 3d 6e 51 f1 3b
       0.07801001 0.15030193 0.070695214 0.0073644435
0000d0 95 06 2e be 9a cc b1 bb 6d 94 ae 3d be 49 f1 3c
       -0.16994698 -0.0054260017 0.08524404 0.029454108
0000e0 9b 36 ff 3d d6 0e 03 3c 11 9d 2e 3c 78 3d 89 bd
       0.12461587 0.007999143 0.010657565 -0.06701177
0000f0 21 d0 19 3e a9 5b 28 be 6f 35 dd bc 0c a1 26 be
       0.15020801 -0.16441216 -0.027003018 -0.16272372
000100 6c 70 02 3e 41 32 e2 3a 2b c6 0e be d3 88 f3 bd
       0.12738198 0.0017257408 -0.13942783 -0.118913315
000110 27 fb 3c 3d 32 54 23 3e 58 f5 dc bd 95 2d 0e 3e
       0.046137955 0.15950087 -0.10788983 0.13884576
000120 67 0f 18 bd ff 97 12 bd dc f3 95 bd 96 5a 00 3e
       -0.037124064 -0.035789486 -0.07321903 0.12534556
000130 ba 3c e6 bc 67 e1 10 3e aa 61 e2 39 0a db ba 3d
       -0.028105129 0.14148484 0.00043178844 0.0912381
000140 13 b4 ea bd 26 83 5d bd 4e 26 04 be c4 af e3 3d
       -0.11460128 -0.05408015 -0.12905237 0.11117509
000150 48 be d3 bd 6a d1 96 bd 8f d9 e7 3d 7d e2 3f bd
       -0.10339028 -0.07364161 0.11320793 -0.046846855
000160 b3 c1 07 3e ed c3 aa 3c be ab e7 3d d3 18 a7 bd
       0.13257484 0.020845378 0.11312054 -0.08159032
000170 83 d5 2c be 1c 37 15 3e b4 32 2b 3d 9c 2a 6d bd
       -0.16878323 0.14571804 0.0417964 -0.057901964
000180 b6 68 20 bc 5a 88 ad bd 60 a4 43 3d 2b b6 53 bd
       -0.00979059 -0.084732726 0.047764182 -0.0516874
000190 0e 14 01 3d 70 50 3f 3d 27 4f fc bc bb fd dc 3d
       0.031513266 0.04670757 -0.030799462 0.10790583
0001a0 1f cb 85 3d 12 e4 ad 3d 9d c6 47 3d 45 d3 2b be
       0.06532883 0.084907666 0.048773397 -0.16779812
0001b0 d9 1f 27 bd 2b d5 cb bd d9 47 82 bc dd 2c c3 3d
       -0.040801857 -0.09952768 -0.0159034 0.09530041
0001c0 b5 85 ee 3d c8 d8 09 bd d0 4a 01 3e db ea 11 3e
       0.11646596 -0.033654004 0.12626195 0.14249747
0001d0 d9 6e 54 bd 43 c3 fb bd 62 9a 4a 3d 7e cd 00 3e
       -0.051863525 -0.122931026 0.049463637 0.12578389
0001e0 85 3b df 3d ff f3 9d bd 82 23 ab 3d d8 f0 a4 bd
       0.10900024 -0.07712554 0.08356382 -0.0805375
0001f0 94 bb 07 be 6a c8 38 3e 6d 3d ea 3d 20 01 56 3d
       -0.13255149 0.18045202 0.11437497 0.052247167
000200 20 44 05 3e e3 89 f1 3c 36 4a a0 3b a1 2d 68 bd
       0.13014269 0.029484695 0.004891659 -0.05668414
000210 f5 f4 97 bd 80 c0 0c bd 78 c1 f1 bb 12 db 1a bd
       -0.07419769 -0.03436327 -0.0073777996 -0.037806578
000220 8e 5c 8b bd 4f 7b 9d bd a8 24 19 be 98 c4 0b 3e
       -0.06804763 -0.07689535 -0.1495539 0.13649213
000230 1e 7f 26 be 60 c9 32 3e 74 0a 10 be 39 bc b7 3d
       -0.16259429 0.17459631 -0.14066488 0.089714475
000240 18 8b 17 be b9 4b 28 be 38 d0 09 be 74 da 49 3c
       -0.14799154 -0.16435136 -0.13458335 0.01232015
000250 82 4d 43 bd eb d8 0a be 53 a5 dd bb 52 1c eb 3d
       -0.04768134 -0.1355931 -0.006764093 0.11480011
000260 c4 1c 35 3e 79 65 a5 3d e0 bc 98 3d c7 de 08 be
       0.17686754 0.08075995 0.074579 -0.13366233
000270 4b 6c 6b 3c b8 7c f1 bd 4c 1d 1c 3e f4 0d 27 3e
       0.014369081 -0.11791366 0.15245551 0.16313916
000280 de d1 82 bb 4c f8 07 3e 24 95 f9 bd 8a 49 83 3d
       -0.0039923033 0.13278311 -0.121866494 0.06410511
000290 56 4b a2 bd c5 59 21 be e8 00 f2 3d f5 95 d0 3d
       -0.079245254 -0.157569 0.11816579 0.10184852
0002a0 97 2f 0c 3e ae 4c e2 3d 5e 41 18 3e 40 3e 0a 3e
       0.13690029 0.11049782 0.14868686 0.13500309
0002b0 f5 fa e2 3c f7 fa af 3d 9c b8 02 3d 0a 93 2b bd
       0.027707556 0.085927896 0.03191434 -0.041888274
0002c0 8e a3 ce bd 7d c9 04 3d 5c 4c e1 3c 7d 15 76 3c
       -0.10089789 0.032418717 0.027502231 0.015019772
0002d0 fa d8 cb 3d 3a 7a 23 3d bc 7b 37 be 8d c3 d8 3d
       0.09953494 0.039911486 -0.17918295 0.10584173
0002e0 51 0f cc 3d 79 71 99 bc 03 7b 75 bd 73 fa 19 bd
       0.09963859 -0.018730866 -0.059931766 -0.037592363
0002f0 0c 9c 0e be c5 28 11 3d 86 53 88 bd a7 c5 83 bd
       -0.13926715 0.03543927 -0.06656556 -0.064341836
000300 c4 db 57 3d a7 a2 e0 3d ae 5d 15 be 13 9a 0a 3e
       0.05269982 0.109685235 -0.14586517 0.13535337
000310 bf 04 07 3c 68 21 89 3d fb e2 05 3c 04 0f ab bc
       0.008240878 0.06695825 0.008171792 -0.020881183
000320 19 99 af 3d 0f eb f1 bc 3f 5f c8 3d bc 8e ca 3d
       0.08574123 -0.02953103 0.09783792 0.09890506
000330 37 11 94 3d 61 01 89 3d 01 b8 06 3e 15 a2 d5 bd
       0.07229846 0.06689716 0.1315613 -0.10431305
000340 7b bd d3 bd ed 03 db bd df 36 9a bd b4 b3 aa 3b
       -0.10338875 -0.10694108 -0.07529997 0.0052094106
000350 ac ee c1 bd 5b d6 b4 bd f0 3a 12 3e 71 0c 3b be
       -0.09469351 -0.088299476 0.14280295 -0.18266465
000360 ec 10 52 bd b3 69 96 bd a1 10 39 bd 16 ea 9e bd
       -0.05128567 -0.07344379 -0.045181874 -0.07759492
000370 41 f4 d0 3c 39 27 2c 3e 66 34 be bb 6c f5 13 bd
       0.025507094 0.16811837 -0.005804586 -0.036122724
000380 7e 2c f1 bd 6e 23 16 3e 89 9e a8 3b b9 7f 03 3d
       -0.11776064 0.14661953 0.005145852 0.032104228
000390 ef f9 e5 bd a8 01 2e 3e 26 96 0d 3e a1 6f 14 3e
       -0.11229312 0.1699282 0.13826808 0.14495708
0003a0 7a b9 00 3e 6f 76 c7 3d f3 ac a4 bd 35 2a 11 3e
       0.12570754 0.09739386 -0.080408 0.14176257
0003b0 06 7b fa 3d cc 79 00 be a5 e4 86 bd 38 01 28 3e
       0.12230496 -0.12546462 -0.06586579 0.16406715
0003c0 98 ff 1b 3e 43 93 0b 3e 12 c3 1a be cc 81 38 3d
       0.1523422 0.13630395 -0.15113476 0.04504566
0003d0 c7 08 a4 3d 75 59 29 3c c8 97 d0 bd 20 cb 3f 3d
       0.08009487 0.01033627 -0.101852 0.046824574
0003e0 53 c0 19 3e c4 f4 88 bc 03 b0 03 bd 29 75 b8 3d
       0.15014772 -0.016718276 -0.03215028 0.090067215
0003f0 54 4f 67 3d df 80 27 3e f1 d4 b9 3d de 5d 41 bd
       0.056472138 0.16357754 0.090738185 -0.04720866

tNN.4.bias f4 [64]
000000 f3 c4 0c 3e 99 cb c3 3d ea cd 14 3d d1 fb 8c 3d
       0.13747005 0.095603175 0.036329187 0.06883968
000010 8b c4 0a 3d ec 5c eb 3d 1f ee 96 3d 16 7a 82 bd
       0.033878844 0.11492333 0.07369637 -0.06370942
000020 08 04 01 3e 24 1a fe 3d ca 75 28 3e c1 a6 45 3d
       0.12599194 0.1240733 0.16451183 0.048254732
000030 e8 51 59 3b 5b 96 41 3d 3e 19 7f 3c 93 5a de bd
       0.0033160392 0.04726253 0.015569983 -0.108571194
000040 e6 25 0b 3e a7 fb 14 3e 81 be 18 3e 84 a9 56 3d
       0.13588676 0.14549123 0.14916421 0.052407756
000050 36 9a f0 3c 7f 8c e4 3d 5b f6 e1 bd 9c 8b 0a be
       0.029370409 0.1115961 -0.11033317 -0.13529819
000060 09 e1 10 3e 8d f8 e8 3d 15 98 e6 bd c8 ca 82 3d
       0.14148344 0.11375532 -0.11259476 0.06386334
000070 74 c2 52 bd 62 e2 30 be 65 82 91 bd 8a 0b be bd
       -0.051454976 -0.17273858 -0.07104949 -0.09279545
000080 97 d6 44 bd 16 d0 13 3e 23 d5 1d 3e aa 08 33 3e
       -0.04805621 0.14434847 0.15413336 0.17483774
000090 42 4b c4 bd 6c 8b de bc 8b e2 4c bb e5 33 8c ba
       -0.09584667 -0.02716609 -0.003126296 -0.0010696618
0000a0 ea 7c 05 be ea 07 89 bd 40 e5 24 bd ed fe 2a 3e
       -0.13035932 -0.066909626 -0.040257692 0.16698809
0000b0 a6 05 12 3e 7d 6e 2d be 79 af 92 bd ab 9e 66 bd
       0.14259967 -0.16936679 -0.07162375 -0.05630366
0000c0 7c e9 9e 3d e9 0a 10 bd 35 73 88 3d 5a c3 27 be
       0.07759377 -0.035166655 0.06662599 -0.16383114
0000d0 fd d1 7f 3d 09 af fd 3d 36 31 97 3d 50 ac cf 3d
       0.06245612 0.12386901 0.07382433 0.10140288
0000e0 f0 dc 11 3d 79 72 87 3c 72 e8 b5 3d 33 85 09 3a
       0.035611093 0.016534077 0.08882226 0.00052459835
0000f0 2a 13 0e be fa 6b 1a be 6c 8b cf bd 4c 19 bf 3b
       -0.13874498 -0.15080252 -0.101340145 0.005831873

psi.0.weight f4 [128, 288]
000000 13 c1 d1 3c 79 4c 41 3d fc f6 d8 3c 3c eb 1f bc
       0.02560476 0.04719207 0.026484959 -0.009760674
000010 fa 29 1e bd 78 8d 21 bd dd 30 33 bd 35 fb 03 3c
       -0.03861425 -0.039441556 -0.04374777 0.008055498
000020 bf 8e 4e bd 1c 3b 1b bc 0b 33 c9 bc b5 a9 79 3d
       -0.050429102 -0.009474542 -0.024560472 0.06095286
000030 f7 62 9c bc d4 ea 0b bd aa d7 89 3d 18 cd 02 bc
       -0.019090159 -0.034159496 0.06730588 -0.0079834685
000040 50 29 28 bd b3 b1 64 3d 9d 89 a2 bc 61 a6 f8 bb
       -0.041055024 0.05583353 -0.01984101 -0.0075881933
000050 92 39 d7 bb 9e cf 32 3d 53 f2 5f bd 1c 89 3a bd
       -0.006568142 0.04365503 -0.054674458 -0.045540914
000060 cd 7e 20 3d 72 b9 2b 3d 1a 8c f5 3c 88 e0 07 bc
       0.039183427 0.0419249 0.029974032 -0.0082932785
000070 3b 5e de bc 18 79 0a 3d 32 5d 52 bd d2 9f d6 3b
       -0.027144542 0.03380689 -0.05135841 0.006549814
000080 c2 d7 5e 3c d4 68 b1 3c ad 30 d0 3b 44 f9 55 3d
       0.013601245 0.021656431 0.006353459 0.05223967
000090 03 d2 c4 3c df 9c 17 bc 91 02 02 3d 1b 2c 9d 3c
       0.024025923 -0.00925371 0.03174073 0.01918607
0000a0 c2 4c 05 3d 18 39 05 3d e4 fc 8a bc 51 29 1f 3d
       0.032543905 0.032525152 -0.01696629 0.03885776
0000b0 33 51 04 3d 8d 6e 52 bd 93 8a a4 3c f0 9e f4 bc
       0.032304 -0.05137496 0.020085609 -0.029860944
0000c0 e2 c9 20 bd 3e 9a 4f 3d 06 de ec 3c f8 01 9d 3c
       -0.03925503 0.050684206 0.028914463 0.019165978
0000d0 2d 76 a3 3c 72 d9 8e bc 95 65 e5 bc 44 3d 15 3d
       0.019953812 -0.01743767 -0.02800254 0.03643538
0000e0 7a 6c b5 3b d8 90 5f 39 76 89 52 3d 21 8d 73 3d
       0.005536613 0.00021320896 0.051400624 0.059460763
0000f0 f9 13 1b 3d 56 61 80 bd 89 a6 0d bd ae 7e 5f 3b
       0.037860844 -0.06268565 -0.03458265 0.0034102607
000100 98 74 d0 ba 8d 14 1b bd 93 0b 9f bc 20 79 a1 3c
       -0.0015903888 -0.037861396 -0.019414699 0.019711077
000110 19 f4 ae 3c aa 66 10 3d 70 25 a9 3c 45 4d 80 bb
       0.02135663 0.035254158 0.020647734 -0.0039154612
000120 0d 43 12 3d ec 3c 2c 3d 08 b2 97 bc dd 78 31 3a
       0.035708476 0.042050287 -0.01851751 0.0006770024
000130 cf c2 6d 3d 54 32 49 3d de 15 7b bc f9 2f e9 bc
       0.058047112 0.049120262 -0.015325038 -0.028465258
000140 ea 97 2e 3d 98 bb 52 3d d1 be cd bc 18 63 02 bc
       0.042625345 0.051448435 -0.025115402 -0.007958196
000150 bd 0e be bb e2 4c af 3c 9e 7f 14 3c 1c b3 a6 bc
       -0.005800097 0.021398965 0.009063629 -0.020349078
000160 ab 91 a5 bb 9d 62 88 3d bb ca 03 3d ec 9a 44 bd
       -0.0050527654 0.06659434 0.03217576 -0.047999308
000170 7d ff fc 3c 34 41 62 bd 3c 2f 91 39 c2 ba 4b 3d
       0.030883545 -0.055237964 0.00027691748 0.049738653
000180 39 df 16 3d 2e 34 3b 3d 36 ac ca 3c c1 28 51 bb
       0.036833975 0.04570406 0.02474032 -0.003191516
000190 b1 50 ed 3c e7 aa 83 bd 00 b2 79 bd ac 50 9b 3c
       0.02896914 -0.064290814 -0.06096077 0.018959366
0001a0 a3 df 41 3d e4 7b 9f 3b b9 d3 14 3d 0f a7 62 bd
       0.047332417 0.004867064 0.036334727 -0.0553351
0001b0 ef 28 49 3d fb 18 46 3d 09 9e 17 3d 91 d0 cb bc
       0.049111303 0.048363667 0.03701595 -0.024879726
0001c0 eb 67 03 bd c7 e4 78 bd e3 ef 5a bd 49 43 b8 bc
       -0.032081526 -0.060765054 -0.05345143 -0.022493022
0001d0 04 57 6a 3d 5a 7b 63 bc 83 74 a9 3b 4f 78 2f 3c
       0.05721189 -0.01388439 0.00517136 0.010709836
0001e0 86 36 6b bd 34 f5 23 bd ad dc 64 3c d0 e4 0f 3d
       -0.057425044 -0.040028766 0.013968629 0.035130322
0001f0 64 ff 54 3d 18 c6 ab 3c e8 3d 1b bb f3 32 10 3c
       0.052001372 0.020968482 -0.0023688022 0.00880121
000200 2a e2 3b bc 6d 39 60 3a 50 52 0a 3d 5e fe 28 bd
       -0.011467496 0.0008553479 0.033769906 -0.04125821
000210 a0 ce 5c 3d 38 92 b2 bc 04 4d 5f bd 46 0b 13 3c
       0.05390799 -0.021798238 -0.054516807 0.008974856
000220 92 d2 29 bd 86 d8 29 ba f2 e0 1a 3d 44 95 1a bd
       -0.04146058 -0.0006479103 0.03781218 -0.037740007
000230 25 41 3b bc 92 d0 da 3b 93 e0 38 bd 95 6f 2d bc
       -0.011429106 0.0066776956 -0.045136046 -0.010585685
000240 ae 13 9a bc d5 53 79 bc 3e 70 b2 3b f5 d1 57 ba
       -0.018808212 -0.015217741 0.005445509 -0.0008232885
000250 43 d5 22 bd b1 5d df 3a a6 e8 da bc 5f 62 7c 3c
       -0.039754163 0.0017041472 -0.026722264 0.015404313
000260 3d 43 9a 3c 3b 93 32 3d 28 d8 05 3d c3 e2 44 bc
       0.01883089 0.04359744 0.032676846 -0.012016955
000270 a1 53 60 3d a9 21 e4 bc 29 fa 9f 3c a1 ad d2 bc
       0.054767255 -0.027848082 0.019528465 -0.025717558
000280 06 f0 7b bb e6 f8 db 3c 4d 42 1a bc 57 e5 24 bd
       -0.0038442626 0.026852082 -0.009415221 -0.040257778
000290 b3 b6 0c 3d dd f9 24 bd 90 40 69 3d 8a 93 95 bc
       0.034353923 -0.04027735 0.056946337 -0.018258829
0002a0 4e 96 04 b9 f7 2e 6b bc 5c b7 a0 bc bb d4 67 bd
       -0.00012644494 -0.014354459 -0.019618683 -0.05659936
0002b0 94 79 2a bd 7a 91 fc bc 03 b8 c3 3c 79 8a 5c bd
       -0.041619852 -0.030831087 0.023891455 -0.053842995
0002c0 ab 39 62 bc f6 f1 54 3d b6 58 56 bc 32 8c 59 3d
       -0.013807694 0.051988564 -0.013082674 0.053112216
0002d0 dd 63 03 3d 1f 70 5e bd 87 0e 11 bd e6 5a bd bc
       0.03207766 -0.054306146 -0.035414245 -0.023114633
0002e0 53 df 4b bd 3a 30 d5 3c 76 e8 05 bd 31 df 6c bc
       -0.049773525 0.026023973 -0.032692395 -0.01445751
0002f0 a6 66 3b 3d 40 9e 36 3d 97 c8 c2 bb 7f ed 39 bd
       0.04575219 0.044584513 -0.0059443223 -0.04539251
000300 48 9e 51 bc 22 3b 39 3d 9e d8 25 3d 07 f1 44 3d
       -0.012794085 0.04522241 0.040489785 0.048081424
000310 1e 6e 19 3d e0 03 40 bd b4 c4 47 bd fe 64 16 bd
       0.03745853 -0.046878695 -0.048771575 -0.036717407
000320 5d 18 04 3d c4 f4 6b 3d 40 b6 49 3d ec b7 46 3d
       0.032249797 0.057606474 0.049246073 0.048515245
000330 4e 58 14 bd 36 b7 7f bc 26 3f 29 bd 32 3a 0b 3c
       -0.036217026 -0.015607646 -0.04131999 0.008497762
000340 05 72 83 3d a8 d1 ac 3c 8f 3a 82 3d 57 64 7d 3d
       0.06418232 0.021096066 0.063588254 0.06186327
000350 16 19 4a bd ed 8f 61 3c 29 d2 c9 3c 5e 21 2b bd
       -0.04934033 0.013767225 0.024636345 -0.04177987
000360 0b b5 50 3d 8d 28 17 bd fb 32 c8 3c b2 7b 13 3d
       0.050953906 -0.036903907 0.024438372 0.036006637
000370 0e d8 57 bc ae 1b c6 bc 0a 87 20 bd 1f d8 81 3d
       -0.01317407 -0.02418312 -0.039191283 0.0634005
000380 2c 25 f6 bc 63 06 3f bd 7a 1f 52 bd ce 33 fe bc
       -0.030047022 -0.04663695 -0.05129955 -0.031030562
000390 72 f7 0b 3d ce c0 00 bd 2b 20 4c bc 42 3a c3 3c
       0.03417153 -0.031433873 -0.012458841 0.02383149
0003a0 4c 17 92 3b 61 58 cf 3a 96 9d 83 bb 75 6a 02 bd
       0.0044583436 0.0015819186 -0.0040165884 -0.031839807
0003b0 8b 03 4b bc 32 ef 38 3d c3 b8 6a 3b 17 02 64 bb
       -0.012390981 0.04514999 0.0035815693 -0.0034791285
0003c0 c2 22 23 3d c7 7c 65 3d ac da 60 3d 70 a0 3c bd
       0.03982807 0.0560272 0.05489604 -0.046051443
0003d0 15 5b 6b bd dc 0c a5 bc 23 bb 38 3d 16 76 e6 bc
       -0.05745991 -0.020147733 0.045100342 -0.02813248
0003e0 79 02 b2 3c 91 07 dc 3c 2b 78 d5 3b b8 d4 a9 3c
       0.021729695 0.026859077 0.0065145693 0.020731315
0003f0 e0 7d 53 3d 3f 95 7c bc 44 d7 00 bd 98 4b 24 bb
       0.051633716 -0.015416442 -0.031455293 -0.0025069471

psi.0.bias f4 [128]
000000 3c 8f 25 bd a7 80 24 3c 61 04 0c bc df b4 66 bc
       -0.040419802 0.010040439 -0.008545966 -0.014081209
000010 78 38 8b 3b 8a fe 20 3d 68 58 cd bb 8e 5b 32 3d
       0.004248675 0.039305247 -0.0062666424 0.043544345
000020 c5 bd e6 bc b9 df 5b bd dc a2 23 bd a4 3f 39 3d
       -0.028166661 -0.053680155 -0.039950237 0.045226708
000030 d0 7d 22 3d af 67 23 3d ee 96 a9 bc 60 82 48 3d
       0.039670765 0.039893802 -0.020701852 0.04895246
000040 44 70 66 bd 39 6c f0 b9 6b 01 32 3a e4 ef 05 3c
       -0.05625941 -0.00045857 0.00067903724 0.00817487
000050 51 6b 43 3d 33 1a b7 bc 31 3e 36 bb 53 9b 94 3b
       0.047709767 -0.02235136 -0.0027808065 0.0045351177
000060 ab 01 04 bd 72 9c 4f 3b 5d 52 04 3c 01 03 12 bc
       -0.032228153 0.0031678942 0.008076278 -0.008911849
000070 be 50 50 bc b9 31 e1 ba 58 11 4b bd 6f 83 26 3d
       -0.012714563 -0.0017180956 -0.049577087 0.04065269
000080 01 5a 09 3d 20 ef 13 bc 22 5a b2 bc 8e c6 62 3b
       0.0335331 -0.00902918 -0.021771494 0.003460321
000090 bd 7a 8a bc 8e 7e 18 3d cf 2f 1b bd 5e f9 6f 3c
       -0.01690423 0.037230067 -0.03788739 0.014646856
0000a0 7b 1d 4d 3d ce 69 40 bc e4 af 2d bd 1e d5 0e bd
       0.050076943 -0.011743976 -0.04240407 -0.034871213
0000b0 81 fe 18 3d e6 55 2c bc f0 02 69 3c 32 5e 4d 3d
       0.03735209 -0.010518527 0.014221892 0.05013866
0000c0 3e e4 13 3d bc 6e 62 3c 82 81 2b bc cb 3b fc 3b
       0.03610634 0.013820346 -0.010467889 0.0076975576
0000d0 35 66 43 3d 4d 19 3c bd 1c 03 ed 3c 38 c6 1f 3b
       0.047704894 -0.045922566 0.028932147 0.0024379622
0000e0 1b ed 44 3d 50 26 fb bc f6 d3 f3 3c 23 fa 3a 3d
       0.048077684 -0.030657917 0.029764157 0.045648705
0000f0 f9 c1 23 3d f6 d0 99 3c 60 51 c0 3b c3 29 39 bd
       0.03997991 0.018776398 0.0058690757 -0.045205843
000100 9b 28 da bb fc ce 5a 3d 5f 8e 70 3d ab 84 ee bb
       -0.0066576726 0.053420052 0.058729526 -0.007278999
000110 c1 d6 22 3d b0 a1 d4 3b b0 86 6a bd f3 87 03 bd
       0.039755587 0.006489001 -0.057257354 -0.032112073
000120 ab a7 be bb 12 2b 62 bd ef 03 f9 3c d8 47 2e 3c
       -0.0058183274 -0.055216856 0.030397383 0.010637246
000130 b5 41 26 bd 96 44 1c 3c 47 8a fc bc 1e 91 5b bd
       -0.040590007 0.009537837 -0.030827655 -0.05360519
000140 2f 77 12 3c ed cb 15 bd aa ad 05 3d 7f c2 37 bd
       0.008939548 -0.036571432 0.032636322 -0.04486322
000150 90 f4 43 bd 7b 26 63 bd 3a 77 08 3d 19 17 a6 3c
       -0.047840655 -0.05545662 0.03331683 0.020274686
000160 25 77 2f 3d 6b 17 e9 3c 62 c6 00 3d 25 d2 d0 3c
       0.042838234 0.02845355 0.031439193 0.02549083
000170 1d bf e5 3c 3c f7 1d bd 1f 5c 65 3d cb 1b 4c bd
       0.028045231 -0.03856586 0.055996057 -0.049831193
000180 b1 a6 50 3d d1 e4 01 3d 2a 21 02 bd 7c 04 4d 3d
       0.05094022 0.031712357 -0.03176991 0.050053105
000190 c5 66 9b 3c ac 55 cc 3b 54 51 20 3d 21 cf 57 3d
       0.018969903 0.006235799 0.03914006 0.052687768
0001a0 21 5d ed bc 5c 50 9f bc 1f 4f d8 bc 90 a9 cf bc
       -0.028975071 -0.019447498 -0.026404915 -0.025349408
0001b0 ff 06 01 3d 04 5a 64 bd 9e b2 2a 3d 6f 87 5c 3b
       0.031500813 -0.055749908 0.04167425 0.003365006
0001c0 05 4e 5b 3d 0a b0 64 3c c5 55 5e 3d 44 53 e1 bb
       0.053541202 0.013957987 0.054281015 -0.006876381
0001d0 47 0e 0f 3d 5c fd 58 bd 4e 0e 6b 3c 13 f9 e7 3c
       0.034925725 -0.052975997 0.014346672 0.02831701
0001e0 6a c0 39 3d 07 1f 1d bb 11 29 f8 3c 97 b9 2f 3d
       0.045349516 -0.0023974793 0.03029302 0.0429016
0001f0 f5 f0 41 bd d7 95 02 3d 1f 40 53 bc 9d 70 1b bd
       -0.047348935 0.03188118 -0.012893706 -0.037949193
