lightning_logs/version_0/checkpoints/epoch=0-step=99.ckpt (torch, 398034 bytes, 48 tensors)

lattice_net.0.weight f4 [8, 1, 2]
000000 7e fa 30 bd b9 21 f6 be 25 02 1d bf 90 4b 7b 3e
       -0.043207638 -0.48072603 -0.613314 0.24540544
000010 65 cc ac be 3a 78 95 be b6 ca 15 3f 63 ea 93 be
       -0.3374969 -0.29193288 0.5851244 -0.2888976
000020 b9 17 1c 3f d0 10 31 bd a4 5a 28 3f d5 a5 bf 3e
       0.609737 -0.043228924 0.65763307 0.37431207
000030 91 80 4a be 81 a4 37 bf e7 cb 94 be 3d 94 83 be
       -0.19775607 -0.7173539 -0.29061815 -0.25699034

lattice_net.0.bias f4 [8]
000000 29 a5 b9 3b 22 80 67 bc 05 83 ce 3e 5c 31 ed 3e
       0.0056654406 -0.01412967 0.40334335 0.4632672
000010 ca c8 a6 3e 56 0a 12 bd 62 ef d1 bd 44 10 21 3f
       0.32575065 -0.03565439 -0.10250737 0.62915444

lattice_net.2.weight f4 [16, 8, 2]
000000 0c 6f 7b 3e 3b ee 50 be 0c 58 10 be 3b 1e 3c 3e
       0.2455408 -0.20403378 -0.14096087 0.18370907
000010 e0 1b 46 3e 1c 25 74 bb df 76 1a bd 46 d0 c9 3d
       0.19346571 -0.0037253564 -0.03771102 0.09854178
000020 f3 ed 16 3e ad 7f 80 3e 88 30 13 be 06 b0 ff bd
       0.14739208 0.2509741 -0.14373982 -0.12484746
000030 68 81 42 3d 98 a2 8f bd b0 2f 4c be 0e 51 c8 3d
       0.047486693 -0.07013434 -0.19940066 0.09781085
000040 7e 9e 95 3d 46 16 38 3e 42 48 d5 bd 54 e1 8a 3d
       0.073056206 0.17977247 -0.10414173 0.06781259
000050 09 f6 83 3e d4 92 f9 bd 8f 59 45 3e 25 22 7e be
       0.25773647 -0.12186208 0.19272445 -0.24817713
000060 f9 ab 81 bd 4f 56 87 be 41 4e 0d 3e e0 46 4a 3e
       -0.06331629 -0.26433036 0.13799383 0.19753599
000070 5b 98 fe 3d f1 0c cc bb d2 e0 8a 3d b2 8a 28 3e
       0.12431403 -0.0062271287 0.06781162 0.16459158
000080 d9 c9 98 bb 85 83 f4 bd 4b 6a 43 be c3 4e 4d be
       -0.004662734 -0.11939148 -0.19083516 -0.20049576
000090 48 38 7c 3e e0 e9 44 3e d2 00 3b be e8 d9 03 3e
       0.24630845 0.19229841 -0.18262032 0.12876093
0000a0 83 e7 92 bc c7 1f b4 3d b0 3e 59 3e dc 64 92 bd
       -0.017932659 0.087951235 0.2121532 -0.07148144
0000b0 cf 1a 76 3e d0 3f c9 bd 0c 7e 0b 3e 70 8d 71 3e
       0.24033664 -0.098266244 0.13622302 0.2358911
0000c0 44 60 f5 bd f0 c8 e6 3b 65 28 15 3d 63 aa bd 3d
       -0.11981252 0.0070429966 0.036415476 0.09261014
0000d0 af 24 e9 3d 02 5b 24 be bf e8 ef 3d 45 25 0c 3e
       0.1138395 -0.16050342 0.11714315 0.13686092
0000e0 fc 4a fd bd 78 85 be 3d 21 89 ee 3d 6f 99 4d 3e
       -0.12367818 0.09302801 0.11647249 0.20078062
0000f0 fe fb 87 3e bf 5b 29 be a4 19 22 3e bb 19 00 be
       0.26559442 -0.16538905 0.15830094 -0.12509815
000100 b6 30 39 3e ea 5b 41 3c 31 eb 02 3e 32 2e 44 be
       0.18084988 0.011801699 0.12785031 -0.19158247
000110 5a c2 26 be fc 99 5e bd 7b 24 ba bd c4 b1 43 3e
       -0.16285077 -0.05434607 -0.09088989 0.19110781
000120 74 99 33 3e f9 15 49 3e b7 28 27 be 4e d6 1b 3e
       0.17539006 0.19637288 -0.16324125 0.1521847
000130 a4 7d 67 3e ac dd 7c be f0 4a 55 be 00 36 2c be
       0.22606522 -0.24693936 -0.20829368 -0.16817474
000140 3d ca b5 bc 50 15 1b be 4b cc 40 bc 26 ff e5 3c
       -0.022191161 -0.15144849 -0.011767457 0.028075766
000150 43 ad 02 3e d4 65 53 be 5d 39 fe 3c 38 4e d5 bd
       0.12761407 -0.20644313 0.031033212 -0.1041531
000160 1b 78 53 bc 28 19 b3 bd 89 21 11 3e 83 76 5e be
       -0.012907053 -0.087450325 0.14172949 -0.21724896
000170 28 4b e7 3d 9c d7 b0 bd 80 1c f7 bc 3f 96 99 bd
       0.11293632 -0.08634874 -0.030164957 -0.0749936
000180 aa 11 9b bc e6 0b 07 be 56 13 9f 3c 1d e9 f4 3d
       -0.018929321 -0.13188133 0.0194184 0.11958525
000190 e2 87 16 be ee 01 f3 bd a7 ea 5b be c7 30 47 3e
       -0.14700273 -0.118656024 -0.21476232 0.19452201
0001a0 f1 24 e9 bd 7a a2 b4 bc 2f 4b c2 3c 9c 7c cc 3d
       -0.11383999 -0.022050131 0.023717491 0.09984705
0001b0 f0 f8 40 3e 7c 7d 0e be c8 43 31 3e 32 9b 23 3e
       0.18844962 -0.13915056 0.17311013 0.15977171
0001c0 5f 97 b8 bb 98 41 a5 3b 33 45 f9 bd ba 27 c0 3d
       -0.005633279 0.00504322 -0.12171402 0.09382577
0001d0 8d 0d 7b be 92 8b 4e be 98 64 0c be 70 4f 1e 3e
       -0.24516888 -0.2017043 -0.13710248 0.1545999
0001e0 7f 73 6e be 8b 3c f4 bd 9a 00 88 3d 52 71 ed 3d
       -0.23286246 -0.1192561 0.0664074 0.1159388
0001f0 1e 6d d8 bd 6a 0c c3 bd 62 64 70 3d 05 d4 47 3e
       -0.105676875 -0.09523852 0.058689483 0.19514473
000200 22 3f 58 be 4f 68 6d be 8b 88 5e 3d d4 2b 12 3e
       -0.21117833 -0.23184322 0.054329436 0.14274532
000210 27 34 b6 bd 3a aa 93 3d 6e 69 0b 3e c2 6c f0 bc
       -0.08896666 0.072102025 0.13614437 -0.029348735
000220 0f a4 0b 3e ff 6c c6 bd 4d 69 71 3e 57 5e de 3d
       0.13636802 -0.09688758 0.23575325 0.10857838
000230 ca 14 de bd 7b f2 c5 3d f2 a3 9c 3d 04 2b 80 3e
       -0.10843809 0.0966539 0.076484576 0.25032818
000240 db a9 b3 bd 76 e2 3b 3e b7 f3 46 3e b1 86 31 3d
       -0.08772632 0.18348107 0.19428907 0.043341342
000250 7b 22 4d 3d 32 63 ea 3d 6b 87 31 3e 4e ff 33 3e
       0.05008171 0.11444701 0.17336814 0.1757786
000260 d3 e6 04 3e cb 4f f3 bd 35 7f 3c be 0a b9 c2 3c
       0.12978677 -0.11880454 -0.184079 0.023769874
000270 81 d3 8a bd 90 b3 c7 3d f5 4e e2 bd 58 f4 08 3e
       -0.067786224 0.09751046 -0.11050216 0.1337446
000280 2e bc 26 3e bf 2c 62 bd 0b 0b a7 3d 94 68 68 be
       0.16282722 -0.055218454 0.08156403 -0.22696143
000290 3d 45 d4 bd ab 5a 2c 3d 66 35 81 be a6 65 17 3e
       -0.10364769 0.042078655 -0.25236052 0.1478487
0002a0 87 7e 69 be d0 6d cc 3d 9c c8 76 be a0 b6 cc 3d
       -0.22802173 0.099818826 -0.24099964 0.099957705
0002b0 7b 98 1e 3e d0 db 92 3d ab 42 44 bd fc 44 6c be
       0.15487854 0.07170832 -0.047915142 -0.2307319
0002c0 b2 8b a5 3d 7b 77 90 bd 07 71 2d 3e 02 bb 37 3e
       0.080832854 -0.07054039 0.16937648 0.17942432
0002d0 1e 43 21 bd 9c 18 b1 bd da f0 78 3e fe ed 35 3e
       -0.03937065 -0.08647272 0.24310628 0.17766568
0002e0 b7 62 ec bd f5 c2 88 3e 8d 1a 34 be 76 0f e2 bd
       -0.11542266 0.2671124 -0.17588253 -0.11038105
0002f0 91 0c 8e 3d 30 c6 d9 3c 47 04 30 be 41 4f 17 bd
       0.069359906 0.026583761 -0.17189132 -0.036940817
000300 40 88 c9 3c 57 a2 75 3e bd 1f 10 be d1 b7 05 be
       0.024601102 0.23987709 -0.14074607 -0.13058402
000310 b6 3b a1 3d fc fc 95 3c 14 cc 82 be 8b 79 30 be
       0.07872717 0.018309109 -0.25546324 -0.17233865
000320 36 71 64 3e 61 85 a8 bd 49 89 81 3d b4 a6 ea 3d
       0.22308812 -0.08228565 0.06325013 0.11457577
000330 e3 34 5d be 96 87 96 3b d2 49 df 3d 1a bd 40 3b
       -0.21602206 0.0045938 0.10902752 0.0029409588
000340 29 71 fd bc 85 b5 2c be 24 b1 dc 3a 7c 16 df bd
       -0.030937748 -0.16866119 0.001683746 -0.108929604
000350 57 54 17 3e b1 df 02 3e d9 4d f9 bc f3 a9 9d 3d
       0.14778267 0.12780644 -0.030432628 0.07698431
000360 83 b2 26 be 8a fb 0b bd 83 84 c6 3d f9 31 85 bd
       -0.16279034 -0.034175433 0.09693243 -0.06503672
000370 e7 1b 66 bd 0a 77 90 3d 78 8d 68 be 7d 54 41 ba
       -0.056178953 0.07053955 -0.22710216 -0.00073749555
000380 92 3e 88 bd 4b 67 cc bd ea 41 1d be 36 cd 51 be
       -0.06652559 -0.09980639 -0.15357175 -0.20488438
000390 95 fd dd bd b0 ae 7f 3e 6a 72 b3 3d df f8 0b be
       -0.108393826 0.24968982 0.08762057 -0.13669156
0003a0 b5 94 09 3e 8c 18 65 be d6 c8 1b 3d a0 85 03 3e
       0.13435633 -0.22372645 0.03803333 0.12843943
0003b0 3e 5b 80 bd 86 78 43 3e 11 1f 28 be e7 96 4f be
       -0.06267403 0.19088945 -0.16418101 -0.20272408
0003c0 0c 05 12 3e 51 26 bc 3d 17 8f 25 be dd df 61 3e
       0.14259738 0.09186996 -0.16167866 0.22058053
0003d0 7e 49 1b 3e eb 48 62 3d 68 69 30 bc 27 bf 3c 3e
       0.15164754 0.05524532 -0.010767318 0.18432294
0003e0 a3 93 36 be c7 9e 7d be bb ec 1d be 32 0e 8c bc
       -0.17829756 -0.247676 -0.15422337 -0.017096613
0003f0 82 67 1c 3d d0 40 08 3e cc ea 35 be 7a 69 96 bd
       0.03818465 0.13305974 -0.17765349 -0.07344337

lattice_net.2.bias f4 [16]
000000 08 25 2c 3e fe 99 51 be 9e 79 20 3e 88 20 f8 3d
       0.16811001 -0.204689 0.15671393 0.1211558
000010 6d 75 27 be e7 39 48 3e 4b 41 63 be f7 f2 b5 3d
       -0.16353388 0.19553338 -0.22192876 0.088842325
000020 e4 a1 73 3e d4 94 5f be b7 fc cc 3c a1 03 1b be
       0.23792225 -0.21834117 0.025022848 -0.15138103
000030 01 d3 10 3e 9b 4e 7b 3c 68 40 a2 bd 55 de ad 3d
       0.14142992 0.015338565 -0.07922441 0.08489672

tNN.0.weight f4 [16, 2]
000000 34 be 08 3f 19 4e 1e 3f 6b e3 dc 3e a0 cd 99 3e
       0.53415227 0.6183792 0.43142256 0.30039692
000010 a8 76 11 bf 1d a1 9f be 3d 0f d6 be bc db b5 3d
       -0.5682168 -0.31177607 -0.418085 0.08879802
000020 dd 67 c0 be 7e 07 63 be db 5e c3 3e f4 cc 97 3d
       -0.3757924 -0.22170827 0.38158306 0.074121386
000030 c1 9f 47 3d 79 06 be be b2 41 f8 bc d3 69 84 be
       0.048736338 -0.37114313 -0.030304763 -0.25861987
000040 08 b5 34 bf 2a 82 bd 3d 0c da 30 3f e7 29 0f bf
       -0.7058873 0.092533424 0.69082713 -0.5592331
000050 b3 e5 32 3f 08 e8 50 bd bc d6 90 3c 8b 23 a8 be
       0.69881743 -0.051002532 0.017680518 -0.32839617
000060 f6 94 21 3f 08 30 33 3f 51 ed 0e bf 6f d9 0c bf
       0.6311792 0.69995165 -0.55830866 -0.5501928
000070 4c 62 c2 be 6d ae ff 3e c3 28 21 bf ef e8 1a bf
       -0.3796562 0.49937764 -0.6295282 -0.6051168

tNN.0.bias f4 [16]
000000 3d 47 87 3e 36 b3 e1 3e fd f0 81 be 29 db e5 be
       0.26421538 0.4408204 -0.25379172 -0.44893768
000010 1d 3d 18 3f da 61 27 bf 77 ed 03 3f fc df d3 be
       0.5946825 -0.65383685 0.5153422 -0.41381824
000020 4a 53 66 3d 33 c0 2c 3f 5f c3 2c 3f 1b c5 e3 be
       0.056231774 0.6748077 0.6748561 -0.44486317
000030 ab 53 1f 3f 6b 95 0b bf dc 94 2e 3f b3 a4 1a be
       0.6223704 -0.5452487 0.6819589 -0.1510189

tNN.2.weight f4 [32, 16]
000000 bf 1e 31 be a8 bf 2d 3e e0 1f 96 bc 98 da 12 3d
       -0.17296885 0.16967642 -0.018325746 0.035853
000010 78 d3 66 bd 46 dc 01 3e 32 85 35 3e f4 72 44 be
       -0.056354016 0.12681684 0.17726591 -0.19184476
000020 6b ec 2b 3e 60 63 bc 3d 04 cf 5c be d6 2a 28 be
       0.16789405 0.09198642 -0.21563345 -0.1642259
000030 7d 65 f7 3d d8 9f bc bd 1e 5d 21 3e 18 ab 15 be
       0.12079904 -0.09210175 0.15758178 -0.14616048
000040 00 78 98 bd ea e7 41 be 00 11 cc bc 04 72 da bd
       -0.07444763 -0.18936124 -0.02491045 -0.10666278
000050 92 a3 02 3e f4 ca 01 be 90 0b 7a 3d b6 d4 47 3e
       0.1275771 -0.12675077 0.061046183 0.19514737
000060 64 9d b1 bd 7a d7 3b be 40 69 d9 3d c2 b0 70 be
       -0.08672598 -0.18343917 0.10615778 -0.23504928
000070 b0 91 56 be 48 40 65 3e 14 f8 e4 3d 2c 77 c1 bd
       -0.20954013 0.22387803 0.1118013 -0.09446558
000080 e6 aa 3a be f8 c9 45 bd 4e 39 43 be c0 72 23 be
       -0.18229255 -0.048288316 -0.19064829 -0.15961742
000090 f8 ad 6b bd 92 31 65 be 62 45 46 be 40 0a db 3c
       -0.057538956 -0.22382191 -0.19362405 0.026738286
0000a0 00 53 40 bb 38 1f 15 3e 80 38 5a 3d 54 e4 84 3d
       -0.0029346347 0.1456269 0.05327654 0.06488863
0000b0 90 f7 7a be 18 fe 37 be 1a 49 13 3e c8 a7 81 3d
       -0.245085 -0.17968023 0.14383355 0.0633083
0000c0 99 51 c2 bd c5 ae 86 3c 80 e7 b3 3b 14 58 de bd
       -0.0948822 0.016440758 0.0054902434 -0.10856643
0000d0 d4 99 40 be 98 c5 2f 3d 80 34 4b bd 04 af a2 3d
       -0.18808681 0.04291305 -0.049610615 0.07943538
0000e0 f0 11 d5 bd b4 da 2b 3e 52 69 75 3d 54 c4 46 3e
       -0.10403812 0.16782647 0.059914894 0.1941083
0000f0 09 f9 3e 3e d8 4f 36 bd 4a 17 12 3d 20 db 2f 3d
       0.18649687 -0.04450974 0.03566674 0.042933583
000100 2b 12 5c 3e 21 72 60 be bc 1e e1 3d cc b3 2b 3e
       0.21491306 -0.21918537 0.1099219 0.16767806
000110 2c 25 23 be 1c 46 42 3e e0 40 fb 3c 98 27 2e be
       -0.15932149 0.18972057 0.030670583 -0.17007291
000120 68 f4 99 3c 58 63 2b 3d 7b d1 3c bd 24 72 04 3e
       0.0187933 0.04184279 -0.046098214 0.12934166
000130 c3 10 16 3e f0 31 d3 bc 10 5a 20 3e 7c 85 47 be
       0.14654832 -0.025780648 0.15659356 -0.19484514
000140 60 e4 09 bc ba af 75 be f8 6a d5 3d 00 45 27 bd
       -0.008416265 -0.23992816 0.10420793 -0.040837288
000150 f4 ec 58 be 00 c5 d9 3c 90 12 ff bd 20 74 19 3c
       -0.2118414 0.026583195 -0.124547124 0.009366065
000160 94 0c 14 be a8 b6 21 be 8a a5 1d 3e c4 c9 f8 3d
       -0.14457923 -0.15792334 0.1539518 0.12147859
000170 18 01 a7 bd 80 84 a6 bd 24 d5 8e 3d 34 dc 10 be
       -0.081545055 -0.08130741 0.06974247 -0.14146501
000180 80 2d 82 3d 9c c1 21 be c4 aa 1a 3e e0 12 60 bc
       0.06356335 -0.15796512 0.15104204 -0.013676375
000190 96 11 5e be 92 0b 75 3e 1c 65 02 be 14 3e f5 bd
       -0.21686396 0.23930195 -0.12733883 -0.11974731
0001a0 00 6f 84 bd 48 f9 6f be a0 d8 6f bd c8 b8 b6 bd
       -0.06466484 -0.23434937 -0.0585562 -0.08921963
0001b0 60 0f 14 3e dc c7 c7 3d 1c cf 11 be 44 80 60 be
       0.1445899 0.09754917 -0.14239162 -0.2192393
0001c0 5e a3 68 3d 43 52 e0 bd d0 50 40 be 60 20 18 3e
       0.056796424 -0.1095319 -0.18780828 0.148561
0001d0 80 bd 8b bd b8 82 c9 bd 2a 6c 24 3e 26 55 1d 3e
       -0.06823254 -0.09839386 0.16056886 0.15364513
0001e0 23 1f 29 3d 58 55 cd bd 99 08 1f be 28 cc 95 bd
       0.04128946 -0.10026044 -0.15530623 -0.0731433
0001f0 18 e4 3f 3e 0a 3f 5f be 7e 34 aa bd 9c 9a c0 bd
       0.18739355 -0.21801391 -0.08310793 -0.094044894
000200 3c dc 83 bd 94 71 6d be b2 ad 6b be 58 f9 4b 3d
       -0.06438491 -0.23187858 -0.23015478 0.04979834
000210 46 c2 2c be 40 8c e6 bc 30 ea fd bd 62 b5 50 be
       -0.16870984 -0.028143048 -0.12398183 -0.20381692
000220 76 16 01 3e 06 46 07 3e f8 cf 04 be 94 8d e9 bd
       0.12606224 0.13210306 -0.12969959 -0.11403957
000230 a8 7c 43 3d 6c 78 04 3e 9a 6f 07 be 98 8a 5a be
       0.047726303 0.12936562 -0.13226166 -0.21341932
000240 a4 4c d5 3d 30 36 79 bd d0 37 0d 3e 68 f1 1e be
       0.10415009 -0.060842693 0.13790822 -0.15521777
000250 dc cf 08 be 00 93 fd 3b 2c 14 c8 3d 40 1f 9f bb
       -0.13360542 0.007738471 0.097694725 -0.00485602
000260 9a 0d 39 3e 98 5d 05 3e d0 7a 66 be 80 59 02 bd
       0.18071595 0.13023984 -0.22507787 -0.031823635
000270 40 72 ca bc d0 76 9c 3d 88 c4 10 be 86 73 7a be
       -0.024712682 0.07639849 -0.1413747 -0.24458131
000280 18 75 31 bd 70 40 15 be 28 ed 43 be ba 2b 09 3e
       -0.04332456 -0.14575362 -0.19133437 0.13395587
000290 ba 39 34 3e ce c4 48 be 80 bd ea 3c 96 b4 28 be
       0.17600146 -0.19606325 0.028654814 -0.16475138
0002a0 d8 c5 1e bd 80 de d7 3b 80 d1 4a bd a4 54 71 3e
       -0.038762897 0.0065878034 -0.0495162 0.23567444
0002b0 dc d8 51 be ac cf ab 3d 6c 4f 14 3e f8 f9 7d bd
       -0.20492882 0.0838922 0.14483422 -0.062005967
0002c0 98 b5 6a bd 2c 21 91 3d 98 18 6d bd f4 2f d8 bd
       -0.057302088 0.07086405 -0.057884783 -0.10556021
0002d0 98 4a 7a be a0 f6 f5 3d f8 b5 05 be 0e 64 54 be
       -0.24442518 0.120099306 -0.13057697 -0.20741293
0002e0 48 ae 49 bd cc c2 33 be f0 f6 b2 bd f0 0d 4b be
       -0.049238473 -0.17554778 -0.08738506 -0.19829535
0002f0 10 55 80 3d 70 7c 26 3e 28 38 11 be b0 b1 17 be
       0.062662244 0.16258407 -0.14181578 -0.14813876
000300 ee 64 70 be 98 24 71 be 9e df 45 3e 98 0f 11 be
       -0.23476002 -0.23549116 0.19323584 -0.14166105
000310 90 3b 38 be 94 09 2a 3e 38 5c 2d be 80 b9 29 3b
       -0.17991471 0.16605216 -0.1692971 0.002589792
000320 f2 76 7e 3e 02 cf 06 be 60 cc 60 be 88 0d 5b be
       0.24850062 -0.13164905 -0.21952963 -0.2139188
000330 f4 e4 e4 bd 70 90 e7 bd 16 6a 3f be 20 a7 28 bd
       -0.11176482 -0.11306846 -0.18692812 -0.041175008
000340 2c be ec bd 80 39 92 bb ee 44 03 be 94 4f bc bd
       -0.1155971 -0.004462421 -0.12819263 -0.09194866
000350 c0 32 48 3d 0a 6c 28 be e0 2a 36 bd 00 84 ee 3d
       0.048876524 -0.16447464 -0.044474483 0.11646271
000360 48 d6 35 3e 28 f0 34 3e b0 09 8f bc f0 c1 93 3d
       0.17757523 0.17669737 -0.017460674 0.07214725
000370 00 e9 09 3d d0 29 0b 3d aa ff 6e be b0 ec 42 3e
       0.03366947 0.033975422 -0.23339716 0.19035602
000380 a0 bd c8 3c ec 7b a7 bd b6 18 1f 3e 60 39 69 3e
       0.024504483 -0.08177933 0.1553677 0.22775793
000390 94 8d 73 3e 6a bf 06 be 32 61 24 3e 10 19 8d bc
       0.23784477 -0.13158956 0.16052702 -0.017223865
0003a0 9c d7 14 be 78 91 59 3e 28 9a 59 be e4 49 7b 3e
       -0.14535373 0.21246898 -0.21250212 0.24539906
0003b0 04 bf e8 3d d0 4d 06 be 14 3e 57 be dc fb dd bd
       0.11364558 -0.1311562 -0.21019775 -0.10839054
0003c0 5e d5 81 bc 94 ad 07 3e 18 87 af 3d e4 66 e8 3d
       -0.015848812 0.13249809 0.08570689 0.1134775
0003d0 26 52 08 3e 80 22 ca 3b 5e 9b 68 be 80 b1 80 bb
       0.13312587 0.0061686635 -0.22715518 -0.0039274096
0003e0 10 41 eb bc bc 54 3f be 0a 22 20 be 6c 16 66 be
       -0.028717548 -0.18684667 -0.15637985 -0.22469491
0003f0 e0 79 05 3e 24 7d b4 bd c2 78 c1 bc c0 2b 38 3e
       0.13034773 -0.08812931 -0.023617152 0.1798544

tNN.2.bias f4 [32]
000000 1b 9a cd 3d 08 69 0f be ac ec f0 bd 04 72 fa bd
       0.10039159 -0.1400491 -0.117638916 -0.12228778
000010 5e 6a 1d be e0 b1 c6 3d 30 f9 44 be b4 fe 01 3e
       -0.15372607 0.09701896 -0.19235682 0.12694818
000020 b8 68 0b be 1c 3d b7 bd 20 c2 14 bc 4e e6 3f 3e
       -0.13614166 -0.089472026 -0.009079486 0.18740198
000030 28 58 32 3e fa 8f 27 3e e0 23 b9 bc 3b 2c 77 3c
       0.17416441 0.16363516 -0.022600114 0.015086229
000040 1f d9 8f 3d 24 36 36 be 87 29 68 3e ec 85 f7 bd
       0.070238344 -0.1779409 0.22672091 -0.120860904
000050 c8 15 6b 3e 56 d4 28 be c0 1b 1a bc bf 62 54 be
       0.22957528 -0.1648725 -0.00940603 -0.20740794
000060 62 bd d7 3d b8 e7 2a be e0 ba 76 3c a2 26 0f bd
       0.10534169 -0.16689956 0.015059203 -0.034948952
000070 d4 44 cb 3d ae dd 6d be 10 d5 d4 bd 2c f9 5f 3e
       0.09925237 -0.23229095 -0.10392201 0.21872395

tNN.4.weight f4 [64, 32]
000000 3a 8a bd bd 0e 13 05 3d cf 36 81 bd ab f1 85 bc
       -0.0925488 0.032488875 -0.06309282 -0.016350588
000010 be 6a 4d 3d e3 aa 6e bd 07 b0 0f be 25 05 c4 3d
       0.050150625 -0.05826844 -0.14031993 0.09571294
000020 62 25 9d bd 21 cb 3f bd 65 eb 0a be 1b db 50 3d
       -0.07673146 -0.04682458 -0.13566358 0.050990205
000030 62 a4 63 3d 90 84 fc bd c2 64 79 3d 5e 16 a0 3d
       0.05557669 -0.12329972 0.060887106 0.07816766
000040 4f ec f9 3d ea 85 00 3e 8b 14 c8 3d 12 83 76 bd
       0.122032754 0.12551084 0.09769543 -0.060183592
000050 3b e6 2c 3d 67 9e 0f bd cc 28 11 be 9e 39 a9 3d
       0.042211752 -0.035063174 -0.14175719 0.08262943
000060 e6 82 ae 3d 1f 3d b5 bd ec 12 be 3d d3 21 c3 3d
       0.08521061 -0.088495485 0.09280953 0.09527936
000070 bf 15 d3 bb fa 54 07 3e 3d f5 06 3a 64 73 f2 bd
       -0.0064418013 0.1321601 0.00051482377 -0.11838415
000080 05 7c 1a be 69 79 03 3e 32 b0 2d 3e a9 25 14 bd
       -0.15086372 0.12839283 0.16961744 -0.036168728
000090 e7 89 f2 3d b8 e9 1b be 83 7b d9 3d 27 23 f5 bd
       0.11842709 -0.15225875 0.10619261 -0.119695954
0000a0 3e 58 d9 3d 57 a1 55 bd 2d 63 34 3d df 30 08 3e
       0.10612534 -0.05215582 0.044039894 0.13299893
0000b0 85 18 d6 3d 7e 7e 34 3e 49 be 62 3d 82 9f f5 3d
       0.104538955 0.17626378 0.05535725 0.11993314
0000c0 9c 9a ca bd 53 8b d6 3c df 64 96 3d 49 63 ac bc
       -0.09892771 0.026189482 0.073434584 -0.021043437
0000d0 2f 16 8d 3d 5c be 00 3e b6 97 fc 3d 75 5e 3d 3d
       0.06888997 0.12572616 0.12333624 0.04623266
0000e0 7d 18 63 bd 74 63 a3 bd fb ae 10 3d ca 34 c1 3d
       -0.055443276 -0.079779536 0.035323124 0.09433897
0000f0 0b 9e f8 3d 9b 48 20 be 96 40 c0 3d 23 61 94 bd
       0.12139519 -0.15652697 0.09387319 -0.0724509
000100 fc 4e 08 bb 80 bd 0c 3e bc 81 86 3d cf d2 3a 3e
       -0.0020799031 0.13744164 0.065677136 0.1824448
000110 cd 3a 95 bd 07 2d 3a bc 4b d1 95 3b de aa b1 bd
       -0.07286606 -0.011363274 0.004572069 -0.086751685
000120 3a dd 26 bd 54 fa c1 3d e2 cb 7e bd 18 0d 21 be
       -0.04073832 0.094715744 -0.062206157 -0.15727651
000130 67 26 09 3e 20 d8 0c be f0 70 09 be 80 70 3b 3e
       0.13393556 -0.1375432 -0.13421988 0.18304634
000140 9e 53 34 3d 1f 35 10 3e 2a 2b 21 be 27 62 57 bd
       0.044025056 0.14082764 -0.15739122 -0.05258384
000150 78 9a f2 3d ac 37 1b be b1 b6 e0 3d 10 00 30 3e
       0.11845869 -0.15157956 0.109723456 0.17187524
000160 ad af 6c 3d c3 6e 27 3e 57 ac 49 bd 60 f3 4b bd
       0.057784725 0.16350846 -0.04923662 -0.049792647
000170 d2 f2 16 3d d5 b2 28 3e ff 5f f1 bd 83 98 a0 bc
       0.036852665 0.16474469 -0.11785888 -0.019603973
000180 f1 03 ba 3d 90 c4 be bd ab 49 b8 3d 5f fb 10 bd
       0.09082783 -0.09314835 0.08998426 -0.035395976
000190 71 a2 c3 3d 08 f9 b3 3d 2d d6 09 be 92 41 ee bd
       0.095524676 0.08787733 -0.13460608 -0.116336
0001a0 5c 4a 2b 3e be 30 cd bd c1 12 31 3e 99 47 7c 3d
       0.16727585 -0.100190625 0.1729231 0.06159172
0001b0 1b fc 9c bc ca 2b 88 bc 65 fe 2e bc a8 8a 58 3c
       -0.019163182 -0.016622443 -0.01068077 0.013216652
0001c0 ae 9e 24 3e 53 3d 62 3d d0 66 21 be df 26 1b 3e
       0.16076156 0.055234265 -0.15761876 0.15151547
0001d0 73 c6 92 3d 78 33 cf bd 6b 88 4c bd 5c 8c 0c be
       0.071667574 -0.10117239 -0.049934786 -0.13725418
0001e0 e6 3e 13 3e 83 31 2a 3e d0 6f 15 3e 1e d6 22 3e
       0.14379463 0.1662045 0.14593434 0.15901992
0001f0 63 6b 54 bd 64 74 90 3d 44 49 15 bc 97 38 25 be
       -0.051860224 0.0705345 -0.009111706 -0.16134869
000200 f9 ac e6 3c d0 91 0d 3e f0 93 1c bd aa 8d 2f bc
       0.028158652 0.13825154 -0.03822702 -0.010714928
000210 67 c5 9b 3d f6 b7 67 bd cd 72 29 3e 3e fd 3d bd
       0.07606011 -0.056571923 0.165477 -0.04638409
000220 04 95 32 3d 0d da c4 3d f5 3e 97 3c 6f 3a 01 bd
       0.043599144 0.096119024 0.018462637 -0.031549867
000230 1d 43 f3 3d f9 a3 f2 3c b6 44 a4 bd b4 7e f3 bd
       0.11878035 0.029619204 -0.08020918 -0.11889401
000240 f4 8d d8 3c 7c 1a 13 be 12 0f a0 bd 23 cb 04 3e
       0.026434876 -0.14365572 -0.078153744 0.12968116
000250 c1 6c 31 be 5c 22 38 bc 5e ee e4 bd 02 ec 7f 3c
       -0.17326643 -0.011238661 -0.111782774 0.0156202335
000260 35 c8 ed 3d 8a d6 4a bd 11 0e 17 3e 21 9e 42 3d
       0.11610452 -0.049521007 0.1475146 0.047514085
000270 6e 89 1e 3e d9 99 be 3d b9 8d 9d bd 9f e5 20 3e
       0.15482113 0.09306688 -0.07693047 0.15712593
000280 de c8 b8 3d d5 b6 74 bb 0f a4 72 3c 4b 4d 08 be
       0.090226874 -0.0037340422 0.014809622 -0.13310735
000290 3e aa 4a bd eb cc 8d 3b 4f ca ca 3d 70 04 83 3c
       -0.04947876 0.0043274066 0.099018686 0.015993327
0002a0 4e 16 d5 3d 6e 20 fa 3d 74 dd ab 3d 48 01 d0 bd
       0.10404645 0.12213217 0.08391848 -0.101564944
0002b0 4a 57 0e 3e 95 d0 d1 bd c8 3a 56 3d 6d ff 2b 3e
       0.13900486 -0.10244862 0.052302152 0.16796656
0002c0 5f 16 62 bc ca 6b 4a bc 27 a7 86 3d 71 6e a6 bd
       -0.013799279 -0.0123548005 0.065748505 -0.08126534
0002d0 ef 21 82 3d 5b 95 11 3e 88 ad 9f bc bd e1 0c be
       0.063541286 0.14217131 -0.019491926 -0.13757987
0002e0 37 1a b6 3a 24 eb 5e bc f7 74 06 3d cc 30 36 3e
       0.0013893311 -0.013605867 0.03282639 0.17792052
0002f0 5e 93 c9 bd f7 18 00 be f6 1b ee bd 0d 08 e2 bc
       -0.09842561 -0.12509523 -0.11626427 -0.02759173
000300 69 d9 b8 bd e0 28 dc 3c f4 c5 10 be 12 50 18 3e
       -0.09025843 0.02687496 -0.14138013 0.14874294
000310 10 74 d9 bd f3 8a a6 3d 57 f7 d5 bd b3 f8 d9 bc
       -0.1061784 0.08131971 -0.10447567 -0.026607847
000320 ed df 23 be eb d7 4d bd 16 c4 4f bd 6d b5 16 be
       -0.1600339 -0.050254744 -0.05072411 -0.14717646
000330 34 d0 a5 3d 0e 69 21 be a3 86 e1 bd b1 de d6 3c
       0.08096352 -0.15762731 -0.11012008 0.026229234
000340 64 3f 30 3e 72 c5 af b9 5b d4 1f 3e bb 96 bc bc
       0.17211682 -0.0003352571 0.15608351 -0.023021093
000350 9b 12 2f be fc 20 48 bc ac 43 09 3c fe a8 0f bd
       -0.17096941 -0.012214895 0.008377951 -0.035073273
000360 65 4a 28 be 91 b4 9e 3d 1c 43 27 3e e3 d4 e4 bd
       -0.1643463 0.07749284 0.16334194 -0.111734174
000370 4b 98 2d be ea e5 22 be e4 78 46 bd fb c1 84 bd
       -0.16952626 -0.15908018 -0.048455134 -0.06482311
000380 9f 1b 15 3e d9 72 db bd 59 ff ba 3d 70 d6 a0 3d
       0.14561318 -0.10715265 0.09130735 0.07853401
000390 c4 8f 0d 3e 26 75 a4 bd 82 5b 5e bc 58 f6 50 3d
       0.13824373 -0.08030157 -0.013571622 0.05101618
0003a0 74 be 0f 3c 0a 0d 2d 3e 60 7a df 3c 07 88 d7 3d
       0.008773435 0.16899505 0.027280033 0.10523992
0003b0 a6 bc 27 3c 78 83 31 be f0 2a 00 be 44 ab 08 bc
       0.010237848 -0.17335308 -0.1251638 -0.008341614
0003c0 4d 6f 2d 3b 3f 08 17 bc 57 bf fb 3d df b9 fe bc
       0.0026464046 -0.009218275 0.122923546 -0.03109449
0003d0 c5 f8 35 3d f6 96 ec bc 38 b4 b8 bd bb f2 01 3e
       0.0444267 -0.028880578 -0.09018749 0.1269025
0003e0 97 8c bf bb a3 4a 36 3d bb 55 88 bd 8c 39 b1 3d
       -0.005845617 0.044504773 -0.06656977 0.08653554
0003f0 22 63 1d 3e 4a 67 7f 3d 22 ce 8f bd 4d 59 ba 3d
       0.15369847 0.062354364 -0.070217386 0.09099064

tNN.4.bias f4 [64]
000000 a7 3c 0c bc f7 4a 81 bd c6 2c aa 3d 0a 27 5f bd
       -0.0085593825 -0.063131265 0.08309321 -0.05448059
000010 8f 9a 49 bc 81 8f 5e 3d 7c 1e 81 3b b7 0b 8f bd
       -0.012304916 0.054336075 0.0039404016 -0.06984656
000020 33 0d 05 bb fe f2 21 be 30 15 2e 3e c3 7a c0 3d
       -0.0020302057 -0.1581535 0.1700027 0.09398415
000030 d3 41 82 bd 3a 84 bd 3d 83 f9 02 3e 10 cb 05 3e
       -0.06360211 0.09253736 0.12790494 0.13065743
000040 58 d9 a2 3d 85 bc e7 bc 65 6e 31 be 85 04 1b 3e
       0.07951611 -0.028288135 -0.17327268 0.15138443
000050 91 dc 0a be 01 79 ef bc 2f 99 86 3d 7c fb 6b 3d
       -0.13560702 -0.029232504 0.06572186 0.05761288
000060 79 b5 02 be bf 15 19 be aa cf 03 bd 8c 26 81 bd
       -0.12764539 -0.14949702 -0.032180466 -0.0630618
000070 ee 52 1a 3e 97 ef 1d be e5 d0 a0 3d 81 78 22 3e
       0.15070698 -0.15423428 0.078523435 0.15866281
000080 4c 4a e9 bd 8c 8c 86 3c 74 55 c9 3b c7 06 1a be
       -0.11391124 0.01642444 0.00614422 -0.15041648
000090 27 4b 83 3d 51 08 86 bd 39 d8 4d 3d 49 c4 ed bd
       0.064108185 -0.06544555 0.050255034 -0.11609704
0000a0 ad f5 a6 3c de d7 63 3c 17 88 0e be 8f d7 04 3e
       0.02038082 0.013906447 -0.13919102 0.12972854
0000b0 a4 3c bd bc 44 79 21 3b 46 b0 fa 3d 4e f2 ed bd
       -0.023100205 0.002463893 0.12240653 -0.116184816
0000c0 8b e8 c5 3d 7e 50 df bd 9e cc 2c bc 6f a7 01 3e
       0.09663495 -0.109040245 -0.010546831 0.12661527
0000d0 af 7a 95 bc cc 0f 00 3e 5c 18 0c bc cf 83 0a bc
       -0.018246977 0.12506026 -0.00855073 -0.008454277
0000e0 d9 f0 61 bd a0 a8 ca bd 52 01 09 3d 5b 8d e8 3d
       -0.05516133 -0.09895444 0.033448525 0.113550864
0000f0 aa 7b 9e bd 9c 3a bb bc 2a 10 a3 3c ac 7e 89 bc
       -0.07738431 -0.022855096 0.019905169 -0.016784035

psi.0.weight f4 [128, 160]
000000 19 24 94 bd c9 5b 4c 3d 42 13 6f 3d 27 c3 50 bc
       -0.072334476 0.04989222 0.058367975 -0.01274184
000010 56 6e 31 bd 4d be f7 3c cf 99 56 bd 30 6d 9e 3d
       -0.043318115 0.03024211 -0.052392777 0.077356696
000020 40 7d 39 3c 0f 7a 36 bd 63 19 26 3c f1 92 15 3d
       0.011321366 -0.044549998 0.010137889 0.036517087
000030 95 aa a0 39 ec e9 f7 3b 5c 3e 63 bd e5 f6 bb bd
       0.00030644672 0.0075657275 -0.055479392 -0.09177951
000040 89 d6 02 bd a8 d4 d7 bc c9 27 5a bd 13 ba 9d bd
       -0.031942878 -0.02634652 -0.0532606 -0.077015065
000050 42 b3 be 3c af 6c 19 bc dd 79 12 3d 2b 68 53 3c
       0.023278836 -0.009364291 0.03576075 0.012903254
000060 ec 47 98 bd 8e d7 e6 bc 79 61 a4 bc 78 47 7e 3c
       -0.07435593 -0.028178956 -0.02006601 0.015519969
000070 95 ff 93 3d 5a 36 8e bd 3b 12 6f 3d 14 c8 a9 3d
       0.07226483 -0.069439605 0.058366995 0.08290115
000080 7e a1 04 3c f4 2c ba bb 2d 3c 8e 3d 92 95 3c bd
       0.008095143 -0.0056816284 0.06945071 -0.04604108
000090 17 cb 61 bd c7 2f 17 bd d5 bc 9c bc 76 e7 62 3d
       -0.055125322 -0.0369108 -0.01913301 0.05539652
0000a0 6f f3 22 bd 22 93 1b b6 d4 4d 88 3d dc 26 49 3d
       -0.039782938 -2.3182442e-06 0.066554695 0.049109325
0000b0 b6 12 6b bd 0f dc 89 bd ef ef 92 bd cc ff 59 3c
       -0.05739089 -0.06731426 -0.0717467 0.013305616
0000c0 77 e7 71 3d 83 d0 41 3d c8 47 bc 3c 3e 9a b7 bd
       0.059058633 0.047317993 0.022983447 -0.08964966
0000d0 24 14 14 3c ec 2b 0e 3d e5 dc 0d bc cb 5a 27 bd
       0.009038005 0.034709856 -0.008658622 -0.04085807
0000e0 28 ae 16 3d 2f a8 65 3c 31 04 88 bd c9 8e 54 3c
       0.036787182 0.014017149 -0.066414244 0.012973496
0000f0 64 30 f6 bc 15 4d 48 3c af 36 4e bd c8 0b 4b 3d
       -0.030052371 0.012225409 -0.05034512 0.049571782
000100 fc 15 4c 3d ea cc 0e 3d 1d 55 31 3c ff 35 54 bc
       0.049825653 0.03486339 0.010823515 -0.012952327
000110 e5 97 8b 3d 43 25 2b bd 01 0c 9a 3d 03 19 7e 3c
       0.06816081 -0.041783582 0.07521821 0.015508893
000120 b0 1c 73 3c 47 ca 51 bd 55 5b 05 3d 98 04 84 3d
       0.014838383 -0.051218297 0.032557804 0.06446189
000130 99 bc 02 bd 07 d5 6e 3d 88 04 d6 bc 6e 6a 35 3d
       -0.031918142 0.058308627 -0.026125208 0.044290952
000140 b5 55 73 bd e2 00 42 bb f0 09 07 bd be 3a ac 3c
       -0.05940791 -0.0029602577 -0.03296846 0.021024104
000150 fb 77 6c 3d a7 9d bb 3d c7 0f 28 3d 65 ec 10 bd
       0.05773161 0.09160929 0.04103067 -0.035381693
000160 06 6d 6e 3c bf 7f 22 3d 44 33 08 ba 71 e9 91 bb
       0.01455236 0.03967261 -0.00051956275 -0.004452877
000170 c8 b7 ce 3c 4f 76 55 3d 0e 67 e3 3c 3a cf 8a 3d
       0.025234118 0.05211478 0.027759101 0.067778066
000180 be 52 dc bb 40 5d bc 3c 10 db 8a bd c7 91 86 bd
       -0.006723731 0.022993684 -0.06780064 -0.065707736
000190 70 38 bb bd 8c a6 2f 3c da 85 62 3d 71 bd 99 3c
       -0.09141624 0.01072086 0.055303432 0.01876709
0001a0 1e f1 5e 3d 11 bd 25 3c 2e 8c 8a 3d b9 93 86 3d
       0.054429166 0.010115878 0.067650184 0.065711446
0001b0 38 a1 21 3c 33 a2 1b bd f5 9d ba 3c 3e 38 b2 bd
       0.009865098 -0.037996482 0.022780398 -0.087021336
0001c0 99 2d 31 3d d0 81 71 bc 26 2a 99 bc d8 4f be bc
       0.043256376 -0.014740422 -0.018696856 -0.023231432
0001d0 2a e9 46 bd 58 d6 3e 3b ab c7 b5 bc e8 72 cb bc
       -0.048562206 0.0029119458 -0.022189936 -0.024835065
0001e0 50 c7 de b9 97 50 b8 3c 46 4e b3 3c 79 06 49 3d
       -0.0004249164 0.022499366 0.02188791 0.04907844
0001f0 76 db 19 bc 7e 91 ac 3c 26 c1 c0 bc 61 43 7b bc
       -0.0093907025 0.02106547 -0.0235296 -0.015335889
000200 f4 f3 48 bd 9a 2d 28 3d 89 3a 60 3d ce 67 30 3c
       -0.049060777 0.041059114 0.054743323 0.0107669365
000210 0e 9e 41 bd 6d 28 b0 bd 8e ad 67 bd ca 20 e9 bb
       -0.047269873 -0.086014606 -0.056562 -0.0071145045
000220 e1 83 8f 3c 47 f4 b3 3d 21 5f d4 3b 21 c4 8d 3c
       0.01751894 0.087868266 0.006481067 0.017305436
000230 74 89 46 bd b0 54 7c 3d 7d b6 eb 3c 8c c6 5c 3d
       -0.04847093 0.0616042 0.02877354 0.053900287
000240 8d 0a 32 bc 26 12 87 3d bc e8 89 3d 9c 45 f7 bc
       -0.010866773 0.065952584 0.06733844 -0.03018456
000250 c8 6b 71 3d ff 11 0d bd fa 25 8d 3d 30 30 f3 bc
       0.05894068 -0.03444099 0.06892009 -0.029686064
000260 61 f6 3c bc 1a 44 12 3d d3 80 23 3d 26 13 1d bc
       -0.011533351 0.035709478 0.03991778 -0.009587085
000270 0c cc 56 bc 10 fd b3 3d 3c f3 65 bd 1c c9 84 bd
       -0.013110172 0.08788502 -0.05614017 -0.06483671
000280 c3 5c 3a 3d 56 7f 89 bc 7e 0f 85 bd 23 49 9b bc
       0.04549862 -0.016784351 -0.064970955 -0.018955773
000290 ec 13 62 3d e3 15 e0 3c 22 0e 17 3d 06 b2 76 3d
       0.05519478 0.027354186 0.036878712 0.06022837
0002a0 9b 07 3a bd 7c 0e b0 3d 26 c5 a4 bd b8 34 aa 3d
       -0.04541741 0.08596513 -0.080454156 0.083108366
0002b0 e3 50 b6 bc 43 7e 29 3d 43 c3 47 3c 37 fc 2e bd
       -0.022255367 0.04138018 0.01219255 -0.042721
0002c0 10 22 d3 bb 11 e3 a5 3d 49 c6 e5 3c 67 6f a1 bc
       -0.0064432696 0.0809995 0.028048651 -0.019706441
0002d0 85 38 7c ba 2b 5d 0e bd 62 c8 c5 3c d1 14 ba 3a
       -0.0009621459 -0.03475682 0.024143402 0.0014196878
0002e0 36 11 04 bd c9 5b 31 3c bc 8d 46 3c 5c 53 67 bd
       -0.032242976 0.010825106 0.012118753 -0.056475982
0002f0 e8 81 e9 bc 48 0e 79 bd 9f d7 a2 3d 88 44 93 bd
       -0.028504327 -0.060804635 0.07951283 -0.07190806
000300 90 52 46 bd 80 70 e1 3c 16 8f 5c 3d 6a 42 56 bc
       -0.04841858 0.027519464 0.053847395 -0.013077358
000310 93 20 87 3d 42 05 3a bd a1 57 c7 bc cb d0 8c bd
       0.0659801 -0.04541517 -0.024333777 -0.068757616
000320 ae 6a a5 3d 5f 33 5d bc b0 0c 3c bd a8 7f c4 3a
       0.08076988 -0.013501017 -0.045910537 0.0014991658
000330 69 6b d9 bd 03 b2 84 bc 2e db 7e bd e2 ea 13 bd
       -0.1061619 -0.016198164 -0.062220745 -0.036112674
000340 9e 0d 33 bc 75 e5 6d bd 02 76 42 bd ba 51 95 bc
       -0.01092854 -0.058080155 -0.047475822 -0.018227447
000350 86 94 93 bd 75 cc 90 3d df ed 9c 3c 20 bd 7c 3d
       -0.07206063 0.07070247 0.019156395 0.0617038
000360 94 1b 2d 3d 99 91 3a bd 57 49 8b 3c c3 d4 ff bc
       0.04226263 -0.04554901 0.017002745 -0.031229382
000370 ac 84 64 3d fc 85 98 bd 08 c6 8d bc 38 7f bb bd
       0.05579059 -0.074474305 -0.017306343 -0.091551244
000380 5b 2a 4b 3d ce 5a 8c bd 51 a3 9f bd 4b a3 69 3d
       0.04960094 -0.06853257 -0.07794822 0.057040494
000390 4f aa 81 bd 5e ae fe bd 82 03 9a bc 77 8d 1c bd
       -0.06331312 -0.12435602 -0.0188005 -0.03822085
0003a0 ec 4b 82 3d 71 11 92 3d 3a c2 d7 bb 45 1e 67 bd
       0.06362137 0.07132233 -0.006584433 -0.05642535
0003b0 9b 9b ee 3b dc 9f 01 b7 5d 1f fe 3c ed f5 f5 bc
       0.007281733 -7.726219e-06 0.031020815 -0.030024493
0003c0 d6 a6 a2 bd 89 9e a7 3b 38 78 17 bd 96 6a f3 bc
       -0.07941978 0.0051153344 -0.036979884 -0.02971391
0003d0 ea db 91 3d 51 f4 ac bd 42 d8 36 bc 73 b4 2a bd
       0.071220234 -0.08445037 -0.011159958 -0.041675996
0003e0 93 7e 89 bd 20 9b 3a 3d 04 6a 1e 3d 82 d4 b8 b9
       -0.06713595 0.045558095 0.038675323 -0.00035253546
0003f0 65 f4 e2 bc 5e 94 f2 3d bb 2d ee 3c 4b 97 59 3d
       -0.027704427 0.11844705 0.02907454 0.0531228

psi.0.bias f4 [128]
000000 a2 fe 78 3c 06 05 05 3d 75 58 af bc e8 31 82 bd
       0.015197428 0.032475494 -0.021404484 -0.06357175
000010 c7 ee 55 bc b4 40 84 3d a4 2b 9f bd 47 32 98 3c
       -0.013057417 0.06457654 -0.07771996 0.018578662
000020 1a 85 bf bc 97 c8 60 bd 71 de fd 3c a3 7c 07 bc
       -0.023378897 -0.054878797 0.030989857 -0.008269462
000030 a4 5a a2 3c 11 c9 75 bd 48 5f 47 3d da e2 a2 bd
       0.019818611 -0.060006205 0.04867485 -0.07953425
000040 42 a0 e8 3c 45 bd 96 3d 97 19 94 3d 48 b0 7b 3d
       0.02839673 0.07360319 0.072314434 0.06144741
000050 d2 4d 4c 3d 4d 4f ad bd 53 5e 2a bd 43 71 ca 3b
       0.049878903 -0.08462391 -0.04159386 0.0061780526
000060 e4 c1 8b bd b8 b0 a1 bd 9c 60 86 bd 2f 06 6d bd
       -0.06824091 -0.078950346 -0.065613955 -0.057867225
000070 54 d3 88 3d 04 8a b9 3c 73 d3 f9 bc 36 9e dc bc
       0.06680933 0.022648819 -0.030496335 -0.02693091
000080 ba 9e 0c 3c 8a 4d de bc 42 d9 87 3c 3a 7e 96 3d
       0.008582765 -0.027136583 0.016583089 0.073482946
000090 67 79 d6 ba be 40 5a 3c ab 52 40 bd 82 83 1d 3d
       -0.0016363085 0.0133211 -0.04695384 0.038455494
0000a0 35 08 a9 3c bf ca de bc 29 66 87 3d 72 4e b9 3d
       0.020633796 -0.027196286 0.066112824 0.090481654
0000b0 27 47 9e bd d6 ff 27 bc 64 6e 88 bc 53 d1 14 3d
       -0.07728415 -0.010253867 -0.0166542 0.03633244
0000c0 49 eb 13 3d 3a 21 40 bd 13 43 7c bd ab 41 86 bd
       0.036113057 -0.046906687 -0.061587404 -0.06555494
0000d0 0b 72 65 ba 17 94 74 bd 71 79 94 3c 89 24 1e 3d
       -0.00087526505 -0.059711542 0.018124314 0.03860906
0000e0 3c 2e e3 bc c6 ae 8a 3d 1d a3 9a 3a ec ba 67 3c
       -0.027732007 0.06771617 0.0011797879 0.014143687
0000f0 39 cc 7d bd f8 75 d7 3c b9 50 d1 bc 6b e3 b4 bb
       -0.06196234 0.02630137 -0.025551187 -0.0055202744
000100 f7 2f b6 3c 8d b1 15 3d 5f ca 45 3d 13 f0 a5 3d
       0.022239668 0.03654628 0.0482887 0.08102431
000110 50 87 df 3c c9 19 7d bd 40 4d bc 3b cc b3 11 3d
       0.027286202 -0.06179217 0.0057465136 0.03557186
000120 06 83 7a 3b f4 ac 4f bd f1 b4 af 3d 38 60 b3 bc
       0.0038225069 -0.05070205 0.08579434 -0.021896467
000130 4d ee b1 bd 59 a9 6c 3d 9d f8 0a 3d 9c 61 36 bd
       -0.086880304 0.05777869 0.033928502 -0.04452668
000140 0e 23 1d 3c 8e e8 33 bd e6 9a b2 bc de fd 7c 3d
       0.009590877 -0.043922953 -0.021802377 0.061765544
000150 92 77 2f 3d c2 d5 35 bd 3e c3 9f 3c 3d 59 e5 bc
       0.04283864 -0.04439331 0.019502278 -0.027996654
000160 d1 e1 9e 3d 11 b0 bc 3c a6 e7 9f 3d 9a 40 15 bd
       0.07757915 0.023033174 0.07807855 -0.036438562
000170 c2 e2 64 bc df f8 72 3c f2 f7 c7 3a cb 00 6a bd
       -0.013970079 0.014829843 0.0015256389 -0.057129662
000180 b4 22 d1 bc 0a a2 da 3c 2d c9 49 3c ea f0 05 bb
       -0.025529243 0.026688594 0.01231603 -0.0020437785
000190 0d 2c 79 bd 44 9e 37 bd 68 3b f4 3c d2 ea 4f 3d
       -0.060833026 -0.04482867 0.029813483 0.05076105
0001a0 61 df d4 3a dd 1d 13 bd 28 90 52 3d a8 f2 92 bb
       0.0016240889 -0.03591715 0.05140701 -0.0044844933
0001b0 d1 db 91 bd 85 c0 11 3d c0 13 81 3d 68 6a 8b 3c
       -0.07122005 0.03558399 0.06302595 0.017018512
0001c0 f3 38 91 3d bf 40 97 bc 4f 42 a1 bd 82 b6 1d 3d
       0.0709094 -0.01846349 -0.078739755 0.03850413
0001d0 96 e8 6b 3d ae 07 66 3d c4 d7 01 3c 43 5f b9 bc
       0.057594858 0.056159668 0.007924978 -0.022628432
0001e0 8d 8f 32 3d 56 0d 8d 3d 40 b7 a2 bd 77 c5 04 bc
       0.043593932 0.06887309 -0.079451084 -0.00810372
0001f0 81 11 10 bd 1c d5 f0 3c 7b 5a b5 bd 12 f4 f2 3c
       -0.035172943 0.029398493 -0.088551484 0.029657397

psi.2.weight f4 [64, 128]
000000 5a 8b 63 bc d8 98 ae 3b f3 ad f8 3c e1 a8 43 3d
       -0.0138882045 0.005328279 0.030356383 0.047768477
000010 94 0b 86 3c 76 25 3a 3d 12 fd 83 bd 19 1e 22 bd
       0.016362943 0.04544588 -0.06444754 -0.039579485
000020 f6 07 28 3d 72 91 c0 bd 8d 1b 75 bd 06 80 00 3d
       0.041023217 -0.094027415 -0.059840728 0.031372093
000030 8c 4d ea bc 44 d2 68 3d 07 57 ab bd 52 3c 77 3d
       -0.02860143 0.05684115 -0.083662085 0.06036026
000040 30 96 3d bd fc 32 92 3d 01 3d 84 bc 6f b2 fc 3c
       -0.046285808 0.07138631 -0.01614237 0.030846803
000050 d4 2f b2 bd 16 4c c9 3c 42 c4 92 bd 3f f0 8f 3d
       -0.08700529 0.024572413 -0.071663395 0.07028245
000060 0d 49 9e 3d e0 60 98 bd 5f 43 9a bd aa a9 3b 3d
       0.07728777 -0.074403524 -0.07532381 0.0458161
000070 89 7f 39 bc d3 48 98 bd e1 a3 db 3b 9b 61 c1 bb
       -0.011321911 -0.07435765 0.0067028855 -0.005901528
000080 90 9b 2b bc 69 23 4d bc b4 b9 d3 3c c7 ac a7 bc
       -0.010474101 -0.0125206495 0.025845386 -0.020468129
000090 3b e5 d2 3c 5d 4b d4 3c 5a 81 65 bc a4 91 a4 bd
       0.025744071 0.025914842 -0.014007891 -0.08035591
0000a0 47 f0 da 3d 85 44 67 bd 00 db 69 3d d2 b3 6c bd
       0.106903605 -0.05646183 0.05709362 -0.057788678
0000b0 ce b5 af bc 1f 8a 8a 3d 8a 7c 07 bd c7 6a 31 3d
       -0.021448996 0.06764626 -0.033077754 0.04331472
0000c0 97 75 88 bd 47 0a 8c bd f8 73 6f bb aa 7f 16 bc
       -0.066630535 -0.06837898 -0.0036537629 -0.009185711
0000d0 55 69 29 bb 72 ca fe bc 45 a6 8c bd 45 1f 53 3d
       -0.0025850136 -0.031102393 -0.06867651 0.051543493
0000e0 33 b1 4f 3d aa fa 77 bd 33 fd 63 3d 1b 33 c7 3d
       0.0507061 -0.060541786 0.05566139 0.097265445
0000f0 58 f8 8d 3d 2a 21 fd bc 17 52 17 3c 97 77 fc bc
       0.069321334 -0.030899603 0.00923588 -0.030818744
000100 ae 87 66 bd 82 03 92 bd a1 df 77 bd 0f 7d 46 3c
       -0.056281738 -0.07129575 -0.060516004 0.012114777
000110 c9 db 68 bd 8d cf 17 bc 96 da 7d bd bb 45 1c bd
       -0.05685023 -0.009265793 -0.061976038 -0.038152438
000120 20 2c a9 3d bd 27 dc bc 56 1b 3e 3d 3e 7a b2 3c
       0.08260369 -0.026874417 0.04641279 0.021786805
000130 3a 48 77 3b 59 da e5 bc 32 28 35 3c 07 72 90 bc
       0.003773226 -0.028058218 0.011056947 -0.017632497
000140 b2 fe 70 bd f4 e3 9a 3b 22 78 2b 3d 68 c4 90 3d
       -0.058836646 0.004726881 0.041862614 0.070687115
000150 76 fc a7 bd 59 8c 2a bd 40 ce 51 3d ba a8 ad 3d
       -0.0820245 -0.041637752 0.051222086 0.08479448
000160 68 ca f4 ba c9 02 20 3d 79 44 98 3d 48 ed 07 3d
       -0.0018676044 0.039065156 0.07434935 0.033185273
000170 f4 2a a2 bc 59 9b 92 bd 37 e4 92 bd af 45 b3 3c
       -0.019795872 -0.071585365 -0.07172435 0.021883814
000180 b0 50 93 3d 86 ea 53 3c 60 77 c6 3b 60 1d 3d 3d
       0.07193124 0.012934333 0.006056711 0.046170592
000190 3b bd b0 3d 40 f5 80 3d 06 f6 99 bd c2 be a0 3c
       0.08629843 0.06296778 -0.07517628 0.01962221
0001a0 44 e6 ce 3b 88 0c 3f 3d bb c6 b1 bd 9c c5 82 bc
       0.006314071 0.04664281 -0.08680483 -0.015963368
0001b0 78 55 c5 bb 74 9c cc bc 8e a8 97 bd a3 b3 4a bd
       -0.0060221516 -0.024976946 -0.07405196 -0.04948772
0001c0 d2 b7 28 bd 66 6f d5 bc 3c 83 7a 3d 38 b7 4f bd
       -0.04119093 -0.026054095 0.06116031 -0.05071184
0001d0 a3 0c e8 bc e2 6e 73 bd 5c b9 7f bc d2 72 6a bd
       -0.028326338 -0.059431918 -0.015608158 -0.057238407
0001e0 7e c3 90 bd 07 9b 9a bc c3 72 6a bc a5 64 67 bd
       -0.07068537 -0.01887275 -0.014309588 -0.056492466
0001f0 e2 97 db 3b a6 63 8e bd 43 2a 24 bd 48 00 5d bc
       0.0067014555 -0.069526 -0.040079366 -0.013488837
000200 36 67 6a 3d 56 c3 be bc 7b 45 34 3d c8 04 da bc
       0.057227336 -0.023286503 0.044011574 -0.026613608
000210 68 81 a2 3c fd 40 d2 3a 81 2b 0b 3c 50 c0 54 3d
       0.019837096 0.0016041097 0.008494259 0.051941216
000220 a5 4a 5d 3d e3 49 8f 3d 55 39 49 3d 5d 0b 14 3d
       0.054026265 0.06996515 0.04912694 0.03614365
000230 24 05 82 3d 9f 1a 5e 3d 95 df e7 bc e7 68 93 3d
       0.06348637 0.054224607 -0.028304854 0.07197743
000240 f4 52 d9 3b 5c 14 99 3d 89 3a 47 bd 72 79 39 bd
       0.0066322032 0.07474586 -0.048639808 -0.045281835
000250 37 83 a9 bd 4d ab 1b bd 5d d6 3b bd 89 36 69 bd
       -0.0827698 -0.038005162 -0.04585873 -0.056936774
000260 02 af 88 bd ae 8a 88 3d c0 8b be bc a7 64 09 bd
       -0.06674005 0.06667076 -0.023259997 -0.033543255
000270 fb 95 a6 bd 90 0f 77 3d e1 79 c3 bc 3a 32 af bc
       -0.08134075 0.060317576 -0.023861827 -0.021386255
000280 45 f4 7f 3d c4 97 a0 3c 9e 3d de bc 6e 38 10 bc
       0.062488813 0.019603617 -0.02712899 -0.008802516
000290 4f 55 4f 3d d3 17 34 bd c9 56 d7 bc b2 d7 9c 3d
       0.050618466 -0.043968033 -0.0262865 0.07658328
0002a0 6d 6d 67 bc bf ee 01 bd 91 aa 3c ba d8 be 4c 3d
       -0.01412521 -0.031721827 -0.0007197047 0.04998669
0002b0 fa e8 cb bc ee 88 d6 3c cb 3a a5 3d 68 d6 58 bd
       -0.024891365 0.02618834 0.080678545 -0.05293885
0002c0 59 1f fb 3c f4 7e 8e 3d c1 ed 89 bc c6 3f a6 bd
       0.030654596 0.06957808 -0.016837003 -0.081176326
0002d0 98 2c 50 3d ce 1e 84 bd e7 8b 97 bd 7e 86 3d 3d
       0.050823778 -0.06451188 -0.07399731 0.04627084
0002e0 35 a3 81 bd a5 95 a7 bd a2 1a a0 bc 69 9f 8d bc
       -0.063299574 -0.08182839 -0.01954395 -0.017287927
0002f0 b4 7f a1 bd e4 95 de 3c 2d a9 9e bd 12 a0 13 3d
       -0.078856856 0.027171083 -0.077471115 0.036041327
000300 cb e1 5d bd f7 5d 99 bd f5 46 9c 3d 05 37 d5 3c
       -0.05417041 -0.074886255 0.076307215 0.026027212
000310 1c 8c 83 b7 66 7f 85 bd 24 8c 2b bd df 5d 0c bd
       -1.568166e-05 -0.0651844 -0.041881695 -0.03426921
000320 e6 6b 94 3c 4b b6 ec 3c 2e 9b 7f 3d 78 67 86 bd
       0.018117856 0.028895518 0.06240385 -0.06562704
000330 c3 6d 03 3d 45 77 3d bd a1 0e 9c 3c de c6 16 3c
       0.0320871 -0.046256322 0.019049944 0.009202687
000340 1a dd f7 3c 0b 11 9c 3d fe af ea 3c cf 5e 01 bd
       0.030256797 0.07620438 0.028648373 -0.031584557
000350 20 c6 94 bd ba 4d ac bd ea 2e bd 3c 79 42 b2 bd
       -0.07264352 -0.08413263 0.02309366 -0.08704085
000360 3f 7c 42 bd c9 ed 09 bd 52 2f 10 3d 9e 23 bf bc
       -0.04748177 -0.033674035 0.03520138 -0.023332413
000370 bc ef 2d bd 74 75 20 3d c9 ac 7b 3d 82 ce 1a 3b
       -0.042464957 0.039174512 0.061444078 0.0023621623
000380 b8 89 8d 3c f5 90 5a bd 7b 56 6a 3d 9d e1 05 3c
       0.017277583 -0.053360898 0.05721138 0.008171466
000390 84 6e 82 3c d6 4c 18 3d a5 8e 98 bd ba 02 7d bd
       0.015921839 0.03718265 -0.07449082 -0.06177018
0003a0 89 2b a2 bb c6 16 c3 bc 02 ec 8e 3d 59 4f 92 bc
       -0.0049490375 -0.02381457 0.06978609 -0.017860102
0003b0 0e 10 69 3d 94 38 0b bd f2 7f 81 3c 8c 2c 94 3d
       0.056900077 -0.033989504 0.01580808 0.07235059
0003c0 38 51 84 3c 96 9d 20 bd 21 c7 92 3d 9b b0 d6 bb
       0.01615201 -0.039212786 0.07166887 -0.0065518147
0003d0 52 16 5a 3a 7f 06 69 bc 8b 6a 2e bd 79 e3 a2 3c
       0.0008319366 -0.01422274 -0.042582076 0.019883858
0003e0 47 df 40 3d f2 cd ac 3d 60 46 ad 3d b7 db d6 ba
       0.047087934 0.084377185 0.084606886 -0.0016392384
0003f0 b3 d8 92 bd c1 b1 9e 3d ea b3 a3 bd 2b 2c 01 bd
       -0.07170238 0.077487476 -0.079933 -0.031536262

psi.2.bias f4 [64]
000000 6b a5 3e 3d d6 9a 17 bd 11 e8 2b 3d 1b 2e 12 bd
       0.046544474 -0.037012897 0.041969363 -0.0356885
000010 81 21 6a 3c c1 fb 74 bd ee 62 9d 3d 29 9e bb 3d
       0.0142902145 -0.059810404 0.07684885 0.09161026
000020 df 27 c2 3c d5 92 0e 3d 13 92 26 bc e5 05 e2 bb
       0.023700653 0.034808 -0.010166663 -0.0068976753
000030 86 66 a2 bd c7 ce 10 bd fb c5 9a bd 77 3a dc bc
       -0.07929711 -0.03535345 -0.07557293 -0.026883347
000040 4f 0e 9f bd 57 9a 84 bb 07 81 16 3d eb 18 0c bd
       -0.07766401 -0.004046719 0.036744144 -0.03420345
000050 af 9d 00 bd 88 94 b6 bb 48 60 03 3d 9f 61 d3 3b
       -0.03140038 -0.0055719055 0.032074243 0.0064508463
000060 30 dd 03 3d 70 78 a4 3d ff d7 a4 3a dd e8 01 3d
       0.032193363 0.08030784 0.0012576579 0.031716216
000070 97 8b e9 bc 5d f4 45 3d 4c 0f 9c bd 14 49 d6 bb
       -0.028508944 0.048328746 -0.07620105 -0.0065394733
000080 75 f8 ad bd f6 bd 5a bd ef 38 50 3d 8c 91 8b 3d
       -0.08494655 -0.053403817 0.050835546 0.0681487
000090 cd c5 1a bc b4 94 0a 3d 65 78 af 3b fe bf df bc
       -0.009446573 0.03383322 0.0053549283 -0.027313229
0000a0 54 5b 4c bd f5 52 41 bd c9 02 16 bd f9 78 af 3d
       -0.049891785 -0.047198255 -0.03662375 0.085679956
0000b0 69 51 9d 3d 41 13 9b bd 21 3e 13 bc 72 02 7b 3d
       0.076815434 -0.07572032 -0.008986981 0.06128163
0000c0 c7 8c 62 3c 1d 14 a0 3d 1b da 09 bd c7 33 01 3d
       0.013827509 0.07816336 -0.033655267 0.03154352
0000d0 58 42 bc bb 69 90 f0 3c 64 a5 3c bd 76 af 43 3d
       -0.0057452135 0.029365735 -0.046056166 0.047774754
0000e0 d8 09 b9 3d 73 fb a0 3d ee 7d e5 3c f5 54 98 3d
       0.09035081 0.0786046 0.02801415 0.07438079
0000f0 a7 f0 8b bd 43 4c 63 3d d4 41 49 3d c2 90 19 3d
       -0.0683301 0.05549265 0.049135044 0.037491567

psi.4.weight f4 [2, 64]
000000 b2 32 af bd a1 68 ef 3d 50 1a 78 3d 88 f0 88 3d
       -0.08554591 0.11689878 0.06057197 0.06686503
000010 c7 d9 01 bd e0 82 ac bc 3c 7f 9d bd a0 8c 41 3d
       -0.03170183 -0.0210585 -0.07690284 0.04725325
000020 c0 45 8c 3d 3c d5 b5 3b 2d 13 8d bc 56 6a 49 bc
       0.06849241 0.005549101 -0.017221058 -0.012293419
000030 a8 58 c1 bd d8 85 0c bd 5c 88 5d bd d5 a7 19 bd
       -0.09440738 -0.03430733 -0.05408512 -0.037513573
000040 c3 fd 15 bd 26 ac a0 3d 2e 73 09 bd 42 e2 ad 3d
       -0.03661896 0.07845335 -0.03355711 0.08490421
000050 a2 3c ce bd ac c7 cf bc c0 83 95 3d 87 d1 1f 3c
       -0.100701585 -0.025363766 0.0730052 0.009754545
000060 65 1d 8c bc 38 71 a3 3d 8b 01 19 3c 7a 3e 4a bd
       -0.01710386 0.07980579 0.009338747 -0.04937599
000070 09 07 e4 3d 82 36 9b 3d e3 73 d2 3a 1c e7 4a 3d
       0.11134154 0.07578756 0.0016056265 0.04953681
000080 44 fb 33 bd 20 ab 98 3d ae b3 24 3d 1c f0 7a 3d
       -0.043940797 0.074545145 0.04021042 0.061264142
000090 ae f4 c9 bd 66 66 f2 3c 37 73 f6 bd 90 51 ce 3d
       -0.09861122 0.029589843 -0.12033694 0.100741506
0000a0 ac 9b 67 bd bd cf 6d 3d 3f c4 b6 bd 79 88 05 bd
       -0.056544945 0.058059443 -0.0892415 -0.032600854
0000b0 de bc c9 3d 8e 12 80 ba c2 ec 87 bc fa 66 c1 3d
       0.09850477 -0.0009771155 -0.016592387 0.09443469
0000c0 2b f7 c0 bd f3 e1 44 3c fc 45 ba bd d4 fc 7d bd
       -0.094221435 0.012016761 -0.0909538 -0.062008694
0000d0 48 23 3f 3d 94 6a be 3d 94 0a d7 3d 23 b0 63 bc
       0.046664506 0.09297672 0.105000645 -0.013896975
0000e0 63 c9 fa 3d 9f d6 31 3d 40 21 cf bd 10 f4 c0 3d
       0.12245443 0.04341757 -0.10113764 0.09421551
0000f0 ec 46 38 bc b4 45 64 3d b4 4e 1b bd 27 40 c1 3d
       -0.011247378 0.055730537 -0.037916854 0.09436064
000100 15 84 f7 3d 26 12 14 3d 7e bb 50 3c fd 89 02 bd
       0.120857395 0.03615012 0.012740014 -0.031869877
000110 7d 9a ee 3d 38 65 8b bd fe b7 b3 bd 61 3c ab 3d
       0.1165056 -0.06806415 -0.08775328 0.08361126
000120 32 73 c3 bd f7 6d b9 bd ac ed 27 bd 3f e6 35 3c
       -0.09543456 -0.09054177 -0.040998146 0.011102258
000130 2c e2 8a 3d 1b cd c3 3d 50 f9 6e 3d 5c 22 05 3e
       0.0678142 0.09560605 0.05834323 0.13001388
000140 44 a1 8a 3c 5c 26 7c 3d 1d e5 9f bd 08 d0 ef bc
       0.0169226 0.06156002 -0.07807372 -0.029274002
000150 23 97 da 3d 7a a2 b5 bd 70 de ea 3d b5 48 ef bd
       0.10673358 -0.088688806 0.11468208 -0.1168379
000160 9e 15 5b bc f0 e1 05 bd a9 e6 37 bd 08 ab dd bd
       -0.013371853 -0.032686174 -0.04489771 -0.10823637
000170 ba e0 a5 3d e0 d9 28 bd 60 1c 35 3c 10 bd 4e 3c
       0.08099504 -0.041223407 0.011054128 0.012618318
000180 50 96 70 3c c0 93 c6 bc d0 d2 d3 3d 48 46 b0 3d
       0.014684275 -0.024240375 0.10342944 0.08607155
000190 90 98 41 3c 25 1e 2d bd 3c 50 b3 3d 42 55 9a bd
       0.011816159 -0.042265076 0.08755538 -0.07535793
0001a0 cc 95 9a bd 25 63 ca bd 99 93 cd 3d 19 0a 83 3d
       -0.07548103 -0.098821916 0.10037918 0.0639841
0001b0 da bb d7 3d 0f cf df 3b 7c 31 61 bd a6 f7 26 bd
       0.10533877 0.006830103 -0.054978833 -0.04076352
0001c0 c2 2a 9e 3a 4f 57 95 3d 14 c1 c0 3d a7 7c 2c 3d
       0.0012067186 0.072920434 0.09411827 0.042111065
0001d0 ae 91 b0 3b a3 a2 31 bd a4 e3 47 bd ee ac 89 3d
       0.00538846 -0.043367993 -0.04880108 0.06722437
0001e0 e9 b7 9f 3d 6a e5 42 bc 5a d5 7f bc fe 8c 24 3d
       0.0779875 -0.011895517 -0.015614832 0.040173523
0001f0 b0 7e a5 3d ca 23 e0 bd 0c 03 d3 bc 6a 58 e4 bc
       0.08080804 -0.10944326 -0.025758289 -0.02787419

psi.4.bias f4 [2]
000000 55 9f a1 3c 9c ec 01 3e
       0.019729296 0.12687916

exp_avg f4 [8, 1, 2]
000000 22 bf 9e ba 6b c1 10 3a 9e 9b 2c 39 2e 47 bf ba
       -0.0012111405 0.00055219856 0.0001646117 -0.0014593357
000010 04 fc 79 ba 8b 2f ce 3a e5 e5 af ba ca fd 4f ba
       -0.00095361494 0.0015730722 -0.0013419954 -0.0007934241
000020 9e 62 18 3a 51 fe a8 ba 90 b3 8c b9 ac 7b 97 3a
       0.0005813035 -0.0012893175 -0.00026836665 0.0011557243
000030 fb b9 08 ba be 5c ee b9 ac 57 97 3b b6 2e 95 3b
       -0.00052157015 -0.00045463996 0.0046186056 0.0045526875

exp_avg_sq f4 [8, 1, 2]
000000 75 17 9a 39 77 f6 88 39 22 3f 8d 3a 64 9b 27 3a
       0.00029390646 0.00026123572 0.0010776261 0.00063936994
000010 e8 17 9a 3a 3f c2 d4 3a 74 37 68 3b 39 ed 53 3b
       0.0011756392 0.0016232206 0.0035433443 0.003233744
000020 c1 5f f1 3a 5a 22 1d 3a c8 a3 0c 3b 8a 96 36 3b
       0.0018415378 0.00059941935 0.0021459926 0.0027860724
000030 38 db bf 39 09 39 b0 38 e5 8c 73 3a 1b 0f ad 3a
       0.0003659369 8.4029576e-05 0.0009290709 0.0013203354
