lightning_logs/version_20/checkpoints/epoch=0-step=99.ckpt (torch, 609856 bytes, 54 tensors)

lattice_net.0.weight f4 [8, 1, 2]
000000 aa 97 01 bf 36 24 20 bf 7f 35 f5 3e af c0 44 3d
       -0.50622046 -0.62555254 0.47892377 0.04803532
000010 cc a1 80 be 6e 85 05 bf e2 f8 2d 3f ec b9 05 3f
       -0.2512344 -0.5215672 0.6795789 0.5223682
000020 c2 ee f6 bd f1 11 e7 3e fa 56 14 3f 5e 9f 93 3e
       -0.12057258 0.45130876 0.57945216 0.28832525
000030 73 eb cc 3d 40 23 2f bf 30 41 0e 3f d9 7a a9 3e
       0.10005846 -0.6841316 0.5556822 0.33101538

lattice_net.0.bias f4 [8]
000000 d1 3d e5 be 8f 4b 81 be 98 23 27 bf 8a a7 08 3c
       -0.44773725 -0.2525296 -0.65288687 0.008340726
000010 6c 69 dc 3e d9 4e ae bd 14 de 98 be b1 ff 88 3e
       0.4304918 -0.08511133 -0.29856932 0.26757577

lattice_net.2.weight f4 [16, 8, 2]
000000 af 1c d7 bd 0e 9b ce 3d 74 1a 83 bd 17 93 a5 bd
       -0.10503518 0.10088168 -0.0640153 -0.08084696
000010 bc 9d 91 bd 44 a1 7d 3e 7d d1 42 be 23 54 10 3e
       -0.071101636 0.24768549 -0.19025226 0.14094596
000020 7e 06 79 be bb f5 e8 3d 1f c3 3f bd 86 32 7a 3e
       -0.24318883 0.11374994 -0.04681694 0.24433336
000030 22 93 f1 bd 7b b5 1f be 01 5d 1f be 94 34 4a be
       -0.117956415 -0.15596573 -0.15562822 -0.1974662
000040 04 ee cf bc 73 32 32 3d 22 24 ec bd df 2e 70 3e
       -0.02538205 0.043505143 -0.11530329 0.2345538
000050 0c a9 8c 3d ff 2d e6 3d 23 c9 45 be fc 00 0e be
       0.06868181 0.11239242 -0.19315009 -0.13867563
000060 35 a0 0d be 60 5b ff bd 58 63 ba 3d 0d 0b 67 be
       -0.13830645 -0.124686 0.091009796 -0.2256281
000070 a6 c8 fc 3c d5 e5 69 be 7d a4 03 3e 3f 61 54 be
       0.030857395 -0.2284158 0.12855716 -0.20740221
000080 ba c5 05 3e c5 47 47 bc ee 87 16 3d c9 75 50 3e
       0.13063708 -0.012163107 0.036750726 0.20357431
000090 38 70 a9 bd ac 28 4b 3e a7 8e 71 3e 96 cb e8 bc
       -0.08273357 0.19839734 0.23589574 -0.02841739
0000a0 ff fe 09 3e f8 30 80 3b b0 e5 31 3e 21 51 2b 3e
       0.1347618 0.0039120875 0.17372775 0.16730167
0000b0 7a 6e fd 3d 8c 5e 4a 3e 6e dd ea bd 65 32 46 3e
       0.12374587 0.1976263 -0.114680156 0.19355161
0000c0 c9 91 3c 3e 73 d6 3b bd cf 4f 5f 3e 58 e2 25 3e
       0.18414988 -0.04585881 0.21807788 0.16199625
0000d0 1f 9a 9e bd ff 19 51 be 2c 1e fc 3c 72 ff b0 3d
       -0.0774424 -0.20420073 0.030776106 0.08642472
0000e0 d7 46 73 be 20 92 6f be dd 8a 71 be 20 a4 47 3c
       -0.23757492 -0.23395586 -0.23588128 0.012185127
0000f0 6d 56 de 3c 43 5f 0f bd de d2 8d 3d d4 73 59 3d
       0.02714082 -0.035002958 0.06924985 0.053088978
000100 e4 0c 79 be 42 63 30 bd eb fe f5 bb b6 48 ff 3d
       -0.24321324 -0.04306341 -0.007507195 0.124650404
000110 68 e8 0f be 56 b7 84 3d 80 b7 4f 3e b7 0c 32 bd
       -0.140535 0.06480281 0.20284843 -0.043469157
000120 dd 85 a0 bd 27 92 9f 3d c0 43 48 3e d7 42 b1 bd
       -0.078380324 0.07791548 0.19557095 -0.08655327
000130 1b 98 2a bd fa 93 65 3c a6 f0 74 be c3 63 6e be
       -0.041648965 0.014012331 -0.23919925 -0.23280244
000140 89 d1 01 3e b9 c3 1c be 94 13 8e bd 8a e4 8d bd
       0.12677588 -0.15309037 -0.06937328 -0.06928356
000150 31 8b ce bd 93 83 e8 3d c5 f5 75 3e 5e de 15 be
       -0.100851424 0.11353221 0.24019535 -0.14635608
000160 f6 bf 05 3d 3a ac 78 3d 89 d2 53 3c 2c dd 92 3d
       0.03265377 0.060711123 0.012928613 0.071710914
000170 ab 7b 42 3e 4c 5f 30 3d da 2c 09 be d7 88 3c 3e
       0.18992488 0.043059632 -0.13396016 0.18411575
000180 34 0f 25 be fe fe b8 3d 75 36 9f bd 8c 13 26 be
       -0.16119081 0.09033011 -0.07774059 -0.16218394
000190 91 e8 a4 3b 76 a1 42 be 16 95 20 3e d2 64 5a be
       0.005032607 -0.19006905 0.15681872 -0.21327522
0001a0 44 8b 39 be 09 36 37 3d 20 c9 f3 3b 37 0e 79 3e
       -0.18119532 0.044729266 0.0074397475 0.24321829
0001b0 10 91 f4 bd b8 a0 a8 bd f1 b6 2b 3c 97 64 65 3e
       -0.11941731 -0.0823378 0.010480628 0.22401653
0001c0 9f 7c 63 be 26 d0 ec bc 6f 67 62 3e e0 a8 11 3e
       -0.22215508 -0.028907847 0.2210977 0.14224577
0001d0 ec c7 0b 3e 75 a1 1a 3e 04 c7 46 3e 3b 67 39 be
       0.13650483 0.15100653 0.19411856 -0.18105786
0001e0 52 60 b5 3d 5b 44 ba bd 69 c4 9c 3d 7e 92 b4 bd
       0.08856262 -0.09095069 0.0765465 -0.08817004
0001f0 51 5c 41 be d1 c3 52 be 95 78 68 bc ac 0d 6d be
       -0.18882872 -0.2058251 -0.014188905 -0.23149747
000200 a1 85 bb bc 5b be f2 3d 79 be e5 bd c6 d4 65 3c
       -0.022890868 0.11852714 -0.112179704 0.01402778
000210 e1 f6 ec bd 8c 40 c6 3d 5f f3 38 be b8 30 d6 3c
       -0.11570526 0.0968028 -0.18061589 0.026146278
000220 c0 c7 f3 3c a8 31 17 be b9 c7 2b 3e 48 5b f3 bd
       0.029758334 -0.14765036 0.16775407 -0.11882645
000230 5c a7 c8 3d ed c0 72 3e 54 ff df bc 81 9f 50 3e
       0.09797546 0.23706408 -0.02734343 0.20373346
000240 d3 0a 00 bc 32 f8 0d bd 89 25 68 3d 19 ca d4 bc
       -0.007815081 -0.034660526 0.05667642 -0.025975274
000250 28 a0 ed 3d d9 2a 5d be 39 d8 9e bd 2d c1 72 3e
       0.11602813 -0.21598376 -0.07756085 0.23706503
000260 3a 5f 00 3d 71 02 39 be c2 08 63 be 7f 0f e8 3d
       0.031340815 -0.18067338 -0.2217131 0.11331081
000270 87 9b 9a bc 0e 54 35 3e 93 65 29 be 31 7f 7b 3e
       -0.01887299 0.17707846 -0.16542654 0.24560238
000280 34 cc 0d be 63 ba fb bc 41 c0 1e 3e 9e e2 cd 3d
       -0.13847429 -0.030728525 0.15503027 0.100529894
000290 3b 16 8f bd 9d ef 4a bd dd a4 2a be 21 96 10 bd
       -0.06986662 -0.04954492 -0.16664453 -0.035299424
0002a0 fc b8 3e be aa d6 65 be 3c d9 fc 3d 8d 9a 15 3e
       -0.18625253 -0.22445169 0.12346122 0.14609738
0002b0 a0 24 fb 3d 25 80 7f be 9e 2d 75 3d fb ce 2a 3e
       0.12262845 -0.24951227 0.059857957 0.1668052
0002c0 4f bc 30 be 75 16 63 3e 22 ac 2f 3e 74 35 9a 3d
       -0.17259334 0.22176535 0.17155507 0.075297266
0002d0 85 36 4e be 35 a7 3e 3e 78 6f 5f 3e 8d ac 70 bd
       -0.20137985 0.18618472 0.21819866 -0.058758307
0002e0 8d 96 3b 3d d7 27 2f be f9 87 3a 3e 49 25 39 be
       0.045797873 -0.17105041 0.18215932 -0.1808063
0002f0 ee bd 9e bd 67 d6 22 bd 33 64 6c 3e e2 e0 56 be
       -0.0775107 -0.03975525 0.23085098 -0.20984223
000300 1a 46 6c be 27 78 5e 3e 25 cb 1c 3e 24 b8 37 bd
       -0.23073617 0.21725522 0.15311868 -0.044853345
000310 50 ad 72 be cf 25 eb 3d 84 20 01 be 6e 0d 7f be
       -0.23698926 0.11481821 -0.1261006 -0.24907467
000320 ac 18 56 3e 77 e5 0f 3e f1 8e 3a 3d c2 1c 3a 3e
       0.20907849 0.14052378 0.045546476 0.18175033
000330 00 1c 38 3d 73 fd 49 be ed 34 d4 bd 09 97 2c 3e
       0.044948578 -0.1972559 -0.10361657 0.1685449
000340 d9 bf 66 3e e1 38 ed bd 75 a2 97 3d ed 78 49 be
       0.22534122 -0.115831144 0.07404033 -0.19675036
000350 f0 3e 70 3d b4 a0 e8 3d 54 ec 39 3e 01 79 64 3c
       0.058653772 0.11358777 0.18156558 0.013944865
000360 c7 72 2c 3e b3 53 cb bb b7 2b 39 3e 79 b6 e2 bd
       0.16840659 -0.006205046 0.18083082 -0.1106996
000370 aa 77 c7 3c 3b ca 88 bd fa 3c 63 3e d7 42 8b 3d
       0.024349052 -0.066791974 0.2219123 0.06799858
000380 18 d3 9c bd ee b2 2b be b7 17 60 3e 35 f6 61 3c
       -0.076574504 -0.16767475 0.21884046 0.0137916105
000390 54 2a c3 bd 44 fc 4d 3e 3c c4 94 3d c5 d9 43 3d
       -0.09529558 0.20115763 0.07263991 0.047815103
0003a0 dc 30 df bd 8e 48 0d be 8d 9a 94 bd bd ba 61 be
       -0.10897991 -0.13797209 -0.07256041 -0.22043891
0003b0 72 5f 52 be 73 6c 72 3c 5e 50 c2 3c d8 b7 79 be
       -0.20544222 0.014796364 0.023719963 -0.24386537
0003c0 1a 00 0a 3e f8 b8 6b 3e cd 05 27 3e 51 6c df bd
       0.13476601 0.23019779 0.16310807 -0.109093316
0003d0 9c 13 02 be f0 f2 14 3e 8c b7 0e 3c 7c 73 be 3d
       -0.12702793 0.14545798 0.008710753 0.09299371
0003e0 bf 24 c3 bc bc a7 29 3e 99 65 1d 3e 6c eb 31 be
       -0.023821233 0.16567892 0.15370788 -0.17374963
0003f0 fb 22 88 3c 0b 68 87 3d bb 83 15 3e b6 87 7b 3e
       0.016618242 0.066116415 0.14601032 0.24563488

lattice_net.2.bias f4 [16]
000000 87 32 1a bd d6 4a 45 be fb c7 5f 3e 5c d9 98 3d
       -0.037645843 -0.19266829 0.2185363 0.07463333
000010 a8 65 1b 3e 1c 2a cf bd 09 e3 56 3e e5 23 0a 3d
       0.15175498 -0.101154536 0.20985045 0.033725638
000020 90 93 4b be f4 77 b1 3d f2 e5 c1 bc 53 33 7d 3d
       -0.1988051 0.08665457 -0.023669217 0.061816525
000030 19 96 77 be 6c 71 f0 bd 74 b5 45 be 64 82 ea bd
       -0.24178351 -0.117403835 -0.193075 -0.11450651

lattice_net.4.weight f4 [32, 16, 2]
000000 25 57 8b 3d 66 7e 1f 3e 40 d6 23 be 96 81 3a 3d
       0.06803731 0.15575561 -0.15999699 0.04553374
000010 a9 b8 2e be df 97 36 bd 8f 3c fd bd 09 19 41 bd
       -0.1706263 -0.04457843 -0.12365066 -0.047143016
000020 40 aa 0b bd 6f 11 7a bd 41 b2 a3 3c 62 d2 23 3e
       -0.03409791 -0.061051782 0.019982459 0.15998223
000030 17 c1 92 bd 2e 64 0f bd 5d 8c 20 be 78 32 2a be
       -0.07165735 -0.03500765 -0.15678544 -0.16620815
000040 b9 22 c2 3d 0d 3d e0 bd d5 15 9d 3c 4e 6c bb bd
       0.09479279 -0.109491445 0.01917545 -0.09151517
000050 a1 84 1f 3d f9 40 fd bd 36 eb 8f 3d 6b 4a 29 be
       0.038944844 -0.12365908 0.07027285 -0.16532294
000060 e5 7b 2d bd 49 a3 c8 3d fd b4 27 be c8 2d bf 3d
       -0.042354483 0.09796769 -0.16377635 0.09334904
000070 18 60 0c 3e 4b 64 5b 3c 1a 0f d2 bd 6f 2c cb bd
       0.13708532 0.013390611 -0.10256787 -0.099205844
000080 d4 43 0f 3e 51 08 f9 bd ec 57 b6 bc ab 40 14 be
       0.13990718 -0.12159789 -0.022258721 -0.14477794
000090 ee 05 c8 bd 91 a7 8f bd de e2 02 3e 85 57 c9 bd
       -0.09766756 -0.07014383 0.12781855 -0.09831146
0000a0 35 0b b9 3d 14 ef c0 3c 8f fb 0a 3d 2a 2e 83 3d
       0.09035341 0.023551501 0.03393131 0.064052895
0000b0 92 9b 05 3e f2 8c 1f bd 64 23 ac 3d b9 76 8d 3d
       0.13047627 -0.038952775 0.08405188 0.0690741
0000c0 95 9e 47 ba bc 7f a1 bd 42 43 a6 bd b5 b4 a2 bd
       -0.0007614878 -0.078856915 -0.08118297 -0.079446234
0000d0 bf 9e 28 be 90 4b b6 bd 7b 23 32 be 86 40 28 be
       -0.16466807 -0.08901131 -0.17396347 -0.16430864
0000e0 a9 9d 26 3e 3c ea 84 bd b4 bd 33 3d 44 6c ac bc
       0.1627108 -0.06489989 0.043882087 -0.021047719
0000f0 3b 4d 1d bc e3 7e e1 bc d1 f3 01 be 26 76 e7 bd
       -0.009600933 -0.027526325 -0.12690665 -0.11301832
000100 bc a7 ed 3d 9d 33 ac 3d 6f 6b fb bd df 50 d5 3d
       0.116042584 0.08408282 -0.12276351 0.104158156
000110 f5 40 16 3e 3f 27 84 3d ad 3f dc 3d 29 0f 1b 3e
       0.14673217 0.06452798 0.10754333 0.15142502
000120 21 5f e7 bd b8 4c 18 be ce f6 43 bc df c8 23 bd
       -0.11297441 -0.14873016 -0.011960698 -0.039986487
000130 42 ea 91 bd b3 b0 24 3e 00 18 86 bd 77 67 fa 3d
       -0.07124759 0.1608303 -0.065475464 0.122267656
000140 3e de ea bd fc dd e5 bd db 76 a8 3d 62 62 0b bc
       -0.114681706 -0.11223981 0.08225795 -0.008507343
000150 96 4c 1a be f4 a8 de bd 29 bd 19 be 4a 46 dc bd
       -0.15068278 -0.10872069 -0.15013565 -0.10755594
000160 bf 71 06 3e 89 aa 05 3e 9a fc be 3d ad 14 9a 3c
       0.13129328 0.13053335 0.09325524 0.018808687
000170 a9 59 bc bd 27 66 2c bd c1 54 27 3e fe 86 2c be
       -0.09196789 -0.042089608 0.16340925 -0.1684837
000180 13 4d 06 be 5e 28 01 3e e8 a7 00 3e b8 c0 88 3c
       -0.13115339 0.12613055 0.12564051 0.016693458
000190 44 f9 04 3e f3 f2 f2 bd 74 0f 85 3d 1a 89 e8 bd
       0.12985712 -0.11862745 0.06497088 -0.11354275
0001a0 9f 40 8b 3c 93 0e a5 3d eb 6b 8e 3c 86 49 7b 3d
       0.016998587 0.080594204 0.017385444 0.061349414
0001b0 5a 7d 0c be 0f f6 ef 3d 5c f4 a8 3d e3 eb b5 3d
       -0.13719693 0.11716854 0.08249733 0.088828824
0001c0 d5 44 20 3e e6 72 de bd b8 dd 10 bd 35 4d 28 3e
       0.15651257 -0.10861759 -0.035367697 0.16435702
0001d0 33 27 8f 3c 20 59 ee 3d 51 35 f8 3d b4 d7 9c bd
       0.017474746 0.11638093 0.12119544 -0.076583296
0001e0 af 18 10 3e fe a6 0a 3e d2 61 5b bd da 9c 77 bd
       0.14071916 0.13540265 -0.053560086 -0.06045232
0001f0 c2 24 33 be 2f 34 1b be 90 48 cb bd eb 96 80 bd
       -0.1749449 -0.15156625 -0.099259496 -0.06278785
000200 2b 82 2c 3e cc 5d df bd 3c 02 7d bd 42 be 26 be
       0.1684653 -0.10906562 -0.06176971 -0.16283515
000210 6d a5 8a 3c 1c 5a 82 ba 34 6d 30 3e 18 21 f7 3c
       0.016924584 -0.0009945068 0.17229158 0.030167148
000220 96 1f af bd a2 53 23 3e 60 20 9a bd 68 a4 ad bd
       -0.085509464 0.15949872 -0.07525706 -0.08478624
000230 c2 cb d2 3c e3 66 2a 3e 4a 14 c8 bd 21 e6 29 3d
       0.025731925 0.1664081 -0.09769495 0.041479234
000240 f1 eb 07 be 32 bd 0f be fe 64 c1 3c 14 fe 22 be
       -0.13273598 -0.14037016 0.023607727 -0.15917236
000250 78 21 c3 3c 32 b8 27 be 3f 78 9f 3d ae 28 2a 3e
       0.02381967 -0.16378859 0.07786607 0.1661708
000260 7a 24 2f 3e 7e 93 34 be 5e 6c 34 3e 40 a3 f2 3d
       0.17103758 -0.17634389 0.17619464 0.11847544
000270 73 c1 cd 3d f4 98 2f 3c 41 e3 de bd ad 3c 06 3e
       0.10046663 0.010717619 -0.10883189 0.13109083
000280 c9 6e 73 bd 74 52 12 be 44 8b e7 3d a6 3d 22 3b
       -0.059431825 -0.14289266 0.1130586 0.0024755984
000290 b7 56 c2 3d cd 95 bc bc b1 bf 47 3d 32 ae cb 3d
       0.09489196 -0.02302065 0.048766796 0.099453345
0002a0 c5 b0 1d be 3e dd 13 bd 64 b2 30 3e b1 9d 9b 3d
       -0.15399463 -0.036099665 0.1725555 0.075984366
0002b0 f4 c0 2a be 7d 6f a2 3d 74 b0 55 bd 49 be b5 3d
       -0.16675168 0.07931421 -0.052170232 0.08874185
0002c0 2b 9f 34 be 6e b6 ef 3d ff 36 95 3d 45 7f 43 3d
       -0.17638843 0.117047176 0.0728588 0.047728796
0002d0 76 2a 04 3e ac e9 dd bd 94 a9 14 3e 3b a6 0b 3e
       0.12906823 -0.10835585 0.14517814 0.1363763
0002e0 c4 32 10 be eb 42 ce bc 7d c3 7b 3d ee 1d 9b ba
       -0.14081866 -0.025178393 0.06146573 -0.0011834481
0002f0 52 dd b4 bd b3 76 ca 3d af 9e ec 3d 40 21 c5 3d
       -0.08831276 0.09885921 0.11553704 0.096254826
000300 39 a1 fa bd a5 2d 1d be fe 5f 55 3c 5e c1 1d 3e
       -0.12237782 -0.15349443 0.013023375 0.15405795
000310 02 ea 24 be 4d 48 5b 3d 84 8a 11 3d e1 e6 ca bd
       -0.16104892 0.05353575 0.03553249 -0.09907318
000320 fe 4c bd 3d 20 9a 41 3d b0 65 59 bd d1 36 5a bd
       0.09243201 0.047266126 -0.053075492 -0.053274933
000330 5e ea 2e 3e 59 d1 81 bd 6b fb cc bd 1d da 2c be
       0.17081591 -0.06338758 -0.10008892 -0.16880079
000340 d9 f2 f4 bc 9b 10 a0 bd c7 a1 aa bd b6 51 28 3e
       -0.029900955 -0.07815667 -0.08331638 0.1643742
000350 a9 88 0d 3b 20 f3 38 3d cf 2f 87 3d 43 35 d9 bd
       0.0021596348 0.045153737 0.06600916 -0.10605862
000360 19 88 41 bd 1a 6f 26 3b 20 3f 17 3d f3 b4 7a bd
       -0.047248933 0.0025395812 0.036925435 -0.061207723
000370 f6 0b 11 3e 55 f2 0e be 2e a3 d5 bd 07 8d f0 bd
       0.14164719 -0.1395963 -0.10431515 -0.11745649
000380 5b e6 dd bd 36 84 8c bd 29 fe 06 3e 3f 4b 35 3c
       -0.108349524 -0.06861155 0.13182892 0.011065303
000390 b4 a8 0c be 6d 2b a3 3b 0c 1c 12 3e aa 56 b1 3d
       -0.1373623 0.004979542 0.14268512 0.08659108
0003a0 2e 34 2b 3e 65 24 1f bd 20 62 e8 3d bf 9a 03 be
       0.16719124 -0.038853068 0.11346841 -0.12852
0003b0 9b ff 23 bd d6 d8 9a bd 57 f4 c2 bd 99 84 bf bd
       -0.040038686 -0.075608894 -0.095192604 -0.09351463
0003c0 c2 d2 06 3d ae 4e 87 3d 49 7d ee 3d 0c 11 bb 3d
       0.032915838 0.06606804 0.1164499 0.09134111
0003d0 43 c9 26 3e 7a 9c 2f 3e 30 d6 e0 bc 30 cc 2b 3e
       0.16287713 0.17149535 -0.027445883 0.1677711
0003e0 11 15 28 3e c4 ac 21 be 81 da 10 3e fe e1 f7 3d
       0.16414286 -0.15788561 0.14145853 0.121036515
0003f0 aa 80 a0 bd f5 08 1d 3d 5f 10 11 be d7 03 f7 bd
       -0.07837041 0.03833862 -0.14166401 -0.12061279

lattice_net.4.bias f4 [32]
000000 07 58 d0 3d 49 79 fc 3d 3f c3 74 3d e1 a3 cb 3d
       0.1017304 0.12327821 0.059756514 0.09943367
000010 dc fa d5 3d dc f3 82 bc 58 95 0e be 1f 1b 72 3d
       0.10448238 -0.015985422 -0.13924158 0.059107896
000020 77 57 80 bd 4d f8 31 3e 3e 59 24 be 3a 99 f9 bd
       -0.062666826 0.17379875 -0.16049668 -0.12187429
000030 ba e8 fc 3c 81 df a8 bc fc e8 18 3e 09 70 d3 3c
       0.030872691 -0.020614387 0.14932626 0.025810258
000040 5b 60 29 3e 32 0a 1f be 3c 07 87 3d b6 da 1e be
       0.16540663 -0.15531233 0.06593177 -0.15513119
000050 1e 01 df bd 13 37 8c 3c 5b 78 5d 3c ba 54 dd bd
       -0.10888885 0.017116105 0.0135174645 -0.10807176
000060 0d db e2 3d 09 4e 4e 3d 03 77 ca bd aa 81 e8 3d
       0.11076937 0.05036739 -0.09885981 0.113528565
000070 a9 d9 5e 3d a1 fa 0d be 9f 9f 5e bd dd 7e 25 3e
       0.054406796 -0.13865139 -0.054351445 0.16161676

tNN.0.weight f4 [16, 2]
000000 b3 56 ad be f5 65 fc 3e 41 55 9e 3e 83 9c be 3e
       -0.3385521 0.49296537 0.3092442 0.37228784
000010 4a a2 8f 3e dc ae d2 3d 51 16 5a 3e 0a 72 4f be
       0.28053504 0.10287258 0.21297576 -0.20258346
000020 9b f5 06 bf 03 07 8c 3d de 2a 38 be 97 37 bf 3e
       -0.52718514 0.06837275 -0.17985103 0.373471
000030 7d 9e 30 bf 7c 63 18 3f da b2 31 3f f5 69 19 3f
       -0.68991834 0.595268 0.6941353 0.599273
000040 07 aa 09 bd 69 32 10 3f 02 49 f4 3e 7d 0a be 3e
       -0.033609416 0.5632692 0.4771195 0.37117377
000050 eb a0 8f 3e 35 ea 31 bf 9a 70 72 be ce 23 19 bf
       0.28052458 -0.69497997 -0.23675767 -0.5982026
000060 d4 43 28 3e ae ba de 3e f0 f6 d7 3b 2b 10 20 3e
       0.16432124 0.435018 0.0065907165 0.15631168
000070 22 57 3c bc 95 69 20 bf 44 be b1 bd 81 87 2a bf
       -0.011495383 -0.62661105 -0.086788684 -0.6661301

tNN.0.bias f4 [16]
000000 33 27 b4 3d 9a f7 e1 bd b3 d5 d6 3e ea c4 0c be
       0.08796539 -0.110335544 0.41959915 -0.13746992
000010 28 e2 24 3f 56 c7 c1 be f8 8f 25 bf 88 70 0d bf
       0.6440759 -0.37847394 -0.64672804 -0.55249834
000020 cd 69 33 3e af 7e eb be 77 26 da 3e 6e 54 85 3e
       0.17520829 -0.4599509 0.4260747 0.26040977
000030 cc 64 1b bf 67 71 17 3f 1d 0f f2 be 2d e2 27 bf
       -0.6070068 0.59157413 -0.47277156 -0.6557949

tNN.2.weight f4 [32, 16]
000000 9b 1a 40 be ba 08 ea 3d a4 4b a8 bd 25 98 94 bd
       -0.18760149 0.11427446 -0.08217552 -0.07255582
000010 24 bb 47 bd 99 c4 2a 3e ef f8 73 3e 11 0b 79 3d
       -0.048762456 0.16676559 0.2382543 0.06080157
000020 00 1f 12 3e ae 81 48 bd 44 99 48 3e 56 30 3f 3e
       0.14269638 -0.048951797 0.19589716 0.18670782
000030 c0 39 6d 3e bd 94 f4 bd 2e aa 72 3e 79 14 9d 3d
       0.23166561 -0.11942432 0.23697731 0.076699205
000040 a0 66 7f 3e 01 7a 30 bd 0a a4 5d 3d 00 2e a7 bd
       0.24941492 -0.043085102 0.054111518 -0.08163071
000050 3c 02 66 3d 41 b5 02 3e 7b 34 b3 3c cb fd 36 bc
       0.056154475 0.12764455 0.02187561 -0.011168907
000060 7b de 5c be b9 54 70 be 96 d2 40 3e 05 78 39 3e
       -0.21569245 -0.23469819 0.18830332 0.1811219
000070 c2 29 6d be 93 d5 53 be 6b d0 34 bd ce dc be bd
       -0.2316046 -0.20686941 -0.044144075 -0.09319459
000080 ca e7 96 bd b5 d2 3b 3e 7e 1e 1d be 2e c8 c1 3c
       -0.07368429 0.18342097 -0.15343663 0.023655023
000090 18 37 53 3e 10 97 33 bd eb 33 06 3e 1f 46 83 3d
       0.20626485 -0.043845236 0.13105743 0.06409859
0000a0 76 4f 43 be 50 cd f9 bd f7 de 29 be 7c 5f 0a 3e
       -0.1907328 -0.121973634 -0.1658896 0.13512987
0000b0 f4 2c 3a 3e c4 f9 86 3d d9 4c 60 3e 66 90 f3 bc
       0.18181211 0.06590608 0.21904315 -0.02973194
0000c0 55 04 79 bd c9 a8 2c 3e 14 68 2a 3d ba 92 fc bd
       -0.060795147 0.16861261 0.041603163 -0.12332673
0000d0 a3 eb f5 bd 32 8f 63 be 9c 07 eb 3d 5c 30 25 3c
       -0.12007835 -0.22222593 0.11476061 0.010082331
0000e0 48 f9 d3 3d 67 ea b3 bc 0a a0 73 be d9 7c af 3d
       0.10350281 -0.021962358 -0.23791519 0.08568735
0000f0 61 49 3f be ce 0e 42 3d 80 a8 6a 3e 15 8c b1 bd
       -0.18680336 0.0473774 0.2291584 -0.08669297
000100 02 e0 a5 bd 89 ed 64 bc ad 43 46 be a3 97 db bd
       -0.08099367 -0.013972648 -0.19361754 -0.10722282
000110 24 fa 79 bd 66 61 26 3d ac bf 16 3e ef a8 c9 3d
       -0.06102957 0.04062023 0.14721555 0.09846675
000120 89 fd d0 3d 70 5f 17 3e ad 8f 36 3e e0 d9 3b 3e
       0.10204608 0.147825 0.17828245 0.18344831
000130 26 50 14 be 31 63 eb 3d 4a 09 06 3e cf 51 40 bc
       -0.14483699 0.11493529 0.13089481 -0.011738255
000140 ea 8d 0c be c7 b1 f8 3d 4b 12 80 be 6c 5b 67 be
       -0.13726011 0.12143283 -0.25013956 -0.22593468
000150 79 6d 4e 3e 8f f3 e6 3d 2b 8e 5b be be 93 c6 bc
       0.20158948 0.11276924 -0.21440952 -0.02424037
000160 83 4d 9b bd 6b c1 23 3e b8 a9 1d 3e 3d fd 67 bd
       -0.075831436 0.15991752 0.15396774 -0.05663799
000170 7e 7e a3 3c 48 a2 c8 bd 8d 35 d8 3c 5d 42 14 3e
       0.019957777 -0.09796578 0.026392723 0.1447844
000180 ad 71 f1 3d e5 56 99 bc 5d b2 51 be ad c0 1f bd
       0.1178926 -0.018718192 -0.20478196 -0.03900211
000190 25 10 f0 bd 3a b8 79 be 29 de 40 be c1 73 13 3e
       -0.11721829 -0.24386683 -0.18834747 0.14399625
0001a0 b5 35 21 3e 3b a3 eb bd 7b b0 1c bc 5e 1e fc 3c
       0.15743144 -0.11505743 -0.009563561 0.030776199
0001b0 84 25 3a be 65 d5 16 3e 26 f3 3f 3e 43 59 87 bd
       -0.18178374 0.14729841 0.18745098 -0.06608822
0001c0 05 cb 34 3e 23 8a c7 3d 2b c4 11 3d 62 5a 57 3e
       0.17655571 0.09743144 0.03558747 0.21030572
0001d0 81 19 5a 3e 4b 7e 28 be fd f4 3c 3e 47 72 40 3e
       0.21298791 -0.16454427 0.1845283 0.18793593
0001e0 85 5b c6 bd 99 dc 48 be 3e 26 78 be ce 2a 24 be
       -0.09685425 -0.19615401 -0.24233338 -0.16031954
0001f0 01 df 85 bd a9 cb 18 bd b7 27 1a 3e b8 64 eb 3d
       -0.06536675 -0.0373036 0.15054213 0.1149382
000200 cb 52 67 be 5d 3e 0f be d0 11 59 3e 27 c9 39 bc
       -0.22590177 -0.13988633 0.21198201 -0.011339462
000210 3b e3 0d be 4b 67 1c 3e 70 fa 51 bd 00 26 ba bd
       -0.13856213 0.15273778 -0.051264226 -0.09089279
000220 2b 80 8d 3d 03 94 46 3e d5 8f 08 be cc 03 1a 3e
       0.06909212 0.193924 -0.13336118 0.15040511
000230 99 93 49 3e b6 68 25 be ea 42 79 3e 65 25 ce bd
       0.1968521 -0.16153225 0.24341932 -0.10065726
000240 2d 5d ac 3d ca 98 4d be 07 d5 14 bd 12 69 73 be
       0.08416209 -0.20077816 -0.03633597 -0.2377055
000250 3d 5a 14 3d 38 9e 05 be a5 03 1a bc 23 25 bc 3d
       0.03621887 -0.13048637 -0.009400283 0.09186771
000260 b0 d0 e4 bd d6 23 b3 ba 6e 1b 6b bc a3 b9 2b 3d
       -0.111726165 -0.0013667296 -0.0143498015 0.041925084
000270 3d 75 c6 bd 3e 83 16 bd 1b 16 3b be 90 a8 66 bd
       -0.0969033 -0.036746256 -0.18270151 -0.056313097
000280 86 dc 8c bc 5e fb 21 3c fe 3d 1d 3e 04 3d 23 3e
       -0.017194998 0.009886591 0.1535568 0.15941244
000290 bb 9e 45 3e 33 f6 af bd 92 88 4b 3e 98 72 00 bd
       0.19298832 -0.08591881 0.19876316 -0.031359285
0002a0 f8 16 b0 bd 1d 1a 17 bd 38 6a f2 bd 0d f9 6d 3e
       -0.08598131 -0.036890138 -0.11836666 0.23239537
0002b0 6b 0c 02 3e 9a 8a 74 be 7d 91 2a 3e c2 77 30 3e
       0.1270005 -0.23880997 0.16657062 0.17233184
0002c0 dc 7d 98 3d 39 e7 6f 3e b6 2b dc 3d 4a 44 01 be
       0.07445881 0.23428048 0.10750525 -0.12623706
0002d0 5f 01 99 bc a1 96 0d 3e 48 7c 0f be ca 32 c2 3d
       -0.018677412 0.13826992 -0.14012253 0.094823435
0002e0 52 11 72 3e da 6d 7f 3d 81 d8 41 be a6 54 02 3e
       0.2363942 0.062360622 -0.18930246 0.12727603
0002f0 bc f3 2b 3d 41 ef 67 3e 3f 03 87 bd a1 38 9a 3c
       0.04198049 0.22649862 -0.06592416 0.01882583
000300 be 8b 02 3e 16 91 82 bc 0a ed eb 3d 67 fa 40 3e
       0.1274862 -0.015938323 0.11519821 0.18845521
000310 6d d5 ea bd 3a 97 d6 bd e9 2d cc 3d 72 a3 6d be
       -0.11466489 -0.10478063 0.09969694 -0.2320688
000320 87 41 29 be e1 ac 5f be 1a 70 11 be 98 e5 33 be
       -0.16528903 -0.21843292 -0.1420292 -0.17568052
000330 7f 5b 68 be f7 d1 74 be 01 6d 6b be 2e 97 a4 bd
       -0.22691153 -0.2390822 -0.229908 -0.08036648
000340 3e 8c c2 3d cf 08 fd bd 20 7f 04 be 21 37 47 bb
       0.09499405 -0.12355196 -0.1293912 -0.003039785
000350 49 3c c5 bb 04 4c 04 3e 14 f4 67 3e 19 47 4d 3d
       -0.0060191494 0.12919623 0.22651702 0.050116632
000360 7a 25 2b 3d 00 1a d2 3c 0d 98 4e 3d d0 f6 7c bd
       0.041783787 0.025647163 0.050437976 -0.061758816
000370 88 a2 56 bd f5 2a 47 3e 05 96 53 bd 6c e4 0f be
       -0.052401096 0.1944998 -0.05165674 -0.1405198
000380 c9 55 9e 3d 4a c9 2e 3e 08 11 3f 3d 44 93 27 3e
       0.07731206 0.17068973 0.0466471 0.16364771
000390 26 02 30 3d 26 d0 9d bd d3 ca 7e 3e 0f 18 16 3e
       0.0429708 -0.07705717 0.24882059 0.14657615
0003a0 b9 55 29 3e df 2c 6c 3d 56 84 70 be 51 ac 30 3d
       0.16536607 0.05765998 -0.23487982 0.043133084
0003b0 54 12 a1 bd 92 82 29 bc 2a 35 23 be fa f3 d1 3d
       -0.07864824 -0.010346072 -0.15938249 0.10251613
0003c0 d8 1c 22 be d4 d8 c4 3c 38 21 1b be 2a 34 49 be
       -0.15831316 0.024029173 -0.1514939 -0.19648805
0003d0 2f 91 80 bd 21 b9 fd 3c 3c 8c 77 3e d1 28 49 3e
       -0.062776916 0.030972065 0.24174589 0.19644476
0003e0 b9 57 3b 3e 9a 23 4a 3e c7 ed fc 3d 49 db 0c 3e
       0.18295182 0.19740143 0.1235004 0.13755526
0003f0 06 7c a8 3d 4b 3b 00 be f2 46 3c 3c f6 8d 52 bd
       0.082267806 -0.12522618 0.011491524 -0.051404916

tNN.2.bias f4 [32]
000000 94 c1 25 3d e7 54 59 3e 9e 71 76 3e 26 44 14 bd
       0.040467814 0.21223794 0.24066779 -0.036197804
000010 fd 29 05 3e 45 82 26 be d7 93 2e bd 7e fe be bd
       0.13004299 -0.16260631 -0.04262146 -0.09325884
000020 d0 09 47 bc 90 b2 5f 3d 85 ac 42 bd 8b 9b 0a be
       -0.012148336 0.05461365 -0.04752781 -0.13535897
000030 f8 1e 53 be 97 44 ee 3d c9 1e d9 3b 33 37 d9 3d
       -0.20617282 0.11634176 0.0066259843 0.106062315
000040 4d f8 af bd 0f ef 66 bd 19 f8 92 bd d7 4b 73 be
       -0.085922815 -0.056380328 -0.07176227 -0.237594
000050 fb 2a 9c bd 8d 95 ff 3d 0b c3 78 bd dc 00 51 3e
       -0.076253854 0.124796964 -0.060732882 0.20410484
000060 9b 42 56 3e b4 9a cf 3d d2 4d fd bd 46 49 17 be
       0.20923845 0.10136929 -0.12368359 -0.14774045
000070 70 df 13 be 55 52 65 be 0b c9 83 3d ee 19 27 be
       -0.14440703 -0.22394688 0.0643483 -0.16318485

tNN.4.weight f4 [64, 32]
000000 14 37 34 3e 7e b0 d8 3c 22 3f 03 3e ba 12 8a bc
       0.17599136 0.026451346 0.12817052 -0.016854633
000010 8f 4c d3 bd 6c 20 06 be a7 55 49 bd 72 34 a7 bd
       -0.10317337 -0.13098305 -0.04915395 -0.081643
000020 d2 0e 01 bc e7 fb 1e 3c 5c 3a 84 bd cc ce 8d 3d
       -0.007877069 0.009703613 -0.06456444 0.06924209
000030 1f 0e c6 bc 49 36 04 bb cc 0a ae 3c 1b bb 12 3e
       -0.024176655 -0.0020173958 0.021245383 0.14329188
000040 bd ec e0 bd 81 c5 c7 3d dd c5 cd 3c 43 4f 43 3c
       -0.10982654 0.09754468 0.025118763 0.011920753
000050 1e 29 e4 3b 81 9e d1 bd 09 f2 63 3d 07 06 e5 3d
       0.0069629094 -0.1023531 0.055650745 0.1118279
000060 77 2f be 3d 82 e8 c6 bd 99 0e a5 3d e8 95 52 bd
       0.09286397 -0.09712316 0.08059425 -0.051412493
000070 ac d6 29 bc e6 62 39 bd 86 b8 2e be d9 e2 bf bd
       -0.010366123 -0.045260333 -0.17062578 -0.0936944
000080 cd c1 02 be c5 24 f7 3d 31 f6 8c 3b 32 18 09 be
       -0.12769242 0.1206756 0.0043018092 -0.13388136
000090 4c e8 ac bc 26 fd 1e be 63 ca d0 bd 4f c5 12 bd
       -0.021106862 -0.15526256 -0.10194852 -0.0358327
0000a0 18 8f 14 3e 7d 13 f9 3d 83 5e 00 3d 3c 7c 0f be
       0.14507711 0.1216192 0.031340133 -0.14012235
0000b0 cb 4f da 3c bf 5c 13 3e 8b 37 22 be af d2 e9 bd
       0.026649376 0.14390849 -0.158415 -0.11417138
0000c0 5b 6f 15 be 22 e4 ce bb 3c 25 9a 3d 38 d6 af bd
       -0.1459326 -0.0063138166 0.07526633 -0.08585781
0000d0 64 ee cd bd 21 37 22 be a6 e1 33 be fb 2f 02 be
       -0.10055235 -0.15841343 -0.17566547 -0.12713616
0000e0 4a dd d4 3d eb 18 b4 bd af 67 cb bd 52 ef 00 be
       0.1039377 -0.08793815 -0.099318855 -0.12591293
0000f0 6c 6e bb 3d e2 02 0f 3e 37 18 94 3d 68 79 fd 3c
       0.09151921 0.13965943 0.07231181 0.03094168
000100 08 41 f2 3d 73 f5 b2 bd c0 3b 78 3c a7 f7 87 bd
       0.1182881 -0.08738222 0.015150964 -0.06639033
000110 95 8f 11 3e 3e fa 0f 3e cc 9d 8e bd 0b 31 04 3e
       0.14214928 0.14060304 -0.06963691 0.12909333
000120 a3 3c 9c 3c 76 c3 83 3d c3 3d b2 bd e1 cb 06 3c
       0.019071883 0.064337656 -0.08703186 0.008227319
000130 0a b7 cd 3d d8 2b 11 3e b8 94 1c bd d4 f7 25 be
       0.100446776 0.14176881 -0.038227767 -0.1620782
000140 1c 11 e2 3d 21 b3 20 be 42 48 cc 3d 5c 0d bf 3d
       0.110384196 -0.15693332 0.099747196 0.0932872
000150 f9 ec 24 be ab 18 0d 3e b9 8a 04 3d 1f 25 99 3c
       -0.16106023 0.13778941 0.03235886 0.018694459
000160 37 c9 17 bc 62 7a 91 3d 4f 3f 12 3e 77 25 33 3e
       -0.009264282 0.07103421 0.14281963 0.1749476
000170 5d ce 51 bc 5d 07 f5 bd 7a 66 14 be 42 b0 d0 bc
       -0.0128055485 -0.11964295 -0.14492217 -0.025474671
000180 d1 c7 91 3c 9f 34 1a be f0 05 c7 3c 6c 4c 8b 3d
       0.017795475 -0.15059136 0.024294823 0.06801686
000190 d4 7a fe 3c d0 e9 19 be 54 ca 10 3e 24 11 01 3e
       0.031064428 -0.15030599 0.14139682 0.12604195
0001a0 84 51 2c 3e 59 2e f0 ba 40 8e 94 bd e0 5e 27 3e
       0.1682797 -0.001832436 -0.072536945 0.16344786
0001b0 ec 24 34 3d 9f 88 da bd 2e 1f 0d 3e df 2d 23 be
       0.043980524 -0.1067059 0.13781425 -0.15935467
0001c0 53 5d 14 3e 7f c6 23 be f1 27 4f bd d3 ad e3 3d
       0.14488725 -0.15993689 -0.0505752 0.11117139
0001d0 6d 1a 97 bd d8 d2 05 be f5 66 cb 3d 8c 9f cc 3d
       -0.07378087 -0.13068712 0.09931747 0.09991369
0001e0 48 1b 02 3e 39 d5 ea 3d 92 ed 0c 3d 2a 5f 17 be
       0.1270572 0.1146645 0.034406252 -0.14782396
0001f0 4c 1e 91 3c 21 ed f2 bc 36 97 11 3e 9b d7 dd bd
       0.017714642 -0.029654087 0.14217839 -0.10832139
000200 6e 11 fe 3d 72 6b 25 bd a3 19 3e bd 4d 6b 2f be
       0.12405668 -0.04038567 -0.046411168 -0.17130776
000210 b0 49 84 3d a0 33 af bd c6 a0 26 3e 9e 54 67 bd
       0.06459367 -0.085547686 0.16272268 -0.05647718
000220 8f 25 bb bd f7 b5 d0 3d 27 43 c3 bc 26 b0 3b bb
       -0.09138023 0.10190957 -0.023835732 -0.0028638928
000230 83 90 e3 3d 88 cf 88 3c ff 06 2a 3e a8 04 31 bc
       0.11111548 0.016700521 0.16604231 -0.010804333
000240 d5 ca 1d be 7c 20 05 3e 54 fd 6e 3d f9 40 bf bd
       -0.15409406 0.13000673 0.05834706 -0.093385644
000250 94 96 07 3e 38 26 0c 3e 0a cd 8a 3d 8f d7 2b be
       0.13241035 0.13686454 0.06777389 -0.16781448
000260 46 32 05 be 98 35 13 be a9 22 bf 3b d8 b8 ee bd
       -0.13007459 -0.14375913 0.0058329892 -0.1165635
000270 f7 d7 e7 ba 69 f9 e1 bd 5c b2 0c 3e 06 5a 14 bd
       -0.0017688264 -0.11033899 0.13739914 -0.036218666
000280 8c 97 4c 3c 86 ef 28 3e 63 03 d1 3d 5d 4f f7 bd
       0.012487303 0.16497621 0.10205724 -0.12075684
000290 91 c4 33 3e cd 6f 2f 3e 2d 37 56 bb 36 1d 1d be
       0.17555453 0.17132492 -0.0032686696 -0.15343174
0002a0 d4 b2 05 be a5 6e 85 bd 59 df d7 3d 29 7a 56 bc
       -0.13056499 -0.065152444 0.10540647 -0.013090649
0002b0 3d 79 d6 bd af 43 20 3e 2e a1 f0 3d fb 1e 06 3e
       -0.10472343 0.15650819 0.117494926 0.13097756
0002c0 f3 b0 1a be 80 9b 24 be fd a0 00 3e db d9 00 be
       -0.15106563 -0.16074944 0.12561412 -0.12583105
0002d0 73 69 2d bd 54 04 9b bc 87 a4 eb bc d9 e3 8a bd
       -0.042336892 -0.018922962 -0.028764976 -0.0678174
0002e0 70 50 db 3d 3a 3b c1 bb e1 dc ff bd 0a 5b 32 be
       0.107087016 -0.005896953 -0.12493301 -0.17417541
0002f0 24 69 0a be 55 29 8b bd db 1f 3d bd 1f d2 f6 bd
       -0.1351667 -0.06794993 -0.046172958 -0.12051796
000300 3b 82 2b be 35 2a 55 3c d9 64 97 bd 65 51 e1 bd
       -0.16748898 0.013010551 -0.07392282 -0.11001853
000310 ba e8 ee 3d 28 ed 26 3d f4 66 1e 3e 60 b0 1f bd
       0.11665483 0.040753514 0.15468961 -0.038986564
000320 ed 04 14 bd d7 ba 2f be 31 ba c8 3c 7b 28 57 3d
       -0.03613751 -0.17161117 0.024502845 0.05252884
000330 20 0f 3a bd 02 a0 1f 3e 44 88 dc 3d ef 33 98 3d
       -0.04542458 0.15588382 0.10768178 0.074317805
000340 7e 0e 61 3d fe 85 1d 3e e0 a6 05 3e 2f 9c c8 bd
       0.05494546 0.15383145 0.13051939 -0.09795415
000350 e8 46 3d 3d b1 de bb 3d 51 12 d9 3b b4 c1 13 be
       0.0462102 0.091733344 0.006624498 -0.1442936
000360 83 43 c9 3c e2 77 01 be 44 c6 41 3c 98 71 e0 bd
       0.024568325 -0.12643388 0.011827055 -0.10959166
000370 81 58 cf 3c 46 51 20 3e 30 0b 01 bc 45 28 28 3e
       0.025310757 0.15656003 -0.007876202 0.16421612
000380 fe 73 09 be 26 ac 62 bd 7a eb d7 3d 77 4a 52 3d
       -0.13423154 -0.055339955 0.105429605 0.051340546
000390 f6 ce 2d be b5 e5 2a bd a5 99 c6 3c b8 85 a7 bd
       -0.1697348 -0.041722972 0.024243185 -0.08179802
0003a0 62 c1 c0 bd ab 5c e5 3d fe dc b9 bd 8d d5 b4 3c
       -0.09411885 0.11199316 -0.09075354 0.022074485
0003b0 78 89 0f be cf ba 59 ba 21 cd 9a 3c 3d c3 0e 3e
       -0.14017284 -0.000830573 0.018896641 0.13941665
0003c0 19 4f 19 3d 93 1c 7f bd 0a e4 49 3c f4 16 d8 3d
       0.03742895 -0.06228311 0.012322435 0.10551253
0003d0 07 bd 93 3d df 12 2c be ed a8 a8 3d 72 a4 ef bd
       0.072137885 -0.16804074 0.08235345 -0.11701287
0003e0 15 e2 9c bd ac c1 fc bd d7 46 ac 3c 70 e6 0b 3e
       -0.07660309 -0.123416275 0.021029873 0.13662124
0003f0 2a f3 08 3e 4a 30 dd 3d c8 e8 1e 3e 67 a9 cd 3c
       0.1337401 0.10800226 0.15518486 0.025105191

tNN.4.bias f4 [64]
000000 6a b0 17 3e 4c ca 3d bc 56 c6 04 be 6c 52 1d 3b
       0.1481339 -0.011583876 -0.12966284 0.0024005426
000010 93 07 34 be 8b f9 ed 3c 60 f2 e0 bd 0d 05 fe 3a
       -0.17581014 0.029049655 -0.10983729 0.0019380167
000020 dd 33 97 3d bb db 25 be 3b c7 2d 3e 15 8a f7 bd
       0.07382939 -0.16197102 0.16970532 -0.12086884
000030 12 2b 7b 3d de 8f 37 bd 05 2f d1 3d 86 a2 20 3e
       0.061320372 -0.044814937 0.102140464 0.15686998
000040 cb e4 d7 3d 4c 2a 5b bd e6 12 14 bc df 64 e8 bc
       0.10541686 -0.053507134 -0.009037709 -0.028368412
000050 ae 4a 2b 3e 19 e3 ad bd 6f 5e e6 3d 14 27 a8 3d
       0.16727707 -0.08490581 0.112484805 0.082105786
000060 45 6d 49 3d 92 ba 9b 3d 57 98 b7 3c 66 b4 82 3c
       0.049176473 0.07603945 0.022411508 0.015955161
000070 ad ea cb 3d 81 7e 20 3d 8f 7e aa bd 89 5e 0a be
       0.0995687 0.039183144 -0.083249204 -0.13512625
000080 4a 8f 35 bb 4b af 9c 3d 3d 0e 74 3d a0 90 26 3d
       -0.0027703815 0.07650622 0.05958389 0.04066527
000090 01 3d 12 3e e0 87 df 3d b7 a5 17 3d 89 10 4e ba
       0.14281084 0.10914588 0.037023272 -0.00078607403
0000a0 5c 84 7b 3c de 5f 74 3d 21 c8 2a 3c e4 73 20 be
       0.015351381 0.05966174 0.010423691 -0.15669209
0000b0 09 67 88 bd f8 1c f4 3d b5 da eb 3d 13 5c 01 3d
       -0.066602774 0.11919588 0.115163244 0.03158195
0000c0 e2 65 ac bd 98 72 0f be 54 b3 bd bd 42 12 1d be
       -0.0841787 -0.14008558 -0.0926272 -0.15338996
0000d0 ca 55 e6 bd 30 02 c1 bd 49 61 13 be bf f1 2e 3d
       -0.11246832 -0.09424245 -0.1439258 0.042711016
0000e0 e2 db 7a bd 0e 0d 00 be c3 35 32 be 74 4c c8 3d
       -0.061244853 -0.1250498 -0.17403321 0.09780207
0000f0 48 d0 87 bd 4c 8d 70 3c 54 21 28 3e ce 5e ea 3c
       -0.06631523 0.014682125 0.16418964 0.02860966

psi.0.weight f4 [128, 288]
000000 ab b6 85 bc 79 12 98 3c 0d 7d bd 3c d4 51 19 3b
       -0.016322454 0.018563496 0.023130918 0.002339472
000010 07 1e 9b bc 92 0a 15 3d 3e e2 27 bd 70 46 fa 3c
       -0.018935217 0.036387034 -0.040987246 0.030551165
000020 bf 89 b8 bc f0 cc 58 bb b1 f4 9b bb 9b 94 20 3d
       -0.02252662 -0.0033081137 -0.004759394 0.03920422
000030 a1 18 87 bc 02 48 bd bb 37 ad 6b 3d 10 f9 2d 3b
       -0.016491236 -0.0057764063 0.057538237 0.0026546158
000040 bc 68 ca 3c 2b 60 40 3d 50 68 44 bc 5a 07 5a bd
       0.024708144 0.046966713 -0.011987761 -0.053229667
000050 82 af 18 bd 5a a2 4c bd 13 7b 04 3a a2 71 67 3d
       -0.037276752 -0.049959518 0.000505374 0.056504853
000060 16 7f 55 3d 46 0b 39 3c 14 7e 57 3d 8e fc ee 3c
       0.05212315 0.011294192 0.05261047 0.029173162
000070 77 48 a2 bb 9b d9 87 3a 04 14 3a bd c6 47 1f bd
       -0.004952486 0.0010364534 -0.045429245 -0.038886808
000080 f7 f2 fc bc f4 1c a4 bc b7 f7 28 3d 19 33 00 3d
       -0.030877573 -0.020033337 0.041251864 0.03129873
000090 f3 80 9c bc ff 1a fb bc 4a a9 51 3d ac 24 25 ba
       -0.019104457 -0.030652521 0.051186837 -0.0006299715
0000a0 e9 08 2d bd 10 21 53 bd 19 90 b7 3c 34 9d 46 3c
       -0.042244826 -0.051545203 0.022407578 0.012122441
0000b0 fe 91 1d bd 59 05 49 bb a9 49 57 bd ea 53 44 3b
       -0.038469307 -0.0030673353 -0.052560482 0.0029957243
0000c0 f3 6b 20 bc 4f 88 4c 3d 65 e1 7c bb c2 de d4 3a
       -0.009791362 0.04993468 -0.0038586494 0.0016240703
0000d0 17 f6 c1 bc e5 0d 47 3d 2f 0c 50 3d e6 0c 20 3d
       -0.023676915 0.048597235 0.05079287 0.0390748
0000e0 66 1c c7 3c 00 6b 42 3d 3f c8 55 3d 9b c0 1d bd
       0.024305534 0.047465324 0.052192923 -0.03851376
0000f0 f6 05 21 3d fd 61 69 bc 92 60 21 bd 21 65 89 3c
       0.039312325 -0.014244554 -0.039398737 0.016771855
000100 c2 fd fe 3c 84 d8 30 3d c4 3c 6f bd ee 8e 1a bb
       0.03112686 0.043175235 -0.05840756 -0.0023583728
000110 cc 92 02 3c 0e e8 69 bd 8d 9e 09 3d 4b cb d1 ba
       0.007969569 -0.05710607 0.03359847 -0.0016006021
000120 61 b3 57 bd 05 4e 9f bc 84 b6 12 bd 51 be 4a bd
       -0.052661303 -0.019446382 -0.03581859 -0.049497906
000130 04 18 1e bd 84 c3 a9 3c 06 fa 67 3d f7 1e 66 bd
       -0.03859712 0.020723112 0.056634925 -0.056181874
000140 16 64 5e 3c 8c 85 40 3d d0 7d 5e 3d f8 d8 0b bd
       0.013573667 0.04700236 0.054319203 -0.034142464
000150 80 62 51 3d a8 87 c6 3c f3 6e 3f bd 37 1a 67 3d
       0.051119328 0.024234608 -0.04673667 0.056421485
000160 19 cf 5d 3d f3 9e 9f 3b fe a1 42 3d a8 1d 4b 3d
       0.05415258 0.004871243 0.04751777 0.04958883
000170 9c 01 8e bc fa 6b 5f 3c 76 9b 38 bc e0 95 03 bd
       -0.017334752 0.013636583 -0.0112675335 -0.032125354
000180 2d 2d 1a 3d e1 47 23 3d 11 e5 15 3d 83 c4 26 3d
       0.03764074 0.03986347 0.036595408 0.040714752
000190 0d b3 3c bd 0a 76 93 3c f6 b4 a7 bc f0 dc 35 bd
       -0.046069194 0.018000621 -0.020472031 -0.044400156
0001a0 9e fa f4 3c 02 23 9c 3c 85 80 6b bd a1 95 56 bd
       0.02990466 0.019059662 -0.057495613 -0.05238879
0001b0 d7 ad 62 3c ca 2a 62 bd ad 16 04 3d 07 1a 09 3d
       0.013835392 -0.055216588 0.032248188 0.033472087
0001c0 5c 77 5d 3c 06 b9 3a bc 25 01 17 3c 3a 68 8a 3c
       0.013517227 -0.011396652 0.0092165815 0.016895402
0001d0 a3 5b 46 ba 18 a1 ab bc 26 88 87 bc 64 50 13 bd
       -0.00075667555 -0.020950839 -0.016544413 -0.03596534
0001e0 1e e0 ea bb fc a1 36 3c 27 f0 19 3d 2a 01 60 3d
       -0.00716783 0.0111470185 0.037582543 0.05468861
0001f0 50 de 9c 3c 10 25 50 bd c4 72 51 3d 45 e9 2d 3d
       0.019148976 -0.050816596 0.05113484 0.04245879
000200 01 a1 1c bd f9 3a 2a 3d c7 90 3f 3d 31 e3 46 3d
       -0.038239483 0.041560147 0.04676893 0.04855651
000210 fc a0 35 3d 75 1c 92 3c 63 35 14 bd c0 4d 98 3b
       0.04434298 0.017835835 -0.036183726 0.0046479404
000220 09 64 2e 3d bf 76 f2 3c e1 78 da bb ff e6 f8 b8
       0.04257587 0.029597638 -0.006667242 -0.00011868588
000230 e9 84 55 3d de fe 18 3a 09 45 19 3b 98 c0 33 3c
       0.052128706 0.0005836318 0.0023387095 0.010971211
000240 a4 ab 29 3d 95 cc 28 bc e3 a9 34 3d af 37 fc 3b
       0.041423455 -0.010302682 0.04410733 0.0076970677
000250 8d 7d 1b bc e9 a4 67 bd be 62 4c bd de 2c 5a 3d
       -0.009490383 -0.056553755 -0.049898855 0.053265445
000260 0e 62 84 3b 55 4d 02 bc c9 3d bf bc 2b 1a 4a 3d
       0.0040400093 -0.007953008 -0.023344891 0.049341362
000270 63 78 14 3c 6c 21 6b bd 7f f6 0b 3d 6b 5c 06 3c
       0.009061906 -0.05740492 0.034170624 0.008200745
000280 c3 3e 7e bc 78 4b 0f bd 3f b6 9a 3b b2 a2 b3 3c
       -0.015517893 -0.034984082 0.0047214325 0.021928165
000290 11 5e c1 bc 15 7c 38 bd 78 b9 76 3c 6a 03 2a bb
       -0.023604425 -0.04504021 0.015058868 -0.0025941976
0002a0 65 42 90 3c 9c 11 8a 3c 56 7d ce 3a 70 e8 6e 3d
       0.017609784 0.0168541 0.0015753906 0.05832714
0002b0 38 e5 a3 bc c4 38 fb 3c 69 93 3c 3d a5 4b 3f 3c
       -0.020006761 0.030666716 0.04603902 0.01167575
0002c0 a6 c4 ae bc b0 f5 da bc b7 b7 8b 3b 53 65 35 bd
       -0.021334004 -0.026728481 0.004263844 -0.044286083
0002d0 26 6f 8f 38 06 1b 25 3d e1 b0 64 bd 73 62 1c 3c
       6.8394744e-05 0.040308975 -0.055832747 0.0095449565
0002e0 22 22 f8 ba 16 c2 67 3d 2e 01 c8 3c c1 0e 58 3d
       -0.0018931071 0.05658158 0.024414625 0.052748445
0002f0 4a 9b 48 bd 8b ad b8 3c cf ed b4 3c 6f 6d d9 bc
       -0.04897622 0.02254369 0.022086052 -0.02654144
000300 41 05 07 bd 95 e7 df 3b 51 25 66 bd 54 cf 8b 3b
       -0.032963995 0.0068330267 -0.05618793 0.004266659
000310 b8 0d 48 bc d9 2c f7 bc 44 14 b9 3c db fb 08 3d
       -0.012210302 -0.030172752 0.022592671 0.033443313
000320 6f 82 ec 3c 09 f9 ff 3b df 94 90 bc 96 e2 e8 bc
       0.02887079 0.0078116697 -0.017649112 -0.028428357
000330 b2 9d 1d 3d d5 55 40 3c 28 c8 8f ba ed 14 ef bc
       0.038480468 0.011739214 -0.0010969685 -0.029184783
000340 0d df 12 3d dd 28 18 bd 2d f3 43 bb 24 10 b9 bc
       0.03585725 -0.037148345 -0.0029899583 -0.022590704
000350 9c 8c 00 3d 49 ad 4f bd 45 e2 8e 3b d9 e6 0c bd
       0.031384096 -0.050702367 0.0043604695 -0.03439984
000360 f2 6f 53 3d 7c 92 60 3d 63 69 37 bd 57 72 65 3d
       0.05162043 0.0548272 -0.04477824 0.056017246
000370 59 bb 1a 3d a7 83 a3 bc f2 23 0f 3d d5 58 80 bb
       0.037776325 -0.019960238 0.03494639 -0.0039168396
000380 f7 48 24 bd ad 86 6b bd f6 37 0d bd bd 62 55 bd
       -0.040108647 -0.057501484 -0.034477197 -0.052096117
000390 d2 2a 0b bd 7a d4 70 3c b4 67 c3 bb 84 de 4c bd
       -0.033976384 0.014699096 -0.00596329 -0.050016895
0003a0 cd 45 ff 3c 3d 63 8a 3c 87 4d 13 3d 3f c3 0c bd
       0.031161213 0.016893024 0.035962608 -0.03436589
0003b0 2f 10 25 3d cb 6a a7 bc ed e2 7a bc a6 bc ec bb
       0.040298637 -0.020436665 -0.015312892 -0.007224637
0003c0 40 54 c1 bc e7 20 02 bd f2 54 a4 3c d6 44 1d bd
       -0.023599744 -0.03176966 0.020060036 -0.038395725
0003d0 2f be 07 3d 98 bd a1 bc 32 fa d2 bc c2 17 0f 3d
       0.033140358 -0.019743726 -0.025754068 0.034934767
0003e0 01 be b6 3c c9 33 8e 3c 3b aa 0d bd e2 84 80 3c
       0.022307398 0.017358677 -0.034586173 0.015688363
0003f0 74 81 fb 3c 88 66 be 3c 7c c3 5b bd 24 5e 3f bc
       0.030701376 0.02324225 -0.053653225 -0.01168016

psi.0.bias f4 [128]
000000 56 b7 73 3c b7 d0 82 bc 0d b3 45 bd 90 48 e8 3c
       0.014875254 -0.015968664 -0.04826646 0.028354913
000010 6d 08 52 3d a9 e8 66 bb 51 d2 82 3c 7b ec 5b 3a
       0.051277567 -0.003523389 0.015969427 0.00083894253
000020 6e b5 de bb 8d 05 27 3c a3 9c f0 3c 69 46 f5 bc
       -0.0067965304 0.0101941945 0.029371565 -0.0299408
000030 89 c1 27 3b 59 08 15 bd c4 f4 33 bd 8f 7b 4b bd
       0.0025597534 -0.036384914 -0.0439346 -0.04967838
000040 d9 10 8e 3c ad 85 7c bc c8 b6 8a 3c b2 fe 54 3d
       0.017342018 -0.01541273 0.01693286 0.05200071
000050 dd 81 c8 bb ce 4b 35 bd 06 48 57 3b c4 6e 64 3d
       -0.0061189965 -0.044261746 0.0032849326 0.055769697
000060 10 fc 28 3c e7 18 6d bd d8 16 f8 3c a9 fb 57 bd
       0.010314003 -0.057885077 0.03028433 -0.052730236
000070 35 c9 3d 3d 49 eb 24 bd dc 28 3f bd 58 f3 17 bd
       0.046334464 -0.040263448 -0.046669826 -0.037097305
000080 98 a5 34 bd 84 ef 82 3c 4a 88 b8 3c d6 b5 a9 bc
       -0.044103235 0.01598335 0.022525925 -0.020716589
000090 82 2f bb bb 67 e8 10 bc 9b 74 bc 3c 14 d3 0b bd
       -0.0057124505 -0.008844472 0.02300482 -0.034136847
0000a0 7f 63 3f 3d 6b 8e 3f 3c 9c ad a8 bc 4d 60 14 3d
       0.046725746 0.01169167 -0.020590596 0.036224652
0000b0 60 18 57 bd 03 2e 06 3d db 2d 2e bd e3 66 e1 bc
       -0.05251348 0.032758724 -0.0425242 -0.02751488
0000c0 44 32 4d bd bc 2c 9b bc ec e7 74 3c b9 eb 52 3d
       -0.050096765 -0.01894223 0.014947873 0.051494334
0000d0 ae 25 60 3d 6e 36 0e bc 58 45 e7 3b 55 96 7c 3c
       0.054723434 -0.008679969 0.007057827 0.015416701
0000e0 39 26 f3 bc de c6 18 bd be 7f fb bb ce 5c 12 bc
       -0.029681312 -0.03729903 -0.00767514 -0.008933259
0000f0 72 a3 23 3c 17 6b af bb 8c 0b c0 bb f5 4f cd bc
       0.009987699 -0.0053533423 -0.0058607515 -0.02506254
000100 b2 89 37 3d c6 85 b9 bc 18 47 6e bc 68 4c 1d 3d
       0.04480905 -0.022646796 -0.014543317 0.038402945
000110 71 e4 2d bd d6 27 65 bd 4e 84 92 3c cd 92 6c 3d
       -0.042454187 -0.055946194 0.017885353 0.057757188
000120 70 ac ad 3c 5e 48 d5 bc 39 b3 f2 bc b4 94 a4 bb
       0.021200389 -0.026035484 -0.029626476 -0.0050226096
000130 9f 0e 21 bd 5b 51 ca bc 49 6f 18 3c 98 ee 43 bd
       -0.039320584 -0.024696996 0.009303876 -0.047834963
000140 a5 64 46 bd 4f 9a 99 3c 11 e1 07 bd d1 bd 60 bd
       -0.048435826 0.018750338 -0.033173624 -0.054868523
000150 b9 96 a5 bc 77 b3 5b bd 71 94 26 3a bd b5 1e bd
       -0.020213472 -0.053637948 0.0006354517 -0.038747538
000160 45 aa 55 bd 7c fe 1a bd b6 3a bf bc 7c 74 51 bc
       -0.052164335 -0.03784035 -0.023343425 -0.01278412
000170 a0 97 2f bd 2c 13 5f 3d d9 86 cc bc 4c ea 20 bd
       -0.04286921 0.054461643 -0.024966644 -0.039285943
000180 a8 a9 05 bd 24 f0 1d bd cb 68 0a bd a1 c0 e4 bc
       -0.0326325 -0.038559094 -0.033791345 -0.027923884
000190 9b ff 1b bd 0c e9 d4 bc c3 f5 3e 3d 9a 1e 74 3c
       -0.03808556 -0.025990032 0.046621095 0.014899874
0001a0 6c 0c 29 bd 0f 32 79 bb f6 a6 f3 3c 12 62 f7 3b
       -0.041271612 -0.0038024222 0.0297427 0.0075495327
0001b0 08 73 db 3c 38 55 b8 bc d4 93 c6 bc 3a f8 61 3d
       0.02678825 -0.022501573 -0.024240412 0.055168368
0001c0 57 c3 bf bc 66 98 33 bd 70 42 72 3d 95 9c b2 3b
       -0.023408575 -0.04384651 0.05914539 0.005450795
0001d0 83 eb b8 3c f1 3a 24 bd 46 ba c7 bc 37 68 e2 bc
       0.022573238 -0.040095273 -0.024380814 -0.027637584
0001e0 77 36 c6 bc 8a 0f 4d 3d c7 7e 54 bc 5e 83 e4 bc
       -0.024195893 0.050063647 -0.012969679 -0.027894672
0001f0 d3 3a de 3c ea 20 5b bd a6 d5 c6 3c 03 52 89 3c
       0.027127659 -0.053498186 0.024271797 0.016762739
