lightning_logs/version_2/checkpoints/epoch=1-step=199.ckpt (torch, 398098 bytes, 48 tensors)

lattice_net.0.weight f4 [8, 1, 2]
00000000: 9b0d afbe e1b1 e5be d245 e5be 6dbc 6a3e
00000010: 5689 d13e 6b08 93be 7b04 d53d 9998 d03d
00000020: 68ca 643e b934 cbbd c59e b13e c30a 38be
00000030: 0eba 9c3c 2a30 64bd 86b4 22bd fe4c e33e
-0.34190068 -0.44862273 -0.4477983 0.22923441 0.40925092 -0.2871736 0.10401245 0.10185356
0.22342837 -0.099221654 0.34691444 -0.17972855 0.019131687 -0.055709995 -0.03972294 0.44394678

lattice_net.0.bias f4 [8]
00000000: 009c 96be e595 98be 3835 003f d79e db3d
00000010: 961a 0ebf eefa f53e c13c b7bc 39ae d6bd
-0.29415894 -0.2980186 0.50081205 0.10723656 -0.55509317 0.48043007 -0.022367837 -0.10482449

lattice_net.2.weight f4 [16, 8, 2]
00000000: 7c9b c4bd 619e 193e 2f52 28bd ce12 63be
00000010: 227a 9dbd 393a 463c f037 e33d e750 15bd
00000020: 8ca3 053e 9570 683e 5780 bbbd 8061 4dbe
00000030: 7886 863c 3aea e1bd 95d6 043e 4844 42be
00000040: 9ec0 09be b031 4b3e f9b0 803c bd9c 0f3c
00000050: 28d2 f33d 0764 b2bc 8d6f 81bd 186e 4dbc
00000060: e2d9 b8bc b3f2 68be 996d 52be e9d3 473e
00000070: 29c6 543e c3dc 463e cde2 813e de98 493e
00000080: cee3 4ebe 5918 f93d ba28 6ebe a1d1 9a3c
00000090: 0c37 8fbd a478 a23d cd89 49be a041 823e
000000a0: 202a 0cbe 39db 703e 666c 9e3d f844 57be
000000b0: af10 753e 9390 f1bd 632d c6bd e41a 1b3e
000000c0: d8d8 57be 3264 903c 2005 00be 0fed d4bc
000000d0: a344 673d b041 2e3e 1abf a93d f3dc 4a3e
000000e0: dc24 603d ff65 3f3c 5168 1cbe 0e51 88bd
000000f0: b901 3abe c43b 1ebe 043e 90bd d402 83be
00000100: 3313 253d 6dfa 5dbe c4f0 c53c 8763 c4bd
00000110: a4ec 00be 6a96 523d e11b e0bd e042 ae3d
00000120: a03f e1bd 1060 28be dae3 5ebe 22e5 533e
00000130: 4509 69be e12d c0bd a428 023e cc0f 3b3d
00000140: fe5f 1abe 8777 e9bd 3c19 35be 4249 033d
00000150: 5ae5 e03b 41c2 b23d 2bfa 3ebe 8444 05be
00000160: 763e 653d 0fe4 173e 33c9 1dbe 7461 66be
00000170: 87d9 c7bd a83b 81bd 932f 813d 5a54 0f3e
00000180: 26aa 763e 3897 ad3d 2355 41be dcd6 503e
00000190: af96 67bb 6ca9 25be 0952 563e 3853 28bd
000001a0: 97c1 c5bd f555 0ebe f617 87bd cc2e 25be
000001b0: cb22 4f3e 12bd 6c3d 5c3b bbbc 41f7 d23d
000001c0: 8ed1 adbc fd42 edbd a02a 663e e46c 39bd
000001d0: 1184 413d 6a58 a8bd ad76 47be c2a7 b73d
000001e0: 1116 72bd 4db7 153e 18f7 d33d 22be f93c
000001f0: 4b80 a63d b4b4 1a3e 9dab 6ebd 08ea 0cbd
00000200: f72e 02be e8ee d83d 4a65 533e e082 0c3e
00000210: def0 70be b1f9 843e 4367 39be 5216 fcbd
00000220: b70e 663e 2de8 243e faa9 a9bc 1e64 f9bd
00000230: 1d20 8ebd bde7 0a3e 6c4f 17be 9487 243e
00000240: 9a72 8c3c a422 563e f429 42be 1b6c a8bc
00000250: 8bc2 22bd 8e7c 55be 6822 86be 4d96 d83b
00000260: cc69 f3bd 8c44 44be f077 c73c 3796 71bd
00000270: 850e 41be 702a 8fbd d5a0 1a3e 579a 0a3e
00000280: 0bc1 b8bc a42e 07bd e781 cc3d ce3b 763e
00000290: 02ad 2fbd 9cfc 1ebd 4e74 683e a5dc 413e
000002a0: 2a4b 88bd 64e9 f43b aace 5dbe c797 af3d
000002b0: 113e f53d 4a59 81bd 7023 a5bd d350 86bd
000002c0: 00ea 3e3d 0b55 03bd b0cc 343e c065 c2bd
000002d0: edd6 12be 7b29 80be 6e50 083d 7be6 1dbe
000002e0: 910b d73c 2a24 233e 0da6 9bbd f924 943d
000002f0: 18d0 0d3b b7c7 84be c221 c2bd 5871 d73d
00000300: f2f3 20be 8864 6ebd 7dec 583e 7fb7 793e
00000310: 78c7 703e edb9 283e ebb3 53be e9d4 86bd
00000320: c707 02be 722c 62be 2940 5c3e 7462 29be
00000330: cc52 0f3d 145c 03be 540b d6bd c16b 82be
00000340: ebdc 45be d435 153e ebb0 22bc 4f81 00be
00000350: 7464 15bd 1811 323e 06aa adbd 1c7e 3dbd
00000360: 06a0 b33d 05d3 543e 0c97 70be dbaf 133e
00000370: fdb6 ddbd d665 a4bd 13db 24be e00c 58bc
00000380: e876 983c 43f4 aebd 7cc9 fabd c5eb 083e
00000390: 3e07 c1bd 21c7 83ba 56b8 65bd 37fc ff3d
000003a0: 021f 2d3d fbd5 eabd 94e9 65be 82fd 4b3e
000003b0: fc5f 77be 0aec d8bd 5f3d 4b3e 647b c7bd
000003c0: 0fbe d4bd d2d5 14be 7ddf 343c 5f89 2d3d
000003d0: 83dd 8d3d 6686 e63d a5dc 663e 20fd 28be
000003e0: 735b 1fbe ec13 063c 1d97 4c3d df69 0dbe
000003f0: d68e c13d b1d1 033e 4299 de3d 11b8 713d
-0.09599969 0.15001823 -0.041094 -0.22175142 -0.076893106 0.012098842 0.110946536 -0.036454108
0.1305067 0.22699197 -0.09155338 -0.20056725 0.016421542 -0.11031003 0.12972482 -0.1897136
-0.13452384 0.19843173 0.015709387 0.008765397 0.119053185 -0.021776212 -0.06320105 -0.012538455
-0.022564832 -0.22748832 -0.2054962 0.19514431 0.20778717 0.19420151 0.25368348 0.1968722
-0.20204088 0.12162847 -0.23257723 0.018898787 -0.06992921 0.079331666 -0.19681473 0.25440693
-0.13687944 0.23521127 0.07735519 -0.21022403 0.23932146 -0.117951535 -0.096766256 0.15146977
-0.21078813 0.017625902 -0.12501955 -0.025991945 0.05646194 0.17017245 0.08288403 0.19810848
0.05472265 0.011682033 -0.15274169 -0.06656085 -0.1816472 -0.15452486 -0.070430785 -0.25588095
0.040301513 -0.21677561 0.024162658 -0.09589296 -0.12590271 0.051412977 -0.109428175 0.08508849
-0.10998464 -0.16442895 -0.21766606 0.20692876 -0.22757442 -0.09383751 0.12710816 0.045669362
-0.1507568 -0.11399751 -0.17685407 0.032052286 0.0068632783 0.08728457 -0.18650119 -0.13014418
0.05596777 0.14833091 -0.15408783 -0.22498113 -0.09758287 -0.06310207 0.06307902 0.13997021
0.24088344 0.08476108 -0.18880133 0.20394462 -0.0035337617 -0.1617791 0.20929731 -0.04109499
-0.09656065 -0.13899978 -0.06596367 -0.16131133 0.20228116 0.0577975 -0.022855453 0.10301066
-0.021218088 -0.115850426 0.22477198 -0.04526986 0.04724509 -0.08219989 -0.19478865 0.08967544
-0.059103075 0.14620705 0.10349864 0.03048617 0.08129939 0.15107995 -0.058269132 -0.034402877
-0.12713228 0.10592443 0.20644107 0.137218 -0.23529384 0.2597175 -0.18105797 -0.12308945
0.22466551 0.16104193 -0.020710934 -0.12177299 -0.06939719 0.13564964 -0.14776391 0.16067344
0.01714449 0.20911652 -0.18961316 -0.020559361 -0.039736312 -0.20848295 -0.26198125 0.006609714
-0.118854135 -0.19166774 0.024349183 -0.058981147 -0.18853195 -0.06990516 0.15100415 0.13535438
-0.022552988 -0.033003464 0.099857144 0.24046251 -0.042889602 -0.038815126 0.22700617 0.18931825
-0.066549614 0.0074741114 -0.21660867 0.08573871 0.11974729 -0.06315859 -0.080634 -0.06558385
0.04660988 -0.032063525 0.17656207 -0.094920635 -0.143398 -0.25031647 0.03327983 -0.15419953
0.026250632 0.15931764 -0.07600031 0.072336145 0.0021638926 -0.2593362 -0.09479095 0.105196655
-0.15718058 -0.058201343 0.21183963 0.24386404 0.23513591 0.16477175 -0.20674102 -0.06583578
-0.1269828 -0.22087267 0.2150885 -0.16541463 0.03499107 -0.12828094 -0.104513794 -0.25472835
-0.19322555 0.14571315 -0.009929876 -0.12549327 -0.036472753 0.17389333 -0.08479695 -0.046262845
0.087707564 0.20783623 -0.2349512 0.14422552 -0.10825918 -0.08027236 -0.16099195 -0.013186663
0.018611386 -0.08542683 -0.12245461 0.13371189 -0.094252095 -0.0010053852 -0.056084 0.12499278
0.0422659 -0.11466595 -0.22452384 0.19920924 -0.24157709 -0.10591896 0.1984763 -0.09740332
-0.10387813 -0.14534691 0.011039612 0.042367335 0.06927016 0.11256103 0.22545107 -0.1650281
-0.15562229 0.008183461 0.0499488 -0.13809918 0.09451072 0.1287296 0.10869075 0.05901343

lattice_net.2.bias f4 [16]
00000000: 72b4 3f3d 1c54 e33b ea83 4b3d 88d8 5fbb
00000010: 1176 23be be46 cbbd d768 83bd 9828 74be
00000020: cabd 50be 0e2e 4c3c 5ca6 ddbd 87ac 083e
00000030: 2028 b93d 9208 c83c a994 2fbe db44 0abe
0.046802945 0.006937517 0.04968635 -0.0034156162 -0.15963008 -0.099256024 -0.06416481 -0.2384361
-0.20384899 0.012462152 -0.10822746 0.13347064 0.09040856 0.02441815 -0.17146553 -0.13502829

tNN.0.weight f4 [16, 2]
00000000: d2f7 123f f566 623e 15cc 43be 8531 a2be
00000010: 533e ff3c 7e5c 3b3e e013 9e3e 8999 d0be
00000020: 4aae 05bd db75 18bf b726 0cbf ff76 c23e
00000030: 74ff 87be 2ff0 b43e e8b9 06bf 1419 203f
00000040: ee51 88be e9e1 d9bc 0d2d 29bd 3fa7 2c3f
00000050: 0f9c 89bd cd00 513b 2a81 0ebf 2be9 6dbc
00000060: 9b16 f0bc cdd1 4a3e ecaf 9a3c 8bab 323f
00000070: 60f6 19bf 58f2 f5bd 6b28 52be 6856 8fbe
0.57409394 0.22109587 -0.1912082 -0.31678405 0.031157648 0.18297002 0.30874538 -0.40742138
-0.032636918 -0.59554833 -0.54746574 0.37981412 -0.26562083 0.35339496 -0.5262742 0.62538266
-0.26625007 -0.02659698 -0.04130273 0.674427 -0.06719219 0.0031891346 -0.5566584 -0.014520924
-0.029307654 0.19806595 0.018882714 0.69793004 -0.60141563 -0.12009114 -0.2052323 -0.2799561

tNN.0.bias f4 [16]
00000000: ee36 08bf 46d5 15bf ce73 ee3e 3a11 41bc
00000010: 8de3 d0be 494f ccbd af74 21be 9074 153f
00000020: fd09 33bf ae8f 27bf fc70 2ebf 9aab 9d3e
00000030: e565 293f 3c4d 5a3e 7c68 853e b0fe 0c3f
-0.53208816 -0.58528554 0.46572727 -0.011783892 -0.40798607 -0.0997606 -0.15767168 0.58380985
-0.69937116 -0.6545361 -0.6814115 0.30794984 0.66171104 0.21318525 0.26056278 0.5507612

tNN.2.weight f4 [32, 16]
00000000: 920a 56be c742 01be fcb8 2fbe 1d1e 78be
00000010: 6318 093b d02c 2abe a478 9f3d 3132 5dbe
00000020: b611 e3bb bbbf 1c3c a9a5 39be a599 293e
00000030: 820e 82bd 32ae 2fbe 78ae 17be d72e 78be
00000040: d7f4 4f3b fad9 dc3c b91d 34be b05b b0bd
00000050: 1e3b 693e 5f94 1c3e 3330 fe3c 1269 693e
00000060: fb99 0a3e 11c2 16bd 183d e1bc 8c29 4ebe
00000070: 92e6 633e 58bc 483e edf4 3dbe a7c5 47be
00000080: f1eb f83d ecae 97bd f377 7d3e c1ef 203e
00000090: 5827 4cbb 5c56 58be 3e8a adbd 936e 3abe
000000a0: f609 9fbd 44ff 853c 7dcd 00bd 11e4 373d
000000b0: a0cc 61be 8d43 2fbd 10c0 523d 4de3 2f3d
000000c0: b2b8 5bbe ad14 10be e861 453e 7416 08be
000000d0: 404e 7dbe 5dc3 d8bd d4cd e0bb db8c 74be
000000e0: 23c0 343e 920c 69be 5c69 453d e4a4 c43d
000000f0: 7021 003c de45 37be 6cbe 6bbe e51c 49bb
00000100: 8b12 bbbd 7410 b83d 379f 8d3d 6d17 69bd
00000110: 092f 433e 192b 5d3e 8729 d13d 1653 e43d
00000120: c235 48be cc30 a2bd a906 60bd faa3 733e
00000130: e49e 78be 4c2d 50bd 9928 37bd b088 27be
00000140: 117f b53c 59a3 e2bd dceb 333d 9470 43bd
00000150: b24c c7bd 9ee1 54be 0a97 543c 98e4 1fbe
00000160: c5df 753e 31b9 e13d dbf7 61be f80b 6a3d
00000170: 8878 debd a874 4e3e 7a40 673e 8150 813d
00000180: e029 da3c a370 113e 1e26 283e 19b5 79be
00000190: e34e 6b3d e3c7 36be 4c24 803e 043e 32be
000001a0: dfae 283e 1a9c 27be 6f4e 1b3e 85ba f93d
000001b0: 12a0 5abe 8ffa 643e f11f d7bd e305 1dbe
000001c0: cd3a 6d3e 4a5a 11be 2f52 45be 6ada 08be
000001d0: 6fbe 223d f5da 753e a296 3c3e 157a 303e
000001e0: 3367 913d 3340 473d 1b3b 53be 95ac 2ebe
000001f0: 7939 223d c4bd f53b 53d2 fc3d cf40 e7bd
00000200: a0a5 2c3e 294f 2c3e f0de 273e 01ce 4e3d
00000210: 3322 b6bd 43d8 7fbd ce57 1dbe da47 223e
00000220: aade 01be 7483 c23d 3f26 27be cae1 e5bd
00000230: f0b6 38be 8127 653e d296 bd3d ba87 fcbd
00000240: 725a f2bc fa4a 54be af67 803d 9d07 583c
00000250: 95d6 373e 2ebf ccbd b3c4 5a3e 766b 973d
00000260: 01a6 f4bd 89a5 7e3e 9528 d13b f79b 303e
00000270: c13b 78be 89d6 833d a77d 26be 36d0 1ebd
00000280: a432 7d3e 2938 2a3e 303d 453e 0ba3 2d3e
00000290: 100c b0bb b605 86bd fe0f bb3d 5eee 813e
000002a0: e5b9 713d 004c 323e 37ab fbbd 9ba9 41be
000002b0: 2d7f afbd 3726 55bd 9d5b 003c 4070 1abe
000002c0: f3bb c63d d6e0 e93c a9f1 ee3d cd2f e8bd
000002d0: 2613 37bd eb16 b8bc df7e 70be 5c52 0cbe
000002e0: 8c22 433e 987a 413e 2d61 80be 209c 813d
000002f0: a067 d23d 2393 bc3d 59c2 313e e63a b2bc
00000300: 81e8 f23d a8c1 a7bd 40c2 133e 82d4 583e
00000310: ce11 d1bd 59d6 183e 6a4f 8b3d 00b5 21be
00000320: f1e5 d3bd 192c 093b 5196 07be 9e3e 293d
00000330: 8df2 3cbe 2d41 6ebc a766 15be c78f 083e
00000340: 040e 503e fa6a 703e 33df 7fbe a745 d8bc
00000350: 7528 42bd 32ea 5b3e f078 fe3d 242e 15be
00000360: ed40 463d 4ad8 f0bd e7eb 2ebd c9c8 4a3e
00000370: 5794 e1bd 601e 793e adcc 3bbe da77 2c3e
00000380: a87c e13d 22a7 d5bd 0000 61be 7488 253e
00000390: bcb0 5fbe b90b 7fbc 1168 2fbe be0c 88bd
000003a0: d0fe 63be c219 3f3d 05d6 12bd 1bfc 84bd
000003b0: 424a 5f3e 4efe 95bb 1bf8 a93c 2f12 623e
000003c0: ce5b 983d 8bf9 643e 49f7 053e 8ba3 05be
000003d0: f487 c0bd 5e11 62bd 7a9d c83d 21e4 50be
000003e0: 3dae 16be 30fe d1bd 95af 723e 4442 cebd
000003f0: c57a 8bbd ff36 643e 9fa6 c03d afe7 3b3e
-0.2090247 -0.1262313 -0.1716041 -0.24230237 0.0020919077 -0.16618657 0.07786682 -0.21601178
-0.0069296015 0.0095671965 -0.181296 0.16562517 -0.063504234 -0.17156294 -0.14812648 -0.24236618
0.003173163 0.026959408 -0.17589463 -0.08611238 0.22776458 0.15290974 0.031028843 0.22793987
0.13535301 -0.03680617 -0.027494952 -0.20133036 0.22255924 0.19603097 -0.18550463 -0.19508992
0.12154377 -0.074064106 0.24752788 0.15716459 -0.003115138 -0.21126693 -0.08473633 -0.18206243
-0.07765572 0.016357072 -0.03144597 0.044895235 -0.22050714 -0.04278903 0.051452696 0.04294138
-0.21457174 -0.14070387 0.1927563 -0.13289815 -0.24736881 -0.105841376 -0.006860474 -0.23881857
0.1765142 -0.22758701 0.04819618 0.09601763 0.007820472 -0.17897746 -0.23021859 -0.0030687388
-0.09134396 0.08987513 0.069151334 -0.056907106 0.19060911 0.21598472 0.10212999 0.1114866
-0.19551757 -0.079194635 -0.05469385 0.23793021 -0.24279362 -0.05082445 -0.04471645 -0.16360736
0.022155317 -0.11066312 0.043926105 -0.047714785 -0.09731425 -0.20789191 0.012975464 -0.15614545
0.24011143 0.110216506 -0.22067206 0.05714032 -0.10862833 0.20161688 0.2258319 0.06314183
0.026631296 0.14203124 0.1642079 -0.2438549 0.05744828 -0.17849688 0.25027692 -0.1740647
0.16472958 -0.16368142 0.15166639 0.12193779 -0.21350124 0.22361206 -0.10504139 -0.15334277
0.23166962 -0.14194599 -0.19269632 -0.13364568 0.039732393 0.24009307 0.18416837 0.1723407
0.07099762 0.04864521 -0.20628016 -0.17058022 0.03960559 0.0074994285 0.12344804 -0.11291658
0.16860056 0.16827072 0.16393638 0.05048943 -0.08893242 -0.062462103 -0.15365526 0.15847722
-0.12682596 0.09497729 -0.16323183 -0.112247065 -0.18038535 0.22378351 0.09257282 -0.12330575
-0.029584143 -0.20731726 0.06269776 0.013185409 0.1795295 -0.09997402 0.21364097 0.073935434
-0.11945725 0.24867834 0.0063830116 0.17246996 -0.24241544 0.06437404 -0.1625887 -0.038772784
0.24726349 0.16622986 0.19261622 0.16956727 -0.0053725317 -0.06544058 0.0913391 0.25377172
0.059015173 0.17411804 -0.12288516 -0.18912356 -0.08569179 -0.052038398 0.007834342 -0.15081882
0.09703817 0.028549593 0.11667187 -0.11337242 -0.044695996 -0.022471866 -0.23485897 -0.13703293
0.19056147 0.18894422 -0.2507414 0.063286066 0.10273671 0.092077516 0.17359294 -0.0217566
0.11860753 -0.08191234 0.14429569 0.21174815 -0.10208474 0.14925517 0.068022564 -0.15791702
-0.10346592 0.0020930825 -0.13240935 0.041319482 -0.18451901 -0.014541906 -0.1458994 0.13336097
0.20317847 0.23478308 -0.24987487 -0.0264004 -0.047401864 0.21476057 0.12425411 -0.14568383
0.04840176 -0.11760004 -0.042705443 0.19803156 -0.11014622 0.24327993 -0.18339796 0.16842595
0.110101044 -0.10432269 -0.21972656 0.16165334 -0.21844763 -0.01556676 -0.17129542 -0.066430554
-0.22265172 0.046655424 -0.035848636 -0.06493398 0.21805671 -0.0045774346 0.020748189 0.22077249
0.07439385 0.22360818 0.13082613 -0.13050668 -0.09400931 -0.055192344 0.09795661 -0.20399524
-0.14714904 -0.102535605 0.23699792 -0.10071233 -0.06810526 0.22286604 0.094067805 0.18350099

tNN.2.bias f4 [32]
00000000: 9046 36be f5d1 633e 14e9 51bc 95e6 903d
00000010: 5f23 143e a5e2 b1bd d72a 013e 0918 f63d
00000020: cfda 173e 1b50 3dbe 2c3b 4bbd b365 07bb
00000030: cf86 5f3e 80f8 063e c9cd 453e 4943 e6bd
00000040: ec45 05bd 5e30 a1bd 14ea b0bc ca26 dbbd
00000050: b98d 3cbe 6ccf 0dbe 9766 a53d 036f 443e
00000060: 7692 113e e5ad 253e 36a3 543e e1ee 68be
00000070: ea7f 78be 8cea 393e e87f 673e 6569 e83d
-0.17800355 0.22248061 -0.012811918 0.0707523 0.14466618 -0.08685807 0.12613998 0.12016303
0.14829563 -0.18487589 -0.049616978 -0.0020659983 0.21828769 0.13180733 0.19316782 -0.112433024
-0.032537386 -0.078705534 -0.021595992 -0.10700758 -0.18413438 -0.13848656 0.08076208 0.19182973
0.14216027 0.16179617 0.20765385 -0.22747375 -0.24267545 0.18155879 0.22607386 0.113482274

tNN.4.weight f4 [64, 32]
00000000: 585b ef3d d08c 313d 3cd4 12be 5b4c 11be
00000010: ae9b 63bd 0c95 e73b 9baa 20be 6b2c 293e
00000020: 195d 81bb 47bd ab3d e69f 08be 6c72 013e
00000030: ed63 eabb c207 e73d 94c7 003b a695 0d3d
00000040: 214b 6dbd 2805 fbbd 89b1 22be ecdb 87bd
00000050: c71a 1e3e 1623 db3d 4ca0 4cbc 0c5e 0fbe
00000060: 062d 00bd 69d9 bdbd b976 21be dc13 dfbd
00000070: 98f2 12bd e384 103d a541 06be e06d e8bd
00000080: b776 2b3e 6765 ddbc 5f9d 2b3e f45b e43d
00000090: e4bf 6fbd 6c8f afbd 2104 1fbe 9d83 25bd
000000a0: 32a2 c03d 9080 0c3e a477 9fbd e8a1 f7bd
000000b0: ea02 2bbe 4488 c8bd e3ad abbd ae7b 1f3e
000000c0: 0e34 fbbb ede9 16be bb54 9c3d f18e 333e
000000d0: 753d aabd fbe0 c13d a9e5 b8bd 83d7 b9bb
000000e0: 6cad 01be dbd3 a4bc aced 19be 81ca 09be
000000f0: 6117 5fbd e5ff 993d 054e f63d 3d05 62bd
00000100: ede1 0cbe 38dd 0cbe d5ae cd3d 0038 22be
00000110: ea8e 29be c522 b63a 1dd4 123e 4b30 26be
00000120: a587 323e 4825 213e a313 fd3a 6559 1c3e
00000130: 9f21 ebbd 5f1d 13be 6a30 0a3e e367 613c
00000140: 9d38 40bd 0146 0abe 532f e5bd 49eb f13c
00000150: 31f3 0f3e 10a6 69bd d354 1cbe eeb3 023d
00000160: b9b7 36be 6032 cdbc 9fdc 13bd a86b e9bd
00000170: 795b 1c3e 4f6e fdbd b6f4 bf3d fd74 04be
00000180: 682e 2b3e 8552 af3c 0af4 cbbc b837 1c3e
00000190: eaa1 33be d2f6 473d 6145 9cbd 5088 30be
000001a0: 601a 0f3e 9f52 ccbd 9c7a 15be 05c7 0cbe
000001b0: a77e 08be 1e7a 2dbe 1fe7 0cbe 580c dabd
000001c0: e679 4abb 91d9 0d3e 79fe ddbd 57b9 073e
000001d0: fcc3 093e 7ca1 ee3c 7a03 37bd 1ca0 1d3e
000001e0: af8c 343d 820e 38bd 1314 1ebe d4c4 f73d
000001f0: 1e5e cfbd 78a2 a13d 5806 513d e498 cebd
00000200: 5d86 c7bd c297 38be 778e c3bd b695 6bbd
00000210: 3184 e4bd 9a76 fbbd 4c5f e13d 0617 2d3e
00000220: a418 aabd be84 2dbe 2373 d93c 70be 6a3d
00000230: 8b4b 213d ef60 13be b2b1 ac3d 8cb1 40bd
00000240: 345d 12bd 31e9 f33d 6764 dcbc 54c6 e1bc
00000250: 5024 bbbc 6247 1c3e ca92 b53d b2c8 d5bc
00000260: 4249 e4bd 5495 fbbc 4acd 04be 994d 2dbe
00000270: 0ed7 243e 72f8 09be 1e31 283e 7467 a83d
00000280: 5807 6cbd 536c 293e 633f 113e 3070 543c
00000290: de57 043e 7db6 a63d a8e4 0b3c ed7e 813c
000002a0: 98ed ffbd a96d dabb 3b4e 29be 9e88 983d
000002b0: 6e3e 143e 0c05 783d 2aea 93bd 613b ea3d
000002c0: 11ee 113e ac0b c8bd bc91 f03d 12f1 93bd
000002d0: e83d 343e 0f20 013d 35a3 263e df48 4c3c
000002e0: c072 a2bd e460 273e 8589 16be 40ff 25be
000002f0: baa9 863c f3f6 a13b 8342 103e 20f0 b63c
00000300: ab47 b83d b61e 503d 9d32 0c3d 83fc 53bd
00000310: 55ce 07be 68a8 1d3e 21ed 0a3e cf68 b7bd
00000320: e6ab 983d 9af7 13be 155d 1dbc c5d3 1cbe
00000330: 788d 253e d595 54bc 444a 25bd 1f30 f43a
00000340: eabc 8ebb 5ab2 6abd 1bfc 07bd 089a 1fbe
00000350: a239 b43d 093e 49bc 3fb6 1dbd c370 dbbc
00000360: f1f8 7dbc 56a1 893d 3346 3a3d 2649 5dbd
00000370: a69d 1b3d dd31 28be cbf5 d1bd 7f59 053c
00000380: cd90 313e 1d59 d6bd 5965 763d 00a3 a7bd
00000390: e57e c8bb 2af3 b13d 1e2d b93d 70a6 73bb
000003a0: 2ced 6cbd 97f7 35be 93cc dc3c c0fb f2bb
000003b0: 4f82 423d 4c1c 86bd 82c1 b3bd f962 4dbd
000003c0: eb6b 043e 9718 013c acb9 08be 592c abbd
000003d0: 8a70 803c 83b9 243e e464 8ebb 7b66 10bd
000003e0: e1f6 8bbd f15d a63a 2a68 e23d 6d39 173c
000003f0: 4073 a43d 583e 033d d5bd 9b3c 9bf1 b63d
0.11687344 0.04334718 -0.14338773 -0.14189284 -0.05556839 0.0070673283 -0.15690081 0.1652085
-0.0039478657 0.08385711 -0.13342246 0.12641305 -0.0071530254 0.112807766 0.0019650208 0.034566544
-0.057932977 -0.12256843 -0.15888037 -0.06633744 0.15439902 0.107000515 -0.01248939 -0.1400072
-0.031292938 -0.09269983 -0.15767945 -0.1089246 -0.035875887 0.03528298 -0.13110979 -0.11349082
0.16744505 -0.027025891 0.16759251 0.11150351 -0.05853261 -0.085722774 -0.15528919 -0.04040872
0.09405936 0.13720918 -0.077864915 -0.12091428 -0.1670033 -0.097916156 -0.08382776 0.15574524
-0.0076661175 -0.14737673 0.076333486 0.17534997 -0.08312503 0.0946674 -0.09028179 -0.005671443
-0.12663811 -0.020120552 -0.15032071 -0.13456155 -0.054465655 0.07519511 0.120266 -0.055180777
-0.13758059 -0.13756263 0.10043112 -0.15841675 -0.16558424 0.001389586 0.14338727 -0.1622936
0.17434557 0.15736878 0.001930822 0.15268476 -0.11481022 -0.14366673 0.13495031 0.013757679
-0.04692899 -0.13503267 -0.11190667 0.029531138 0.14057614 -0.057043135 -0.15266733 0.031909876
-0.17843522 -0.025048435 -0.036099073 -0.11397487 0.15269269 -0.12374555 0.09372847 -0.12935252
0.16716921 0.021401653 -0.02489664 0.1525563 -0.17542234 0.04881937 -0.076304205 -0.17239499
0.13974905 -0.09976696 -0.14597553 -0.13747795 -0.13329564 -0.16941115 -0.1376004 -0.10646886
-0.003089541 0.13852526 -0.108395524 0.13254295 0.13453668 0.029129736 -0.04468105 0.15393108
0.04407948 -0.04493571 -0.15437345 0.12098089 -0.10125373 0.078923166 0.05103144 -0.10087755
-0.09742425 -0.18026641 -0.095486574 -0.057515822 -0.11158026 -0.12278481 0.110045046 0.16903314
-0.08305481 -0.16945168 0.02654416 0.05731052 0.039378684 -0.14392446 0.0843233 -0.047044322
-0.035733417 0.11909712 -0.026903344 -0.02756039 -0.022844464 0.15261605 0.088658884 -0.026096676
-0.11146785 -0.030710854 -0.12968937 -0.16924132 0.16097662 -0.1347368 0.16424987 0.08222857
-0.05762419 0.16545229 0.14184336 0.012966201 0.12924144 0.081402756 0.008538403 0.015807593
-0.12496489 -0.0066659045 -0.16533749 0.07447933 0.1447694 0.060551688 -0.072223976 0.11437107
0.14250971 -0.09767851 0.117465466 -0.07223715 0.1760174 0.031524714 0.16273196 0.012468546
-0.07932043 0.16345555 -0.14700897 -0.16210651 0.016438354 0.0049427687 0.14087872 0.022331297
0.089980446 0.05081054 0.034227956 -0.051754486 -0.13262303 0.15396273 0.1356702 -0.089555375
0.07454662 -0.14449921 -0.009604712 -0.15315159 0.16167247 -0.012975176 -0.04035403 0.0018630064
-0.0043560164 -0.057298996 -0.03319941 -0.15586102 0.08800055 -0.012282857 -0.03850388 -0.026787167
-0.015501247 0.067202255 0.045477103 -0.054024838 0.037992142 -0.16425271 -0.102519594 0.008139013
0.17340393 -0.10466216 0.060155246 -0.08185387 -0.0061186426 0.08688958 0.090418085 -0.0037178062
-0.057843372 -0.1777023 0.026953017 -0.007415265 0.047487553 -0.06548366 -0.08777143 -0.050143216
0.12931792 0.007879398 -0.13352078 -0.08358068 0.015678663 0.16086392 -0.004345523 -0.035253983
-0.06834198 0.0012692792 0.11055024 0.00923 0.08029795 0.032041878 0.019011417 0.08932801

tNN.4.bias f4 [64]
00000000: eb4d eabd 15e6 fe3d 82e2 2c3e 2824 a5bd
00000010: 8a0a efbd 7887 f53d 3b8b 02bd 449d cb3d
00000020: 8947 66bd ac76 92bd 9477 0abd 2837 dd3d
00000030: 4c94 64bd 67ba 0a3d 4f55 2abd d191 563d
00000040: 27a9 f3bb fa02 d3bc 80ff b2bd ec4f a2bd
00000050: 2892 c53d c73d 0fbe 9c1c 25bc 8be5 a4bd
00000060: db0e 2a3c 7c98 3f3d c28d 03be fc3e 093e
00000070: e3a1 153e 5a07 113e a53c 04be ae8b ea3d
00000080: db29 70bd 0eba 97bd 1401 15be 14c4 433d
00000090: be11 033e a92b d13d 17a2 99bd 7d7b 51bd
000000a0: 6f1d de3c a71f eebd e524 15be 4a4d 813d
000000b0: 297e 2bbe f873 fbbd 17ea 0fbc 1056 29be
000000c0: 3036 863d dee7 0fbe aeab de3d 9f58 1fbc
000000d0: 91cf a53d f525 8dbd 91be ac3d 51ab 033d
000000e0: d75e cebd 26f4 fabc dd73 a63b 9452 6f3d
000000f0: 8ee9 213e 6500 20bd c8ff efbd 6096 a9bd
-0.11440643 0.124462284 0.16883281 -0.08063537 -0.11671932 0.11988729 -0.03187106 0.099421054
-0.056220565 -0.07151541 -0.033805445 0.10801536 -0.05580549 0.033869173 -0.041585263 0.052385155
-0.007435936 -0.025758255 -0.08740139 -0.079254 0.09647018 -0.1398841 -0.010077622 -0.08051594
0.010379518 0.04677628 -0.12847045 0.13402933 0.14612536 0.1416296 -0.12913759 0.11452423
-0.058633666 -0.07408534 -0.14551193 0.047794417 0.12799737 0.10213406 -0.07501619 -0.05114316
0.027113644 -0.11627131 -0.14564855 0.0631357 -0.16747345 -0.12277979 -0.008783839 -0.16536736
0.06553304 -0.14053294 0.10872589 -0.009725719 0.08096231 -0.06892005 0.08434785 0.032145802
-0.10076683 -0.030633997 0.00507973 0.058428362 0.1581175 -0.039062876 -0.11718708 -0.08280635

psi.0.weight f4 [128, 160]
00000000: 7c74 993d feb2 673d e392 57bd 4c30 84bd
00000010: 8681 7f3c 9bcd 213d 100c 78bc e83b 2cbd
00000020: b0ae 98bd ba37 09bc 5813 303d d352 03bc
00000030: d929 e53b 06f6 80bd d05c 5a3d ba87 c9bc
00000040: f6d3 37bc 63ff 963d bad1 423d 40ab 50bd
00000050: 9d83 913c 60c7 80bd d1a2 74bd dd54 76bd
00000060: f422 08bd 6fa6 afbd 0b63 29bd 9c92 073d
00000070: afad 1f3d 5e38 103d df45 523d bf98 353d
00000080: 966e 5dbd c75a 15bd 110c a63d d638 15bd
00000090: 9142 263c b190 763c 15c5 a43d 5c65 aa3d
000000a0: 629e 26bd 77e3 7fbb ca44 82bd e018 6abd
000000b0: 2bbc c13c 378f 8cbd 3ae6 9f3a 3a8b 3f3d
000000c0: 0553 8fbd fa5b 60bd b495 dc3c 29ba 5c3d
000000d0: 7ea9 a33d b0ed 043d f0ab d4bc 0ab8 503d
000000e0: 9549 913d 56e7 183d 4fc5 3fbb 3a36 adbd
000000f0: 85b0 31bd de2e cc3c 2a81 ad3c 5f8e 31bd
00000100: e867 8cbd 5c32 443d 5a9d 0d3d c245 373d
00000110: b5e8 983d f93c c33c 0967 f33a ab19 233d
00000120: 1a91 653d 7df5 faba d98f 583d 52b7 a0bd
00000130: 10cf 903d 560e ca3c 99ed 643c 3bfa 283d
00000140: a705 5f3d 21af 27bc 6ae8 ce3a 62a1 b23d
00000150: b33e 7c3c 83f2 8c3d cb51 843d a01e 003d
00000160: 3852 fabc 1feb b13c 4409 903d c37e a5bc
00000170: 4b62 283d 6b5b ccbc b57b c1ba e1cc e5bb
00000180: a8d3 03bd 517a 8e3d ec4e 4f3d a534 94bc
00000190: 1656 2c3c 30a0 8ebd d88d 0ebd b3da 5f3d
000001a0: ac3d 7dbd d0ce 1fbd 072c 4dbd 186a 8dbd
000001b0: 9c60 95bd 21a9 833d 834a 933d c05e 42bd
000001c0: 57ac 4f3d b727 1dbd bd59 983d 3fee 403d
000001d0: 802f 2cbd 4b50 313d b523 7e3d bae0 c2bb
000001e0: 80d3 e3bc b26c 433d f450 1f3d a39d 8d3d
000001f0: e51c 55bd 559c 85bd 751d 4e3d 3e15 08bd
00000200: 2cc7 19bd 9159 3f3d c4a9 573d 9679 43bd
00000210: 7775 03bd 7a2e 883d bb6b 953d b331 80bd
00000220: aab8 75bd a109 553b 9cdc b2bc 5df5 1abc
00000230: 7c19 36bb 0c37 303d a960 01bd 14ce f93b
00000240: eaf4 8ebc 69bb d1bb e303 7bbc cca4 83bc
00000250: 5005 25bd 898d 1fbd 18ae 643c 6ad2 cbbc
00000260: ed7d 74bd a47b 2bbc 13a0 2ebd 3d32 663d
00000270: 58d7 c93c 4191 863d 3322 f73c 0c48 153d
00000280: 45a5 4cbd 782a 50bd 09cd 97bb bd2e 043d
00000290: 880c b8bc 9632 ddbb b9b9 a73d c78a ddbc
000002a0: 49ff 8d3c bb6e ab3d 7e8c 713d 93a7 11bd
000002b0: ae38 93bc 3bf4 2dbc 8cff 9fbc 0aed 913d
000002c0: 8ed7 81bd 00f8 933b d449 9fbd b4e2 31bd
000002d0: 8d2b 353d fe94 a4bc a615 653a 7994 debc
000002e0: b68f 693d 485d c5bc 55da d0bb 8bed 2bbd
000002f0: 4590 193b 828d 5fbd 8681 acbc cfaa 543d
00000300: 1a1b a0bd 29d9 57bd 2d7f b23c 0920 a4bb
00000310: 173b 943d 7645 fa3c 4ba6 95bd 99cd 033d
00000320: 7030 983b 5139 893d d10e 6a3d 6c47 c1bc
00000330: 9cda 87ba 6993 8abd 1c7f 3b3d 8f7b 98bd
00000340: ef3a 863d 4b7d 0b3d 15da 2ebb 1c0a 3c3d
00000350: 099f 933d 380a 963d f13d 1e3d 25e5 113a
00000360: 43d6 82bd 0081 7e3d 3200 a33c 8997 943d
00000370: 2edd 45bd f0f3 443d a071 8e3d ea39 c7ba
00000380: 9ba1 f1bc bc6e 09bc 8739 0e3d 0ef7 3fbd
00000390: 9f83 0ebd 7088 f9ba 346a e6bb 8dd7 823d
000003a0: b476 60bd 86a2 f63c 4b7c 86bd 73ad 1c3d
000003b0: 0a65 983c 093f cebc de1a 4a3d 2c8e 89bd
000003c0: 07c5 183b 09e7 953d 0b31 813b 4002 37bd
000003d0: 38a7 92bd ae8b 183d 0013 e73c 5ee5 fabc
000003e0: 6747 63bd 761b 8f3d d757 f83c 6c62 f93b
000003f0: 95b5 62bd c7d5 0abc bd32 6d3d 9e09 1cbd
0.07492921 0.056567185 -0.052630316 -0.064545244 0.015594846 0.03950272 -0.015139595 -0.04204932
-0.07455194 -0.008375103 0.042987198 -0.008015352 0.006993514 -0.06296925 0.05331117 -0.024600852
-0.011219969 0.0737293 0.047563292 -0.050944567 0.017762953 -0.06288028 -0.059725586 -0.060139526
-0.03323646 -0.085766666 -0.04135422 0.033098802 0.038983997 0.035210006 0.051336166 0.044335123
-0.05406054 -0.036463525 0.0810777 -0.036431156 0.010147707 0.015049146 0.08045403 0.08320114
-0.04067839 -0.0039045492 -0.06360777 -0.05715263 0.023649296 -0.068632536 0.001219935 0.046763636
-0.069982566 -0.054775216 0.026926853 0.053888474 0.079913124 0.03245324 -0.025960892 0.050956763
0.07094113 0.037329994 -0.0029261892 -0.084576085 -0.043381233 0.024924692 0.021179754 -0.043348666
-0.06855756 0.04789959 0.03457389 0.04474426 0.0746626 0.023832785 0.0018570136 0.0398194
0.056046583 -0.0019146648 0.05287156 -0.078474656 0.07070744 0.024665039 0.013972663 0.041254263
0.05444875 -0.010234625 0.0015785818 0.087221876 0.015395808 0.06882193 0.06460913 0.031279206
-0.030556783 0.02171856 0.07033017 -0.020202046 0.041109364 -0.024945935 -0.0014761599 -0.007012949
-0.032184273 0.06956924 0.050612375 -0.01809151 0.010518571 -0.06964147 -0.03480324 0.054651927
-0.061826393 -0.03901559 -0.050090816 -0.069050014 -0.072938174 0.06428743 0.07191946 -0.047453642
0.050701465 -0.038367953 0.07438991 0.04710221 -0.042037487 0.043289464 0.06204577 -0.0059471997
-0.027810812 0.04771108 0.038895562 0.069148324 -0.05202951 -0.065239586 0.05032106 -0.033223383
-0.03754346 0.046716277 0.052652135 -0.047723375 -0.032094445 0.0664949 0.072959386 -0.062594794
-0.059990562 0.003250696 -0.02183371 -0.009457913 -0.0027786186 0.043021247 -0.031586323 0.0076234434
-0.017450769 -0.006400515 -0.015320751 -0.016069792 -0.04028827 -0.038953338 0.013957523 -0.024880607
-0.059690405 -0.01046649 -0.042633127 0.056200255 0.024638817 0.06570674 0.030167675 0.036445662
-0.0499623 -0.05082175 -0.0046325964 0.032271136 -0.022466913 -0.006750415 0.08189721 -0.027043713
0.017333644 0.083707295 0.058971874 -0.0355602 -0.017971363 -0.010617311 -0.019531034 0.0712529
-0.06339942 0.004515648 -0.077777535 -0.04342909 0.044230986 -0.020090576 0.00087388826 -0.027170407
0.05702182 -0.024092332 -0.0063736835 -0.041974586 0.0023431939 -0.05457831 -0.021057855 0.05192071
-0.07817669 -0.052697334 0.021789158 -0.0050087017 0.07237833 0.0305507 -0.073071085 0.032178495
0.004644446 0.06700385 0.057143036 -0.023593627 -0.0010364833 -0.067663975 0.045775518 -0.07445442
0.065542094 0.034055036 -0.002668028 0.04590808 0.07208068 0.07326168 0.03863329 0.0005565456
-0.063885234 0.062134743 0.019897554 0.072554655 -0.048306637 0.0480842 0.06955266 -0.0015199755
-0.029496005 -0.008388218 0.03472283 -0.04686647 -0.034793492 -0.0019037854 -0.0070317034 0.06388769
-0.054800704 0.030106794 -0.06566676 0.03825135 0.018602867 -0.025176542 0.04934203 -0.0671657
0.0023310797 0.07319457 0.003942614 -0.04467988 -0.07160801 0.037242584 0.028207302 -0.030626949
-0.055488016 0.0698766 0.030315323 0.0076106098 -0.05534895 -0.00847382 0.057909716 -0.03809511

psi.0.bias f4 [128]
00000000: b7a2 7a3d 6fae ab3d 5178 3bbd 2dee 23bc
00000010: 15cf 173d 8a8b d9ba 886e 683d 5558 3f3d
00000020: 5b6b a43d d029 a5bc 1235 303c 8c50 e53c
00000030: bf43 6cbd c317 78bd 9fc6 8f3d 0ba5 703b
00000040: eb33 69bd d63c 253d 6507 95bd 44ae 6ebd
00000050: b270 f73b b55a 28bd c891 53bb 9887 86bc
00000060: a0d3 f8bc c596 50bd 6f39 843c 4e1f 433b
00000070: e48c c3bc 48cc 943c 9295 a7bd 0b6e 75bd
00000080: e2ad c2bb 159c 413d 507f 923d f524 7e3d
00000090: bcb2 543d 1f8d 91bd 3798 d03c 6eb3 81bd
000000a0: ea96 f1bc 6c10 953d e25d 943a 6757 0cbd
000000b0: 9061 6cbd 7626 4c3d 7ed6 88bd 2641 763d
000000c0: c7c9 2a3d bbf7 043d 58aa 4d3c 31fe f6bc
000000d0: f3c6 9c3c 5ad4 6d3d 8a86 80bd 2340 6b3d
000000e0: e6b2 3abd c4e3 0e3d a249 953b 6616 56bd
000000f0: b297 88bd 2153 0b3d 63bf b3bb eb7a 6c3d
00000100: 436f 783d 363e 783d ec5f b53c 1438 bc3c
00000110: 3344 7fbd 8cbb bcbc 4887 643d 5e6a ad3d
00000120: be1e 7c3d afee 793d 4ba6 93bc aa9c 2cbc
00000130: 223f 18bc c2c9 f43b b0b7 0cbd 9587 8d3d
00000140: 62bf 343c a453 75bd 90e9 853d e936 20bd
00000150: e234 bf3c 7d15 3abc 1fc0 4f3d a3b4 6e3d
00000160: 54e7 b93b cb45 1e3c 8389 6d3b ada3 313d
00000170: 40be 71bd 8ab0 5ebc 0fba 91bd 293f 573a
00000180: 6ab7 353d 30f4 e63c 5a29 5d3d 1b31 4c3c
00000190: eecf 94bb ce2b 8bbb d1e3 6b3d 36fd 20bd
000001a0: 7909 8dbd 6e7f e83c a773 6dbd 172e 893d
000001b0: fd4a 88bd a19b 70bd 5ec8 1a3d 5fe4 163c
000001c0: 4a0d 593d 504a 05ba 35e3 7c3d d30a 08bd
000001d0: 8df3 96bc 0b9b 77bd 1bf6 5a3d 7a38 64bc
000001e0: fd5b 3b3d 672a 86bd baf0 303d abd3 903d
000001f0: 36b1 a43d 00a0 83bd ed4e 423d d68c 353c
0.061190333 0.0838288 -0.04576904 -0.010005516 0.037062723 -0.0016597372 0.056746036 0.0467151
0.08028289 -0.02016154 0.01075484 0.02799251 -0.057681795 -0.060569536 0.07020306 0.0036719467
-0.05693428 0.04034122 -0.07276801 -0.05827166 0.007551276 -0.04110213 -0.0032282937 -0.016422078
-0.030374348 -0.050925035 0.016140668 0.0029773298 -0.023870893 0.018163815 -0.08182825 -0.0599194
-0.0059411386 0.047267992 0.07153189 0.062046964 0.051928267 -0.07106995 0.025463207 -0.063330516
-0.029490907 0.07278523 0.0011319483 -0.03426304 -0.05771023 0.049841367 -0.06681536 0.060120724
0.041696336 0.032462817 0.01255282 -0.030150505 0.019137835 0.058063842 -0.06275661 0.057434212
-0.045580767 0.034885183 0.004555897 -0.052267455 -0.066695586 0.034014825 -0.0054854616 0.05773441
0.060652982 0.060606204 0.022140466 0.022975959 -0.0623209 -0.023038648 0.055793077 0.084675536
0.061552756 0.061018642 -0.01802363 -0.0105353985 -0.009292396 0.0074703405 -0.034354866 0.06910626
0.011031957 -0.05989422 0.06538689 -0.039114866 0.023340646 -0.011357662 0.05072033 0.058277737
0.0056733284 0.009660195 0.0036245293 0.043368984 -0.059019327 -0.013591895 -0.07115566 0.0008211011
0.04436437 0.02819261 0.053994514 0.0124628795 -0.0045413887 -0.0042471653 0.05759031 -0.03930398
-0.068865724 0.028381076 -0.057971623 0.06698244 -0.06654928 -0.05874217 0.03778874 0.009209721
0.05299119 -0.0005084621 0.06174012 -0.033213448 -0.018426681 -0.060450595 0.05345736 -0.013929481
0.045742024 -0.06551056 0.043198325 0.070716225 0.08041613 -0.06427002 0.04743855 0.011080941

psi.2.weight f4 [64, 128]
00000000: 2ef8 533d 779a 18bd df34 f33c ea3f 3a3d
00000010: 525d 163c 20a9 733c 080a ef3c 7756 6fbd
00000020: b83f b03c 796e f7bc 3643 823d e114 cebc
00000030: afc6 79bd d314 86bd 277b 36bd 28b6 5ebc
00000040: d075 04bd 510b 8fbd 8fe4 003d 3c90 61bd
00000050: d0fc 07bd d2bb f1bc a2e0 833d 15a1 3bbd
00000060: 93e6 b53c 1e39 ba3d 31a9 a8bd 0f03 99bd
00000070: 2f03 bbbd 7e48 63bd cc5d 81bd e676 8b3d
00000080: 48ac c1bd 81e5 febc 6104 7e3c 03ea 4fbd
00000090: 3fa3 153d 04e0 5bbd 8c69 4c3d 2a6f 51bc
000000a0: 7ae0 50bd 9877 473d 5fdc 9b3c c0b4 413c
000000b0: 69c4 023d 19f6 23bd befa 9a3d d911 a63d
000000c0: 367e 06bc 8ebd aa3d 0a21 483d 0e41 803d
000000d0: d682 b23d 582d 90bd 2ce5 ebbc 4881 37bd
000000e0: 5a87 22bb 912d 893d 9cb4 8a3d 648e ca3b
000000f0: 8940 343d 39d8 923d 12c3 aa3d 3f0e 833d
00000100: 30e9 813d 8981 a7bd 7d40 6cbd a71c 9e3d
00000110: 33ac e33c 8e7b 943d 8ff2 b1bc 716c 753d
00000120: eeb2 6abd 62b5 f7bc 1a16 193d bde7 583d
00000130: e3d5 8a3d 0afa 393d 435a 303d 3077 ecbc
00000140: 773f 2e3d 824a d93c 52e2 913d a4e8 5f3d
00000150: 6270 8cbd 54dc f13c 5527 9e3c 8324 e83b
00000160: 9a9e 923c 0025 a43d 50b5 c8bc bb3d c13c
00000170: fb24 183d cf2c 81bd 42a1 f4bc 5095 8fbc
00000180: a056 86bd 4da5 963d 91ed 8d3d f785 00bd
00000190: 0ea4 aa3d 2ed3 bebc 33d5 84bd 9406 84bc
000001a0: 280f 8cbd b5ab bb3c a030 a83d b579 c23c
000001b0: 0208 ad3d c1ad bcbd d133 703d 7f75 123d
000001c0: f8f5 70bb 0a0b 923d 6310 95bd b4bc 813d
000001d0: 6ad2 6a3d 08f3 703c 3392 74bc 4701 913d
000001e0: 864d 343d 2848 a83d faef 273b 3357 b2bb
000001f0: 20ce 623d 7a55 61bd 5a6a 683c c117 1a3d
00000200: 82b4 a73b 66be 5b3d d593 24bd ff41 a93d
00000210: c1cb b0bd 125b 513c 1f7f b0bd 4f48 9bbd
00000220: d423 333d d06b 71bd 512e 023d 479c 8a3d
00000230: cce6 e8bc e993 00bd fc3d a43d 598e 5d3d
00000240: 24ad 0bbc e8c9 403d 20ca b63d 7a53 4bbd
00000250: 4315 87bd 7645 2abd 4791 a8bc 06cd aa3d
00000260: 0572 c33b 4816 d0bc 4231 8d3d 87dc f93c
00000270: 8c1b bd3d b04c 3f3d 3d22 95bc 7640 37bd
00000280: 929f 85bd 65d6 663d 6209 2e3d 730f 003d
00000290: db0f 9d3d d5f8 20bd 3e25 053d acd2 9bbb
000002a0: a9c5 923d 6057 67bd 5f6e b93d cf04 babd
000002b0: c108 41bd 8e1c a5bc 2529 9fbd 0869 4f3d
000002c0: 0ddb a5bd 4865 9fbd 6b5d 8bbd 651b ac3d
000002d0: c7e8 4b3d 1647 2cbd 7746 ec3c 47ac 93bd
000002e0: 8aa3 883d 63ab 623d 1b91 473d ee31 f7bc
000002f0: f518 a4bd cff3 a63d 0964 fcbc 4a6c e1bc
00000300: d16f 5e3d 8f6d 3b3d 0f5f a4bd 0acf 9c3d
00000310: 9241 9dbd c46b a1bd a786 a03b c274 9fbd
00000320: 505b 2d3d 42e2 43bd a94a 83bd 9f52 a5bd
00000330: 0285 5abb 5813 66bd e934 323d 9989 6bbd
00000340: c52a 3dbd e98f 8b3d 8283 cabc 7137 9abd
00000350: 7966 2f3d 2756 f9bc 456d 98bd fff5 963c
00000360: afbe a33d 8c12 e9bc 9690 8c3d 9ff3 35bb
00000370: c70f d43c ccf9 a53d 776a c63d 1e7f 13bd
00000380: f848 8d3d e990 87bd 9c0c 853d 9648 bd3c
00000390: 85be 0bbd e17d 853d 3981 69bc 0155 9d3d
000003a0: 8611 a2bd f7fe 6c3d 2139 023d 1770 2ebc
000003b0: 7337 0bbd 4960 5fbc e973 d7bb 4ca3 3c3d
000003c0: 883a 63bd 4058 febc b25e 04bd da86 893c
000003d0: 8d2f 5fbd c48a 7dbd b02a 90bd ca56 81bd
000003e0: dd57 89bd 8bc3 583d 052d 123b bcda 213c
000003f0: 421d 373d b227 6b3d a68d babc 9b89 9ebb
0.051750354 -0.037256684 0.029688297 0.04547111 0.009177523 0.0148718655 0.029179588 -0.05843207
0.021514758 -0.030204045 0.06360476 -0.02515644 -0.060980495 -0.06546941 -0.04455104 -0.013593234
-0.032338917 -0.0698458 0.03146797 -0.055069193 -0.033200085 -0.029508505 0.0643933 -0.045807917
0.022204673 0.090929255 -0.08235396 -0.074712865 -0.091314666 -0.055489056 -0.063167185 0.068097875
-0.09456688 -0.031115295 0.015503974 -0.05076028 0.036532637 -0.053680435 0.049905345 -0.012782851
-0.050995328 0.048698038 0.01902598 0.011822879 0.031925593 -0.04002962 0.075673565 0.08108873
-0.008208802 0.08336936 0.048859634 0.06262408 0.08716361 -0.07039899 -0.028795801 -0.044801027
-0.0024799914 0.06698144 0.0677273 0.006181525 0.044006858 0.071701474 0.08337988 0.063992016
0.06343305 -0.08179004 -0.05767869 0.07720309 0.027792072 0.07250129 -0.021722106 0.05991787
-0.057299547 -0.030237857 0.037374593 0.052955378 0.06779077 0.04540447 0.04305483 -0.028865427
0.042540994 0.026524786 0.07123245 0.054665223 -0.06857373 0.029524006 0.019305864 0.0070844307
0.017897893 0.0801487 -0.024500519 0.023589006 0.037144642 -0.06307375 -0.02986205 -0.017527252
-0.06559491 0.07355747 0.06930078 -0.03137776 0.08332072 -0.023294058 -0.06485977 -0.016116418
-0.06838828 0.022909025 0.082123995 0.023739675 0.08448793 -0.092128284 0.058643166 0.035756584
-0.0036767703 0.07131012 -0.07278516 0.063348204 0.057329573 0.014706381 -0.014927435 0.07080322
0.044019245 0.08216888 0.0025625215 -0.005442524 0.055372357 -0.055013157 0.014185512 0.03762031
0.0051179538 0.053648375 -0.040180046 0.08264541 -0.08632613 0.0127780605 -0.086179964 -0.07582151
0.04373534 -0.05894071 0.031782452 0.06768089 -0.028430365 -0.031391058 0.08019635 0.05409083
-0.008525167 0.047067553 0.08925271 -0.049640156 -0.06595852 -0.04157015 -0.020577086 0.08339886
0.00596452 -0.02540125 0.06894161 0.030500663 0.0923377 0.046703994 -0.018204803 -0.04473921
-0.06524576 0.056356806 0.042489417 0.031264734 0.0766904 -0.039299805 0.03250622 -0.0047553387
0.07166607 -0.05647981 0.09054255 -0.090829484 -0.04712749 -0.020155217 -0.077715196 0.050637275
-0.08098421 -0.0778299 -0.068049274 0.084036626 0.04978254 -0.04205998 0.028842194 -0.07210594
0.066718176 0.05533923 0.048722368 -0.030175176 -0.08012573 0.081519715 -0.03080942 -0.027517457
0.054305855 0.04575878 -0.080259435 0.07656677 -0.07678522 -0.07881883 0.0048988643 -0.07785942
0.04232341 -0.0478232 -0.06410725 -0.08072399 -0.003334344 -0.05617079 0.04350749 -0.05750427
-0.046183366 0.06814558 -0.024720911 -0.07530106 0.042822335 -0.030436588 -0.074427165 0.018427847
0.079953544 -0.028451227 0.06863515 -0.0027763618 0.02588643 0.081042856 0.09688275 -0.0360099
0.06898683 -0.06619436 0.06496546 0.0231059 -0.03411724 0.0651815 -0.0142520005 0.07682229
-0.079134986 0.05786034 0.031792764 -0.0106468415 -0.033988427 -0.013633796 -0.006575097 0.04605417
-0.05547574 -0.03104794 -0.03231687 0.016787935 -0.054488707 -0.061899915 -0.07039392 -0.06315382
-0.06706212 0.05292086 0.0022304666 0.0098788105 0.044705637 0.057410903 -0.022772621 -0.004838181

psi.2.bias f4 [64]
00000000: e93c 53bd 0056 aabd a622 12bd 402d ae3c
00000010: 6aee 493d 6ecc 933d 1bd0 963d 170d c03b
00000020: ac47 a4bd 4e00 53bd 2e8b 4f3c c7da 343d
00000030: 332c 83bd d87f 7e3d 689f 0dbb e435 843d
00000040: 842d 05bc 10e5 fb3c af23 fb3c 6a0f 5cbd
00000050: 6abd a83d e914 4bbd d4f9 913c 663c 8cbc
00000060: c994 56bd fd51 8abc 292a 963c c231 ea39
00000070: a801 a3bd 24fa 883d c6d6 71bd 5a36 333b
00000080: 59a8 44bd f90f a9bc 500b 503d 17cc b4bd
00000090: 01e4 02bd 11fc 363d 95f4 07bd 33ca 493d
000000a0: b963 363d 415d af3d 1628 d4bc d171 88bd
000000b0: 0adb 6b3d 3bcc e8bc adf6 3fbd 0956 523d
000000c0: 8c5e 413d a073 02bb d227 d53c 9126 28bd
000000d0: 00bb 013d 10b2 76bc e801 9b3c c37a 393b
000000e0: 4100 0cbd 9384 463d 9669 433d 2c3b 9fbd
000000f0: 57f6 493c aace 64bc 24b4 96bc 0e1a 9a3d
-0.05157176 -0.083171844 -0.035677575 0.021261811 0.049299635 0.07216726 0.07363912 0.0058609354
-0.08021483 -0.051513962 0.01266746 0.044153955 -0.06404915 0.06213364 -0.0021609906 0.06455591
-0.008128528 0.030748874 0.030656664 -0.053725637 0.08239253 -0.04958049 0.017819323 -0.017118644
-0.052387986 -0.016884798 0.01833065 0.0004466903 -0.079593 0.066883355 -0.059042715 0.0027345628
-0.04801211 -0.0206375 0.05079204 -0.088279895 -0.031955723 0.044673983 -0.033192236 0.049265098
0.044528697 0.08562709 -0.02589802 -0.06662334 0.05758194 -0.028417697 -0.046866108 0.05135158
0.047209308 -0.0019905344 0.026019964 -0.041052405 0.031672478 -0.015057102 0.018921807 0.0028301931
-0.03417993 0.048466276 0.047708116 -0.07774958 0.012326798 -0.013965288 -0.018396445 0.07524501

psi.4.weight f4 [2, 64]
00000000: ceb7 c33d 34dd c3bd cc83 e1bd dc47 d8bd
00000010: 3a49 ad3c 093b f6bd a805 923d 8573 67bc
00000020: 1e48 57bd 4ebf 203d 888d db3d fb19 92bd
00000030: d27f a8ba c794 ae3d 3d27 d93d 8b21 d9bc
00000040: e86b 173d 76e1 a63d 335b d53d 0f4d bb3b
00000050: f4ae b53d 0b1d d83d 35cc 433c 9f6d 20bd
00000060: 0a1f 37bc b894 87bd d199 863c 7eec f53d
00000070: 7253 f63d f626 433c 483c 783d 1a02 abbd
00000080: 5ede bf3d 8d14 cfbc e679 3dbd 35e6 91bc
00000090: 4524 2c3d 00d8 903d 5908 1cbc 79fc c93b
000000a0: 99b2 ce3c e77b 5e3d fbd1 60bd ac87 ba3c
000000b0: 6ae9 04bd 3549 76bb 372c b93b 028d 9f3d
000000c0: 4d3c ed3d 7374 a1bd 415a c03d 111a e3bc
000000d0: 845b a0bd 0d22 b63d 370c 943d 18b0 86bd
000000e0: be3e f33d 4a38 c63c 4aa0 4d3d 8971 b13d
000000f0: 905a e83d 3d2a 22bd bcbe 6abd 646c 2e3d
00000100: 6749 eebd 670e a7bd 26c1 01bd b29b ffbd
00000110: 29aa 27bc 771a 263b f167 d03d 8c3e 63bd
00000120: 0213 f6bc 5c5f d83d 79e2 1bbd 518a e7bc
00000130: 7811 ad3c cb2b dbbd 2e6e 8b3d 4419 5dbd
00000140: 2989 bbbc f0dd 2dbc 360e dbbc 5da0 a93c
00000150: 03d0 563c 5a50 2f3d 218f c53c c730 8bbd
00000160: 5010 a93d 142b 8cbd 902f e0bd 35e5 c8bb
00000170: 68eb 243d 16d0 fbba 1adb bbbc 6cb6 84bd
00000180: 2fe6 473d 952a 82bd 1868 e2bc fa45 a53d
00000190: aca9 cc3d 8b49 02be 900b ae3d 8fde dd3d
000001a0: 73f6 a73d aed4 82bd 34f6 bdbd 8936 56bd
000001b0: 7d31 fe3b 9a71 e43d d800 553c a035 24bd
000001c0: 1488 f23d 6ed1 fabc 4e71 0a3b 773a fdbc
000001d0: 6d47 d93d 6824 4e3d 2fc5 b33c 1187 ba3d
000001e0: 573f a03d e415 e7bd bd10 8bbc 6564 38bd
000001f0: cba2 393d 90b0 8dbd 0bd1 c63c a416 cd3d
0.09556542 -0.095636755 -0.110114664 -0.10560581 0.021153081 -0.12022979 0.07129985 -0.014126663
-0.05255901 0.039244942 0.10720354 -0.07133862 -0.0012855476 0.08524471 0.10603187 -0.026505252
0.03696814 0.08148472 0.104177855 0.005715973 0.0887126 0.105524145 0.011950542 -0.039167043
-0.011176834 -0.06620163 0.016430767 0.12007998 0.12027635 0.0119111445 0.060604364 -0.0835001
0.09368585 -0.025278354 -0.04625883 -0.017809967 0.042026777 0.07072449 -0.009523475 0.0061641303
0.025231646 0.05431738 -0.054887753 0.022769772 -0.032449163 -0.0037580256 0.005651023 0.07790567
0.11583767 -0.07883539 0.093922146 -0.02772239 -0.07829955 0.088932134 0.07228892 -0.06576556
0.118772015 0.024196763 0.05020169 0.08664233 0.113453984 -0.039591063 -0.057310805 0.042583838
-0.11635094 -0.08157044 -0.03167834 -0.124808684 -0.01023344 0.0025345364 0.10176075 -0.05547957
-0.03003836 0.10565063 -0.038057778 -0.028264197 0.021126494 -0.10701712 0.068081245 -0.053979173
-0.022892551 -0.010611996 -0.026740175 0.02070635 0.013111117 0.04280124 0.0241161 -0.06796413
0.082550645 -0.06844154 -0.10946572 -0.006130839 0.040263563 -0.0019211795 -0.022931624 -0.06480107
0.048803505 -0.06355778 -0.027637526 0.080699876 0.099933 -0.12723367 0.08498299 0.10833465
0.08201303 -0.06388222 -0.09275475 -0.052298103 0.0077573643 0.1115448 0.013000689 -0.040090203
0.11842361 -0.030617442 0.0021124664 -0.030911667 0.106093265 0.05032769 0.02194461 0.09107793
0.07824581 -0.11283472 -0.016975755 -0.04501762 0.045321267 -0.06918442 0.024269601 0.10014084

psi.4.bias f4 [2]
00000000: 055f c53d ff38 f2bd
0.09637264 -0.118272774

exp_avg f4 [8, 1, 2]
00000000: ec8a d035 21de 74b5 cd7a 2b35 3d40 56b5
00000010: a22e 89b4 4389 ad35 a058 6832 79d3 9534
00000020: f5df dbb5 1c12 8eb1 b5e1 c534 4c60 2135
00000030: bdeb 2335 4f35 dc34 9fec 11b4 db5d 20b5
1.5537639e-06 -9.1220323e-07 6.388116e-07 -7.981469e-07 -2.5552168e-07 1.2929453e-06 1.3524328e-08 2.790728e-07
-1.6381952e-06 -4.1348027e-09 3.6858333e-07 6.0117304e-07 6.1065276e-07 4.101698e-07 -1.359026e-07 -5.974122e-07

exp_avg_sq f4 [8, 1, 2]
00000000: 02d7 3d38 2b2f f238 5648 d738 0ed9 2d37
00000010: 83bc 9838 06d7 8237 fc8d f437 3c8e a138
00000020: 4426 ad38 c637 4238 9a64 6a38 3f75 5f37
00000030: 17d9 5237 0500 0337 77b1 b136 ddd1 9336
4.5261353e-05 0.00011548245 0.000102654725 1.03621405e-05 7.283038e-05 1.5597336e-05 2.9153183e-05 7.7035715e-05
8.2564104e-05 4.6305147e-05 5.588364e-05 1.3319134e-05 1.2567521e-05 7.808213e-06 5.2956707e-06 4.4053727e-06

exp_avg f4 [8]
00000000: c21a 3234 eb54 0735 2dbc 17b3 b644 03b3
00000010: 8d1c 8ab5 272e 5834 b7cd 7b34 26b9 ec32
1.6587276e-07 5.041499e-07 -3.5328572e-08 -3.0563307e-08 -1.0290111e-06 2.0133358e-07 2.3451035e-07 2.7558212e-08

exp_avg_sq f4 [8]
00000000: a4bd 4c38 6c2a 2a39 366d 6638 4895 0237
00000010: e137 9938 9a3c 8638 5ed0 5239 15a6 3037
4.8814007e-05 0.00016228267 5.4937984e-05 7.783361e-06 7.306017e-05 6.400906e-05 0.00020104783 1.05290865e-05
