lightning_logs/version_7/checkpoints/epoch=1-step=199.ckpt (torch, 398738 bytes, 48 tensors)

lattice_net.0.weight f4 [8, 1, 2]
00000000: 2f51 293f 5289 fabe 28e0 24bf fff7 f53e
00000010: e5dd c2be 16fe efbe 1893 c2be d54d fbbe
00000020: ee8c f73e 94e4 6ebe e314 063d 6339 03bf
00000030: 982e 113f c2be 7a3e 731a 873e cc8d 6e3e
0.661395 -0.48932892 -0.64404535 0.48040769 -0.38059917 -0.4687354 -0.3800285 -0.4908282
0.48349708 -0.23329383 0.032734763 -0.5125944 0.5671172 0.24486831 0.26387367 0.23296279

lattice_net.0.bias f4 [8]
00000000: 9653 c33c e969 bc3e f8b7 babe e3b0 aebe
00000010: 3478 b7be 8cb2 de3e bcac 0fbf df7a 2a3f
0.023843568 0.36799553 -0.36468482 -0.3411933 -0.35833895 0.43495595 -0.56122947 0.66593736

lattice_net.2.weight f4 [16, 8, 2]
00000000: 661f 153e 7500 50bc 73b3 18be eddc 7bbe
00000010: 8509 00be 8e87 4ebe 872f 683e d5a1 053e
00000020: 8394 083e bed9 d9bd 0fe6 763e 0688 863d
00000030: 3bfb a8bd 31a1 1c3d 2f5d 593d 8ec9 1d3e
00000040: bd84 403e 7039 44be a036 283e 09a4 c6bd
00000050: ada6 a8bd 5099 633e 3798 b63d eb9a 403d
00000060: a76e 02be 4afd 56bd c7b1 2a3d 816d 663e
00000070: 2d9e 4cbe a2cb 6c3d ae5d 793e 3690 48bd
00000080: 8936 deba 5cff 55be bb46 63be f5b6 bebd
00000090: a827 7c3e fdac 3b3e 3a2f 3d3d 1025 a1bd
000000a0: 4e1d d1bd ce9c 1a3d 7223 1a3d 5ca9 763e
000000b0: f0f7 743e 0d15 233e 4220 50be b949 363e
000000c0: aa99 563e 9b3d 0d3e 2ea7 7d3e 77eb 313e
000000d0: ce84 e1bd a1a6 ad3d 9368 75bc fd47 c03d
000000e0: b5fb 743d 31c8 ef3b e335 66be e093 89bd
000000f0: 076f da3c a328 4c3e 3f75 5f3d 0c5f 3dbe
00000100: f0fe 31bc 391d 403e c47d 36bd 36cc d4bd
00000110: cd99 483e 84c6 253e 3c1e 33be ffc7 39be
00000120: 167c 0f3e bee8 233e 4eca 203e a17f f93d
00000130: 2e42 4a3e c4c9 3e3d 44db 753e 9e89 353e
00000140: aecd 33bd 2d83 c4bc c2d2 04be 929a 493e
00000150: 16da 6fbe 71d7 7e3e 5f0f f33a b8b0 653e
00000160: b996 63be 30f7 c1bd 3de4 1d3e c893 393e
00000170: 916f e73d bf6c 133c d9cf 3cbe 9cfc 5839
00000180: 7537 1dbe 20f9 c83d 6178 3abd bc09 df3d
00000190: 4966 0c3e a587 74bd 227a 203e 7e9b 2c3e
000001a0: 3eb7 e93d c79c b53d 94f1 3fbe 4c4b 71be
000001b0: f4e8 253e dee3 1dbe d8fc f9bc 94d3 403d
000001c0: f10d 603e 22c6 efbd f4ab 4ebd 4e00 c0bd
000001d0: 0e64 393e 1684 4f3d bd1e 4c3e b218 3bbe
000001e0: d48d f0bd 4923 653e 4ce3 733e d235 b63d
000001f0: 59b8 053e 2384 59be 62c7 0a3e 7161 7d3d
00000200: f4f0 b5bd 0805 f13c 70b9 ee3d 7b94 b43d
00000210: 8c79 03be 0812 74bd 92ee d13c 7f98 2c3b
00000220: 6750 92bd 4fe0 f0bd c60e 253e 4365 15bc
00000230: 7c6b 34be 5cee 0fbe e03a 033e 13c9 0d3d
00000240: 4406 953c ce4e cf3d e606 30be 94b7 fb3c
00000250: 42e8 663e cbb4 b7bd 701e fd3c 4173 63be
00000260: b8bb 14be 88d3 07be a03f a0bd cfbb dabd
00000270: d0da 9c3d bff8 0f3e 2eff 113e 37b8 323e
00000280: efa3 393e 029e 6abe f3bd e53d af87 453e
00000290: 233c bebd 3eb2 d83d 2fa8 1f3d f384 e6bd
000002a0: abb6 3d3e 8a53 33be 5c07 463d 118b e93d
000002b0: a1f2 4ebe e25d 54be 202a 503e 8781 cb3d
000002c0: 4248 62be 6ca3 6cbe 6ce4 743e d7d9 173d
000002d0: b401 48be d95b 523e a3ca af3d ed34 babd
000002e0: e63f bc3d e180 47be b116 423e 0120 883d
000002f0: 3c80 283e 285c 6e3e 6672 0bbc a3ec fabd
00000300: b48f 013e 58a4 4bbe 17ca 77be e05c 8c3d
00000310: 29de 70be 2e72 32be b7a9 95bc 096a eb3a
00000320: a734 07be ca26 6fbe 4197 0f3e 3fe9 1cbe
00000330: ff33 0dbd 0c11 10be 97cd 313e d0b0 07bd
00000340: 61a3 f6bd 014f 22bd a444 c73d 96ab 063e
00000350: 9c56 64bc 067d df3d f384 003e 58e6 babd
00000360: 1f0f 663e f553 2cbe c94c 633e 389f 5abe
00000370: d128 19be 51c7 41be e9f6 533e 514f 50be
00000380: 8ff2 19bd 3af6 e33c 505b 3abe fdab 693e
00000390: 46ab 083c 32b0 c13d a979 6d3b 3a8b 32be
000003a0: d384 743e 5f52 4cbd 4f12 6abe 76dd 5e3e
000003b0: 77f8 f73c 9ddb 28be b1a6 e1bd 86e6 093e
000003c0: 1f8c 483e 00b1 9cbd cb57 87bd a584 5dbe
000003d0: 63be 483e 3e01 e9bd f3b8 08be cb33 6ebe
000003e0: 0797 193e c73a 23bc 6aa4 073e d618 023e
000003f0: 89b2 6b3e 393e 06be d3fb ad3d a73c 68be
0.14562759 -0.012695421 -0.14912204 -0.24595995 -0.12503631 -0.20168898 0.2267438 0.13050015
0.13337903 -0.10637234 0.24111198 0.06568913 -0.082510434 0.03823966 0.053067382 0.15408918
0.18800636 -0.19162536 0.16427088 -0.09699256 -0.08234916 0.22226453 0.089157514 0.04702274
-0.12737523 -0.05248765 0.041673448 0.2250271 -0.19982214 0.057811387 0.24352142 -0.048965655
-0.0016953509 -0.20898193 -0.2219495 -0.0931224 0.24624503 0.18327709 0.046187617 -0.07868397
-0.102106676 0.037747197 0.03763146 0.24088043 0.23922706 0.15925999 -0.20324805 0.1780156
0.20957056 0.13793032 0.24770805 0.17374979 -0.110116586 0.084790476 -0.014978546 0.09388731
0.05981036 0.007317566 -0.22481494 -0.06717658 0.02666427 0.19937377 0.054555174 -0.18493289
-0.0108640045 0.18761148 -0.044553533 -0.10390513 0.1958992 0.16189009 -0.17492002 -0.18142699
0.14012179 0.16006753 0.15702173 0.121825464 0.19751808 0.046579137 0.24009424 0.17728278
-0.043897323 -0.02398833 -0.12971023 0.1968787 -0.23423037 0.24886872 0.001854401 0.22430694
-0.22225465 -0.094709754 0.15419097 0.1812278 0.113005765 0.008998095 -0.18438663 0.0002069347
-0.15353186 0.09813142 -0.04552496 0.108905286 0.13710894 -0.059699673 0.1567159 0.1685619
0.11411904 0.088677935 -0.18744498 -0.2356388 0.16202146 -0.15418956 -0.030516073 0.047076777
0.21880318 -0.11707713 -0.050456956 -0.09375058 0.18104574 0.050663076 0.199336 -0.1827114
-0.117458016 0.22376741 0.23817176 0.08896984 0.13058604 -0.21241812 0.13552621 0.061860505
-0.08883849 0.029421344 0.11656463 0.08817383 -0.12839335 -0.05958751 0.025626455 0.0026336012
-0.07144242 -0.117615335 0.16118917 -0.009118381 -0.17619127 -0.1405577 0.12815428 0.034615587
0.018191464 0.10122453 -0.17190132 0.030727185 0.22549537 -0.089700304 0.030898303 -0.22211935
-0.14524734 -0.13264287 -0.078246355 -0.10680353 0.07658923 0.14059733 0.142575 0.17453085
0.18128942 -0.22911838 0.112178706 0.1929004 -0.09288814 0.10580872 0.03897875 -0.11255827
0.18526714 -0.17512336 0.048346862 0.11403478 -0.20209743 -0.20738938 0.2032857 0.09936815
-0.22097877 -0.23109215 0.23915261 0.037072983 -0.195319 0.2054285 0.08583572 -0.09092126
0.09191875 -0.19482757 0.18953969 0.06646729 0.16455168 0.23277342 -0.008511161 -0.12252166
0.12652475 -0.19886911 -0.24198185 0.06853652 -0.23522247 -0.17426369 -0.018269403 0.0017960678
-0.13203679 -0.2335464 0.14022543 -0.15323351 -0.034473415 -0.14069003 0.17363583 -0.033127606
-0.12042881 -0.039626125 0.09729889 0.13151392 -0.013936665 0.10912518 0.12550716 -0.09125966
0.22466706 -0.16828902 0.2219726 -0.213498 -0.14956976 -0.1892369 0.20699657 -0.20342757
-0.037584838 0.02782737 -0.18198895 0.22819515 0.008341616 0.09457435 0.0036235845 -0.17435923
0.23878793 -0.049883243 -0.22858547 0.21764168 0.030269844 -0.16490026 -0.11018122 0.13466844
0.19584702 -0.076509476 -0.06608542 -0.21632631 0.19603877 -0.1137719 -0.13351803 -0.23261945
0.14999019 -0.009962744 0.13246313 0.12704787 0.23017325 -0.13109674 0.08495297 -0.22679387

lattice_net.2.bias f4 [16]
00000000: 03ea 0dbe e1c1 a5bd 925c 36be bb7a 473e
00000010: c312 83bd 3a0e 633e 0701 ab3d 122b aebd
00000020: d745 74be 1721 f93d 4cea c43c 4291 393e
00000030: df7f b5bd a7bd 32be 1d11 143c fe6b 3a3e
-0.138588 -0.0809362 -0.1780875 0.19480412 -0.06400063 0.22173396 0.08349805 -0.08504309
-0.23854767 0.121645145 0.024037503 0.18121818 -0.0886228 -0.17455159 0.009037283 0.18205258

tNN.0.weight f4 [16, 2]
00000000: 2884 e4be b3b6 ef3d 3210 263e d1cf 643d
00000010: 2783 a6bd 6b8f c4bd 0e86 51bc 0278 a73e
00000020: 41eb b53e 7a9c ea3e f03e 90be 565e 1ebe
00000030: 4f04 74bd 2e91 be3e 4125 143f 67e8 dd3e
00000040: 282c 983e 5734 1bbf 2311 a8be aba9 0bbf
00000050: 815b 1dbf 1042 323f 7d0e 3ebd 43f6 cbbd
00000060: e79e 0c3f 7a7e 04be 2434 8dbe 06fb ab3e
00000070: 9df4 11bb efa9 153b 866e 053f d8b0 6abe
-0.44632077 0.11704769 0.16217116 0.05586225 -0.08130484 -0.09597667 -0.012788309 0.32708746
0.35531047 0.45822507 -0.28173018 -0.15465674 -0.05957442 0.37220138 0.57869345 0.4334137
0.2972119 -0.6062674 -0.32825574 -0.5455577 -0.6146775 0.69632053 -0.046400536 -0.0995908
0.54929966 -0.12938872 -0.27578843 0.33589953 -0.0022271045 0.0022836884 0.5212177 -0.22919023

tNN.0.bias f4 [16]
00000000: c587 0dbf e511 06bf 7835 14bd 6d5a 0c3f
00000010: 5d3a 053f 6b3d 2c3e 1e40 c33e cc33 b9be
00000020: c1b4 133f 3916 37be 3e82 273f f138 0cbe
00000030: ab81 903d 2574 b3be 5a9c 1d3f f4ec eebe
-0.5528529 -0.52371055 -0.036183804 0.5482548 0.5204218 0.16820304 0.38134855 -0.3617233
0.57697684 -0.17879571 0.6543311 -0.13693596 0.07055982 -0.3504955 0.615667 -0.46665156

tNN.2.weight f4 [32, 16]
00000000: a1e1 2ebd 1065 a4bd 5582 d7bd d2f4 413e
00000010: d11c 7abd f396 3abe 37cf 74be 8104 6fbe
00000020: 61d4 853d 920c 44be 77a2 5abd 9312 793e
00000030: 58d8 d33d 4f12 4bbe 62fa 033d 1bef b1bc
00000040: 384e 753e 32a0 2c3e c134 46bd 4ffa c03d
00000050: 975e d4bc fd53 4b3e dd10 24be db1e a93d
00000060: 17ff 7d3e 1b8e 63bd 6ab9 023e f263 133e
00000070: f80c c13d 89e9 5a3e 008e 7cbc 7a22 15be
00000080: 6a10 18be d7c6 453e 7dce 673e 0fa7 48be
00000090: 2ed7 49be 6a52 2a3d 7975 36bd 6766 a03d
000000a0: 0933 49be 48a0 dbb9 dd1a a23b 6d67 423d
000000b0: 34d1 153e 16a6 003e 45a8 5f3e fd66 63be
000000c0: 2fa7 7abb 49e8 303e 99a1 10be 6bc1 f2bd
000000d0: 7e42 e6bb 36b6 ea3c bbc4 0cbe 9c8f 2bbb
000000e0: 2ae9 e2bb 1b7c 81bc 9bc5 333e f501 d2bd
000000f0: 4d50 53be ecee ea3d a9c8 b73d 6420 893d
00000100: 78ff 76be 071a 4dbe 7df1 073e 58a3 6e3e
00000110: fef6 283e ed5e 40be 9496 893d 2e85 69be
00000120: f2c2 713e f615 13be 1d7e 63bd 7eb6 b73b
00000130: 1e6e ddbc a551 d7bc 6f53 d4bd b8a1 21be
00000140: 894d e53d 8209 e0bd d6c6 7fbe ebfe 54be
00000150: a33c 42be 68cc 3abe 3c45 0f3d 8e60 033e
00000160: 69d0 bd3d db59 743e 8244 933d 512d 153e
00000170: 21de efbd d3fc 4c3e dff9 a03d c43f 583e
00000180: 1ab8 c7bc 68fc 28be de60 00bc 848f 47be
00000190: 5f3b 0d3e d1be 2abe dc7e 733e 2826 10be
000001a0: e6bb 6d3d 3907 e83d 7a44 69bd f72a c73d
000001b0: fc09 c83d 967e e33c 79cf 1bbe 6410 00be
000001c0: 8f8f b33d 09d0 44be 3b14 81be 48bc 87bd
000001d0: 1919 06be 5d50 2d3e e71a c93c dec0 0a3d
000001e0: f1af 1bbe 5ffe 093e 45dd 0e3e 69fc 52bb
000001f0: a96c cabd badc 4ebe 105e 59bd a156 04be
00000200: d9d3 5b3e 30bf 283d 0b01 64be 948e 083e
00000210: 56ba 1bbe 40d4 5f3e 9d7d 05be 89ed 63be
00000220: 09bb 0abe 2334 35be 0f0c 183e e657 003d
00000230: 3b76 19bd 01a7 6bbe efbc 643c 415b 85bd
00000240: 2cc1 ffbc 3eb9 1d3e 8149 d7bd 4baa 713e
00000250: ea6d 003e ee75 09be 8e53 413e a16b 523d
00000260: 644b 64bd 6c59 203d 04d2 8d3d 694c 7e3e
00000270: d1ff e5bd 3139 3e3e 6c2f 643b 2910 55be
00000280: 5ecf 7a3e 8525 e6bd f57a d23d c363 9c3c
00000290: 4904 a0bd 6053 cf3d 585b 1bbe e6c4 7d3e
000002a0: 25e0 b9bd ef96 6abd f40b 7fbe 46e6 693e
000002b0: 1031 56bc 00a0 6f3e 2971 5a3d 350b 4fbe
000002c0: e428 20ba 2acd 7d3e fe92 49bd 1fef 9e3d
000002d0: b912 593e e40b 27be 2aaa c73d a867 4d3d
000002e0: 012f 043d 7666 72be eade f3bd 05e7 8cbd
000002f0: 64c1 643e 2959 53bd 3b44 753e 0bed 8d3d
00000300: b544 423c bfe6 23be de8b 69be 7e8c 95bd
00000310: 79e9 a23c 3070 ba3d 4cd2 85bd fb9c 61bb
00000320: 37c7 b9bd 4d72 65bd 9fa8 ba3d aac0 28be
00000330: 5e13 f53d 5c7d 823e 8c27 99bd 74f0 f0bd
00000340: 986c b7bd 78e6 673e 1006 37bc 59e2 193d
00000350: 487b 803d da6f 003e 4e0c 0f3e bfd8 763e
00000360: eb30 713e a115 f93d cdfd 62bb 5566 533e
00000370: 21b7 673e d6f6 4a3e d693 333e 19fa 1abe
00000380: 02fd 303d 483e 153e 8e14 d5bd b3b1 60be
00000390: 5432 f1bd cea8 54be d837 54bc 19d0 3cbd
000003a0: 5778 6ebd dabe 21be 6bda 88bd ef55 b3bd
000003b0: a291 76be b3a2 653e f7a2 5abe 3f97 5b3e
000003c0: 3d89 68bc 40fb 743e 7393 1bbe 6b86 f43d
000003d0: 63e2 683e a910 733d 8a4c 7ebe a31b ce3d
000003e0: 1870 87bc b9e0 3dbe 6463 d8bc 3b2d 6cbe
000003f0: 58e1 26be f0b0 0f3e fb39 d3bc 8fbb 013e
-0.042695645 -0.08027089 -0.10522906 0.18941048 -0.061062638 -0.18221645 -0.23907171 -0.23341562
0.06534649 -0.1914542 -0.053377595 0.24323492 0.10343999 -0.19831203 0.032221206 -0.02172046
0.2395562 0.16857985 -0.048390154 0.094227426 -0.02592401 0.19856258 -0.16022058 0.08257838
0.2480434 -0.055555444 0.12766042 0.14393595 0.09426302 0.21378149 -0.015414715 -0.14563933
-0.14850011 0.19314133 0.22637363 -0.19594978 -0.19710991 0.041582502 -0.044545624 0.07832032
-0.19648375 -0.00041890354 0.00494705 0.047461916 0.14630586 0.12563357 0.21841533 -0.22207256
-0.0038246622 0.1727611 -0.14124145 -0.11853298 -0.0070269695 0.028651338 -0.13746922 -0.0026178127
-0.006924768 -0.015806248 0.17555849 -0.102542795 -0.20636101 0.11471352 0.0897382 0.06695631
-0.24120891 -0.2002946 0.13275714 0.23304498 0.1650047 -0.18786211 0.067181736 -0.2280471
0.23609522 -0.14363846 -0.055540193 0.0056064716 -0.027030047 -0.026284048 -0.10367476 -0.15784347
0.11196429 -0.109393135 -0.24978194 -0.20800368 -0.18968444 -0.18242037 0.034978136 0.12829801
0.09268267 0.23862402 0.07190801 0.14568068 -0.117122896 0.2001832 0.07860159 0.21118075
-0.024379779 -0.16502535 -0.007835595 -0.1948834 0.1379218 -0.16674353 0.23778862 -0.14077055
0.058040522 0.113295026 -0.05695007 0.09724992 0.09767529 0.027770322 -0.15215863 -0.12506253
0.08767616 -0.19219984 -0.25210747 -0.06627709 -0.13095511 0.16925187 0.02454896 0.03387534
-0.15203835 0.13475941 0.13951595 -0.0032193905 -0.098840065 -0.20201388 -0.05306822 -0.12923671
0.21467532 0.041197956 -0.22266023 0.13335639 -0.152078 0.2185831 -0.13036199 -0.22258581
-0.13547911 -0.1769567 0.1484835 0.031333826 -0.03746627 -0.23012926 0.013961061 -0.06511546
-0.031220041 0.15402696 -0.10512067 0.23600118 0.12541929 -0.13423893 0.1887953 0.051372174
-0.05573596 0.03914778 0.06924823 0.24833836 -0.11230434 0.18576504 0.0034818305 -0.20806946
0.24493167 -0.11237625 0.102773584 0.019090539 -0.07813317 0.101233244 -0.15171564 0.24782142
-0.09075955 -0.057272848 -0.24906904 0.22841749 -0.013073221 0.23400879 0.053330574 -0.20219119
-0.0006109609 0.24785295 -0.04921245 0.077604525 0.21198548 -0.1631313 0.09749253 0.050147682
0.03227139 -0.23671898 -0.11907752 -0.06880001 0.22339398 -0.0515987 0.23951809 0.06929978
0.011857201 -0.16005991 -0.22807261 -0.073021874 0.019886719 0.09103429 -0.065342516 -0.0034425843
-0.090712 -0.05601721 0.09114193 -0.16479746 0.119665846 0.25486267 -0.07478246 -0.11764613
-0.089562595 0.2264651 -0.011170879 0.037569378 0.06273514 0.12542668 0.13969538 0.2410612
0.23553817 0.121623285 -0.003463614 0.20644505 0.22628452 0.19820723 0.17536864 -0.15134467
0.043210037 0.1457454 -0.10404311 -0.21942787 -0.117771775 -0.20767519 -0.012952767 -0.046096895
-0.058220234 -0.1579546 -0.06682285 -0.08756625 -0.24078992 0.22425346 -0.21351229 0.21444415
-0.014192876 0.2392397 -0.15192966 0.11939701 0.2274261 0.05934206 -0.24833885 0.10063865
-0.016532943 -0.18542756 -0.02641458 -0.23064129 -0.162969 0.1403234 -0.025784483 0.12669204

tNN.2.bias f4 [32]
00000000: 50ab 663e b82c 6d3e 068e d5bc a2e0 783e
00000010: aef3 6ebd 19ea a3bd 2b0c 64be 131d a2bd
00000020: bf29 e2bc 9d39 39be 3d4b ba3d 9510 573d
00000030: 8c39 b53d ec2c 86bd 3f8d 683e 5df3 493a
00000040: 9f2b c33d 9971 aa3d c32d 58be e725 c5bd
00000050: 24e5 833c 08ac 713e 492a e7bd a6c2 b9bc
00000060: fdc3 873d b3cb d73d 74e2 5bbe 71c1 6fbe
00000070: ac06 303e 7ebc 443e 0e15 7fbe a703 c8bd
0.22526288 0.2316159 -0.026068699 0.2430444 -0.05833786 -0.08003635 -0.22270267 -0.07915702
-0.027607797 -0.18088384 0.09096382 0.05250605 0.08848867 -0.06551537 0.22710131 0.00077038055
0.095298044 0.08322448 -0.21111207 -0.0962637 0.016100474 0.23600781 -0.11287362 -0.022675823
0.06629179 0.105368994 -0.21473104 -0.23413636 0.17190045 0.19212529 -0.24910375 -0.09766322

tNN.4.weight f4 [64, 32]
00000000: d553 2bbe 5096 253d d26d 3e3c d572 053e
00000010: 245b 09be 4b4f 683d 7e60 443d 9496 33be
00000020: 5fcb f13c 23b4 c1bd c7da f3bd f2c0 d4bd
00000030: 3195 a6bd 39c3 cebc 579e deba b4e3 bb3c
00000040: 1808 f53d db37 37bd b419 123e 27f3 a33c
00000050: 5f78 27be 2df4 18be 4d8f ad3c a622 ddbd
00000060: e2f8 d73d 88d4 063e f077 323e 4f72 283e
00000070: 8463 2e3e 5bbd a9bd 7355 2a3e 84f3 30be
00000080: bf80 963d 8b8d 29bd 965f 81bd 4944 dfbd
00000090: e59c 11be f4ec a9bd 93d0 043e 6bb7 433d
000000a0: f61d dfbd da3a 4c3d 1c93 913c 01ee 893c
000000b0: 106f 3b3d d468 5e3c 36ae 86bd fa83 e2bd
000000c0: 2327 f03d 1a99 203d dc39 973c e760 bd3d
000000d0: f1d4 c33d 317d 8d3a 4351 bdbd 1824 923a
000000e0: 9351 9f3d 36fb 823b 5b43 b33d 0d96 febc
000000f0: 53f6 f53d b37e dc3d c6eb 1bbe cce1 ffbd
00000100: cfcc 2cbe 7638 4abd abda 063d 4c3c 1dbe
00000110: 5b7c aabd b158 acbd b406 efbc affd a1bd
00000120: 7cbd a2bd 5521 b73d ed23 07be 816a 013e
00000130: 00bb 2c3e b761 2a3e 8d8e 3fbd d70f 19be
00000140: fa5d d5bd 3e4d 22be ac3e 043d 6c51 c73d
00000150: cb45 f53b 4b9d e23d 01bf dcbd 6d2c 363d
00000160: 3c63 c63d 7c7f d2bd 394f 0d3e d461 fc3d
00000170: ded2 48bc 8f6a f0bd 0d31 da3d 03a3 063e
00000180: b455 35bd 0bba 1fbe 321c d5bd 9ad6 dc3d
00000190: 23bc 4dbd 831d b6bb 339e 2e3c 688c f43d
000001a0: 33eb 9dbd 73b3 00bd 0a4d f9bd f160 073e
000001b0: 8091 da3d e6a5 1a3e 8f35 17be a851 023e
000001c0: 3843 e23d a0ce 213e 1ddf 1abe 29b0 1dbe
000001d0: aa0d 753d 1e14 0e3d 668e 24be 1d2d 9fbd
000001e0: 62a5 fbbc e10b f33d 11c9 983d cc43 643d
000001f0: b037 eabc 5f45 0ebe 3e57 543d 5878 25be
00000200: c776 99bc 127a ccbd 1a0e 04be fbdb 2abd
00000210: 80fd 323e 6528 263e b53a 30be 6c0e 093e
00000220: 69b6 003e be7b 473b e6d4 84bc 2dc6 6f3d
00000230: 16c0 1fba 42a6 2bbe da0e 19bd 0113 34bd
00000240: 2585 d7bb 8af5 cabd 37ce 3a3d f408 8eba
00000250: 783f 8dbd 5793 a2bd 8cab 203c 0c65 0bbd
00000260: faaf 5abc ae6a 063e c33e eb3d b6df 00be
00000270: 3db4 193e 603b 313e a96d 1abe 1e28 f43d
00000280: 184b bbbd 88c5 13be c9af 2b3e 0e0e 69bd
00000290: 1942 123e dac1 35bd a970 c13d 1822 6a3d
000002a0: 6c70 37bd d9b8 63bd b6ec fe3d 5838 22be
000002b0: 5327 223e b5cf 8dbd d1d5 3d3c 7281 233e
000002c0: 8c87 3f3c b065 123d 6527 053e ca9d 09be
000002d0: bc07 1fbe b662 a4bd 205c bebd 945a 093d
000002e0: 95fc 913d 674c 27be ae1c 2cbe f304 21be
000002f0: dd3d b6bd b810 0c3e f4cc 0bbe 1a38 a23d
00000300: 4adb 13be 48a6 dbbd 0ead 28bc e69e d5bd
00000310: 8e36 30be a733 253e 4d9e d53d 11fd 2a3e
00000320: 091f c43d c6a6 e53d a2c0 58bd 5e9f 0abe
00000330: 37db 1a3e a3f9 643c f60d b8bd 9cc5 c2bc
00000340: 0b51 edbc a546 b8bd 284c 783d c821 cabd
00000350: 4972 9cbc 515f 6fbd add4 293e 823a c7bd
00000360: 93b3 af3c 2a7a 97bd 94d4 70bd 5357 1f3e
00000370: d57e 8fbd 83de 1d3e 8997 29be 7f7f c63d
00000380: 94fb 3abc 388d 903c 2173 963d 3fbf 13bd
00000390: 9e3c 0cbd 2a62 da3d bf72 fa3d a209 0d3e
000003a0: 31bb fabd 93fb 323e 36ec 293e ab05 f5bd
000003b0: fbce 353e dded 93bd e5b3 39bc 8901 fd3d
000003c0: 2702 cabd 4bd2 3fbe 701f 053e 2f51 933d
000003d0: 87f4 b9bc 42fd 23be 37b3 a7bd 3368 28be
000003e0: 0f02 81bc 616c 07be 48ab 443d 8839 d33d
000003f0: d56c c83d f4f4 1fbe 9a23 d8bd f6c1 953d
-0.16731198 0.040426552 0.011622863 0.13032086 -0.13413674 0.056716245 0.047943585 -0.1753791
0.02951592 -0.094581865 -0.11906963 -0.10388364 -0.08133925 -0.025239574 -0.0016984445 0.022935726
0.119644344 -0.044731002 0.14267617 0.020013405 -0.16354512 -0.14936896 0.021186495 -0.10797624
0.105455175 0.13167012 0.17428565 0.16449855 0.1703015 -0.0828807 0.16634159 -0.17280394
0.07348775 -0.04139475 -0.0631706 -0.10901696 -0.14220007 -0.08297148 0.1297019 0.047782343
-0.108943865 0.049860813 0.017770343 0.016837122 0.045760214 0.013574798 -0.06576197 -0.11060329
0.11726215 0.03920851 0.018460207 0.09246998 0.095621 0.0010794756 -0.09244015 0.0011149673
0.07779231 0.003997232 0.087530814 -0.03107741 0.12009873 0.107663535 -0.15226659 -0.12494239
-0.16875003 -0.04937025 0.03292338 -0.15355033 -0.083245 -0.08415354 -0.029178001 -0.079097144
-0.079462975 0.089419045 -0.13197298 0.12638284 0.1686821 0.16638838 -0.046766806 -0.14947449
-0.10418315 -0.15849778 0.03228633 0.09732327 0.0074851266 0.110651575 -0.107786186 0.04447596
0.09686896 -0.10278222 0.13799752 0.12323347 -0.012257306 -0.117390744 0.10653887 0.13148122
-0.044271186 -0.15598314 -0.104057685 0.107831195 -0.05022825 -0.0055577173 0.010657835 0.11940843
-0.07710876 -0.031421136 -0.12172897 0.13220574 0.10672283 0.15102348 -0.14766525 0.12726462
0.11047977 0.15801477 -0.15124173 -0.15399231 0.059827484 0.034687154 -0.16069946 -0.077722766
-0.03071851 0.118675 0.074602254 0.05572872 -0.028591007 -0.1389365 0.051841013 -0.16159189
-0.018733395 -0.099842206 -0.12896004 -0.041713696 0.17479515 0.16226347 -0.17209895 0.13384408
0.12569584 0.0030438746 -0.0162148 0.058538605 -0.00060939917 -0.16762641 -0.03736768 -0.043963436
-0.0065771514 -0.09910114 0.045606818 -0.0010836408 -0.06896871 -0.07938259 0.009806525 -0.034031913
-0.01334762 0.13126633 0.1148658 -0.12585339 0.15010162 0.17307806 -0.15080895 0.11921714
-0.09145182 -0.14430821 0.16766275 -0.05689817 0.14283027 -0.044374324 0.09445316 0.05716142
-0.04478495 -0.055596206 0.12447493 -0.15841806 0.15835313 -0.069243826 0.011586622 0.15967348
0.011690032 0.035741508 0.13003309 -0.13439098 -0.15530294 -0.0802664 -0.09294915 0.033533648
0.07128254 -0.16337739 -0.16807815 -0.15724544 -0.08898518 0.13678253 -0.13652402 0.07920857
-0.14439121 -0.10725075 -0.010295166 -0.10430698 -0.17208311 0.16132985 0.10430584 0.166981
0.09576232 0.1121345 -0.052918084 -0.13537356 0.15122686 0.013975534 -0.08987038 -0.023775868
-0.028969308 -0.089978494 0.060619503 -0.098697245 -0.019097464 -0.05844051 0.16585036 -0.09727956
0.021447932 -0.07396348 -0.05879648 0.15560655 -0.07006613 0.15416913 -0.16561712 0.09692287
-0.01141252 0.017645463 0.07346178 -0.03607106 -0.034237497 0.106632546 0.12228917 0.13773206
-0.12242735 0.1747878 0.16594014 -0.11963972 0.17754738 -0.07223103 -0.011334394 0.123538084
-0.09863692 -0.18732564 0.13000274 0.07193219 -0.022699608 -0.16014579 -0.081884794 -0.16445999
-0.015748052 -0.13224937 0.04801491 0.103137076 0.09786383 -0.15620786 -0.105536655 0.07312386

tNN.4.bias f4 [64]
00000000: 827c 23bd 9be0 4b3d cb56 f9bc ec22 123d
00000010: a194 83bd bb8d 4a3c e53c 73ba 6eff 523d
00000020: 0dd1 0bbc 94c2 603d 872a 28be e0a2 e0bd
00000030: 9d42 64bc 4872 65bc 82db 573d 9a9f 9b3c
00000040: 42fb e2bd 163f ecbd 4143 9cbd 445d 38bd
00000050: 8c1e f1bd af08 7bbc e793 0c3e fc96 12bc
00000060: 2d77 b3bd 3599 473d 8ad1 2d3d e13b c73d
00000070: 5b8a 94bd 0c0c 123e 2d6e 143e 4113 0b3e
00000080: 4159 b1bd f83c 17be b1d3 a13d 3f87 19bd
00000090: a26b 893d 5c84 2dbe 1e0d c4bb 8439 92bc
000000a0: c572 af3d 7450 17be 4fc5 143d 967e 083e
000000b0: de2a 5dbc c56d c1bd a846 25be 8620 d13d
000000c0: c6b6 b23d e7e6 fbbd ba32 11be 3846 34bd
000000d0: 66ae 91bd 1887 0cbe da23 20be 0328 3ebd
000000e0: 18f9 ce3c fb6f 1fbe b820 08be ee05 90bd
000000f0: f4f8 56bc 7325 aabc cc58 6cbd c672 23be
-0.03991366 0.049774747 -0.030436894 0.035677835 -0.06424833 0.012362893 -0.00092787883 0.051513128
-0.008533728 0.054873064 -0.16422473 -0.10968566 -0.0139318975 -0.014004298 0.052699573 0.018997002
-0.1108308 -0.1153547 -0.07630015 -0.04501082 -0.117734045 -0.015321895 0.13728295 -0.00894713
-0.08762965 0.048730094 0.04243616 0.09728218 -0.07252952 0.14262408 0.14495154 0.13581564
-0.08659602 -0.14769351 0.07901705 -0.037482496 0.067099825 -0.16945022 -0.005983009 -0.017849691
0.085668124 -0.14776784 0.03632098 0.13329539 -0.01349899 -0.09444765 -0.16140234 0.102112815
0.087262675 -0.122999005 -0.14179507 -0.04401228 -0.07113342 -0.13723409 -0.15638676 -0.046424877
0.025265262 -0.15570061 -0.13293731 -0.07032381 -0.0131208785 -0.02076981 -0.05770187 -0.15961751

psi.0.weight f4 [128, 160]
00000000: 29b7 babc 6a29 a93d a0e6 283d 70a7 293d
00000010: edf9 303c 4779 d03c 4aa3 023d d34e 4bbd
00000020: d5a1 34bd 6ce7 a63b c125 5b3c 4b71 69bd
00000030: c122 5d3d 9a8e 473d f7a2 f5bc b7cb 3bbd
00000040: 8533 e73c 08c5 353d 86b5 823d 62c7 93bd
00000050: f435 d5bc 1037 a33b 830f cf3c 156f cebc
00000060: 6c78 a6bc f8c0 5b3d c1bf 88bd d9f6 1b3d
00000070: 3fb9 64bc f7b7 f23c 6339 93bd b313 783d
00000080: 6358 063c 5605 90bd bb10 733d 4430 203d
00000090: 1f85 8d3d 949f 0bbd e46e 29bd 58d3 86bd
000000a0: 5f84 613d eea0 4fbd 980b e03c cd70 1b3c
000000b0: 2e57 8dbd d5e3 283d cc92 053d 7bb5 ffbc
000000c0: b8fd 29bc ebbe 95bd 6ea7 98bd 9bca 6abd
000000d0: be07 963d 6566 89bd 8d26 413d 2d6e 1d3d
000000e0: 4fa5 85bd b22e 95bd 5590 47bd 17d5 cebb
000000f0: 0186 c838 b305 dbbb e6be 833d b692 a8bb
00000100: 667f e2bc b58e 8e3d fd10 6a3d ff5e 99bd
00000110: 59fd 9c3d 87c3 523d 151f 77bd 70cd 783d
00000120: cd93 833d e27b b33c d3ad 4dbc 8d48 443c
00000130: 5620 9f3d e847 84bd 8e19 64bd 2752 cc3c
00000140: 99a0 3fbd 575f 953d 56d3 95bd 7876 33bb
00000150: 2430 973d 2f02 833d 5fd7 473d d959 3fbd
00000160: b428 833c 1a6e 19bd 6752 293d 7149 2b3a
00000170: 224a 9ebd 2605 3a3d b863 42bd a4d6 823d
00000180: 0393 93bd 488c 5a3d 4958 163d 5743 a03d
00000190: a6cf 12bd 6aa1 92bd 59d6 2cbd 8c9e 683c
000001a0: 4a9c 6fbd 6836 c63b 76fb 853d 889c 993d
000001b0: 05cd 21bd d109 cf3b 0710 bfbc ed7c 30bd
000001c0: 1194 993d 7869 91bb fbbf 92bd 9853 02bc
000001d0: d90b eabc ff67 a53c ddb6 183b 5f48 86bd
000001e0: a76b 193d a7bf 133d 2d43 99bd 26e0 323d
000001f0: 30e4 4f3d 8909 f83b 3817 91bd 371f 033c
00000200: 230d ad3c b1e6 0e3d 2ea0 27bd c9db 04bd
00000210: 2c0f c7bc ffbd f43b d53f 0f3d 5336 903c
00000220: 3725 473d 34d5 023d 3d77 c43c 60e5 f3bb
00000230: c3ee 943c 8387 2ebd a785 1b3d 3382 6d3d
00000240: 6fac 0bbd ffc0 41bd 5e34 8c3c 6f96 63bd
00000250: 287d 613d 206d 7f3d 4e6d 30bd 4436 16bc
00000260: 951b 16bd 40cf 8f3d cfee 743d e867 11bd
00000270: 0179 393b 160e 323c b5c6 56bd 4636 f3bb
00000280: 5aba 653d f34a 47bd f4f3 833b 3ba7 ee3c
00000290: c430 153a 64c2 93bd 6850 1e3d 8fc5 33ba
000002a0: 70d4 623d 84d1 893c 0f4e 94bd f7eb 643d
000002b0: 563a c73c b527 1dbd 81ce 863d 2f95 c0ba
000002c0: 01be b7bb 69e6 673d b5a9 64bd 14be 063d
000002d0: e614 973d eebb 663c 0d8b 06bb e2d1 97bd
000002e0: d3c2 95bd 0be2 ddbb 41e5 44bd 8a19 27bd
000002f0: 4e9c 15bc 5c98 313d 422f 1e3d 39bd 86bd
00000300: 144e 72bc df6a 983d c052 943d f6bd 973d
00000310: f4f5 313d e0ac 19bd 3509 863d ee5d 9dbd
00000320: 012f 8c3d 3a18 8f3d 8fff a63c 1648 b63c
00000330: 1fce 51bd bc2b 063d 7964 e43c f478 7e3d
00000340: 3290 2abd 63ae 3abd 1477 d63c 1801 94bd
00000350: e521 323d 1d2f a13d 5b83 2d3c 928f 51bd
00000360: 8603 2a3d 63e4 5c3c 4733 953d a4a1 8c3d
00000370: 2ed1 afbb 6e8b 02bd 50c7 ce3a 8955 24bb
00000380: a3dc 173d 42ff 97bd e466 563d 01ce f03c
00000390: 8262 983d 6cd0 693d a749 eebc dbd2 8d3d
000003a0: d3dd 71bc 4fc3 7a3d 5039 7ebd c984 803d
000003b0: 519d 87bc 620b dcbc c3a5 4c3c 4fa6 0cbd
000003c0: a25e f5ba 07c1 96bd 4bcd 4bbd 30a8 eebc
000003d0: 76c0 e0bc 7821 b2bb 886e 6bbc 85ab 04bd
000003e0: a0f6 8dbd 3bd5 5abd b60a 8b3d 4d3b dabc
000003f0: b54c 2f3d 978c d43c 55f4 e63a 332f 8e3c
-0.022792416 0.08259852 0.041235566 0.041419446 0.010801774 0.025448455 0.031894006 -0.04963572
-0.044099648 0.0050935056 0.0133757 -0.05699281 0.053988222 0.04871998 -0.029984934 -0.045848574
0.028222809 0.044377357 0.06382279 -0.07215764 -0.026026703 0.004980929 0.025275951 -0.025199452
-0.020321093 0.053650826 -0.06677199 0.03807721 -0.013960182 0.029628737 -0.0718868 0.06056566
0.008199784 -0.07032268 0.059342127 0.03910853 0.069101565 -0.034087732 -0.04136552 -0.06583279
0.05505788 -0.050690584 0.027349278 0.009487343 -0.06901394 0.041232903 0.0326107 -0.031214466
-0.010375433 -0.07311805 -0.0745381 -0.057322126 0.073256955 -0.06708983 0.047155906 0.03843515
-0.06525671 -0.07284297 -0.04872163 -0.0063120234 9.561703e-05 -0.006684029 0.06432895 -0.0051444424
-0.027648639 0.06960813 0.057145108 -0.07488822 0.0766551 0.051456 -0.060332377 0.060742795
0.06424675 0.021909658 -0.01255365 0.011980188 0.077698395 -0.064590275 -0.055688433 0.024941517
-0.046784017 0.07293575 -0.073157 -0.0027383845 0.07382229 0.06396901 0.04878938 -0.046716545
0.01601062 -0.037458517 0.04133835 0.0006534076 -0.077289835 0.045415066 -0.04745838 0.06388596
-0.07205775 0.05335644 0.03670529 0.07825344 -0.03584256 -0.071596935 -0.042196605 0.014197957
-0.05849866 0.006048966 0.06542103 0.07500559 -0.039502162 0.006318309 -0.023323072 -0.04308789
0.074989446 -0.0044376217 -0.071655236 -0.007954501 -0.028570103 0.02019119 0.0023302354 -0.065567724
0.03745618 0.036071446 -0.07483516 0.043670796 0.050754726 0.007569496 -0.07084507 0.008003048
0.021124428 0.034887973 -0.040924244 -0.032436166 -0.024299227 0.0074689384 0.034972984 0.017604029
0.048619475 0.031941608 0.023982638 -0.007443115 0.018180257 -0.042609703 0.037969258 0.057985496
-0.034099992 -0.047303196 0.017114814 -0.055563387 0.055051 0.06235993 -0.04307299 -0.009168211
-0.036647398 0.07021952 0.059798058 -0.035499483 0.0028300884 0.010867616 -0.052435596 -0.0074222414
0.05608592 -0.04865546 0.004026884 0.029132476 0.00056911656 -0.072148114 0.0386509 -0.00068577466
0.055378377 0.016823538 -0.07241451 0.055889096 0.024319809 -0.038367946 0.06582356 -0.0014692898
-0.005607367 0.05661622 -0.055825908 0.032896116 0.07377033 0.014082892 -0.0020529658 -0.07413079
-0.073125504 -0.006771331 -0.048070196 -0.04079584 -0.009131504 0.04335819 0.038619287 -0.0657906
-0.014789123 0.07442259 0.07242346 0.07409279 0.04344745 -0.037518382 0.06544725 -0.07683931
0.06844903 0.06987043 0.020385532 0.02225117 -0.051221963 0.032756552 0.02787994 0.06212707
-0.04164142 -0.045576464 0.026179828 -0.07226771 0.043489356 0.07870314 0.0105904 -0.05116231
0.041507266 0.013482186 0.07285171 0.06866768 -0.0053655123 -0.03187125 0.0015775952 -0.0025075397
0.03707565 -0.074217334 0.052344218 0.029395105 0.07440664 0.057083532 -0.029087855 0.06924983
-0.01476236 0.061221417 -0.062066376 0.06275327 -0.016554506 -0.026860896 0.012490693 -0.03433829
-0.0018720219 -0.07361036 -0.04975633 -0.029132932 -0.027435523 -0.0054361187 -0.014369614 -0.032390136
-0.069318056 -0.05342601 0.06789152 -0.026639605 0.042797763 0.025945945 0.0017620424 0.01735649

psi.0.bias f4 [128]
00000000: 435c 45bd bbe8 7bbd 3f02 0abd 174c ce3c
00000010: 947e 843d be15 e6bc 2921 06bd 0a38 843d
00000020: f87f 313d df4e 0dbd 3636 4e3c 0c79 8fbd
00000030: 2d7e e9bc 6350 9a3d 6d76 593d c622 46bd
00000040: e3fc 5fbd e51d 7abd c594 a0bd 99b6 40bc
00000050: b7d5 24bd 53e9 713d 201d 25bc f639 54bc
00000060: 37fd 5c3c a426 8e3d 67a9 9e3d 265e 82bc
00000070: 71ba 6dbd a3ad 863c 101b 343d 402e 10bd
00000080: 72af 94bd 4b75 ddbc 333b 933c 3bcc ffbc
00000090: de98 36bd 3374 03bd 4a6d 8dbc cb95 89bd
000000a0: 8504 783d 5adf e3b7 792e ee3c ca80 623d
000000b0: 72cb 833d 6355 89bc 7fdf 3d3d d0a6 003d
000000c0: 4a0f 53bd ddba cdbc 8edc a3bc b3b1 423c
000000d0: 1226 923d c40d e9bc 884c 843d 9261 36bd
000000e0: 1642 c2bc 7552 93bd 41e7 333d 3c9b b83c
000000f0: a200 43bd 2330 4abd 14d6 993d ae38 023d
00000100: 53d5 283d d16c 91bd 199e 32bd 17db b73c
00000110: c0f3 4d3d a9a9 ff3c f04d f2bc b26d 66bc
00000120: b260 b63c 19dd 303d 2f6f 6c3c 9b15 4a3d
00000130: 7031 73bd 6bd3 12bc e05f 113c f1a8 82bd
00000140: 1181 133a 1174 83bd 0523 153d b363 7cbd
00000150: 713e 353c 8e0c 9d3d 1812 84bd 2e86 5f3b
00000160: 5148 6cbd bb79 96bb 3646 f13b dad8 95bd
00000170: af14 75bd 9d4c 47bc 87aa d13c 17b5 303d
00000180: c13a 9ebd 05e0 973c cca0 4fba 7db5 263d
00000190: f79d 543c 9e31 61bd 854f 16bc aacd 84bd
000001a0: 8fda 323d 3a87 a13d 5b4b 713b ac8c 0c3a
000001b0: 3624 c3bc e3bf 7ebd f366 303d 270c 3b3b
000001c0: d615 a2bc bf92 953d 80c2 8abd 1f0d d6bb
000001d0: ea03 2abd 94c8 29bd 2b9a 403d 2d08 823d
000001e0: fcef 98bd aacd 2cbd aea2 b73b 90d7 d3bb
000001f0: c304 44bd c3e6 9ebd 50da 3f3d 0d77 90bc
-0.04818369 -0.061501246 -0.03369355 0.025182767 0.06469455 -0.02808654 -0.032746468 0.06456001
0.04333493 -0.034499045 0.012586167 -0.0700551 -0.028502548 0.07534864 0.053091455 -0.048373006
-0.05468453 -0.061063666 -0.078408755 -0.011762285 -0.040242877 0.059060406 -0.010077745 -0.012953272
0.0134881055 0.06940964 0.07747155 -0.015914034 -0.058039133 0.016440218 0.04397112 -0.035200357
-0.07260026 -0.027033469 0.017972564 -0.031225314 -0.04457938 -0.032093238 -0.017264027 -0.06718024
0.060551185 -2.7164515e-05 0.029074894 0.055298604 0.064352885 -0.016764348 0.04635572 0.031409085
-0.051528253 -0.025113517 -0.02000263 0.011883187 0.071361676 -0.028448947 0.0645991 -0.044526644
-0.023713153 -0.07193462 0.043921713 0.022534959 -0.047608025 -0.049362313 0.07511535 0.031792335
0.041219067 -0.07100833 -0.043607805 0.022443337 0.050281286 0.03120883 -0.02957818 -0.014064239
0.022262905 0.043179605 0.014430805 0.04933701 -0.05937332 -0.008961539 0.008872956 -0.06379879
0.00056268374 -0.06418622 0.03641035 -0.061618518 0.0110622505 0.0766841 -0.064487636 0.0034107077
-0.057686154 -0.004592148 0.007363106 -0.07316752 -0.05983418 -0.012164262 0.02559401 0.04314145
-0.0772605 0.018539438 -0.0007920384 0.040700424 0.012977115 -0.05497896 -0.009174232 -0.0648454
0.043665465 0.078871205 0.0036818597 0.0005361538 -0.023820978 -0.062194716 0.04306693 0.002854118
-0.019785803 0.0730338 -0.06775379 -0.006532326 -0.04150764 -0.04145105 0.047022026 0.06349216
-0.074676484 -0.042188324 0.0056041097 -0.006464906 -0.047856104 -0.07758858 0.04683906 -0.017634893

psi.2.weight f4 [64, 128]
00000000: 7dd0 0e3d 3a03 6a3d 0cdb 95bd f1f9 85bc
00000010: f0e3 473d 7ebf 97bd 3e0a 05bd 2922 153d
00000020: 4871 34bd 88c6 79bd dda3 ae3d 22b8 0e3d
00000030: d88c 023d 7111 5fbd b179 953b 466c 263d
00000040: 7f07 93bd effa aabc 3d6a bb3c 1e3b 2e3d
00000050: f5d7 14bd a81a 023d b125 eb3c ad37 b03d
00000060: 978a a9bd 3d7b a0bd 9386 173d c5b5 163d
00000070: 4353 3fbd 1095 0bbd 3255 543c a1ae 78bb
00000080: 3cd1 883d 21ce 98bd 36c6 57bd 172c 113d
00000090: 23cb 6e3d dd5e 5ebb e4b4 b23d e562 25bd
000000a0: 2687 9bbb ef61 6dbc 8307 9dbd f712 b1bc
000000b0: a19b a2bb 93c5 813b 5541 d23c 8dc6 aabc
000000c0: 8cc2 923d b84f dd3c 2b20 edba e74a 993d
000000d0: 2ea2 a2bd c247 293d 406d 453d 3435 743d
000000e0: c06f 3bbd c5a4 08bd bd70 6a3d c4e3 c43b
000000f0: 786a 213d c1e9 853d 08f7 5abd 3cc9 10bd
00000100: 8156 1abd 8b0e a73d 92ac 9b3d 6514 8ebc
00000110: 4388 0fbd 785b 6ebd 1f44 6bbd a896 de3c
00000120: 2745 9dbd dd0a a13d eb05 183b 7e89 e33b
00000130: 3567 01bc 99a1 75bd 36b7 c83c 6edb 1abd
00000140: d550 a33c 893f 00bd 1a92 0a3d 9dc7 1fbd
00000150: 671f 98bd 547a 773d 9157 913d fa26 34bd
00000160: 1f87 4cbd 5535 663d 6742 8cbd a859 da3c
00000170: 6e2b a8bd f444 aebd 013a 4c3d a977 8e3d
00000180: 115d 743d 1cd4 0f3d 6a08 8e3b 723e 883d
00000190: 38ab 143c b00d 7c3d 6f68 c93c a992 b8bd
000001a0: bed8 4abd 33f6 d63c b991 7fbd db2d 7ebd
000001b0: b642 a8bd f872 033d f97d a83d b7f0 80bd
000001c0: 6749 bfbc 80fa 443d 41f5 a13d 99ca 813c
000001d0: 936b 7fbd 526b 003d 1721 673d 376f a63d
000001e0: 0726 573d 46bb 20bc e79b 0cbd 70ff d23c
000001f0: dfb4 b73d b127 83bc ab8e f03c bee8 9b3d
00000200: f4e5 9dbc 395c 783d 4d56 f83c 165f 993d
00000210: 62ed 473d 858b 91bd 7342 01bd ca61 a9bd
00000220: 27ff 17bb 502d 893d d7bf a43d c251 8ebd
00000230: c653 82bd 05dd 89bd e796 343d 43b6 9bbd
00000240: 689b 81bb a558 bebb e575 70bd 877a 43bd
00000250: d65a 7bbd ae10 0b3c c5e5 40bd 0b43 ae3d
00000260: bdd7 723d a7b2 0b3c 612e 883d b2c4 993d
00000270: ed0c 5dbd 1126 43bd 1184 913d e678 473d
00000280: 7e99 053d 2dde 17bd 3f54 db3c ae3c 47bd
00000290: 5345 dcba 69d5 743d 9d02 7ebc ed5f f43c
000002a0: e25a e63c b083 7d3d 7aa3 83bd 8395 813d
000002b0: a641 61bc 1dcc 9f3c 8268 bcbc 2262 91bd
000002c0: 9545 e0bc 7d50 c53c 5557 723d bd74 56bd
000002d0: 1f97 37bd ad16 4f3b 5a2c 003d 1a7d e7bc
000002e0: 2733 cbbc e0a8 563d 58fe 8bbc 9eaa 643d
000002f0: 52c7 8b3c 312c 2bbb a885 fa3c edda 93bc
00000300: 18ac c4bc 9b95 923d a83e 903d 433d 9c3c
00000310: e678 56bd c869 54ba 6436 54bd 2eb8 613d
00000320: bc39 4ebd e6c1 4dbd 6d8c 93bd 26b8 973d
00000330: eb3c acbc bfbe a2bd 6eb0 85bd ff1f 70bd
00000340: 9e25 79bd dcf9 85bc 709d 92bc f96d 4c3c
00000350: c21b 1cbd 58d1 abbd 2e4a fbbb a29d a0bd
00000360: 0a3c 4cbd 177e fb3c a9c4 4ebd f193 a33d
00000370: a7be 89bd 4814 fc3b 9549 9b3b 28c5 86bd
00000380: 2819 333d 038b 8d3d 8af6 a03c f082 963d
00000390: fcbc 813d b588 2cbc dc24 453d 78ef 3d3d
000003a0: 4108 563d fb72 993d a70a fb3c ae38 663d
000003b0: a759 423d c726 8ebd 6f93 49bc c4f7 82bd
000003c0: ca48 abbd e8b4 803d 78c6 a2bd 7cf0 963d
000003d0: b983 adbd 9bc5 dbbb 6791 12bc 3897 bcbc
000003e0: 1321 a3bc 1f00 993c 1de6 1abd cf66 aabd
000003f0: 343d 8fbc ce8b efbc b330 3a3d 9938 213d
0.0348668 0.057131983 -0.073171705 -0.016354533 0.048801363 -0.07409571 -0.03248047 0.03640953
-0.044053346 -0.06098035 0.08527348 0.03484357 0.0318726 -0.054459993 0.004561626 0.0406306
-0.07179164 -0.020871608 0.022877807 0.042536847 -0.036338765 0.031763703 0.028704496 0.08604369
-0.08278387 -0.07836006 0.036993574 0.036794443 -0.046710264 -0.034077704 0.012959765 -0.0037945884
0.06680533 -0.07461191 -0.052679263 0.035442438 0.058299195 -0.0033931055 0.087259084 -0.040377516
-0.0047463356 -0.014488681 -0.07667448 -0.021615488 -0.0049624 0.0039603203 0.025665918 -0.02084663
0.07166013 0.027015552 -0.0018091252 0.074849896 -0.079410896 0.0413282 0.048199892 0.05962105
-0.04576087 -0.03336026 0.05723642 0.006008597 0.039408177 0.06538726 -0.053458244 -0.035348162
-0.037680153 0.08157071 0.076012745 -0.01734371 -0.03504206 -0.0581927 -0.057438012 0.027171448
-0.076792054 0.078634 0.0023196887 0.0069438806 -0.007898142 -0.059968565 0.024501424 -0.03780692
0.019936005 -0.03131059 0.03383074 -0.039008725 -0.074278645 0.060419396 0.0709678 -0.043982483
-0.04993355 0.056203205 -0.06848603 0.02665408 -0.082114086 -0.085092455 0.049860004 0.06956417
0.059659068 0.035114393 0.004334499 0.066525355 0.009074025 0.06153649 0.02458593 -0.09012348
-0.049523108 0.026240444 -0.06239483 -0.06205545 -0.08215849 0.032092065 0.082271524 -0.06295913
-0.02335043 0.048090458 0.079081066 0.015843676 -0.06235845 0.03135235 0.05642804 0.08126681
0.0525265 -0.0098102745 -0.034328368 0.025756568 0.08970045 -0.016010137 0.029364904 0.076127514
-0.01927469 0.060634825 0.030314589 0.07488839 0.04881037 -0.07106689 -0.03155751 -0.08270605
-0.0023192854 0.06698096 0.08044403 -0.06949188 -0.06363635 -0.06731609 0.044089224 -0.07603123
-0.0039552934 -0.005808907 -0.058706183 -0.047724273 -0.061365925 0.0084878635 -0.047094125 0.08508881
0.059287775 0.008526481 0.06649471 0.0750822 -0.053967405 -0.047643725 0.07105268 0.048699282
0.032617085 -0.037077118 0.02677357 -0.048641853 -0.0016805328 0.059773836 -0.015503553 0.029830897
0.028119508 0.061893165 -0.06427665 0.06327345 -0.013748562 0.019506508 -0.022999052 -0.070987955
-0.02737693 0.024086231 0.059165318 -0.052357424 -0.044821855 0.003159921 0.031292297 -0.028257895
-0.024804665 0.052407146 -0.017089054 0.055826776 0.017062817 -0.002611887 0.03058131 -0.018048728
-0.024007842 0.07157441 0.07043201 0.01907218 -0.05236139 -0.0008102921 -0.051809683 0.055107288
-0.05034803 -0.050233744 -0.072045185 0.074081704 -0.021025142 -0.07946538 -0.06527792 -0.058624264
-0.06082689 -0.016354494 -0.017897338 0.012477391 -0.03811241 -0.083895385 -0.007668755 -0.07842566
-0.049861945 0.030699773 -0.05048052 0.07987202 -0.06725817 0.0076928474 0.0047389963 -0.06580573
0.043725163 0.0691128 0.019648809 0.07349193 0.06334874 -0.01053064 0.048130855 0.046370953
0.052253965 0.07492634 0.030644728 0.056206398 0.04744878 -0.0694099 -0.012303217 -0.06394914
-0.08363493 0.06284505 -0.07948011 0.073700875 -0.0847239 -0.006706906 -0.008945799 -0.023021325
-0.019913232 0.018676816 -0.03781711 -0.083203904 -0.017485239 -0.029241469 0.0454566 0.039360616

psi.2.bias f4 [64]
00000000: 6400 8abd d457 ad3c 0e36 a0bd 5ce7 8b3d
00000010: d972 813d a898 9a3d 2b9c 99bc 8efd 1cbd
00000020: 358a eabc 6abe 073c 8743 0abd 2d54 ae3d
00000030: b4c7 8fbc 14bb 353d e1d6 893d 25e1 a73d
00000040: 9ef0 203d 26a2 aebd 7024 04bd 6f0e 6e3d
00000050: 0d28 873c c810 0d3c 800e a1bd 2ccd c439
00000060: dda3 9cbd 8b6e 9d3d ac5e eb3c b541 223d
00000070: d161 c7bc a8ee 9e3d cceb 05bb 41be 85bd
00000080: 8283 b3bb e436 6fbd 51f8 583d 6faa 87bd
00000090: e63b 9b3d 94ee 613c be4c b43c f041 a4bd
000000a0: 4c18 4cbc c673 833c 34dc 8c3d 35dd 1e3c
000000b0: 0761 f83c c08f 25bd 54c5 afbb 14a6 163d
000000c0: 1a86 17bd 6429 a7bd 112f b03d b897 63bd
000000d0: 44bb 57bd 3adf 28bd f07c 503c 9ea4 9b3d
000000e0: 8ffe 97bd 15da 10bd 11e3 a53d 5712 ebbc
000000f0: 2a4c ab3c 3fa1 553c b91e 8d3d 814f b03d
-0.06738356 0.021160044 -0.0782281 0.06831238 0.063207336 0.07548648 -0.018751225 -0.038327746
-0.028630355 0.008285144 -0.033755805 0.08512149 -0.01755128 0.044367865 0.06730438 0.0819724
0.03929197 -0.08527021 -0.032261312 0.058119234 0.01649859 0.008609958 -0.07864094 0.00037536898
-0.07648442 0.076871 0.028731667 0.039613444 -0.024338635 0.07760364 -0.0020434735 -0.06530429
-0.0054783234 -0.058401957 0.052971188 -0.066243045 0.07579784 0.013789792 0.02200925 -0.08020389
-0.012456965 0.016046416 0.06877938 0.009696295 0.030319704 -0.040420294 -0.0053640995 0.03677948
-0.036993124 -0.081621915 0.08602727 -0.055564612 -0.052668825 -0.04122851 0.0127251 0.075997576
-0.074216 -0.03536423 0.0809995 -0.028695269 0.020910341 0.013038932 0.068906255 0.08608914

psi.4.weight f4 [2, 64]
00000000: 60f7 dc3d 8583 403d beb2 67bd c117 703a
00000010: f57d ddbd ba97 c33c 5381 bc3d 2d02 d7bd
00000020: 415b e2bd a4dd 0abd 4d20 4fbd 521d aabd
00000030: d397 82bd 6a85 cd3d 7ad5 c5bd 63ba 4bbc
00000040: a09d 683d 8366 86bc 1cf8 bdbd db40 63bc
00000050: 2b0f 9a3c ca7f 3a3d 2c46 203d 3c64 b8ba
00000060: a96d 72bc 9775 a63c 8112 acbc ec3b 1fbd
00000070: f082 99bd beae e23b 173e a8bc f7a9 be3d
00000080: f625 d53c ccc4 023d 82e6 aabd 701c 143d
00000090: 972d 80bc 7cd1 b53d 997b 6fbd 6a0f 883c
000000a0: 74f3 8fbb 77ac a63c 4099 e3bd 5012 bfbd
000000b0: 63e2 7ebd 0683 e4bd dd9f 643d 959e 953d
000000c0: 95d7 213d b54e 75bd f613 d0bb ed44 7b3d
000000d0: 85ee a4bd e150 07bd 2214 993d b3f3 b5bb
000000e0: 7a75 99ba a751 9c3c 5b96 89bd 6231 c63d
000000f0: ea1a 20bc 5ca3 793d ca4d 3dbd 5a29 903d
00000100: 5a8a e13d 4eb6 07be 7f6b d23d 546a c03d
00000110: c275 ad3c 3112 c4bd 21f9 883d fdb8 5f3d
00000120: bde3 ed3d 7c41 0ebd a6c6 d4bd f7c2 ca3c
00000130: 383b c9bd b0a0 cabd 9f10 8fbd 4a1a 913d
00000140: 75ef 583d 3add 203d 76bf 97bd 23f0 a73d
00000150: b0a8 ff3c 2b16 37bd c4d7 f1bd 3c93 c53d
00000160: b69f 073d 119b c9bd 3b7c 9fbc 08f0 9d3d
00000170: c27d c3bd d760 b13d 7f2d afbd 0d8d af3d
00000180: cfe4 793d 2f23 0c3d f7d0 d93d ca67 1cbd
00000190: 962c c0bd d720 073e 52b4 cebc 4c9c 0e3e
000001a0: 3390 d83d a7fe a7bd 2d0c 47bd ca4c 65bd
000001b0: d60d 793d c0a2 af3d a760 833d fafb aa3d
000001c0: 4c6e 513d 7361 513c 970a a23c 34af d7bd
000001d0: 34fd 083e 245f 393b afa6 e4bd bba4 793d
000001e0: 1224 dd3c edc0 163d 6185 be3d f6a2 063d
000001f0: d8a0 1a3d e989 94bd 9672 6ebd 1739 b8bd
0.107893705 0.047000427 -0.056566946 0.0009158813 -0.1081504 0.02387606 0.09204354 -0.10498462
-0.110525616 -0.03390278 -0.050567914 -0.08306374 -0.063766144 0.10035212 -0.09659858 -0.012434575
0.056790948 -0.016406303 -0.09275839 -0.013870443 0.01880606 0.045532025 0.03912942 -0.0014067958
-0.014796653 0.020319743 -0.021004917 -0.038875505 -0.074956775 0.0069178035 -0.02053742 0.09309762
0.026019078 0.03192596 -0.08344747 0.036159933 -0.015646739 0.088778466 -0.05846748 0.016608912
-0.0043930355 0.02034591 -0.111132145 -0.09329665 -0.062227618 -0.11157803 0.05581652 0.07305638
0.039512236 -0.059889514 -0.006350036 0.06134503 -0.080533065 -0.033036117 0.07474543 -0.005552733
-0.0011707984 0.019081904 -0.06718131 0.09677388 -0.009772042 0.060946807 -0.046216764 0.07039137
0.110127166 -0.13253137 0.102744095 0.093952805 0.021174315 -0.09573782 0.066881426 0.054619778
0.11615703 -0.03473042 -0.10389452 0.02475117 -0.09825748 -0.0989393 -0.06985592 0.07085092
0.05296274 0.039273478 -0.07409565 0.08200099 0.031208366 -0.044698875 -0.11808732 0.09647223
0.033111297 -0.0984403 -0.019468417 0.07711798 -0.09545471 0.08661049 -0.085535996 0.08571825
0.061009225 0.03421324 0.1063556 -0.03818492 -0.09383504 0.13196121 -0.025232468 0.1392681
0.10574379 -0.08202868 -0.048595596 -0.055981435 0.06080421 0.08575964 0.06414919 0.08348842
0.051130578 0.012779581 0.01978044 -0.10531464 0.1337784 0.0028285468 -0.11164605 0.060948115
0.026994739 0.036805082 0.09302784 0.032870255 0.03775105 -0.07252867 -0.058214746 -0.08995264

psi.4.bias f4 [2]
00000000: 317b 18bd 0e4a 3bbb
-0.03722686 -0.0028578076

exp_avg f4 [8, 1, 2]
00000000: 1dad 02c7 af89 3cc6 4364 ad47 605d 19c6
00000010: dbf7 2947 4a41 77c7 ec6b 15c4 4827 af47
00000020: 3ed8 3e47 d5b5 e045 a4fd a746 f905 9947
00000030: 1a48 26c8 5f97 20c7 aae7 0745 3693 75c7
-33453.113 -12066.421 88776.52 -9815.344 43511.855 -63297.29 -597.6863 89678.56
48856.242 7190.729 21502.82 78347.945 -170272.4 -41111.37 2174.479 -62867.21

exp_avg_sq f4 [8, 1, 2]
00000000: 502f 045b bb37 165a 2290 e15c 2049 f35b
00000010: 43ce 715a 732d d15a f078 725b 8005 5e5c
00000020: b932 855b d7d8 6c5a 41b2 115b 9a2c 2f5c
00000030: 9646 c85b 0d1d 7359 3e67 235b afa6 935a
3.7206718e+16 1.0570631e+16 5.0792276e+17 1.3695764e+17 1.7015564e+16 2.943912e+16 6.8249917e+16 2.4997397e+17
7.498388e+16 1.6666628e+16 4.1009864e+16 1.9722864e+17 1.1274521e+17 4.2768976e+15 4.5993937e+16 2.0780046e+16

exp_avg f4 [8]
00000000: b89c b4c6 6820 2f48 f424 3e48 aeb3 b3c8
00000010: 5040 da46 30e1 0a48 f14a 89c8 293e 7948
-23118.36 179329.62 194707.81 -368029.44 27936.156 142212.75 -281175.53 255224.64

exp_avg_sq f4 [8]
00000000: 5c7f b95c adfd 7f5e 2459 1e5d 4cb4 8c5e
00000010: 2347 5e5d 707b 235e b4dc ae5c d871 8e5c
4.1770323e+17 4.6115225e+18 7.131369e+17 5.069406e+18 1.0010506e+18 2.945033e+18 3.937545e+17 3.2075695e+17
