lightning_logs/version_23/checkpoints/epoch=0-step=99.ckpt (torch, 227574 bytes, 36 tensors)

lattice_net.0.weight f4 [8, 1, 2]
00000000: a894 14bf aa95 9fbe 0c91 64bc 1db2 0e3e
00000010: f57c 043d a04e eebd 76b5 fabe 6852 ee3e
00000020: 475b 853e bf14 fbbe 318f b8be 286b 653e
00000030: 03f9 113e 7b32 9d3e ccb9 9cbc c711 54be
-0.5803933 -0.31168872 -0.0139505975 0.13935132 0.03234573 -0.1163609 -0.4896657 0.46547246
0.26046202 -0.49039266 -0.36046746 0.22404158 0.14255147 0.30702576 -0.019131564 -0.20709907

lattice_net.0.bias f4 [8]
00000000: 5ba6 12bf b7f5 693d 8b91 80bd cbcd 3b3e
00000010: 6f0b 7b3e d791 9f3e dabc f03e 1d41 5c3e
-0.5728509 0.057119098 -0.0627776 0.18340223 0.2451608 0.31165954 0.47019082 0.21509214

lattice_net.2.weight f4 [16, 8, 2]
00000000: 2906 d7bc b188 1abe b977 82bd f3b2 1b3d
00000010: e7e2 3dbd 6c1b b93d dd3c 543e a7d0 e13d
00000020: f231 34be 57c1 b33c 7e4a 393e 0616 d2b7
00000030: 6ba0 3b3e 4598 003d c9f1 763c 87db 07be
00000040: 9e62 013e 7ef6 01bd ff6f 6c3e 164d 803d
00000050: 9a19 e8bc 92b8 44be 2e0e 33bc 7afa 42bc
00000060: 63d3 aabc 27b4 a03c 03fb c23d 2ef2 273e
00000070: 5734 6cbe 55b6 51bd 7e4d d1bd 90e8 1ebd
00000080: a8aa b13d b598 993d ffa9 ad3b 92e6 6cbe
00000090: 0d0c 1b3e bdad 3b3e 5abc a6bd 74b7 6c3e
000000a0: fcc5 cfbd 079a 93bc 2721 03be 88d1 99bd
000000b0: 21c3 223e 5dee d4bd 68dd c33d 5931 f4bd
000000c0: 990c 38be 08f1 853d 9c82 62be 1d77 44bd
000000d0: 5b08 53be eccb 2d3e 064e 31be ae36 c23d
000000e0: f29a 103e 19a7 4dbe df87 6c3e 4de0 4fbe
000000f0: 00d7 613e 8503 9e39 03bc 33bd d087 4cbe
00000100: 9365 62bd 5e57 ef3d 8330 e03d 228f 663e
00000110: 0fbd 3ebc 829f 3f3e 1f9f 7abd da6f 16be
00000120: 1a74 113e 16fc 0f3c 5a3e a5bd 17b3 b33d
00000130: aeec 74bd a572 a8bd 867c 2a3e 0d4d 41be
00000140: 43cd 3d3e 8561 f8bd 5980 3d3e 7d86 fe3d
00000150: 1489 33bc 14b1 80be 9c5f 6cbe de44 ff3d
00000160: 5683 633e d6ac 603e b4dd ea3c 84a5 1ebe
00000170: 4914 fd3c 85e0 4e3e 0e55 e5bd 2385 73be
00000180: f1b0 cebd 0c01 6a3d 95ee 37bd c0ef 6c3e
00000190: 53ce b33c 6ee2 1ebe 4ee4 d93d 2c93 a23d
000001a0: c3ba 07bd c91b 4dbe 5a16 79be 59dd 36be
000001b0: 9fa7 55be 80c4 4bbe 3b95 393e d49f b6bd
000001c0: 2543 62be 4625 c8bd 9ac0 a0bd 5a83 2bbe
000001d0: 2d63 3bbc 9aba 553e e993 ff3c 5c39 913b
000001e0: 1114 66be 13a2 73be 7b8d 00be 34b0 d6bc
000001f0: 2525 18be 6203 9ebd b761 463e 76d5 ecbc
00000200: 0f53 15be a03a 13be 63b9 5a3e a209 0ebe
00000210: 15a1 193e 73f5 29be f47f 853d 40f2 443d
00000220: 3c48 b9bd 5d11 43be f860 52be e3b0 4bbe
00000230: 981c b43d a505 753e 3cb7 1c3e f2ff 663d
00000240: fea8 2c3e 1fc3 463e 6a55 633e 9cad 2e3e
00000250: e734 be3d c90c d23d d4f3 e6bd 7b1b 293e
00000260: 2435 c83b 03f9 42bd 01cc 83bd 1b2a e93c
00000270: 3b39 c8bc db85 363e 4bba 82ba 5ae3 2f3e
00000280: 0b84 143e dbad 62bd 8c26 73be ce6b 41bc
00000290: 0e63 663e 7e34 0fbe 406b 0cbe faa1 5ebd
000002a0: 17c4 46be a1c1 76be 76b9 9cbc 90f9 febd
000002b0: 6f97 37bd 8ced 283e eee6 81be 1267 f7bd
000002c0: b341 41be 9bbd a43d 498f 24bd b4d3 5e3d
000002d0: 2e6d d03d da19 443e 836c 30be 5c7c 76be
000002e0: c7ed 1abe f3b2 a03d 0346 2ebd 883d 2d3e
000002f0: facf 333e cf09 d33d 5587 3ebb d87d 55be
00000300: 8d8d b93d 8cb6 41be 58cf cebd b497 55be
00000310: 9c89 32be 0701 053e 7fc5 a9bd 9ab1 6fbe
00000320: 5e3b 5fbe a90a 2e3e 796f 78be 50e4 40be
00000330: 33b9 b3bd 4599 40bd 6a3d 403e a639 e73d
00000340: a9d9 82bd 9d88 4f3d b2ed 50be 9563 09be
00000350: a72d bdbd a2f1 483e 0b8a 55be 18db 5c3e
00000360: 609c 80be fd1d d9bd 5f1c 0cbe 0032 713d
00000370: 927b 3dbd ca51 0dbe 40b1 b93d 6488 35be
00000380: f8e9 3fbd cb2c eebc 344b c43d aba5 3cbe
00000390: 7e1f 3e3e 3627 45bb fc30 9fbd cccd 45be
000003a0: 0aed 9d3d feb3 bc3c ad0c af3c 2e3c 7fbc
000003b0: df08 6ebe 970e 063e a6b3 523e 554c 983d
000003c0: 0cb5 febd ad33 a9bc 3763 823d 8459 d13c
000003d0: f48d 71be 1988 6bbe d8d7 04be 4817 05be
000003e0: bb5f 5ebe d36e 453e 098e 023e 7393 633c
000003f0: 7f66 d03c c79a 373e 69f4 df3d b4e9 bebc
-0.026248055 -0.15091206 -0.063704915 0.038012456 -0.04635897 0.090384334 0.20726342 0.110261254
-0.17597178 0.021942778 0.18094823 -2.5044206e-05 0.18322913 0.031395216 0.0150722945 -0.13267337
0.12635276 -0.031729214 0.23089598 0.06264703 -0.02833252 -0.19211033 -0.010928674 -0.011900539
-0.02085275 0.019617153 0.09520533 0.16400978 -0.23066841 -0.051199276 -0.102198586 -0.038796008
0.08675128 0.0749983 0.005299806 -0.2313483 0.15141316 0.18327995 -0.08141394 0.23116857
-0.101451844 -0.018017782 -0.12805615 -0.07510668 0.15894748 -0.10397027 0.09563714 -0.11923475
-0.17973556 0.06540114 -0.22120136 -0.047965158 -0.20608656 0.16972321 -0.1731492 0.094830856
0.14121607 -0.20083274 0.23098706 -0.20300408 0.22054672 0.0003013873 -0.043880474 -0.19973683
-0.05527265 0.11686586 0.10946753 0.22515538 -0.011641755 0.18713191 -0.061186906 -0.14691105
0.14204445 0.008788129 -0.08068533 0.08774393 -0.059796028 -0.08224992 0.16649064 -0.18877049
0.18535332 -0.121279754 0.18505992 0.12427995 -0.010957975 -0.251351 -0.23083347 0.12464307
0.2221807 0.21940932 0.02867017 -0.15492827 0.030893462 0.20202835 -0.111978635 -0.23781256
-0.10092343 0.057129905 -0.044905264 0.23138332 0.021948969 -0.15516064 0.10639249 0.07938227
-0.033137094 -0.2003013 -0.24324933 -0.17857875 -0.20864724 -0.19899178 0.18123333 -0.089172035
-0.22095926 -0.09772734 -0.07849236 -0.16749325 -0.01143722 0.20871964 0.031198459 0.0044318866
-0.22468592 -0.23792295 -0.1255397 -0.026207067 -0.1485792 -0.07715489 0.19373213 -0.02891038
-0.14582466 -0.14377832 0.21359782 -0.13870862 0.15002854 -0.16597538 0.06518546 0.04808259
-0.09046981 -0.19049592 -0.20544803 -0.19891696 0.08794516 0.23927934 0.15304273 0.056396432
0.1686134 0.1941037 0.22200552 0.17058414 0.09287434 0.10256345 -0.11276975 0.16514389
0.0061098505 -0.047600757 -0.06435395 0.02846246 -0.024441352 0.178245 -0.0009973733 0.17176571
0.14503495 -0.055341583 -0.23745173 -0.011805488 0.22498724 -0.13984868 -0.13712788 -0.05435369
-0.1941074 -0.24097301 -0.019131403 -0.12449944 -0.044822153 0.16496867 -0.25371498 -0.12080206
-0.18872719 0.08043977 -0.04017571 0.054401115 0.101770744 0.19150487 -0.17228894 -0.24070877
-0.15129767 0.07846632 -0.042547237 0.16918004 0.17559806 0.10304605 -0.0029072363 -0.20848787
0.09060202 -0.18917292 -0.100981414 -0.20858651 -0.17435306 0.12988673 -0.082896225 -0.23407593
-0.2179999 0.16996254 -0.24261273 -0.18837094 -0.08775558 -0.04702117 0.18773428 0.112902924
-0.06389172 0.050667394 -0.20403174 -0.13416894 -0.09237223 0.19623426 -0.2085344 0.21567953
-0.25119305 -0.10601423 -0.13682698 0.058885574 -0.046260424 -0.13800731 0.09067011 -0.1772781
-0.04685399 -0.029074093 0.09584656 -0.18422572 0.18566701 -0.0030083186 -0.07773015 -0.19316787
0.07711227 0.023035046 0.021368349 -0.015578313 -0.23245572 0.13091503 0.20576343 0.07436434
-0.12436876 -0.020654524 0.0636658 0.02555538 -0.23589307 -0.23001136 -0.12972963 -0.12997162
-0.21716206 0.19280557 0.12749495 0.013890135 0.025439499 0.17930137 0.109352894 -0.023304798

lattice_net.2.bias f4 [16]
00000000: 081a f03c 38fc 57be a9e4 a3bd d489 723e
00000010: 3b43 553e 151e 5ebe a06a 3abe 6484 80bd
00000020: 81e8 69be 64a1 89bc 0f46 603e d0bd 743d
00000030: ef5d 8a3b f81a 763d d5e3 52be 27c5 d63d
0.029309288 -0.21092308 -0.08002598 0.2368539 0.20826428 -0.21691163 -0.18204737 -0.062752515
-0.228426 -0.01680059 0.21901725 0.05975133 0.0042226235 0.060084313 -0.20594724 0.104868226

lattice_net.4.weight f4 [32, 16, 2]
00000000: 7bd0 ff3c eeb0 d0bd 5238 d0bc 2479 1a3e
00000010: c572 b63d bab3 52bc 52d7 afbd 3856 963b
00000020: 2722 913d 2d70 2f3d e4e7 87bd d04a b2bc
00000030: c094 f1bd 89b6 febd e635 04be 2e3a 18be
00000040: 07b5 a8bc 5dc9 283e 1964 7c3d fc56 18be
00000050: 16db 9f3d ec3a 87bd a5dd 5a3d 008e c9bc
00000060: ae8a ae3d 5182 083e 401a 0abe c230 1f3e
00000070: 7787 153e f0d9 f63d f299 be3d 02e4 293d
00000080: dfc3 9dbd 58c4 bcbb 40c0 1e3e 26a0 393d
00000090: 4e6d 793d 44e9 0a3e 0083 cabd ebf9 e8bd
000000a0: 170d 9a3d f9af 72bd e0d5 1abe 0d0c 4abc
000000b0: 7efa 743d 952f e0bd 6ac4 a43d 031d ea3d
000000c0: 6f25 99bd f4ba 1e3e 46cd f73d 3a01 26be
000000d0: 8431 12be d079 d5bd 66de fd3d 89e0 133e
000000e0: 6827 c93d 524b e2bc bc21 853c ab97 99bd
000000f0: 4558 1c3e d5b6 96bc 93f7 023e 599c 073e
00000100: ba6b 02be 96df 163e 6feb b83c 38d7 2c3e
00000110: 167a 22be 81c4 e5bd 9bff 10be 9ca2 a6bd
00000120: 5ea2 033e 342e 143e 274d 31bd 6af9 0fbd
00000130: 5fe0 1e3e dbeb e2bc 6e67 c73d 5bbb d1bd
00000140: 676e 343d 58e7 05be af4e 253e 82f2 0bbe
00000150: 0a02 3f3d 507f 1bbd fd4a e4bd 738a 70bd
00000160: 0b7d 1f3d cb1c 983d b107 78bd 40ff 3c3c
00000170: 177e f93d 3371 eb3d 3b66 20bc e91a ea3c
00000180: 2ed6 d03c 51b6 aa3d 94a7 053e c3b3 bc3d
00000190: 0b72 ecbb 4bf5 1abe 6c04 03bd 52e5 01be
000001a0: bcce 1dbe 1b26 183e 8fd4 ddbd 5662 23be
000001b0: d5ff 14be 2b0c 883d 9b37 82bd 0032 c23d
000001c0: 5923 143e ae7e 13bc 90bd debc 927a f4bd
000001d0: 7258 06be c5d3 26be af56 86bc 4b9b 2f3d
000001e0: 0f46 753d e245 30be 6d98 113e d15a 3cbe
000001f0: 6000 68bd 4291 f8bd 490b 803d f667 0a3b
00000200: e733 d03d 3fa7 623d 9c09 203e 4fff 55bc
00000210: bf2a 88bd 0907 35bc 7c64 80bd b89c 7bbd
00000220: 97ef 723d cc06 1fbe c348 9fbb 4882 1dbe
00000230: 6b69 b73c 06cd e9bc 8e74 a63d ff9a 8dbc
00000240: bdd1 043e 8584 d93d 0361 61bd f411 15be
00000250: 71f6 c73d c754 0cbc b22c 23be 6623 ccbd
00000260: 179e 1b3e 85b2 71bd 358e 0cbe 6eaf 38bc
00000270: 0c8f f2bd 4ad1 5e3d 471d 9c3d d36c d83d
00000280: 7172 ecbc daf8 c5bd 7c24 123e 9545 81bd
00000290: bdad 0bbc a8e4 fdbd 993e a8bc eb87 eebd
000002a0: c4d6 97bc a732 203e 4a56 163e d278 053e
000002b0: d63c a9bd 5090 c43d 8a7f 75bd 97e4 81bc
000002c0: 0dc9 653c a6da 8a3d 8082 d43c 3243 f83d
000002d0: 221f debd c150 4c3c 4481 123e 2ee3 183d
000002e0: 885e 93bd 56fe 0ebe 047a 24be c9d5 39be
000002f0: f9e9 203e 6e08 ffbd 0f36 e43c 7487 183d
00000300: bc3e 9dbd 7320 54bd 7b56 243e 6ae8 853d
00000310: 9718 b1bd 110c 31be 71f2 e9bd 9e02 953b
00000320: 81ca b13d d561 2f3e 995c 1bbe 881f 4a3d
00000330: d552 ce3d f229 12be a67e cb3d 631f 8cbc
00000340: 056e 013e cded 31b9 d0f4 6c3d c9f4 2a3e
00000350: f6e7 22bd cb0d c1bd 241c 8dbd 26b5 95bd
00000360: 72db 90bd 03a4 773d 6cf1 2cbd 6904 e6bd
00000370: b4e5 d83d a3df 27bd 882b b33d 7085 16be
00000380: bfeb 053e df6d 18be 922c 183c 81f7 cb3d
00000390: 15cc 943d 972f bebd 7e7b 0a3e 292f 2fbe
000003a0: d63a e53d 5441 c4bd a8c5 5dbd c258 023e
000003b0: 1bf7 adbd 2ec7 2d3c e1a0 0dbe c15e d7bd
000003c0: e07a bb3c b5b5 cebd 9e0c 003e 9456 1e3e
000003d0: ef69 f3bd 55b0 74bd 1937 953d 2997 99bd
000003e0: 5c60 c9bd 75f9 ee3d abdf 7c3d 3392 1f3e
000003f0: 5fb7 17be e9a1 ebbc eb9f 8ebd ed0f a33c
0.03122734 -0.10189997 -0.02541748 0.15085274 0.08908609 -0.012860233 -0.08585991 0.004587915
0.07086592 0.04283159 -0.066360265 -0.021764189 -0.1179595 -0.124371596 -0.12911186 -0.14865944
-0.020594133 0.16483064 0.061618898 -0.14876932 0.07805459 -0.06603035 0.053434033 -0.024603844
0.08522545 0.13330962 -0.13486576 0.15545943 0.14602457 0.12053287 0.093067065 0.04147721
-0.07703375 -0.0057607107 0.15503025 0.045318745 0.060895257 0.13565546 -0.098882675 -0.11375793
0.07522028 -0.05924985 -0.1512065 -0.012331975 0.0598092 -0.109465756 0.080452755 0.11431315
-0.07477843 0.15501004 0.120997 -0.16211405 -0.14276701 -0.104236245 0.12395935 0.14441122
0.09821969 -0.027623806 0.016251437 -0.074996315 0.15268047 -0.018397728 0.12789755 0.13243236
-0.12736407 0.14733729 0.022573201 0.16878974 -0.15866885 -0.11219121 -0.14160006 -0.08136484
0.12854907 0.1447075 -0.04328647 -0.03514997 0.15515278 -0.027700355 0.097365245 -0.10240813
0.0440506 -0.13076532 0.16143297 -0.13666728 0.046632804 -0.03796321 -0.111471154 -0.058725785
0.03893761 0.07427367 -0.06055421 0.011535466 0.12182253 0.114962004 -0.009789999 0.028577285
0.025492754 0.08335555 0.13052207 0.09213974 -0.0072157434 -0.15132634 -0.03198664 -0.12685135
-0.15410894 0.14858286 -0.10831558 -0.15955481 -0.14550717 0.06642946 -0.06358262 0.09482193
0.14466609 -0.009002371 -0.02719 -0.11937441 -0.13119677 -0.16291721 -0.016398756 0.04287271
0.059881266 -0.17214158 0.14218302 -0.18394019 -0.056640983 -0.12137081 0.062521525 0.0021119094
0.101661496 0.05533528 0.15628666 -0.013061359 -0.06648778 -0.011049041 -0.06269166 -0.061428756
0.059310522 -0.15529937 -0.004860969 -0.1538173 0.022389134 -0.028540146 0.081277 -0.017285822
0.12970634 0.10620979 -0.05502416 -0.1455763 0.09763802 -0.008565134 -0.15935019 -0.09967689
0.15197025 -0.05900814 -0.13726123 -0.011272294 -0.1184369 0.054398812 0.07622772 0.105676316
-0.028863164 -0.09666605 0.1427173 -0.063121 -0.008525309 -0.12397128 -0.020537661 -0.11647018
-0.018535025 0.15644322 0.14681354 0.1303437 -0.08263557 0.09597838 -0.059936084 -0.01585607
0.014024985 0.06779985 0.025941133 0.121221915 -0.10845782 0.012470425 0.14307123 0.03732603
-0.07195765 -0.13964209 -0.1606217 -0.18147959 0.15714253 -0.1245278 0.027857808 0.037238553
-0.07677981 -0.05178876 0.16048615 0.0653847 -0.08647268 -0.17289759 -0.11423195 0.004547431
0.08681203 0.17127164 -0.15172042 0.049346477 0.10074393 -0.14273813 0.09936266 -0.01710481
0.12639625 -0.00016968623 0.05785066 0.1669494 -0.039771996 -0.09426459 -0.06890133 -0.07309942
-0.07073106 0.06045915 -0.042222425 -0.1123131 0.105906874 -0.04098476 0.08748537 -0.1469934
0.13078211 -0.14885662 0.00928797 0.09959317 0.07265488 -0.09286421 0.13523671 -0.17107834
0.11192863 -0.09582773 -0.054143578 0.12729171 -0.08494397 0.01060657 -0.13830902 -0.1051612
0.02288574 -0.100932516 0.12504813 0.15462714 -0.118854396 -0.059738476 0.072859 -0.07499535
-0.09832832 0.11668674 0.061736744 0.15583114 -0.14816044 -0.028763728 -0.06964096 0.019905055

lattice_net.4.bias f4 [32]
00000000: 22de cb3d 1ca8 f9bd f11d c13d 2e12 1f3c
00000010: 79ab bcbd 4f23 2ebe 61d6 a2bc 9588 fcbd
00000020: bb63 62bd eeb3 123e 12fe ed3d f217 e73b
00000030: 5782 e53d feef 5c3d b3a3 ad3d bf69 f23d
00000040: 1a5c c2bd 6f88 dabd 4dd7 663c 49a8 d8bc
00000050: bd19 6c3c ea9b cf3d 8caa d9bd b078 a13d
00000060: 46a3 01bd 491a bb3d b4e4 90bd b69e 4cbb
00000070: 5178 fb3d c445 dfbd 09be 043e 1581 7c3d
0.09954478 -0.121902674 0.09429539 0.009708924 -0.09212393 -0.17005657 -0.019877614 -0.123307385
-0.05527089 0.1432645 0.11620726 0.007052415 0.11206501 0.053939812 0.08478489 0.11836576
-0.09490223 -0.10670554 0.014089418 -0.026447432 0.014410433 0.1013716 -0.10628232 0.078843474
-0.03164985 0.09135873 -0.07074872 -0.0031222529 0.12278808 -0.109019786 0.12963118 0.06164654

tNN.0.weight f4 [32, 2]
00000000: aa99 343f 3e16 20bf a3c3 123f 8527 30be
00000010: cac1 c9be e4e0 a63d 86d5 6c3e abf4 21bf
00000020: 1b8d 29bd bcc9 ec3e 3d1d e13e 916f 1a3d
00000030: cbcd bd3d 610b e2be 2051 303f e186 2f3f
00000040: 82f5 edbe c960 c43e ca73 1a3e 7518 133f
00000050: 6b88 2f3f ab3a 463e b74b 0cbf 8d4c 9ebe
00000060: 2ffd e23e bd66 d8be c5d6 b03e eeb4 3b3c
00000070: 2891 293f c0d1 14bf 2558 17bf 6b56 113f
00000080: 15c9 eb3e 2d66 4f3e f18f 3ebd 9eca 84be
00000090: fa34 10bf 1e5f 433e 82d3 73be 46f5 19be
000000a0: e4d3 4a3e 980d 1f3f 9bd9 c73e a149 d6be
000000b0: 4dfa 15bf e5bd 0cbf 96ec 083e 45df 0fbe
000000c0: 0d93 183e 7293 99be f75f 26bf 436e 25bf
000000d0: 2546 b0bd 7dad c7be 8ed3 00bf 1a92 d9bb
000000e0: 642a ee3e 6b13 66bd 241d 093f 3823 333d
000000f0: bd65 e3be a674 2e3f be3f 8d3e 170b 6ebe
0.7054697 -0.6253394 0.5732977 -0.17202576 -0.39405662 0.08148363 0.23128328 -0.6326396
-0.041394334 0.4624766 0.4396762 0.037704054 0.092677675 -0.44149306 0.68873787 0.68565184
-0.4647637 0.3835509 0.15083233 0.57459193 0.6856753 0.19358318 -0.5480303 -0.3091778
0.4433379 -0.42265883 0.34538856 0.011456711 0.66237116 -0.58132553 -0.5911887 0.5677249
0.4605185 0.2025382 -0.046523992 -0.25935835 -0.56330836 0.19079253 -0.23811153 -0.1503497
0.19807392 0.6213012 0.39033207 -0.4185305 -0.58585054 -0.54977256 0.133715 -0.14050014
0.14899845 -0.29995304 -0.6499018 -0.6462137 -0.08607129 -0.3899955 -0.50322807 -0.006639731
0.46516716 -0.056170862 0.5356009 0.04373476 -0.44413558 0.6814674 0.27587694 -0.23246418

tNN.0.bias f4 [32]
00000000: 1867 1e3e 7aa1 d4be 77ac 8b3e 17bf 33bf
00000010: 9fd8 01bf 87e8 a5bb 5ca4 fbbd 0ab7 fc3e
00000020: 2399 1f3f 9b20 293f 1dae 8abe 0813 1fbf
00000030: 113b 1f3f 07b7 1f3f 4427 923e ff62 6f3e
00000040: bf9c a6be 5a49 ba3e 0477 e33d dfd9 203f
00000050: e3c8 0dbf 440d 62bd 40d9 aa3e 95c1 05bf
00000060: a4b9 c9bd fb1b d6be 25af 303f 3221 0b3e
00000070: d330 2ebe dd16 293f 6eab 32bf 23eb 20bd
0.15469015 -0.41529447 0.27280018 -0.70213455 -0.5072116 -0.00506312 -0.122872084 0.49358398
0.62343043 0.66065377 -0.27085963 -0.62138414 0.62199503 0.6238865 0.28545582 0.23377608
-0.32541463 0.36384088 0.11106685 0.62832445 -0.55384654 -0.055188432 0.33368874 -0.5224851
-0.09849861 -0.41818222 0.6901725 0.13586882 -0.17010812 0.6605051 -0.6979283 -0.039286744

psi.0.weight f4 [64, 256]
00000000: 9fdf 7dbd e274 edbc e397 df3c ad89 603d
00000010: 594b 443d 14cd 5b3d b506 233d f35a 6bbd
00000020: b636 98bc be8a 4c3c 0451 c2bc d2a5 963c
00000030: 10b7 f1bb 2edf e73c c0ef c53b 8d3e b6bc
00000040: a016 03bd 203d 2dbd 7c3c b13b d02d 3ebd
00000050: 75ae e43c 4acb 7dbc eb52 e6bc d4c7 35bd
00000060: c4f3 ce3c f6da 403c ae9b 613d d5d2 d13c
00000070: d61d 543d 7fb7 4e3d cdfb 33bc 4d4d 6b3d
00000080: d760 69bd 6fa6 adbc 3354 813b 6ffd 4bbd
00000090: 6a86 edbc 39d4 a73c f309 93bb 93d2 c3bb
000000a0: 1f15 63bd e46a 0d3c 6b74 4ebd 5b86 663c
000000b0: ef0e 54bb 046b 273d becf 1c3c ad53 17bd
000000c0: c9b1 43bc 0ec6 07bc 1782 89bb 70c3 a33c
000000d0: 3256 5f3d 937f 02bd 1f3e 2e3d e22d 43bd
000000e0: a458 1fbd 1a91 06bc 833f c5bc 81c7 b9bc
000000f0: 3ecc 71bc fd48 543d 508d 0abd 1fc9 323d
00000100: 6b71 db3c c540 393d c723 6f3d 3c4d 3cbd
00000110: 51c9 3f3d a13f 623d 7db6 73bc da0e 693d
00000120: 8481 873a e449 3fbd 6b0f ba3c e21c 02bd
00000130: a79f 11bc 5035 43bd 43ab 533d 6e8a 69bd
00000140: e395 7d3b 3448 17ba 78a5 92bb cb24 083c
00000150: 4b88 053c 23e4 6fbc ce6a 7e3d 4809 2c3d
00000160: 9737 f03c 3a65 6e3d 5187 f33c a7ae 3f3d
00000170: 0d82 a1bc f79a 5dbc 5a83 2abd f65e 40bd
00000180: 32e5 b2bb 7a43 96bc 15e4 6b3d 45ce 2b3d
00000190: d38d 7e3c a06d eabc 2cae 533d 845b 273d
000001a0: b78d ecbc 930d 7a3d a001 cdbc 7932 1dbc
000001b0: 4fbc 60bd 93ef 6e3d d923 7f3d 9b34 76bd
000001c0: fa1b 2dbd 3639 e33b 279a 1bbd dc26 673d
000001d0: 28ea fdbb f7b7 5e3d c1cd a33a 5f0b f43c
000001e0: b6de 05bd 67e2 6f3d 0796 243d 03d7 edbc
000001f0: 954f 063d 6914 8dbc df67 e0bb a8d2 79bc
00000200: 5830 06bd 8617 213d 6f3e 38bd 9ee5 893c
00000210: 6404 cd3c da26 e3bc 7e06 e13c 04dc ab3b
00000220: e585 503a 666d b73c 3037 72bd 7542 f3bb
00000230: 82d0 28bd 6188 043d 2d0c 9d3c 82c9 e13c
00000240: dee1 77bc efd5 a93c 46ae 603d 06b6 973c
00000250: 89ad f1bc 4392 f53c 2ce3 ac3b 10e1 c5bb
00000260: dca7 04bd dc6a aa3b 6508 453d c5a5 d33c
00000270: da69 473c 9235 32bd a7de bf3c 4aaa ca3c
00000280: a7a4 653d 1f6f 2e3b b220 00bd 9c4c 6a3d
00000290: 31d3 1dbd 2e04 b83c 863c 223d 23c3 50bd
000002a0: 6cef 06bd a07b b33c f92a 963c 7e4e c9bc
000002b0: d0c2 4c3d 7ad0 033d 4448 79bc 7b58 833c
000002c0: 39af 04bd 5b8c 423d 316a 553d 6fa1 5cbd
000002d0: 8b45 5ebc 8368 19bd ae73 d4bc acad 083d
000002e0: 8694 a7bb e069 78bd 5cab 733d 0e0b bd3c
000002f0: 32ca c4bc 35ab 493d b6a6 c1bc e1c1 333c
00000300: 9b7d 3cbc f461 2ebd 523d 463c eb9e 3f3c
00000310: 5ed1 f8bc a0bd bb3c 3342 8cbb 0b17 793c
00000320: 7b77 1bbd 8f20 473d d88e 63bd 8113 783c
00000330: be48 afbb 4d9b 283c 4425 a0bc 0b42 cebc
00000340: 5a69 7abd ce09 89bc d1d0 6abd 7f15 e7bc
00000350: 4494 4fbd a8e4 ba3c e208 27bd 3e17 67bd
00000360: 21f4 e33c 50a3 243c f2e5 3ebd 838d d63b
00000370: 9fc3 493d 9763 783d 5368 843c 0bac 73bd
00000380: 3110 793d 4b32 353c ea1c 67bd ecd4 d3bc
00000390: 29d1 253d e526 4cbd 14ab edbb 351e 08bd
000003a0: c78a 52bc 6b8d fa3c 99bc f73c 9d20 df3c
000003b0: 043d daba d9bf 1cbd 7ca7 e4ba 2b50 223b
000003c0: ec57 8f3c 8254 d73c b833 44bd 4ec7 d03c
000003d0: 882b fa3c 8b0f 6a3d 72a8 c0bb 40f9 1b3d
000003e0: 4e33 58bd 6883 253d 05bf 933c 6dc4 49bc
000003f0: 1433 393d a6be 813c 764b 34bd 3e00 aabc
-0.06198084 -0.028986398 0.027294105 0.054818798 0.04792342 0.053662375 0.03980132 -0.057459783
-0.018580776 0.012484251 -0.023720272 0.018389616 -0.007376559 0.028304663 0.0060405433 -0.022246623
-0.032004 -0.04229462 0.0054088216 -0.04643041 0.027915219 -0.015490362 -0.02811571 -0.044380024
0.02526272 0.011770954 0.05508011 0.025613228 0.051786266 0.050467964 -0.010985327 0.057446767
-0.05697712 -0.021197526 0.003946805 -0.04980224 -0.028994758 0.020486938 -0.00448727 -0.00597603
-0.055440065 0.008631442 -0.050403994 0.014070119 -0.0032357534 0.040873542 0.009571014 -0.036945034
-0.011944243 -0.008286966 -0.004196416 0.019990653 0.05452556 -0.031859946 0.042539712 -0.04765118
-0.038902894 -0.008213306 -0.024078136 -0.022678139 -0.014758168 0.05182742 -0.033826172 0.043648835
0.02678748 0.045227785 0.05838373 -0.045972094 0.04682285 0.055236463 -0.014875052 0.05689893
0.0010338281 -0.046701327 0.02271243 -0.031765826 -0.008888162 -0.047658265 0.051677 -0.057016782
0.0038694076 -0.0005770952 -0.004475292 0.008309553 0.008150171 -0.014641794 0.062113576 0.04200104
0.029323382 0.058202006 0.02972761 0.04679742 -0.019715333 -0.013525716 -0.041629173 -0.04696556
-0.005459451 -0.018342722 0.057590563 0.04194476 0.015536743 -0.028616726 0.051679775 0.04085876
-0.028876169 0.0610481 -0.025025189 -0.009594553 -0.054867085 0.058333945 0.062290046 -0.060108762
-0.04226301 0.0069343103 -0.037988808 0.056433544 -0.007748861 0.05437466 0.0012497233 0.029790578
-0.032683097 0.058565523 0.04018214 -0.02903319 0.03279074 -0.017221646 -0.00684832 -0.015247978
-0.032760948 0.039329074 -0.044981416 0.016833123 0.025026508 -0.027728487 0.027468916 0.0052447338
0.0007954522 0.022391032 -0.059134662 -0.007423694 -0.041214474 0.032356624 0.019170845 0.027561907
-0.0151295345 0.020731894 0.0548537 0.018519413 -0.029501693 0.02997697 0.0052761044 -0.0060387924
-0.032386646 0.005200727 0.04810371 0.025835881 0.012171233 -0.04350812 0.023421599 0.024739403
0.056065228 0.0026616526 -0.03128118 0.057201967 -0.038531486 0.02246293 0.0396085 -0.050967347
-0.032943174 0.021909535 0.018331038 -0.02457356 0.049990475 0.03218124 -0.015214983 0.016033402
-0.032393668 0.047497135 0.052103225 -0.053864893 -0.013566385 -0.037453186 -0.025934067 0.03336875
-0.005114141 -0.060647845 0.059489593 0.02307656 -0.024022195 0.04923554 -0.023639064 0.010971517
-0.011504556 -0.042573884 0.012099581 0.011695604 -0.030373272 0.022917569 -0.0042803525 0.015203248
-0.037955742 0.048615035 -0.05555615 0.015141369 -0.0053492477 0.010290933 -0.01954902 -0.025177976
-0.061135627 -0.016728308 -0.05732805 -0.028208492 -0.050678506 0.02281411 -0.040779956 -0.05641865
0.02782637 0.010048702 -0.04660601 0.006547631 0.049258824 0.06064185 0.016163027 -0.059490245
0.060806457 0.011059354 -0.05642406 -0.025858365 0.040482674 -0.04984178 -0.00725306 -0.033231933
-0.01285047 0.030585011 0.030241298 0.02723723 -0.0016650264 -0.038268898 -0.0017444934 0.0024767022
0.01749798 0.026285414 -0.047900885 0.02548566 0.030538335 0.05714373 -0.0058794552 0.0380795
-0.052783303 0.040408522 0.018035421 -0.012314898 0.045214728 0.015837979 -0.044017278 -0.020752069

psi.0.bias f4 [64]
00000000: b01d b3bc 9e31 693c 0511 4d3d 5a8a 39bd
00000010: 2908 2c3d e233 e13c f7ac 14bc 6245 7b3d
00000020: b16b 7f3c a707 48bd a7da d2bb bcc7 33bc
00000030: 5b98 2cbd fc79 ddbb e15b bcbc 74f2 52bc
00000040: 1a06 baba 4612 db3c e84a 963c dc4c 48bd
00000050: 640b 813d 43d6 c8bc da8b 68bd ff20 293d
00000060: 319c 353c c1b9 bf3b c333 013c 30cd d0ba
00000070: 7a32 71bd 23c9 2a3d 01d3 8939 a1d2 6a3d
00000080: ac2d ba3b ba55 f3bb f8cf e43c 6885 1d3d
00000090: 1910 c93c adb7 a43b ca3f eb3c a851 5a3d
000000a0: b0d0 763c 340b abbc 31e0 583c c259 f3bc
000000b0: 5f50 2b3d 4c87 00bc 68d1 153d 4ee9 33bc
000000c0: 77dc 583d 146e 6ebd 6d51 ecbb e49e a5bc
000000d0: 493d 07bc 9272 3fbd f0af 0fbc 79ed 62bd
000000e0: 65c1 953c bc61 45bd 1697 fd3b 931c 5d3c
000000f0: f4b4 a43c e225 a13c b5d2 b3bc 4433 d93b
-0.021864742 0.014233021 0.05006506 -0.045297958 0.04199997 0.02749056 -0.009074441 0.061345465
0.0155896405 -0.048835423 -0.006434757 -0.010972913 -0.042137485 -0.0067589264 -0.02299303 -0.012875188
-0.0014192492 0.026742112 0.018346265 -0.048901424 0.06301001 -0.02451623 -0.056773998 0.041291233
0.011084602 0.005851001 0.007885876 -0.0015930291 -0.05888603 0.041695725 0.00026287886 0.057329778
0.005681714 -0.007425991 0.027931198 0.038457304 0.024543809 0.0050267787 0.02871694 0.05330053
0.015064403 -0.020879366 0.013237045 -0.029705886 0.041824695 -0.007844757 0.03657666 -0.010980917
0.052944627 -0.058210447 -0.007211855 -0.020217367 -0.008254358 -0.046740122 -0.008769974 -0.055402253
0.018280694 -0.04818891 0.007738958 0.013495582 0.020105816 0.019671384 -0.021951059 0.006628426

psi.2.weight f4 [2, 64]
00000000: a8e6 8b3d d574 96bd 1c6e 223d f1aa c73d
00000010: acf2 f1bd f5d1 863d 56b5 babd da1f 8bbd
00000020: b112 5d3d 73b0 9dbc 4330 b5bd 013e cf3d
00000030: 7941 853c 013f edbd 1841 da3d 9d1c 883d
00000040: 03df a6bd be72 4a3d a2a8 32bd 90f5 653d
00000050: c0de 913d 5fc9 c63d cc10 a5bd 672f e4bd
00000060: 446f adbc 057f eabc 975b 333d f6d6 993c
00000070: c5d1 1b3d d977 a7bd d517 abbd 4f4e d73d
00000080: 0c19 8d3c 00e6 b83d 3435 8f3d f1a1 e03d
00000090: cdec 7dbc 8dcf 983d 4364 33bb b8af 8ebd
000000a0: ed54 f1bd e4fa ef3d 817b ea3d 56cc bebd
000000b0: 59eb ac3d fec9 043d 9987 f6bd 00b1 9a3d
000000c0: 55f7 bb3d ebda 5bbd 3e27 bb3d 8936 dd3d
000000d0: 8840 57bd c350 703d 40b3 10bd 70b0 523d
000000e0: 555c e9bc 13ee 6abd 2a7a 75bd 0351 843d
000000f0: 839a eebd fbfd 8dbd 1eba dcbd 58c6 9dbd
00000100: 286f 8abd 7372 043d 9a43 373d 2c92 a1bd
00000110: 19af babd b301 ea3d 65cb 0b3d a88c 803d
00000120: c09d e93d 300b c6bc 4cb4 f13d ef1b e3bc
00000130: 3838 81bd 71cb 6b3d eff2 dfbd 6c59 8ebd
00000140: 53e1 903d db72 52bc 5e38 9cbd d59c 64bd
00000150: f767 4dbc 7ef9 8fbd 53a1 7cbd fab9 a1bd
00000160: b3b8 873d 250a b93d fea9 94bd 3e59 a2bd
00000170: 3dba 38bb 2524 d33d d1ce 2d3d ed03 d63d
00000180: 239a ffbc 5f69 ccbd 9c64 82bd 07cc d83d
00000190: 9c4a 5dbd 1d9a a4bd 07b7 ecbd d88e d9bd
000001a0: 86c4 b1bb 188d 113d bca6 ce3d 62ab c7bd
000001b0: 46ba 55bd 44aa c9bd fb2b ac3c 3b5e d4bd
000001c0: ce59 71bd 2b1e 60bd b27c 0fbd 712c cb3d
000001d0: f19e f8bd 1d89 ae3d d246 9cbd 5ce7 9bbd
000001e0: 1d41 5fbd 18ce f23d fab2 c93d 4b81 e1bc
000001f0: 0278 d53c 49b7 e93c aad1 6a3d 9eee 08bd
0.068311036 -0.07346503 0.03965579 0.09749401 -0.11813864 0.06583015 -0.09116618 -0.067931846
0.053972904 -0.019249177 -0.08847096 0.10119248 0.016266571 -0.11584283 0.10656947 0.066460826
-0.08148005 0.049425833 -0.043617852 0.05614239 0.07122564 0.09706377 -0.080598444 -0.11141854
-0.02117122 -0.02862502 0.04378852 0.01877926 0.03804185 -0.08177156 -0.08354155 0.10512983
0.017223857 0.09028244 0.069925696 0.10968388 -0.015498352 0.07461462 -0.0027372993 -0.069671094
-0.117837764 0.117177755 0.11449338 -0.09316318 0.084433265 0.032419197 -0.12037582 0.07553291
0.09178034 -0.053675573 0.09138344 0.108014174 -0.052551776 0.05867077 -0.035327196 0.051437795
-0.02848641 -0.05735595 -0.059930958 0.06460764 -0.116505645 -0.069332086 -0.107776865 -0.07703847
-0.067594826 0.03233571 0.044742204 -0.07889208 -0.091154285 0.11426105 0.03412952 0.06276828
0.114070415 -0.024175256 0.11801967 -0.02772328 -0.06309551 0.057567064 -0.10935008 -0.069506496
0.07074227 -0.0128447665 -0.07627939 -0.05581363 -0.012536994 -0.07030009 -0.06167729 -0.078968
0.066270255 0.09035138 -0.07258986 -0.07927178 -0.0028187179 0.103096284 0.042433564 0.104499675
-0.031201428 -0.099810354 -0.06366846 0.1058579 -0.05402623 -0.08037207 -0.11558347 -0.106229484
-0.0054250387 0.035534948 0.10090396 -0.097494856 -0.052179597 -0.09846929 0.021017065 -0.103695355
-0.058923535 -0.05471627 -0.035031028 0.09920586 -0.12139691 0.08522246 -0.076306954 -0.07612488
-0.054505456 0.118557155 0.0984859 -0.027527472 0.0260582 0.02852978 0.057328857 -0.033430688

psi.2.bias f4 [2]
00000000: 3781 7ebd 577e d9bd
-0.062134948 -0.106198005

exp_avg f4 [8, 1, 2]
00000000: 249e d2cb a15c 68cb 47a8 a149 0859 32cb
00000010: f2be cb46 2ebb a1ca 0bac 4b4c 9b36 24cc
00000020: d940 e54a 060b 70cb b847 dbcb 3009 3e4b
00000030: cf72 4fcb 6baf b2cb 5eae 174a 2231 524b
-2.7606088e+07 -1.5228065e+07 1.3242969e+06 -1.16882e+07 26079.473 -5.299607e+06 5.3391404e+07 -4.3047532e+07
7.5121725e+06 -1.5731462e+07 -2.8741488e+07 1.2454192e+07 -1.3595343e+07 -2.342063e+07 2.4851435e+06 1.3775138e+07

exp_avg_sq f4 [8, 1, 2]
00000000: 4207 2b62 60e0 7a61 3e58 475d 0266 a460
00000010: 95a7 3e5e eddd 0660 d880 0962 d1fa f561
00000020: 2162 b260 23b3 bb61 a5b9 3261 99f1 c160
00000030: efb6 e760 d127 c261 2e94 8f5e 707f 0461
7.8872905e+20 2.8924087e+20 8.977687e+17 9.4769265e+19 3.4345283e+18 3.8872737e+19 6.34122e+20 5.671907e+20
1.0283098e+20 4.3280616e+20 2.060561e+20 1.11800955e+20 1.3357436e+20 4.4769218e+20 5.1729724e+18 1.5275957e+20

exp_avg f4 [8]
00000000: 8c55 e0cb 093f 1fcb 4593 67ca ec6f 00cc
00000010: 157f 324b 09c7 e64b 8e7b 17cc 312f 69cb
-2.9403928e+07 -1.0436361e+07 -3.7941292e+06 -3.366904e+07 1.1697941e+07 3.0248466e+07 -3.9710264e+07 -1.5281969e+07

exp_avg_sq f4 [8]
00000000: 7157 2362 8e95 365f e6ec 3f5f 339a b860
00000010: bccc 7860 db37 0c61 47ae 8762 b40b 1161
7.5328e+20 1.3156578e+19 1.3829681e+19 1.06416e+20 7.1711644e+19 1.6166056e+20 1.2514342e+21 1.6722632e+20

exp_avg f4 [16, 8, 2]
00000000: 1ea3 394b a278 174b c9f0 6448 3985 8548
00000010: 43c5 1948 fff7 4848 d7c7 574a 3e49 8a4a
00000020: ac9f 9b4a 56ce 7e4a 651d 9549 9a73 164a
00000030: 23a7 804a 242d 7d4a f1cd 9449 5f9f 8449
00000040: be5b 5f4c d331 674c 299d fe49 08f9 1d4a
00000050: a8d9 c349 e553 004a 4de9 214c 5cdb 3a4c
00000060: 362f 0f4c 68c6 e84b 5383 c24b fb38 f14b
00000070: d5a1 c44b 71e9 f54b 5bdd 274b f6f1 004b
00000080: 17cc 90ca 7aef 834a f720 e647 88ca 6d47
00000090: f2d0 1e48 cd74 8547 dca8 6d49 8b35 bbc9
000000a0: 5a12 c7ca 1828 7aca 3070 f549 7181 ccc9
000000b0: 61b4 9249 b0b9 214a d696 fec9 433a fac9
000000c0: a3dc 694a 0f08 7a4b 3fb4 a748 25ce ba48
000000d0: bad2 c348 ae6f bb48 a111 e34a 1905 964a
000000e0: f8eb 8f49 1f74 f449 7e6d a74a 3390 f349
000000f0: 91ce 7a4a 27ed e84a db2a 1947 ae94 f5c8
00000100: 0b6c 914b b77d 2aca 5e52 5748 5007 a848
00000110: 92d5 d047 d808 9f48 0cbc 8d4a 1f1a 274b
00000120: 79f1 314b d345 c74a 51c0 8dc5 dc9c 044b
00000130: f45e 8c4a 0f53 5749 066b 284a d15a 274a
00000140: 3000 444b e4ef 484b d434 0849 7f8e 9848
00000150: 16ec f548 8cc2 7b48 5425 0f4b b34e bf4a
00000160: 3bd8 2b4a 69d9 d14a cab5 b84a 7f35 204a
00000170: 1229 ef4a 8e9a 964a 1999 6e48 53f5 b149
00000180: b2d0 85cb b67e 87cb 621b 34c9 d3e1 2bc9
00000190: fdb3 17c9 c843 0ec9 6ffd 5ccb 1275 4ecb
000001a0: 5509 0dcb 7368 0dcb a7a6 0bcb 64ba 03cb
000001b0: a21c 0dcb c8de 08cb f646 15ca 1fd8 1eca
000001c0: e5db e5ca e7cc 63cb 9a84 1bc8 1d65 a1c8
000001d0: dc4b 02c8 2961 83c8 ec06 9fca 1281 a1ca
000001e0: b388 eeca 0809 aaca a02a 03ca af56 00ca
000001f0: b5ec e6c9 6b41 b1ca 9e1d fcc9 790d 75c9
00000200: 2827 38cc 3695 2ecc 7c63 d7c9 8085 cac9
00000210: c208 bdc9 8eb0 b0c9 9128 f7cb 832f eccb
00000220: 743c 97cb 1bc9 9bcb 2f39 96cb dd80 91cb
00000230: 234f bbcb 89c7 adcb dc01 87ca 1edf 98ca
00000240: fab3 9ccb 73f5 fecb 364c 99c9 b888 b8c9
00000250: 7757 80c9 d544 99c9 61d7 c9cb b718 cfcb
00000260: e46f 60cb 001a 42cb c31c 8bcb 0e01 86cb
00000270: c9d2 4acb a340 94cb 7027 8bca 00e4 32ca
00000280: 6daa 3a4c 3ef0 5a4c 34e3 dc49 8005 c549
00000290: 387a b949 2bfc 9c49 030e 004c 759c dc4b
000002a0: 1353 a84b 444e c64b a970 9b4b dc54 654b
000002b0: bf60 ba4b d744 b84b dea6 a34a 5c1b ba4a
000002c0: 9cf2 2c4b af9b 684b bc07 2649 47c8 2049
000002d0: 276c 1449 94fa 0a49 85aa 434b 2516 374b
000002e0: 24cc 914a 45a8 b94a 5e5a 0f4b 858a ee4a
000002f0: 1682 f44a ff70 034b 2186 ac49 3562 ad49
00000300: 389a 1f4c a42c 194c cada 9549 1e13 9449
00000310: dd29 6949 4047 6849 4fe5 bb4b 8427 c04b
00000320: 870e bb4b d738 be4b 3664 484b a1ab 4d4b
00000330: d557 804b f7f6 764b 34aa c54a 357e c94a
00000340: bea1 54c9 8ff2 784b 046e 9748 9a4c f448
00000350: 649f b148 b9a4 e648 712e 874a d38f 0e4a
00000360: b725 9bca 2a92 c7ca 795d 9b4a 7851 034a
00000370: 2103 614a 5dcc 1b4b 73fc a6c9 7994 2aca
00000380: ccab b54b 28c2 b34b 97a5 3749 b403 5049
00000390: 6c02 0d49 e94f 2449 568a 6c4b e2a7 744b
000003a0: 7213 674b dff3 3f4b 73ee 034b b51f 1a4b
000003b0: 6689 144b 9f20 284b 214b 804a fa06 624a
000003c0: 9fef 5ccc affc 56cc 5979 cfc9 d9f8 b2c9
000003d0: f5d4 a7c9 4c83 8bc9 d944 e1cb a1b6 c8cb
000003e0: acf2 b5cb 1e80 cbcb 1e39 72cb 89d1 49cb
000003f0: 388f c2cb 1eef aacb c7a2 a4ca 443a c9ca
1.2165918e+07 9.926818e+06 234435.14 273449.78 157461.05 205791.98 3.5353498e+06 4.531359e+06
5.099478e+06 4.1747415e+06 1.2215486e+06 2.4649985e+06 4.2156975e+06 4.148041e+06 1.2190061e+06 1.0864439e+06
5.8552056e+07 6.0606284e+07 2.0857971e+06 2.588226e+06 1.604405e+06 2.1025212e+06 4.2444084e+07 4.898341e+07
3.7534936e+07 3.0510288e+07 2.5495206e+07 3.1617526e+07 2.577297e+07 3.2232162e+07 1.1001179e+07 8.45055e+06
-4.7447155e+06 4.323261e+06 117825.93 60874.53 162627.78 68329.6 973453.75 -1.5336174e+06
-6.523181e+06 -4.098566e+06 2.01063e+06 -1.6753101e+06 1.2018041e+06 2.649708e+06 -2.0855948e+06 -2.0498644e+06
3.8315928e+06 1.6386063e+07 343457.97 382577.16 401045.8 383869.44 7.4405925e+06 4.9158525e+06
1.179007e+06 2.0025639e+06 5.486271e+06 1.9952704e+06 4.1092202e+06 7.6325315e+06 39210.855 -502949.44
1.9060758e+07 -2.7933258e+06 220489.47 344122.5 106923.14 325702.75 4.644358e+06 1.0951199e+07
1.1661689e+07 6.5297695e+06 -4536.0396 8.690908e+06 4.599674e+06 881968.94 2.7593615e+06 2.7419402e+06
1.2845104e+07 1.3168612e+07 557901.25 312435.97 503648.7 257802.19 9.381204e+06 6.2687615e+06
2.8155028e+06 6.8763405e+06 6.052581e+06 2.6248638e+06 7.836809e+06 4.934983e+06 244324.39 1.4578344e+06
-1.7539428e+07 -1.7759596e+07 -737718.1 -704029.2 -621375.8 -582716.5 -1.4482799e+07 -1.3530386e+07
-9.242965e+06 -9.267315e+06 -9.152167e+06 -8.632932e+06 -9.247906e+06 -8.969928e+06 -2.4457575e+06 -2.6025038e+06
-7.5320185e+06 -1.4929127e+07 -159250.4 -330536.9 -133423.44 -269065.28 -5.210998e+06 -5.292169e+06
-7.8162815e+06 -5.571716e+06 -2.149032e+06 -2.1026998e+06 -1.8917346e+06 -5.8083095e+06 -2.0653318e+06 -1.00373556e+06
-4.827459e+07 -4.576585e+07 -1.7644635e+06 -1.659056e+06 -1.5485682e+06 -1.4474418e+06 -3.2395554e+07 -3.0957318e+07
-1.9822824e+07 -2.0419126e+07 -1.9690078e+07 -1.9071418e+07 -2.4550982e+07 -2.2777618e+07 -4.423918e+06 -5.009295e+06
-2.053938e+07 -3.3417958e+07 -1.2558148e+06 -1.511703e+06 -1.0513749e+06 -1.2555786e+06 -2.6455746e+07 -2.7144558e+07
-1.4708708e+07 -1.272064e+07 -1.8233734e+07 -1.7564188e+07 -1.3292233e+07 -1.943175e+07 -4.5598e+06 -2.930944e+06
4.89333e+07 5.73934e+07 1.8095105e+06 1.614e+06 1.519431e+06 1.2860214e+06 3.356878e+07 2.8915946e+07
2.206263e+07 2.5992328e+07 2.0373842e+07 1.5029468e+07 2.4428926e+07 2.4152494e+07 5.362543e+06 6.09835e+06
1.13343e+07 1.5244207e+07 680059.75 658564.44 607938.44 569257.25 1.2823173e+07 1.1998757e+07
4.77749e+06 6.0836185e+06 9.394782e+06 7.8165145e+06 8.012043e+06 8.614143e+06 1.4133161e+06 1.4203586e+06
4.1838816e+07 4.0153744e+07 1.2276092e+06 1.2130278e+06 955037.8 951412.0 2.462787e+07 2.5186056e+07
2.4517902e+07 2.4932782e+07 1.3132854e+07 1.3478817e+07 1.6822186e+07 1.6185079e+07 6.477082e+06 6.6025225e+06
-870939.9 1.6315023e+07 310128.12 500324.8 363771.12 472357.78 4.4296245e+06 2.3357328e+06
-5.0838675e+06 -6.539541e+06 5.0910045e+06 2.151518e+06 3.6866002e+06 1.0210397e+07 -1.3679504e+06 -2.7947822e+06
2.3811992e+07 2.3561296e+07 752217.44 852027.25 577574.75 673022.56 1.550191e+07 1.6033762e+07
1.5143794e+07 1.2579807e+07 8.646259e+06 1.0100661e+07 9.734502e+06 1.1018399e+07 4.2039205e+06 3.7032305e+06
-5.7917052e+07 -5.6357564e+07 -1.6996271e+06 -1.4661391e+06 -1.3748786e+06 -1.1428895e+06 -2.952645e+07 -2.6307906e+07
-2.384828e+07 -2.6673212e+07 -1.5874334e+07 -1.3226377e+07 -2.5501296e+07 -2.2404668e+07 -5.3947875e+06 -6.593826e+06

exp_avg_sq f4 [16, 8, 2]
00000000: bc1e 3660 1a52 1760 85c4 295b 3545 2a5b
00000010: 26f8 365b 8839 415b 8dc5 905f 57d8 a45f
00000020: 30b1 4a5f a13f 555f a15a d35e 3895 f45e
00000030: f86a 105f 93c2 005f 3c07 425d ceb4 485d
00000040: 1b50 aa62 68d2 ab62 6904 995d 2450 985d
00000050: 7939 ac5d d376 ab5d 4503 f761 9403 fc61
00000060: 0fad 9c61 c9f4 a361 569a 3661 14d8 3361
00000070: 6e89 8b61 b79c 8a61 f7b6 905f 517f 915f
00000080: 273a 1662 50b8 0d62 cfc0 e75c e5ba dd5c
00000090: fe42 1a5d 5b18 125d 00e5 4161 3575 3e61
000000a0: 0834 f660 1a77 fe60 b945 8a60 14a9 8860
000000b0: b15f f260 8d4c e160 aca2 c05e c845 d05e
000000c0: 6503 8162 05f7 8462 c9d9 645d 0fa3 6e5d
000000d0: a3bb 8b5d cb76 935d 0202 c761 db8b cf61
000000e0: 0497 8161 f1cb 8061 cbbd 1361 ecf3 1761
000000f0: b4ea 5161 8d6b 5c61 e712 6f5f 7c6c 605f
00000100: 964d 9261 4c49 6f61 bbf3 4c5c 077d 3d5c
00000110: 1a02 755c 28eb 615c 7a3f a160 1721 a560
00000120: 476b 6960 6d5a 7b60 fb67 da5f 2a3a e75f
00000130: 63f7 5a60 249e 3360 e572 3e5e d7aa 5c5e
00000140: 031b b961 4eeb ae61 1fb8 a15c 9e0f 9b5c
00000150: b1e0 c85c 8242 c15c 4312 0861 0481 0b61
00000160: 97c2 a860 69e8 b760 1118 4c60 b8e4 4960
00000170: 420f 9960 1fbf 8d60 a5ba 975e 19c1 a25e
00000180: 2178 2661 e1dd 2f61 1518 005c d64d 105c
00000190: 0133 245c 555a 405c 73d7 5960 10b9 6c60
000001a0: efb0 1860 c390 0960 53ca 9f5f 23d7 b25f
000001b0: fb92 0160 c832 1460 0905 095e 7405 e35d
000001c0: 21a5 0d62 944b 2562 620e 0d5d 0751 1d5d
000001d0: 5cff 3e5d b971 525d a087 8d61 7ee6 8661
000001e0: e8fb 3461 0f4c 1361 cf07 d460 97c1 d860
000001f0: b9ab f160 bbbd 1361 5b58 1f5f c3a9 035f
00000200: ffe6 1a62 a90a 1b62 ec9c 0d5d da70 105d
00000210: 6995 2e5d 5831 325d 3830 7961 4e54 7761
00000220: ddad 1e61 e59c 1561 1067 ba60 2f8b bf60
00000230: 8161 0061 5437 0361 21b7 115f a015 0d5f
00000240: 5ff9 3761 70f8 3f61 0aba 2d5c 3d37 265c
00000250: 8136 525c 641c 465c e6ca 9860 adaf 9260
00000260: f0ff 4160 f52d 4d60 4dab e65f d561 d55f
00000270: 50e4 1960 d1be 1660 7177 345e 4f95 3a5e
00000280: 2b18 9c61 afd2 9761 da31 875c 3d53 835c
00000290: ea99 a85c b5f5 a15c aa91 f760 2f93 ee60
000002a0: 872d a660 eadf a560 b1e1 2d60 1065 2860
000002b0: f1e3 7860 98e4 6f60 45a4 885e 4dc8 8d5e
000002c0: dec6 1962 b0af 0462 3c18 e35c c7a9 db5c
000002d0: ab68 0d5d d68f 0d5d 0932 3b61 3908 4b61
000002e0: dbb3 0661 7845 1061 1456 8260 387d 8e60
000002f0: 15f4 e960 b54c cf60 44d5 e05e 191c f35e
00000300: efb1 ff60 c24f e760 b769 e45b 4e04 e35b
00000310: 2708 e85b 7e69 f35b 96c5 3f60 4333 5960
00000320: f8bf 0660 ab3f 0760 5bf8 8e5f c4c8 ad5f
00000330: cee0 c05f 81de b05f fc2c 045e d5ea 0a5e
00000340: 85af fb62 22bd 0363 1583 ee5d 7898 fc5d
00000350: 02cf 175e 3fc6 225e cc4a 5c62 2799 6362
00000360: ac74 0a62 2856 0462 03b1 a361 6ff2 a961
00000370: ae5b d361 1636 e461 0212 f75f 3ddb e15f
00000380: 3545 9761 8952 a261 ad8f 9c5c 422f a75c
00000390: 6327 b35c ecd5 be5c df20 0f61 4f87 0a61
000003a0: e5c2 bb60 7478 a460 f8dc 5a60 ada0 6060
000003b0: a52d 7c60 5270 8d60 e521 bc5e 5a48 ab5e
000003c0: 109a 4d62 9501 6362 41f4 335d 6dea 315d
000003d0: 73eb 5a5d 45a0 525d c4d2 9161 42ee 8b61
000003e0: 4157 2e61 bcad 3761 e7ff d960 50ab c360
000003f0: 4bc2 2b61 08db 3261 a481 185f e38a 185f
5.2492532e+19 4.3615225e+19 4.7785347e+16 4.792684e+16 5.150129e+16 5.4387927e+16 2.0863798e+19 2.375668e+19
1.4605508e+19 1.5366177e+19 7.614831e+18 8.812027e+18 1.0406403e+19 9.27814e+18 8.738256e+17 9.039007e+17
1.5708593e+21 1.5847773e+21 1.3782567e+18 1.371914e+18 1.5512604e+18 1.5444118e+18 5.6957267e+20 5.8110467e+20
3.612703e+20 3.7805724e+20 2.1052678e+20 2.0734608e+20 3.2175003e+20 3.196179e+20 2.0855587e+19 2.0968375e+19
6.928005e+20 6.53568e+20 5.2186172e+17 4.992917e+17 6.947329e+17 6.57954e+17 2.2354517e+20 2.1958294e+20
1.4192651e+20 1.4668922e+20 7.9708585e+19 7.877939e+19 1.3971898e+20 1.2987605e+20 6.940423e+18 7.5038106e+18
1.1899373e+21 1.2263849e+21 1.030652e+18 1.0747253e+18 1.2586026e+18 1.328238e+18 4.5888084e+20 4.785692e+20
2.9881398e+20 2.9698485e+20 1.7033421e+20 1.7518967e+20 2.420176e+20 2.541271e+20 1.7227086e+19 1.6171437e+19
3.373519e+20 2.7587834e+20 2.3075552e+17 2.1334496e+17 2.7585472e+17 2.543617e+17 9.295312e+19 9.519054e+19
6.727846e+19 7.2447635e+19 3.1475647e+19 3.3323352e+19 6.3112755e+19 5.177129e+19 3.4308207e+18 3.9751895e+18
4.2682426e+20 4.0333612e+20 3.641593e+17 3.4916634e+17 4.5233637e+17 4.3518237e+17 1.5687957e+20 1.6083712e+20
9.728358e+19 1.0601566e+20 5.8826093e+19 5.819182e+19 8.823285e+19 8.171133e+19 5.466616e+18 5.863841e+18
1.9192598e+20 2.0276052e+20 1.442211e+17 1.6247191e+17 1.848719e+17 2.1657007e+17 6.2788566e+19 6.823073e+19
4.4010227e+19 3.965055e+19 2.3028213e+19 2.5773615e+19 3.7347204e+19 4.271527e+19 2.468327e+18 2.0448261e+18
6.532224e+20 7.622897e+20 6.352606e+17 7.084906e+17 8.6017626e+17 9.4775655e+17 3.2634547e+20 3.1105905e+20
2.0866036e+20 1.69822e+20 1.2222726e+20 1.2495145e+20 1.3931373e+20 1.7033393e+20 1.1482027e+19 9.487328e+18
7.143609e+20 7.150034e+20 6.3776815e+17 6.5050365e+17 7.862548e+17 8.025088e+17 2.8729461e+20 2.8515129e+20
1.829446e+20 1.724919e+20 1.0745378e+20 1.1041742e+20 1.4801307e+20 1.512819e+20 1.0499897e+19 1.0166208e+19
2.121077e+20 2.2132687e+20 1.955989e+17 1.8714233e+17 2.3667869e+17 2.2305304e+17 8.807892e+19 8.455886e+19
5.5916623e+19 5.913897e+19 3.3242927e+19 3.075161e+19 4.4356305e+19 4.3449397e+19 3.2509967e+18 3.3611848e+18
3.599292e+20 3.5007996e+20 3.0443147e+17 2.9571795e+17 3.796562e+17 3.6470103e+17 1.4271381e+20 1.3752909e+20
9.5795e+19 9.562023e+19 5.011796e+19 4.853649e+19 7.1737772e+19 6.9144434e+19 4.9230353e+18 5.10825e+18
7.091704e+20 6.1190746e+20 5.1137173e+17 4.9463754e+17 6.368489e+17 6.3753794e+17 2.1582166e+20 2.340801e+20
1.5530148e+20 1.6633356e+20 7.513373e+19 8.213939e+19 1.3486498e+20 1.19500105e+20 8.100465e+18 8.758952e+18
1.4739816e+20 1.3334203e+20 1.2858506e+17 1.27799106e+17 1.3062232e+17 1.3702882e+17 5.5274464e+19 6.2603707e+19
3.883901e+19 3.8982785e+19 2.0604168e+19 2.5044949e+19 2.779667e+19 2.5489532e+19 2.381066e+18 2.5025118e+18
2.3213901e+21 2.430152e+21 2.1483255e+18 2.2751787e+18 2.734741e+18 2.932283e+18 1.01591834e+21 1.0496117e+21
6.3851444e+20 6.102946e+20 3.774468e+20 3.918711e+20 4.8735865e+20 5.2621937e+20 3.560659e+19 3.2549337e+19
3.4880566e+20 3.7428998e+20 3.5254456e+17 3.7646625e+17 4.034186e+17 4.2972364e+17 1.6501581e+20 1.5971254e+20
1.0823702e+20 9.48108e+19 6.308301e+19 6.474451e+19 7.2685446e+19 8.153389e+19 6.778184e+18 6.171107e+18
9.48171e+20 1.0468812e+21 8.104413e+17 8.012612e+17 9.859268e+17 9.485754e+17 3.3624564e+20 3.226582e+20
2.010013e+20 2.1176707e+20 1.2566822e+20 1.1279561e+20 1.980246e+20 2.0620646e+20 1.0989245e+19 1.0991847e+19

exp_avg f4 [16]
00000000: 06d6 bd4b 373f 474d 7def 60cb dbcc 904b
00000010: f066 184c aed8 ef4b 6e8d 66cc a867 d9cb
00000020: 3ff6 00cd 7985 c4cc c5dc 094d 82c1 334c
00000030: 5ce6 ef4c 78d7 2c4a 0a80 954c 90b0 07cd
2.4882188e+07 2.0892555e+08 -1.4741373e+07 1.8979254e+07 3.9951296e+07 3.1437148e+07 -6.0437944e+07 -2.8495696e+07
-1.3522635e+08 -1.030338e+08 1.4455918e+08 4.712193e+07 1.2577661e+08 2.831838e+06 7.838114e+07 -1.4228096e+08

exp_avg_sq f4 [16]
00000000: 2a1f cd61 a2c9 2e64 fa82 8663 da7a 0b64
00000010: d937 f362 ffab 3d63 238e a262 e08d b263
00000020: 6aa8 aa63 5878 cf62 4a75 2263 38ec 8b63
00000030: 5eac 8862 91cd 9064 1212 4263 02ef c963
4.7297852e+20 1.2897051e+22 4.962603e+21 1.0291799e+22 2.2432915e+21 3.4988283e+21 1.4993073e+21 6.587487e+21
6.296164e+21 1.9135739e+21 2.996824e+21 5.1622376e+21 1.2605888e+21 2.136915e+22 3.5799705e+21 7.450036e+21

exp_avg f4 [32, 16, 2]
00000000: 723b 8dcb 11ca 63cb ff8d 2b4c fb68 284c
00000010: 9643 f04a 6d16 a94a f47e 2fcc 1ba7 1fcc
00000020: 4f13 1ecc 3366 1ecc 792b 084c 79e2 e24b
00000030: ae7b 804c 17c3 824c 2a61 644c ca67 764c
00000040: 7825 884c 9ff0 8c4c 7051 e7cb a667 efcb
00000050: dd19 cbcb 8e8b cbcb 0f68 004a ffba ad4a
00000060: 780a 214c d969 084c 1b36 1b4b 5a78 354b
00000070: 174e 694c 546b 6a4c 13ab 52cb 3a01 25cb
00000080: e7af f64a f9f3 1c4b 9914 87cb 2512 9ccb
00000090: ed0d 9aca ddeb c7ca 9a89 884b 5660 b64b
000000a0: 5dfe 8e4b eab8 954b dc69 59cb 0ebe 9fcb
000000b0: 00f5 dbcb 222e d7cb 0936 aecb 5115 a3cb
000000c0: 5a99 eacb e659 e2cb 3d44 074b d587 264b
000000d0: fbcd 1f4b 1f2b 144b a5b9 9aca 67e1 5d49
000000e0: b444 67cb 9b51 b7cb 253a 1aca f9f9 15ca
000000f0: 4b09 c7cb 490d c7cb a01e 484a 98a2 ff4a
00000100: 4e78 8cca abda 8dca ab3a 8b4b ae59 8c4b
00000110: 9968 3e4a 7583 354a c744 87cb 5ec2 7fcb
00000120: 2c6f 8acb 1124 87cb 11ae 3a4b a698 324b
00000130: 217b ca4b 2d9d cf4b 9445 c04b 6e97 cb4b
00000140: bf48 e44b c00f eb4b 6587 3fcb ac4b 35cb
00000150: bbbf 0fcb 8ae7 09cb 06d3 0f4a c989 344a
00000160: 490a 694b e89e 4b4b bd6e 834a 77e9 b14a
00000170: 65f9 b54b 9e6c b84b 6bec 84ca 4153 84ca
00000180: 0a63 3b4b 231e 564b a421 17cc ee20 16cc
00000190: ef1e b2ca 2b6b c1ca e78d 134c aa98 124c
000001a0: dda9 134c 4c20 0f4c 7181 d0cb ad8c d6cb
000001b0: ef89 66cc bc13 68cc f665 55cc d1c5 51cc
000001c0: e35e 7acc b2e2 79cc 6eb5 d74b a3a1 c54b
000001d0: 5877 b74b 4667 ac4b 81e8 98ca fe71 afca
000001e0: 19c5 ffcb 925b fdcb ec9c 09cb ba67 0dcb
000001f0: b112 4fcc d5f2 50cc 4036 0d4b becb 104b
00000200: 1994 f0ca d755 10cb 096f 044c 55bc fc4b
00000210: 5dcb 914a 318e 2b4a 3370 04cc 672c e6cb
00000220: 7dbf 01cc 021f edcb d5a1 b24b d672 934b
00000230: 5877 3d4c f6e2 474c 3db5 364c 4aaa 414c
00000240: f0a7 544c 210a 5b4c 490a cfcb b802 bfcb
00000250: 4e81 9fcb b39b a2cb d66e a449 974d a94a
00000260: e16c e44b 137e b44b a555 e54a 9eb5 094b
00000270: a44e 294c 021b 324c 5e79 09cb 9d49 c4ca
00000280: d4cf e448 1cb3 bdc8 cbc9 294a 00f0 914a
00000290: 9e48 0ec9 4abc 7fc8 d835 4aca 3212 93ca
000002a0: 0e14 55ca 58a2 41ca 9775 f147 24f6 364a
000002b0: 0968 764a d7e3 9e4a 2e0d 8f4a 5b49 d24a
000002c0: 625f 974a 8bb5 bc4a 50e9 9fca 4f4a a1ca
000002d0: 31b8 38ca ad79 2bca 8c54 4b49 faa0 00ca
000002e0: 560c 864a 8f72 8a4a 6bd2 18c9 2d88 044a
000002f0: 561c 7d4a 516f 8e4a d543 9b49 3921 01ca
00000300: 9c3e 104b d3d2 1a4b f2dc 10cc 3e0d 14cc
00000310: 5659 96ca f8a5 dfca e6d8 054c 7562 0c4c
00000320: 740f 114c 0541 144c fbf1 b0cb 558a c9cb
00000330: 24fe 5ecc 8df3 58cc d17f 57cc a632 4ecc
00000340: b6c7 77cc 1510 75cc d1a7 d24b a3d3 c14b
00000350: 3c81 ad4b bd68 9d4b 6efa cfca 412f 9eca
00000360: 3590 d9cb 91f6 e3cb 5ef2 16cb 3ec9 1ccb
00000370: bf53 46cc c08e 40cc 939b e24a 72fd 124b
00000380: 7d2c 90ca 5f5f c8ca cc67 774b 0122 724b
00000390: 98bb 874a 1bb8 5a4a ccb1 76cb 1934 78cb
000003a0: 559c 80cb 5d66 70cb 2344 424b 9c41 424b
000003b0: ba67 b24b 1a9b b94b d15b 9d4b 8d1b 9d4b
000003c0: 33bd c84b 24e4 c54b ece8 05cb 6503 13cb
000003d0: a2b5 ebca 82bf 0ccb c2c9 0f4a 309c 084a
000003e0: 8e4e 4c4b 0fba 5f4b f4d5 664a bd0e 304a
000003f0: 5a35 9e4b 6a80 a84b 3e42 82ca 7ef5 79ca
-1.8511588e+07 -1.4928401e+07 4.4972028e+07 4.4147692e+07 7.872971e+06 5.5406625e+06 -4.60052e+07 -4.1852012e+07
-4.1438524e+07 -4.1523404e+07 3.56961e+07 2.9738226e+07 6.736216e+07 6.8556984e+07 5.986833e+07 6.4593704e+07
7.13799e+07 7.389311e+07 -3.0319328e+07 -3.1379276e+07 -2.6620858e+07 -2.6679068e+07 2.1038118e+06 5.6927995e+06
4.2215904e+07 3.5759972e+07 1.0171931e+07 1.1892826e+07 6.1159516e+07 6.14516e+07 -1.3806355e+07 -1.0813754e+07
8.0834435e+06 1.0286073e+07 -1.7705266e+07 -2.0456522e+07 -5.0480545e+06 -6.5510225e+06 1.7896244e+07 2.3904428e+07
1.8742458e+07 1.9624404e+07 -1.4248412e+07 -2.0937756e+07 -2.8830208e+07 -2.82041e+07 -2.2834194e+07 -2.137565e+07
-3.0749364e+07 -2.96683e+07 8.864829e+06 1.0913749e+07 1.0472955e+07 9.710367e+06 -5.0700345e+06 908822.44
-1.5156404e+07 -2.4027958e+07 -2.5268572e+06 -2.4572142e+06 -2.6088086e+07 -2.609013e+07 3.27876e+06 8.376652e+06
-4.602919e+06 -4.6482775e+06 1.8249046e+07 1.8395996e+07 3.1196542e+06 2.9739172e+06 -1.7729934e+07 -1.6761438e+07
-1.8144856e+07 -1.7713186e+07 1.2234257e+07 1.1704486e+07 2.6539586e+07 2.7212378e+07 2.5201448e+07 2.6685148e+07
2.9921662e+07 3.0809984e+07 -1.2552037e+07 -1.1881388e+07 -9.420731e+06 -9.037706e+06 2.3564175e+06 2.9579382e+06
1.5272521e+07 1.3344488e+07 4.3067825e+06 5.8298195e+06 2.3851722e+07 2.417286e+07 -4.3556375e+06 -4.3360325e+06
1.2280586e+07 1.4032419e+07 -3.961819e+07 -3.935532e+07 -5.8366635e+06 -6.3379415e+06 3.8680476e+07 3.842935e+07
3.8709108e+07 3.7519664e+07 -2.732925e+07 -2.8121434e+07 -6.0434364e+07 -6.0837616e+07 -5.594108e+07 -5.499066e+07
-6.5633164e+07 -6.550599e+07 2.8273372e+07 2.5903942e+07 2.404728e+07 2.259726e+07 -5.0104965e+06 -5.748991e+06
-3.3524274e+07 -3.32081e+07 -9.018604e+06 -9.26713e+06 -5.4282948e+07 -5.4774612e+07 9.254464e+06 9.489342e+06
-7.8832765e+06 -9.459159e+06 3.4716708e+07 3.312657e+07 4.7773905e+06 2.8107642e+06 -3.47179e+07 -3.0169294e+07
-3.401266e+07 -3.107994e+07 2.3413674e+07 1.932638e+07 4.9667424e+07 5.2399064e+07 4.7895796e+07 5.076817e+07
5.5746496e+07 5.7419908e+07 -2.713717e+07 -2.5036144e+07 -2.0906652e+07 -2.1313382e+07 1.3470348e+06 5.5477235e+06
2.9940162e+07 2.365751e+07 7.5148345e+06 9.024926e+06 4.4382864e+07 4.668929e+07 -9.009502e+06 -6.4319505e+06
468606.62 -388504.88 2.7818108e+06 4.78208e+06 -582793.9 -261873.16 -3.313014e+06 -4.819225e+06
-3.4910755e+06 -3.172502e+06 123627.18 2.997641e+06 4.0371222e+06 5.2065075e+06 4.687511e+06 6.8906695e+06
4.960177e+06 6.1836215e+06 -5.239976e+06 -5.2851595e+06 -3.0264442e+06 -2.8094512e+06 832840.75 -2.1074545e+06
4.392491e+06 4.5366475e+06 -625958.7 2.1714032e+06 4.1469655e+06 4.6673045e+06 1.2719306e+06 -2.1156622e+06
9.453212e+06 1.0146515e+07 -3.7974984e+07 -3.881087e+07 -4.926635e+06 -7.328508e+06 3.5087256e+07 3.680098e+07
3.8026704e+07 3.8863892e+07 -2.3192566e+07 -2.6416298e+07 -5.845621e+07 -5.68725e+07 -5.6491844e+07 -5.405353e+07
-6.495407e+07 -6.4241748e+07 2.7611042e+07 2.5405254e+07 2.2741624e+07 2.063193e+07 -6.815031e+06 -5.1833925e+06
-2.8516458e+07 -2.9879586e+07 -9.892446e+06 -1.0275134e+07 -5.1990268e+07 -5.0477824e+07 7.4254815e+06 9.633138e+06
-4.7242865e+06 -6.5658075e+06 1.6213964e+07 1.5868417e+07 4.447692e+06 3.5834948e+06 -1.6167372e+07 -1.6266265e+07
-1.6857258e+07 -1.5754845e+07 1.2731427e+07 1.273078e+07 2.3383924e+07 2.4327732e+07 2.0625314e+07 2.059241e+07
2.631127e+07 2.5937992e+07 -8.775916e+06 -9.634661e+06 -7.723729e+06 -9.224066e+06 2.3558245e+06 2.23822e+06
1.3389454e+07 1.4662159e+07 3.782013e+06 2.8845272e+06 2.0736692e+07 2.2085844e+07 -4.268319e+06 -4.0953275e+06
