lightning_logs/version_9/checkpoints/epoch=0-step=99.ckpt (torch, 398738 bytes, 48 tensors)

lattice_net.0.weight f4 [8, 1, 2]
000000 fb c6 35 3c 92 fb 33 3f a3 57 42 3e a6 5d 8e be
       0.011094804 0.7030574 0.18978743 -0.27805823
000010 be ed 28 bf 73 ac 25 bf 8e 18 db be 53 bb ff 3e
       -0.65987766 -0.6471626 -0.4279217 0.49947605
000020 fb d2 31 bf ea fa b5 3e b8 87 2b bf 63 12 0e 3f
       -0.69462556 0.35542995 -0.67003965 0.55496806
000030 a6 e9 29 be 6b 86 2f 3f 5d d8 b6 be cc f6 db be
       -0.16593036 0.6856448 -0.35711947 -0.4296173

lattice_net.0.bias f4 [8]
000000 21 9c cd 3e 61 d0 25 bf 61 55 03 3e 14 8e 84 be
       0.4015818 -0.64771086 0.12825538 -0.25889647
000010 ad f2 2d bf d0 bc 12 3f 15 be 05 be 03 d5 89 3d
       -0.6794842 0.57319355 -0.13060792 0.06730082

lattice_net.2.weight f4 [16, 8, 2]
000000 18 da 05 3b 80 c6 15 be 32 e6 71 be e4 a8 21 3e
       0.0020424183 -0.14626503 -0.23622969 0.15787083
000010 f8 e5 69 be 01 01 6c 3e a7 15 6b 3c f3 0d 48 3e
       -0.22841632 0.23047258 0.014348424 0.19536571
000020 45 48 7e 3d 42 21 32 bc 49 06 04 3e 78 b9 3c 3c
       0.06208064 -0.010872187 0.12893023 0.011518829
000030 2f a0 02 3d b8 d3 c7 3d 94 73 5f bd 4e 7c 14 3e
       0.031891044 0.09757179 -0.054553583 0.14500543
000040 e2 d7 20 3e 58 cd 3c 3e 0e f0 03 3e 42 6f 3e be
       0.15707353 0.18437707 0.12884542 -0.18597129
000050 83 25 d1 bd ef 31 82 bd b4 1e bb 3d a8 9c 5f bd
       -0.10212233 -0.0635718 0.091367155 -0.05459276
000060 23 10 4c 3e b2 84 55 3d 8f 3a 6d be c0 e6 fd bd
       0.1992803 0.0521285 -0.2316687 -0.12397528
000070 ae 39 9a 3d 87 2d d1 bd 91 3e 5c 3e 8b b7 f1 bd
       0.07530533 -0.10213762 0.21508242 -0.11802586
000080 7a 76 56 be 4e 97 96 bc f5 7a ce 3d 93 4b 57 3d
       -0.20943633 -0.018382695 0.10082046 0.052562308
000090 f2 29 6b bd 8e f0 90 3d 83 8f a5 3d 22 ed 0a 3e
       -0.05741305 0.07077132 0.08084013 0.13567021
0000a0 6b cf bf bd 3e 95 79 be 9e 3c 24 3e a7 2c 17 be
       -0.09365734 -0.24373338 0.16038749 -0.14763127
0000b0 b3 72 54 be bc af 99 bd f6 c7 26 bd bb e0 de 3d
       -0.2074688 -0.07504222 -0.04071804 0.10882708
0000c0 23 4f 3f 3e a5 62 46 be ce 5a 1f be 75 df 28 3e
       0.18682532 -0.19373567 -0.15561983 0.16491492
0000d0 48 ea 1a be 09 29 54 3e ac 77 b7 3c 5e cc e5 3d
       -0.15128434 0.20718779 0.022395931 0.112206206
0000e0 bc 11 44 3d 7a a3 80 bc a3 fe 36 3e 9e ca a1 3d
       0.047868475 -0.015702952 0.17870574 0.07899974
0000f0 64 a0 7c 3d 85 0f 41 3e 28 bf 1b 3e 1d fe 6d bd
       0.061676398 0.18853576 0.15209639 -0.05810367
000100 3b 54 d8 bc ed 04 c5 3c 20 d9 96 3d 3d 23 70 3e
       -0.026407352 0.0240502 0.07365632 0.23450942
000110 55 7f 11 3e 14 d2 71 3e b3 3d d7 bd 61 a3 eb 3d
       0.1420873 0.23615295 -0.10509815 0.115057714
000120 41 4b a2 3d b5 e6 b8 3c 3f 4e 55 3e d6 e4 13 3e
       0.0792451 0.022570947 0.2083063 0.14442763
000130 97 36 9c bd 66 ec 68 be 39 ee e4 3d 87 3a 65 be
       -0.076276 -0.22746429 0.1117825 -0.22385608
000140 ec 01 14 be b9 99 70 3e be 17 55 bd a5 96 1a 3e
       -0.14453858 0.2349614 -0.052024595 0.15096529
000150 47 8d 7e 3b 48 31 0b 3e e3 9c 73 be 29 d0 68 3d
       0.0038841532 0.13593018 -0.23790316 0.056839142
000160 a4 d3 f6 bd ba cf 1e 3e fe 33 06 3d c7 e4 fb bd
       -0.12052086 0.15508929 0.032764427 -0.12299495
000170 bd 28 41 be 53 3c 80 be 1e 21 20 3e e9 17 ce 3d
       -0.18863197 -0.25046024 0.15637633 0.10063154
000180 51 8f d1 bd f5 a5 55 3e fe b8 b7 3d 52 c1 c5 3c
       -0.102324136 0.20864089 0.08970831 0.024140034
000190 e3 76 db 3c 57 ec ec bc 7d d1 62 be 74 8a ad 38
       0.026790088 -0.02892129 -0.22150226 8.275072e-05
0001a0 30 08 89 bc aa c1 80 bc f0 ab 66 bd 90 c1 75 3e
       -0.016727537 -0.015717346 -0.056316316 0.2399962
0001b0 49 74 ff bd b3 12 80 be 88 b3 b6 3d 0c a0 43 3e
       -0.124733515 -0.25014266 0.089209616 0.19104022
0001c0 97 4a 82 3e 5c 00 75 be fe 4f 3d 3e 58 4f 49 3e
       0.25447533 -0.23925918 0.18487546 0.19659173
0001d0 37 a2 45 3d 2d 6c 6f be 94 44 ff 3d 13 81 27 3e
       0.048250403 -0.2338111 0.12464252 0.16357832
0001e0 ad 17 6c 3e 37 63 fe 3d a7 2d 55 3e a6 a4 5c be
       0.23055907 0.124212675 0.20818196 -0.21547183
0001f0 bd 22 1c bc 67 a3 83 3a c4 fa 36 be 58 6e ad bd
       -0.009529767 0.0010043205 -0.17869097 -0.08468312
000200 48 bb 3c 3e 0a 94 8f bd 47 56 25 be 46 8a 5f be
       0.18430817 -0.07010658 -0.16146193 -0.21830091
000210 fe b9 6c 3e 6b 43 d8 bd 5e 8e 61 bd 21 4e cf 3c
       0.23117825 -0.10559734 -0.055067413 0.02530581
000220 1f 94 77 be 8c d3 2a 3d c9 7b f8 bd 19 b5 e8 3d
       -0.24177597 0.041705653 -0.12132985 0.11362667
000230 db 4c 50 3c 2a 6e 4b bd 59 a4 62 bd 26 25 21 3e
       0.012713636 -0.049665608 -0.055332515 0.15736827
000240 52 1e 00 3e 7c e0 1c 3e 67 e1 1d 3e 13 c6 94 3d
       0.12511566 0.15320009 0.15418015 0.07264342
000250 16 77 f7 bd 46 2c 4e bc 8d 5c 3c 3e 07 7c 68 3e
       -0.12083261 -0.012583798 0.1839468 0.22703563
000260 4d 78 d8 3d e6 ea 01 3e ea 59 2e 3e d5 a1 34 3e
       0.105698206 0.12687263 0.17026487 0.17639859
000270 f3 3f 9d 3c f4 5f 25 be 79 d7 e2 3d 50 99 74 3e
       0.019195532 -0.16149884 0.110762544 0.23886609
000280 13 6d 4d 3e 8d 47 31 3e 68 58 70 3e c7 be 38 be
       0.2006114 0.1731245 0.23471224 -0.18041526
000290 3f 42 bf 3d 23 25 15 bd 66 20 6d 3e d3 e1 53 be
       0.09338807 -0.03641237 0.2315689 -0.20691614
0002a0 5f c4 68 3e 64 38 65 be 25 33 66 be 37 97 6c 3c
       0.2273116 -0.22384793 -0.22480448 0.014440349
0002b0 b9 8f 81 bc 11 ec 5a be 43 9b 47 3e 04 eb 72 3e
       -0.015815603 -0.21379115 0.19492821 0.23722464
0002c0 64 d5 1e 3e 8b f0 37 3e e9 48 77 3e d4 62 a8 3d
       0.1551109 0.17962854 0.24148907 0.08221975
0002d0 c5 ee 7e 3e 63 8d 7b 3d 55 76 a0 3d ba e8 64 3d
       0.24895771 0.061414134 0.0783507 0.055886008
0002e0 11 b5 0c bb b4 6c 9b 3d 3b 89 34 3e b9 04 85 3e
       -0.0021470229 0.07589093 0.17630474 0.25980166
0002f0 26 c7 2f be 8d 50 44 be d2 84 e0 bc 5a 4b 4e be
       -0.17165813 -0.19171353 -0.027407084 -0.20145932
000300 91 04 99 bd bd 10 51 3e 0b c2 2e be 65 e2 4c be
       -0.07471574 0.20416541 -0.17066209 -0.20008238
000310 8e 13 c0 bc 23 60 82 be e3 a2 0c be 50 82 dc bc
       -0.023446824 -0.25463971 -0.13734011 -0.026917607
000320 f6 10 dd 3d 14 b9 0a be c1 dd d0 bd 86 4b 8d bd
       0.10794251 -0.13547164 -0.10198546 -0.068991706
000330 7c da 0e 3e 8a c7 6a 3e fe 50 44 3e e9 e8 fc bd
       0.13950533 0.2292768 0.19171521 -0.123491116
000340 40 84 01 be a7 5a 5f be e7 05 10 be c5 ea 44 be
       -0.12648106 -0.21811925 -0.14064752 -0.19230182
000350 e5 81 53 3e ef ba 0b be 66 3d 54 3e 8a d9 32 3e
       0.2065502 -0.13645528 0.20726547 0.17465797
000360 b5 83 0d be 7e e5 58 3e f7 4d 50 3e ac 17 ea 3d
       -0.13819773 0.21181294 0.20342241 0.11430296
000370 fa f0 90 3d 1c e4 aa bb 48 c2 b6 3d b4 16 6d be
       0.07077213 -0.005215181 0.08923775 -0.23153192
000380 31 b6 9a 3d 81 ef 56 be 72 9c 44 3e b0 92 a7 bd
       0.075542815 -0.20989801 0.19200304 -0.08182275
000390 90 c8 ca 3d 0a d9 81 3e a1 87 a4 bd e5 1e e4 3c
       0.099015355 0.253609 -0.08033682 0.027846763
0003a0 89 5e 5d 3e 61 8d 4e be 4d 76 46 3e 69 8a db bc
       0.21618094 -0.2017112 0.19381066 -0.026799398
0003b0 1c 8a 2d 3e e9 11 39 3e 3c af 45 3e 19 78 6f bd
       0.16947216 0.18073238 0.19305128 -0.058464143
0003c0 e9 db 66 3e e5 8e fd bd d7 4d e7 3d 0b 33 55 be
       0.22544827 -0.123807706 0.11294144 -0.20820253
0003d0 1c cd 17 3e 67 72 be bd 78 e9 a5 3d 1c 5b 7d be
       0.14824337 -0.09299164 0.08101171 -0.24741787
0003e0 40 cd a1 3d a9 43 60 be 59 1b f3 3d f1 19 c9 bd
       0.079004765 -0.2190081 0.118704505 -0.09819401
0003f0 51 ef 22 3e 05 ca 72 3e 5c 4d 41 bd 2d 7a a7 3d
       0.15911604 0.23709877 -0.047192916 0.081776

lattice_net.2.bias f4 [16]
000000 85 2c 38 be 46 66 19 3e 62 f4 82 bd e3 2e a3 3d
       -0.17985733 0.1498042 -0.063942686 0.07967927
000010 87 52 26 bd b8 ab b3 3d 81 8a 2a 3d cd d6 44 bc
       -0.040606048 0.08772987 0.041635994 -0.012014103
000020 cd 95 38 be 77 8c a6 3d 06 8b 50 3e e2 39 6b be
       -0.18025894 0.0813226 0.20365533 -0.229713
000030 02 93 00 be b1 6e 1f 3e cf 03 3a 3d ab 3c 09 3d
       -0.12556079 0.15569569 0.04541379 0.033505123

tNN.0.weight f4 [16, 2]
000000 63 a1 e1 3d 1f c3 ea 3e f0 8f 1b 3f e4 cb 01 3f
       0.1101711 0.4585199 0.60766506 0.5070174
000010 54 f2 0d 3e 6d c0 84 bd 64 56 d2 be 93 5a e9 be
       0.13861972 -0.06482015 -0.41081536 -0.45576915
000020 7d e1 d9 be a2 56 c9 3e ad 46 c2 3e 52 b3 05 3f
       -0.42554846 0.39323908 0.37944546 0.52226746
000030 46 1b 62 be 1e 22 ed be fa 26 db 3e 61 02 d9 bd
       -0.22080716 -0.46315092 0.42803174 -0.10596157
000040 ee f7 0b 3b fa 4c c6 bd 92 15 95 be 8c 69 20 3d
       0.0021357494 -0.09682651 -0.2911802 0.039163157
000050 ca 14 de 3e 33 8c bf be a2 33 b4 3e b4 2f 15 be
       0.43375236 -0.3741165 0.35195643 -0.14568979
000060 53 6a cb be a6 3f 02 3d a7 89 e1 bd 81 0b 95 be
       -0.39729556 0.03179898 -0.11012583 -0.2911034
000070 11 1d 19 3f 53 fb 29 be 43 c1 12 3f 31 a1 05 bc
       0.59809977 -0.16599779 0.57326144 -0.008156107

tNN.0.bias f4 [16]
000000 0d 85 06 3e 3c ff b1 be e8 80 1d bf 4f 2d ee 3d
       0.13136692 -0.3476504 -0.6152482 0.11629736
000010 9d e5 13 3e 32 2d 11 3f 22 c1 02 bf b4 2c 8c 3e
       0.1444306 0.5670959 -0.5107595 0.27377856
000020 42 6f 38 3e 39 00 dd be f9 31 06 bf 22 d6 b6 3e
       0.18011191 -0.43164232 -0.5242 0.35710245
000030 7b f1 0c 3f 49 95 1d 3f 27 c2 01 3f b3 ea 00 3a
       0.5505597 0.61555916 0.5068688 0.00049177854

tNN.2.weight f4 [32, 16]
000000 87 ea 6c 3e 0a e5 3b 3d dd d6 23 bd cd fa fe 3d
       0.2313634 0.045872726 -0.03999983 0.1245018
000010 39 db 18 3d fc 51 3b bc 1a ff b0 3d 12 f9 4c 3e
       0.037318442 -0.011433121 0.08642407 0.20016888
000020 f1 6a 25 be 70 76 68 3e 05 86 b6 3d 15 50 aa bd
       -0.16154076 0.2270143 0.08912281 -0.08316056
000030 81 99 6a be fc 61 40 be f7 04 e7 bd db 3a 0e 3e
       -0.2291012 -0.18787378 -0.11280244 0.13889639
000040 e0 29 5b be 8a 2d 4c 3e f7 c7 1b be 20 f3 74 bc
       -0.21402693 0.19939247 -0.15213 -0.014950544
000050 6f 85 45 bd e1 9d 77 3e fe 8a f2 3c 8e 97 c7 3d
       -0.048222955 0.2418132 0.029607292 0.09745704
000060 a8 ed 5d 3e a7 86 cc bd 69 94 49 3e 4a de 6d bd
       0.2167269 -0.099866204 0.1968552 -0.05807332
000070 0e 6d 10 3d 14 57 eb bd 75 be c6 bc 98 47 30 3e
       0.035260253 -0.11491218 -0.024260739 0.17214811
000080 e8 0e 6f 3d 7b 5a 4d 3c 37 fd 5a 3e 78 b3 27 be
       0.058363825 0.012533779 0.21385656 -0.16377056
000090 f3 3e 3d be d7 f2 78 3d 4e 71 de 3d b9 bb 89 bd
       -0.18481044 0.060778465 0.10861455 -0.067252584
0000a0 fd dd 27 be da e2 09 bd 06 8a ce 3d 44 d1 1e 3e
       -0.16393276 -0.033663608 0.1008492 0.15509516
0000b0 84 d1 48 3e 20 26 3e be 27 13 8c 3e 91 17 d4 3d
       0.19611174 -0.18569231 0.27358362 0.103560574
0000c0 c9 a1 5a be 6f da ef 3d c1 b1 70 be 89 00 72 be
       -0.21350779 0.11711585 -0.23505308 -0.23633017
0000d0 60 55 36 3e 02 36 14 3e 8a 88 77 be 30 97 16 be
       0.17806005 0.14473727 -0.2417318 -0.14706111
0000e0 b7 3a f7 3c a4 55 1b 3e 49 7b d8 bd 77 2a 95 bd
       0.030179365 0.15169388 -0.1057039 -0.0728349
0000f0 bf ff 81 be 8e 8f 26 3e df 19 20 3b ea f4 fa 3d
       -0.2539043 0.162657 0.0024429483 0.12253745
000100 e9 2c 40 3e 17 68 5b be d1 52 bc 3d a3 76 d4 3d
       0.18767132 -0.21426426 0.091954835 0.10374191
000110 1d 58 d4 bc fd 99 33 be 97 30 93 3d 4c b9 1d be
       -0.025920922 -0.1753921 0.07187002 -0.15402716
000120 53 90 36 be ad d7 8b bc 92 dd 35 3e 31 bc ff bd
       -0.17828493 -0.017070616 0.17760304 -0.124870665
000130 83 19 4f be ae 3c 78 be f8 fb 32 3e 97 83 89 bd
       -0.20224576 -0.24241897 0.17478931 -0.06714552
000140 a5 0d b5 bc e9 6e 70 3e 0c 30 69 be 63 22 38 3d
       -0.022101233 0.23479809 -0.22772235 0.04495467
000150 04 77 b1 bb 53 18 79 3e 88 c0 3d 3e c1 41 36 3c
       -0.005415799 0.24325685 0.18530476 0.011124075
000160 5c 74 d2 3d 9c 7c 82 3e dc d2 92 3c 9b 3d 41 3e
       0.102761 0.25485694 0.017922811 0.18871157
000170 e2 db 50 be d8 b7 d1 3d 6e 68 5b bd b5 f5 f3 3d
       -0.20396379 0.102401435 -0.05356639 0.11912099
000180 fc 0d 6e 3e 03 d2 44 3e b2 73 1f 3e 39 c7 18 3d
       0.23247522 0.19220738 0.15571478 0.03729937
000190 44 ee 0b be d1 e2 e0 bd 6d 67 67 be b3 c9 1b be
       -0.1366511 -0.10980762 -0.22598048 -0.15213661
0001a0 6b de 79 be ca ad 1d 3e dd cd b9 3d 85 87 72 bc
       -0.24401252 0.15398327 0.090724684 -0.014802818
0001b0 b7 86 08 3d be c2 91 3d 00 c2 c0 3d 39 01 c0 bd
       0.0333316 0.07117222 0.094120026 -0.09375233
0001c0 c3 1c 1e 3c b5 99 53 be 0f 1b 74 bd b7 bb ce bd
       0.009650412 -0.20664103 -0.059596118 -0.100943975
0001d0 84 1a 16 3e cd e7 27 be 63 77 5c be 81 5e d4 3d
       0.14658552 -0.16397019 -0.21529917 0.10369588
0001e0 a0 22 ea 3d 11 bd 18 3e a4 28 37 3c f1 ee 09 be
       0.114323854 0.14915873 0.011179123 -0.13470055
0001f0 1d 76 e5 bd 5f b0 5b 3e 72 ae 05 be 68 ca 70 3e
       -0.11204169 0.21453999 -0.13054827 0.23514712
000200 dc e5 3b 3e e8 ff 06 3e 5e 9f 6f be 0c 65 87 3d
       0.18349403 0.13183558 -0.23400638 0.0661107
000210 e8 07 20 bd 3c 74 66 3e a8 9b 21 be d0 7a 4a 3d
       -0.03907004 0.22505277 -0.15782034 0.04943353
000220 34 52 5e 3e 1c 72 84 bc 75 d4 3f 3d 9c ad 00 3e
       0.21711046 -0.016167693 0.046833474 0.12566227
000230 74 29 0c bd 39 e6 c2 bd 2f 98 0e bb 37 c2 aa bc
       -0.03421922 -0.09516568 -0.002175819 -0.020844562
000240 d5 e5 38 be 4d 76 24 be 24 a2 14 be 00 41 40 3c
       -0.18056424 -0.16060753 -0.14514977 0.011734247
000250 c5 11 15 3e f6 dc a5 bd 30 74 14 3e 9a 99 fb 3d
       0.1455756 -0.080987856 0.14497447 0.122851565
000260 e8 98 34 3e b7 6e 0e be fb 97 bc bd 2e 29 88 3d
       0.17636454 -0.13909422 -0.092086755 0.066484794
000270 0a 96 60 3e 76 99 3e bd 6d 3d 1f be 35 d7 4a 3d
       0.21932235 -0.04653307 -0.15550776 0.049521644
000280 60 a9 3d 3e 6f c1 19 3e 3d dc 75 3d 1c a5 ec bd
       0.18521643 0.15015195 0.06002449 -0.115549296
000290 24 1e 0e bc bf 99 38 be 52 f0 53 bd 61 fd 1f 3e
       -0.008674178 -0.180274 -0.05174286 0.15624
0002a0 06 23 2f be 3d 9a 43 be 95 dc a5 bd c6 4d 97 3d
       -0.17103204 -0.19101806 -0.08098713 0.07387881
0002b0 24 5d 6b 3e 7b cf 1a 3e 7f 62 ff 3c b0 da 5f be
       0.22984749 0.1511821 0.031174896 -0.21860766
0002c0 03 3f 87 bd 0a e5 60 be 99 08 5e be ec 8b 38 3d
       -0.066038154 -0.21962371 -0.21682967 0.045055315
0002d0 9a 49 2e be 5a bb e2 bd 73 0a 30 bd 7a b4 12 3e
       -0.17020264 -0.11070891 -0.042978715 0.14326659
0002e0 07 81 0c 3d aa 9e 54 3e 78 30 39 3e 5f 90 9e bc
       0.034302738 0.2076365 0.18084896 -0.01935595
0002f0 66 4a 59 be 11 3c 51 3e 9a f4 96 bd b0 a7 76 be
       -0.21219787 0.2043307 -0.07370873 -0.24087405
000300 27 b7 1f be 68 0c ca 3d 92 22 4a be 93 39 32 bc
       -0.15597211 0.098656476 -0.1973975 -0.010877985
000310 17 b0 a7 bc 93 80 05 be 65 c7 5a 3e 70 f2 98 3d
       -0.020469708 -0.13037328 0.21365125 0.07468116
000320 f0 4a c0 bc d1 cd 22 3e 30 9c 3a be 19 bf e6 3d
       -0.023473233 0.15898825 -0.18223643 0.11266918
000330 d6 74 5c bc fc 17 43 3e 10 b5 fc 3d ce 98 d1 bc
       -0.01345559 0.19052118 0.123392224 -0.025585558
000340 14 96 90 3d ee 7a ec 3d 23 c9 e6 3d ed 82 c6 3d
       0.07059875 0.115468845 0.112688325 0.09692941
000350 b2 9b 66 3e 33 b1 75 3e 0f 97 d1 bb 14 fd ec bd
       0.2252033 0.23993377 -0.0063961814 -0.11571708
000360 98 0e e7 3d 47 ef 52 3e fb 0f 8e bd c3 c3 a3 bc
       0.112820804 0.2059909 -0.06936642 -0.019990807
000370 9a c6 02 be fe b0 44 be 3e e6 4a 3e bf 72 29 be
       -0.12771073 -0.19208142 0.19814393 -0.16547678
000380 8f 8e da bc 2c 3d bd bd 52 34 65 be d5 d5 bc 3d
       -0.026679305 -0.09240183 -0.2238324 0.09220473
000390 3d 1b 3d 3e e4 f2 65 3d 5e cf 79 3d 52 ae 0d 3e
       0.18467422 0.05613984 0.060988776 0.13836029
0003a0 e0 ce bb 3d 83 cc 56 3d c2 8a c1 3d aa cf e7 3d
       0.09170318 0.05244113 0.09450294 0.11318906
0003b0 c6 ba 36 be ea 8f 77 3e 6b 54 12 bd c0 35 6d be
       -0.17844686 0.24175993 -0.03572504 -0.23165035
0003c0 5e 15 52 3d 13 ec 5c 3e a3 bb 55 3e 69 13 0d bd
       0.05128991 0.2157443 0.20872359 -0.03444234
0003d0 15 2f ea bd 65 4c 31 3b ba d3 19 3e f1 1e ee bd
       -0.114347614 0.0027053591 0.15022174 -0.11626995
0003e0 36 84 d5 bd 2d 77 37 3e 85 ab 02 3e c4 af 0e bd
       -0.10425608 0.17916556 0.12760742 -0.034835592
0003f0 2e 01 65 be 8c 0c b6 bd 68 b3 35 bd b4 42 51 be
       -0.22363731 -0.08889112 -0.04436055 -0.20435601

tNN.2.bias f4 [32]
000000 3c e1 30 3e bf 67 43 be 16 7b 7c 3e 77 1d 1b 3d
       0.1727342 -0.19082545 0.24656329 0.037869897
000010 a1 bf 55 3e e6 9f 19 3d 9b dc fd bd a4 bc a2 bd
       0.20873882 0.037506007 -0.12395593 -0.079461366
000020 ef c2 60 3e 3f 92 c7 3d cc a9 33 be 4c d0 4f be
       0.21949361 0.09744691 -0.17545241 -0.20294303
000030 0a 08 96 bc 29 f5 7f be 4d 71 cc bd b6 f0 97 3d
       -0.01831438 -0.24995865 -0.09982548 0.07418959
000040 11 bb 26 3e b4 be ee bd 63 a5 43 3d 55 51 51 3e
       0.16282298 -0.116574675 0.047765147 0.20441182
000050 e3 b4 8f 3d 32 78 7f 3d 3b 50 04 be ff 21 93 bd
       0.07016923 0.062370487 -0.1292123 -0.071842186
000060 7b be 18 3c 92 ee 49 3d d5 c9 3c 3e f5 90 80 3d
       0.009322758 0.049299784 0.18436368 0.06277648
000070 fb ca 10 be fe 47 6e 3d da 1e dd 3b 72 28 5d be
       -0.14139931 0.058174126 0.0067480626 -0.2159746

tNN.4.weight f4 [64, 32]
000000 05 0a 20 be 86 e7 56 bd 54 c9 15 3e 7c c8 77 3c
       -0.15628822 -0.05246689 0.14627582 0.015123483
000010 b1 90 e2 bd bc d6 13 3e 90 66 b2 3d 40 1d 33 3e
       -0.11062754 0.14437383 0.087109685 0.17491627
000020 61 7e 9a 3d 57 57 5b 3d 49 6e d3 3d 36 a3 02 3e
       0.07543636 0.05355009 0.103237696 0.12757573
000030 b0 60 20 3e 8a 9a 4b 3c 9b fb c0 bc 9d 40 b2 bd
       0.15661883 0.012426982 -0.023557475 -0.0870373
000040 d7 ac 12 3e 1d ba ae bd f1 b8 16 3e d7 73 cf 3d
       0.14323746 -0.08531592 0.14718987 0.101295166
000050 34 16 fd bd 7e 4f 60 bd bf b9 34 3c db 26 bc 3d
       -0.123577505 -0.05476331 0.011030613 0.091870986
000060 60 1a ab 3d f5 b1 9c 3d 07 24 00 3e f7 e9 33 be
       0.0835464 0.0765113 0.12513743 -0.1756972
000070 cc 14 0d be fb 87 aa bc b5 23 cc bd 67 f6 92 bd
       -0.13777465 -0.020816794 -0.09967748 -0.07175904
000080 16 f7 af 3d cd be 80 3b e2 76 37 bd c4 56 f4 bd
       0.0859205 0.003928995 -0.04479111 -0.11930612
000090 b8 c1 5a 3d e9 f1 80 3a bd c2 f1 3d a8 8f 9e bc
       0.0534074 0.000983772 0.118047215 -0.01935561
0000a0 94 b0 9d 3c 85 da e1 bd e0 10 49 bd f3 17 c5 bb
       0.019249238 -0.110280074 -0.04908836 -0.006014818
0000b0 2b 61 3a 3e c0 37 af bc a2 51 89 bd 31 07 c3 bd
       0.18201129 -0.021388888 -0.06705023 -0.09522856
0000c0 ca 02 83 bd b5 19 07 be a4 bf 8f bd 71 71 66 3c
       -0.06397016 -0.131934 -0.070189744 0.0140651325
0000d0 45 7a a3 3d be f8 d8 bc 2f fb 38 3e 66 1b d7 3d
       0.079823054 -0.026485797 0.18064569 0.10503273
0000e0 c9 27 f8 3d 00 20 f3 3b 24 67 2b be 96 ab a6 3d
       0.121169634 0.007419586 -0.16738564 0.08138196
0000f0 b5 53 dc bd d6 19 e5 3d 65 9c 4b bd da 96 21 3e
       -0.10758153 0.111865684 -0.049709696 0.15780202
000100 ce 7d 20 3e 72 0e 7e bc 44 72 9f bd a2 d9 97 bd
       0.1567299 -0.015506374 -0.07785466 -0.07414557
000110 b6 25 c3 3c 84 dd 4c 3d 43 89 f7 3c 9f ea e0 bd
       0.023821693 0.05001594 0.030216819 -0.109822504
000120 a7 56 94 3d fc 8c 0c be 48 80 2d 3d 06 07 a2 3d
       0.0724309 -0.13725656 0.042358667 0.07911496
000130 c5 35 0a 3d 29 2f 9a bd 33 c7 cc 3d 32 37 44 bd
       0.033742685 -0.07528526 0.09998932 -0.0479042
000140 bf cf 37 bd d6 87 10 3e 8b 51 04 3e ca af 89 3d
       -0.044875856 0.14114317 0.12921731 0.06722982
000150 00 66 ec bc 41 b6 8e bd e9 59 97 3d c8 db b8 bd
       -0.028857231 -0.06968356 0.07390196 -0.09026295
000160 8d 02 c2 3d 66 59 28 be f4 50 01 bb 82 c4 21 be
       0.09473143 -0.16440353 -0.001973209 -0.15797618
000170 aa 53 e4 3d 9e 9f 2e be de 72 86 bd 37 8d 69 bd
       0.1114877 -0.17053077 -0.06564878 -0.05701944
000180 6a ff 09 3e ff ed 0d be 18 42 ea bd f1 a0 c5 3d
       0.13476339 -0.1386032 -0.11438388 0.09649838
000190 16 b5 1d 3e 73 a5 fe bc a3 a3 ab 3d 14 13 e9 bd
       0.1540111 -0.031084752 0.083808206 -0.11380592
0001a0 e8 a1 25 ba c8 cc 36 bd 5b f8 10 3e 81 77 d1 3d
       -0.00063183764 -0.04462889 0.1415724 0.10227872
0001b0 48 17 2b 3e af fd 0f 3c 6b b0 1e 3e 51 70 46 bd
       0.167081 0.00878851 0.15496986 -0.048446957
0001c0 36 85 1c be d3 c9 01 3e d1 da 8d bd f4 18 28 3d
       -0.15285191 0.12674646 -0.069265015 0.041039422
0001d0 3e fd 13 bd 71 d3 95 3d 2c e2 04 bd 90 c6 b9 3d
       -0.036130182 0.0731572 -0.032442257 0.09071076
0001e0 5d 46 8b 3c c7 5b ba bc 9d c4 f6 bd 17 10 21 3e
       0.017001325 -0.022748841 -0.1204922 0.15728794
0001f0 01 9c 39 be ea 31 e7 bd 2e b3 9d 3d 3a 26 fc bb
       -0.18125917 -0.11288817 0.077001914 -0.0076949866
000200 a4 59 00 3e 0f 88 08 be b7 34 13 3d d1 20 58 bd
       0.12534195 -0.13333152 0.035938945 -0.05276567
000210 d7 4e 13 be d2 a0 ed 3d d7 3c ce 3d 54 b7 d8 bc
       -0.14385544 0.1160294 0.10070198 -0.026454605
000220 da 23 84 3d d4 41 37 be d4 97 0a 3e 52 05 00 3e
       0.06452151 -0.17896205 0.1353448 0.1250203
000230 47 a2 02 3e 60 8e b1 3d 04 08 f2 bd ae a8 8c bd
       0.12757216 0.08669734 -0.11817935 -0.068681106
000240 7a a0 9f bc 4f b8 d0 bd fa 01 81 3c d0 cb fe 3c
       -0.0194857 -0.10191404 0.015748013 0.031103045
000250 5f 19 9c bd 58 9c db 3d 74 07 d5 3d cb c7 38 bd
       -0.07622027 0.107231796 0.10401812 -0.045112412
000260 2b 21 06 3d 4f 8c 03 3e 3b 6b 1f 3d a6 5e 06 3e
       0.032746475 0.12846492 0.038920622 0.13122043
000270 bc 75 96 3d 26 e3 55 3d 9c 78 ca 3d 6d dd 3e 3d
       0.07346675 0.05221858 0.09886286 0.046597887
000280 31 4e 47 3d 54 a8 8b bd 20 53 1a be ce 47 0d 3e
       0.048658554 -0.068192154 -0.15070772 0.13796923
000290 a6 19 38 bb 29 4e 38 3c 44 bc 9f bc 29 53 20 be
       -0.002809146 0.011249104 -0.019498952 -0.15656723
0002a0 6a aa 00 be af 78 2a be 20 e0 64 3d ba 2f b7 bd
       -0.12565008 -0.166476 0.055877805 -0.0894465
0002b0 f5 0c cd 3d 5a 93 2a 3e 17 e1 09 be 62 11 d1 bd
       0.10012237 0.16657773 -0.13464771 -0.10208394
0002c0 08 45 df 3d 9d f4 8d 3d 8f fe f7 3c 07 dd 19 bd
       0.109018385 0.06931422 0.03027275 -0.037564304
0002d0 8d c2 f6 3d cb f0 18 3e 0b d5 85 3c cd ea 6e bc
       0.12048826 0.14935605 0.016336938 -0.014582348
0002e0 6b 49 42 bd 13 5e 01 3e bb e6 9d 3d da a9 a3 3d
       -0.047433298 0.12633543 0.07710024 0.07991381
0002f0 0f 58 92 bc 62 38 05 3e 49 dc 1d be 0c d0 3d bd
       -0.017864255 0.1300979 -0.15416063 -0.046340987
000300 1e 14 ad bd ec e9 7f 3c d1 f0 b1 3d 7e 15 58 bc
       -0.08451103 0.015619736 0.0868851 -0.013188718
000310 86 50 18 3d 49 55 9d 3c ed 28 1a 3d 44 4e 89 bd
       0.037186168 0.019205706 0.037636686 -0.06704381
000320 46 25 26 3e be 9e 65 bd ca 51 12 be f8 2b 23 3e
       0.16225156 -0.05605959 -0.14289013 0.15934741
000330 79 6d e5 3d ce 2f 78 bd 2b cd ac bd bc 1f c5 3b
       0.11202521 -0.060592465 -0.0843757 0.006015746
000340 b1 48 e0 bd 83 5a ac 3d 89 87 1e be 78 ba 15 3e
       -0.10951365 0.08415701 -0.1548139 0.14621913
000350 a6 c4 32 3e c2 37 50 bd 0a 96 14 3c 3a aa 5b 3d
       0.17457828 -0.050834425 0.009068975 0.053629138
000360 1d 31 0b 3e 2d e8 7e bc a5 89 24 be 55 a7 83 bd
       0.13592954 -0.015558285 -0.16068132 -0.064284004
000370 12 93 18 3d c8 da 1a be 31 b6 00 3d 99 42 3f 3d
       0.037249632 -0.15122521 0.03142375 0.04669437
000380 fa df 1a be e6 0b 2b be 82 0b f6 3d b4 65 b7 bd
       -0.15124503 -0.16703758 0.12013914 -0.08954945
000390 cb 9b 55 3d b0 39 f5 3d b2 d1 2b 3d 9a c3 30 be
       0.05215053 0.11973894 0.041948028 -0.17262116
0003a0 51 5c 56 bd 91 26 b7 3d 56 ca 60 3d e8 c2 b2 bd
       -0.052334134 0.08942903 0.054880463 -0.08728582
0003b0 c9 6b f3 bd 92 dc 52 3d 59 65 cf 3d 95 62 0f be
       -0.11885793 0.051479883 0.101267524 -0.1400245
0003c0 ea 96 00 be 83 84 fe 3d af 3a 8e 3d 62 46 77 bc
       -0.12557569 0.12427618 0.06944787 -0.015092464
0003d0 f8 95 b0 bc 58 ea 26 3e a8 f8 e5 3d 7b 6b 7f 3d
       -0.021555886 0.16300333 0.11229068 0.06235836
0003e0 fc d2 56 3d ac 68 15 bd d2 e1 c1 3c 7d 8b ee 3d
       0.052447304 -0.036476776 0.02366725 0.11647699
0003f0 45 11 dd bd df 37 b1 3d fa 11 91 bd 96 2e 2f 3c
       -0.107943095 0.08653235 -0.07083507 0.010692259

tNN.4.bias f4 [64]
000000 76 42 db bd 9c 6b 29 3e 8a 27 ac bb 63 43 46 3d
       -0.10706036 0.16544956 -0.005253737 0.04840411
000010 e1 6c 10 be 9f 4c 89 3d 8c af 26 3e cb 30 b3 3d
       -0.14104034 0.067040674 0.16277903 0.08749541
000020 d5 ea 24 3d c7 98 c9 3d bf 0b ed 3d ed 1c 05 be
       0.040263016 0.09843593 0.11574506 -0.12999316
000030 7c b3 55 3b 82 40 ac bc 31 17 dd 3d 38 42 85 bd
       0.0032608202 -0.021026853 0.10795439 -0.06506771
000040 f8 9a 00 be 43 6b c5 3d 5e 21 c6 3d 19 88 55 3d
       -0.12559116 0.09639599 0.09674333 0.052131746
000050 70 d0 d7 3c 7a a4 8b 3d b1 e4 07 be f9 c9 f0 bd
       0.026344508 0.06818481 -0.13270833 -0.11757273
000060 a5 75 83 3d ec 41 07 3e 60 c8 ac 3b 87 48 f6 bb
       0.06418923 0.13208741 0.00527291 -0.00751597
000070 09 5e 2f bb ef b9 4d bd 95 6d ec 3c ae 02 d2 3d
       -0.002675893 -0.05022615 0.028860847 0.10254417
000080 f3 f2 7b bd ac 35 ec bb 05 5f dd bd 6d d3 53 bd
       -0.06151099 -0.0072085466 -0.10809139 -0.051715303
000090 15 c8 dd bd 39 98 0a be a1 ef 1f be e5 f3 17 be
       -0.10829178 -0.13534631 -0.15618755 -0.14839132
0000a0 f6 9a e0 bc a8 7f 10 be 0c c5 88 bd cd 91 8b bc
       -0.027417641 -0.14111197 -0.06678209 -0.017037297
0000b0 1b b2 e3 3d 05 9a 31 3e c8 dd d1 3b 90 b8 d1 bd
       0.11117955 0.1734391 0.006404612 -0.10240281
0000c0 51 2f 13 3c eb 8a 3b bd a7 65 1b be c1 5c dc bd
       0.008983449 -0.04578678 -0.15175496 -0.10759879
0000d0 ae f3 04 3e 74 85 0b bd 06 fd 0c 3b c8 78 3b 3d
       0.12983581 -0.034062818 0.0021513118 0.045769483
0000e0 08 89 02 be 50 4f 0c 3e a9 79 64 bd 7d 5f e7 3d
       -0.12747586 0.1370213 -0.055780087 0.1129751
0000f0 f2 ef c4 3d 2b 6c 0b be 88 03 0d be 58 90 ac bd
       0.096160784 -0.13615482 -0.13770878 -0.08425969

psi.0.weight f4 [128, 160]
000000 62 a1 5b 3d 0b a0 70 3c 76 82 ab bd df 56 73 3d
       0.053620704 0.014686595 -0.08374493 0.05940902
000010 b2 4f 29 3d c0 2b 96 bb 85 bd 57 3d 1b e6 df 3c
       0.04133577 -0.004582852 0.052670974 0.027331403
000020 5a 4d 0a 3d c6 c4 0f bb 41 d5 3d bd a4 df 77 3d
       0.033765174 -0.0021937354 -0.046345953 0.060516015
000030 4c 07 2c 3d 2b ba 08 3d 63 ab 03 3d 23 cb 36 bd
       0.041999146 0.03338067 0.03214587 -0.04462732
000040 0f 65 34 3c 27 40 81 3d 60 19 94 3d ae b2 4c 3d
       0.011010422 0.06311064 0.072314024 0.04997509
000050 ef d4 ab bc 6a 5d a1 3d 16 b8 de bc aa 80 19 bc
       -0.020975558 0.078791454 -0.027187388 -0.009369055
000060 6f 81 38 3d 6e c1 9b bd 7e 39 04 bd 67 39 19 bd
       0.045045312 -0.07605253 -0.03228139 -0.03740826
000070 d7 d7 5a bb 05 6b de 3c 44 44 fa 3c 36 7c fe bc
       -0.003339281 0.02715064 0.03055013 -0.031065088
000080 68 ae 88 bc 26 c4 d5 3c 19 61 3c 3d 09 82 56 3a
       -0.016684726 0.026094507 0.045991037 0.0008182829
000090 60 bb 42 bc 6a 63 88 3c b2 12 07 3d ef 21 3d 3d
       -0.011885494 0.016648967 0.032976814 0.04617494
0000a0 59 f8 05 3d 09 0f b3 3c 0e 52 cf bc 00 88 b9 bc
       0.032707546 0.021857755 -0.025307681 -0.022647858
0000b0 ec 31 3f bc ab 10 33 bd 68 ae c5 bc 98 53 bb bc
       -0.011669617 -0.043717068 -0.024131015 -0.022867009
0000c0 ab 6b dc bc 48 89 58 3d 4a 54 95 3c 94 35 9c bd
       -0.026906809 0.052865297 0.018228669 -0.07627407
0000d0 b7 77 86 3d 48 d4 5f bd e0 54 37 3d 14 cd 17 bc
       0.065658025 -0.054645807 0.044758677 -0.009265203
0000e0 8f 7a d4 bc 19 b9 bc bc 7c 1b 72 3d 81 9d 41 3d
       -0.025937347 -0.02303748 0.059108242 0.047269348
0000f0 c4 49 41 3d e6 df 82 3d fc ed 34 3c 79 7c 32 3d
       0.04718949 0.063903615 0.011043068 0.043575738
000100 73 f6 0d bd f4 97 98 bd 9e 22 db 3b ec 75 12 bd
       -0.03465886 -0.07450858 0.0066874763 -0.03575699
000110 c4 5b 7e 3d 53 69 61 bc 4d f8 9a bd d9 12 16 3d
       0.062099233 -0.013758021 -0.07566891 0.03663907
000120 7a ac 4d 3c fc c6 ac bc 0d a3 90 bd 77 bb 09 3b
       0.012553329 -0.021090977 -0.070623495 0.0021016279
000130 6e 53 7b bd 6e 71 ac bc 05 fc 63 3d 27 8a eb bc
       -0.06135886 -0.021050181 0.055660266 -0.0287524
000140 90 51 dc 3b 02 cb ae 3d 56 d9 20 3d 5c 59 38 ba
       0.00672359 0.085348144 0.039269768 -0.00070323586
000150 5a 55 ab bd 77 e3 1e bd 7c 36 21 bd f5 8c 3e 3d
       -0.08365889 -0.038791146 -0.0393586 0.046521146
000160 9d bb 40 bd 5a 9b 8f 3c f3 e0 11 3c eb 4b 7e 3c
       -0.047053922 0.017530132 0.00890373 0.01552103
000170 2a 78 27 bd b3 4d 89 3d 70 80 1f 3d 64 bf 3e 3d
       -0.04088608 0.06704273 0.038940847 0.046569243
000180 7d cd af bc dc 40 94 3b 2d 43 89 3d 2a 74 36 bd
       -0.02146029 0.0045243334 0.06702266 -0.044544376
000190 3a f7 a6 bd 9a f6 55 3d 29 2e 67 3c 7d d1 e0 3c
       -0.081526235 0.05223713 0.0141101265 0.027443642
0001a0 09 da e5 3c 8c 5b 57 3d c1 e2 53 3a 12 74 25 bd
       0.028058069 0.05257754 0.00080828 -0.040393896
0001b0 34 93 44 3d 77 0f a0 3d 6b be 21 bd 76 b6 b2 bc
       0.047991946 0.0781545 -0.039488237 -0.02181552
0001c0 79 62 90 3d d8 2c f7 bc 68 b6 5e 3d ed b3 52 3d
       0.07050032 -0.03017275 0.054373175 0.05144112
0001d0 d9 6c 43 bc f6 79 c7 3c 8e 3c e2 bc 45 63 8d bd
       -0.011927807 0.024350148 -0.027616765 -0.069037
0001e0 b3 4a 95 3d 95 4a 9e 3d 1b b7 90 3c a0 44 bf ba
       0.07289638 0.07729069 0.017665436 -0.0014592595
0001f0 1c a2 9d bc 08 eb 8d 3d dd 60 40 3c 20 59 73 bd
       -0.019242339 0.06929594 0.011741844 -0.059411168
000200 3b c2 7b bd 3c 69 8f bc ac bc 81 bd ec 9a a5 3c
       -0.06146453 -0.017506234 -0.063348144 0.020215474
000210 ba 3e 90 3d db 12 dd 3c dd 98 29 3d a8 40 23 bd
       0.07043214 0.02698653 0.041405547 -0.039856583
000220 0b a1 9c bd ff 33 9b 3d eb 19 b8 bc 83 35 60 3d
       -0.07647904 0.07578277 -0.022473296 0.054738533
000230 e4 2a 6c 3c fb d9 6e bc 54 00 8e 3d c4 32 9d 3c
       0.014414523 -0.014578338 0.06933656 0.019189246
000240 b9 af 02 bd 4a d2 80 3d 0a 59 13 3c ae 41 83 3d
       -0.031905863 0.062901095 0.008993397 0.06409012
000250 36 d0 e3 38 7c 90 04 3c 00 d2 37 bd 2e 51 2c bc
       0.00010862986 0.008091088 -0.044878006 -0.010517402
000260 85 e9 1b 3c 38 a2 5e bd 0a 7f c5 3b 8a 72 84 3d
       0.009516125 -0.054353923 0.006027107 0.06467159
000270 6a 0d 9d 3d bf 71 86 bd 0c 28 6b 3d cc 32 d9 bc
       0.07668574 -0.06564664 0.05741124 -0.02651348
000280 3e e2 80 3a e4 db 5c 3d 3c ff 1f 3d f6 54 81 bd
       0.000983305 0.05392064 0.03906177 -0.06315033
000290 b2 f3 53 3c 90 ad 6a bd 59 ad 95 3d 3c ad 04 3d
       0.012936519 -0.05729443 0.07308454 0.03239177
0002a0 34 1f 17 bd 3b 1e 41 3d 51 83 f7 3b 63 92 5b bd
       -0.036894992 0.04714797 0.007553496 -0.053606402
0002b0 f7 d3 8f 3a 9c 70 d2 bb b2 73 95 bd ab 6f 70 bd
       0.0010973205 -0.0064221155 -0.07297458 -0.058700245
0002c0 a6 df 13 3d 83 eb a9 3c 75 e3 85 3d f7 83 a7 3c
       0.03610196 0.020742184 0.065375246 0.020448668
0002d0 9b 55 83 bd 25 60 59 3b 7b 7b 01 3d ce 22 14 3d
       -0.06412812 0.003316888 0.0316119 0.036166005
0002e0 55 61 50 bd fd 6a 36 3d f1 49 8c bb fb 9d 69 bd
       -0.050874073 0.044535626 -0.0042812754 -0.057035428
0002f0 40 ed fb bb f5 7c 34 3d 67 16 9b bd 25 1b cb 3c
       -0.0076881945 0.04406448 -0.07572632 0.024793217
000300 cb ae 90 bd f8 5d 9f bc e1 06 e2 3b 18 4e 90 bc
       -0.07064589 -0.019453987 0.0068977927 -0.017615363
000310 36 db 04 3d c2 13 fe 3b b6 b9 08 3d a5 23 86 bd
       0.03243562 0.00775382 0.033380233 -0.065497674
000320 59 93 e8 3a f4 9e 32 bd e5 20 7f 3c 12 69 73 3d
       0.0017744108 -0.04360862 0.0155718075 0.059426375
000330 cc 17 9c bd 27 c0 a3 3d 3f c1 19 3c 8f 1b ad bb
       -0.076217264 0.079956345 0.009384452 -0.0052828263
000340 5b ae a1 3c bf 59 49 3d 21 a7 8e 3c ab 8c 6f bc
       0.01973646 0.049157854 0.017413678 -0.01462094
000350 5a 2f 95 bd 29 8e 8a 3d 6d 5e 2e bd 0d 41 87 3d
       -0.07284422 0.06765396 -0.04257052 0.06604204
000360 a0 4b 96 3c 26 b2 66 bb 7c 9a 86 3c 53 37 d4 bb
       0.018346608 -0.00352014 0.016431086 -0.0064763217
000370 9e b4 0b bd fc b3 95 3d 7f 84 2e 3c fb c4 d5 3c
       -0.034107797 0.0730972 0.010651707 0.026094904
000380 ac 70 20 3c 18 ec 00 bd 34 c0 13 3d 53 15 3d 3d
       0.009792488 -0.031475157 0.03607197 0.046162914
000390 7b 8d 3e bd 06 2a 89 3d a4 48 b5 bc 3e 8b 86 bc
       -0.046521645 0.066974685 -0.022129364 -0.016423818
0003a0 c8 c6 9a bc 89 16 94 3c 63 65 d7 bc b0 61 26 3d
       -0.018893614 0.018077152 -0.026293462 0.040620506
0003b0 37 c4 18 bd 18 f3 73 bd da 7d 62 3d 45 7a 5c 3d
       -0.0372965 -0.059558004 0.055295803 0.053827543
0003c0 c3 a0 c5 bc 16 fe 44 3d 23 cd a0 bd 04 f1 0a bb
       -0.024124509 0.048093878 -0.07851627 -0.0021200785
0003d0 ff c9 22 bd 01 35 21 3c 5c 5e 3a bc ee e4 92 bd
       -0.03974342 0.009839297 -0.011375036 -0.07172571
0003e0 98 ce b8 bc 6f 9b a2 bc 20 7b 25 3d 46 03 c1 3c
       -0.02255945 -0.019849507 0.040400624 0.023561131
0003f0 0f f3 97 bd 16 6f 1d bc 9e a5 45 bd 93 75 01 3c
       -0.074194066 -0.0096090045 -0.048253648 0.007901567

psi.0.bias f4 [128]
000000 ee c8 b2 3c 4c 52 c2 3c 7a 45 5f bd 16 0c 9e 3d
       0.021824326 0.023720883 -0.054509617 0.07717149
000010 e1 58 62 bc 68 c2 9e bd 7e f9 98 3d b7 88 5c 3c
       -0.013815136 -0.07751924 0.07469462 0.01346033
000020 87 23 8b bd e3 5e 51 bd df b9 63 3d 83 4e 3b bc
       -0.06793886 -0.05111588 0.055597182 -0.011432293
000030 ba db 57 bd 49 6b 4d bc 51 48 66 bd d9 95 86 3d
       -0.052699782 -0.012537786 -0.05622131 0.0657155
000040 99 e0 1f 3d ad ab 8b 3c 92 5a 90 bd 21 89 a2 3d
       0.039032552 0.017049635 -0.07048525 0.079363115
000050 fe 2d db bc 14 ad 82 bd a5 53 e9 3b 93 da 8f 3d
       -0.02675533 -0.06380668 0.007120567 0.070241116
000060 98 37 65 bd df 34 5a 3c 6c 4d 83 bd 49 5f 46 3d
       -0.05596122 0.0133182695 -0.064112514 0.048430715
000070 e9 b1 25 bd 51 8f 5f 3c e1 86 ab bc 34 35 12 bd
       -0.04045287 0.013645009 -0.020938339 -0.03569527
000080 e8 c0 55 bd 65 8c 71 3d 44 97 81 3d c7 bc 91 bd
       -0.052185923 0.05897178 0.0632768 -0.071160845
000090 21 a0 a0 3c 0a c5 56 3d 4f c8 78 bd 09 7f 17 3d
       0.019607605 0.052434005 -0.060737904 0.036986385
0000a0 c3 d9 be bc f5 e5 df bb 0d 97 5c 3c 37 d0 95 3d
       -0.023297196 -0.006832833 0.013463748 0.073151045
0000b0 3c 8a 40 3d d2 2c 14 3d d2 b5 5d 3d 4f a6 4b 3d
       0.04700683 0.036175556 0.054128475 0.04971915
0000c0 4e 0c b7 bc 27 c5 03 3b 91 ec e5 bc c4 d5 5a bd
       -0.022344735 0.0020106526 -0.028066905 -0.05342652
0000d0 a4 7d 11 bd 65 79 9a 3c 12 77 49 3d 6f 13 84 3d
       -0.03552021 0.018856714 0.04918582 0.06449019
0000e0 3c 12 38 3d 19 df e4 3c 89 ba 83 3d f6 c9 9e bd
       0.044939265 0.027938413 0.06432063 -0.07753365
0000f0 80 fa 86 ba 46 84 2d bd 31 f3 55 bd d1 7b 95 bd
       -0.0010298043 -0.042362474 -0.05223388 -0.07299007
000100 2e 59 07 3d 32 83 68 3d 29 a9 7f bd 9d 0f b4 bb
       0.033044033 0.056765743 -0.062417183 -0.0054950253
000110 aa 25 83 3d 6b d1 8f 3c fd e4 4d 3b d7 c8 83 3d
       0.06403668 0.017555913 0.0031417005 0.064347915
000120 d7 e7 a0 bd 2d 27 76 bd f0 61 8b 3d f2 02 94 bd
       -0.0785672 -0.060095955 0.068057895 -0.07227124
000130 1c e4 8d bb b8 d5 b3 bc c1 38 09 bc 31 b8 90 3c
       -0.0043301713 -0.021952495 -0.008375348 0.017665954
000140 3a 94 8f 3d f0 4e ce bb cf ca 1e 3d 94 d1 52 bc
       0.07010694 -0.006296031 0.038767632 -0.01286735
000150 0b a7 82 bd 87 c7 e2 bc 04 00 26 3d 83 58 83 bd
       -0.06379517 -0.027683033 0.04052736 -0.06413367
000160 04 34 87 3d 14 a0 9d 3d 0a 1d d8 bc 8f f7 82 bd
       0.06601718 0.07696548 -0.026381034 -0.06394874
000170 33 e5 2c bd 6f 1f a4 bc b1 02 03 3c b0 1f 52 bd
       -0.04221077 -0.02003452 0.007996247 -0.05129975
000180 ad 34 aa bc 49 6a 94 bd 3a d7 9d 3c 7f d1 c9 bb
       -0.02077707 -0.07246835 0.019267667 -0.006159007
000190 90 7d 27 3d 90 f1 4d 3d 2b 96 83 bb 77 0c 5c 3d
       0.04089123 0.0502792 -0.004015704 0.053722825
0001a0 e1 3b 45 3d 81 ce 83 bd d6 f5 9d bd 96 43 99 bd
       0.048152808 -0.06435872 -0.07712905 -0.07483594
0001b0 b2 c7 b0 bc b2 b0 70 3d 5a bc 9c 3b c6 04 bb bb
       -0.021579597 0.05876226 0.0047831954 -0.005707356
0001c0 a8 d8 2f bd 8f d2 1a bd 59 92 f5 3c 35 ec b2 3c
       -0.04293123 -0.03779846 0.02997701 0.021841148
0001d0 5b 2e e4 3c ac 33 89 3d 24 c0 2c bd 0f 4e bf 3c
       0.027854135 0.06699309 -0.042175427 0.02335265
0001e0 36 16 9a bd 01 2b 94 bc a5 30 c3 3b 65 c3 8c bd
       -0.07523768 -0.018086912 0.0059567266 -0.06873206
0001f0 8d 2c 2f 3d 17 d4 f2 bc ff da 9c 3d 9b 49 3a 3d
       0.042767096 -0.029642148 0.07658958 0.045480352

psi.2.weight f4 [64, 128]
000000 9a 84 a5 3b d8 0d 9b 3d 27 4b d5 bb 0d f2 8b bc
       0.0050512077 0.07571 -0.006509203 -0.017083192
000010 ed 6e be 3c 36 87 ae 3d b0 76 c2 3d ab 72 6f bc
       0.023246253 0.08521883 0.09495294 -0.014614741
000020 dc 32 1f 3d 80 76 1a 3d c2 f0 59 bd c0 73 74 3d
       0.038866863 0.037710667 -0.05320812 0.0596807
000030 ad 2f ca bd f6 1e cb bc f9 e5 48 bd fc 6b 17 bc
       -0.09872375 -0.024795037 -0.049047444 -0.009242054
000040 89 51 e4 3c 5a 62 8f bd 9d 73 56 3d 7c 73 a9 3d
       0.02787091 -0.07001181 0.05235635 0.0827398
000050 c9 b8 ab 3b cd 12 50 bd fa 3b 8a bd 97 01 7b bd
       0.005240534 -0.05079918 -0.06749721 -0.061280813
000060 d1 54 83 bd 75 93 a4 38 fe b6 a9 3d 3c 2b ac bc
       -0.06412662 7.8475954e-05 0.08286856 -0.02101671
000070 32 d7 dd bc ea 41 b4 3b 2e 8c af 3d 6e 39 24 bb
       -0.027080152 0.0055010216 0.08571659 -0.0025058645
000080 a1 e4 b2 bd 8e 6e 1b bd d6 6e a8 bd 60 be 81 bd
       -0.08735014 -0.03794723 -0.08224265 -0.06335139
000090 4a da d3 3b 13 05 58 bd 6e e0 c3 bd 3e b3 cf 3c
       0.006465231 -0.052739214 -0.09564291 0.025354024
0000a0 c2 ad 75 bd cb 1d 26 bd e2 35 4f bb e9 d9 73 bd
       -0.05998016 -0.040555757 -0.003161781 -0.059533987
0000b0 03 87 85 bc 88 7f 25 bd a0 b2 46 3a 81 4b 60 3d
       -0.01629973 -0.040404826 0.0007579718 0.054759506
0000c0 4f 70 b3 bc 71 5c cc ba 68 80 33 3b 0b 82 3c bd
       -0.021904139 -0.0015591515 0.0027389769 -0.046022456
0000d0 3c f8 97 bd f6 95 c9 bc 7e 54 8e bd 49 58 37 bd
       -0.07420394 -0.02460764 -0.06949709 -0.04476193
0000e0 d2 d5 d6 3c 5d 97 8f 3d b7 29 cc 3b ff 91 62 3d
       0.026225004 0.07011292 0.0062305587 0.055315014
0000f0 d1 50 8d 3d 01 b9 ad 3a 60 71 96 3d 30 ef 4a 3c
       0.0690018 0.0013253988 0.07345843 0.012386128
000100 97 75 89 3d ff 1e bf bc 0a 71 b1 3d f3 1e 66 3d
       0.067118816 -0.02333021 0.086641386 0.05618186
000110 7a ff 25 3c 91 17 d2 bb 90 c7 99 bd f8 8d 9c 3d
       0.010131711 -0.0064115007 -0.07508767 0.07644266
000120 ca 21 51 3c 68 ea 4a bd 97 9f 4f 3d 1f eb 99 3d
       0.012764404 -0.049539953 0.050689306 0.07515549
000130 be 83 87 3d 8f cf 45 bc df a7 4c 3d 09 1f 7c bc
       0.06616925 -0.012073412 0.04996478 -0.015388259
000140 d9 57 c4 3d 1a 65 08 bd 45 89 f2 3c 13 97 81 3d
       0.09587068 -0.033299543 0.02960647 0.06327643
000150 95 2e a6 3d cb 0c 02 bd 5c ae 02 3d 01 f6 a5 3d
       0.081143536 -0.03175048 0.031904563 0.08103562
000160 7a 52 1b bc 26 5e d2 bb 6e 55 aa bc 20 9f 91 bd
       -0.009480113 -0.006419915 -0.02079269 -0.07110429
000170 58 34 2a bd 7d 3d 32 bd 7e 1b 0d bd b4 9b 77 3d
       -0.041553825 -0.04351567 -0.034450047 0.060451224
000180 f3 a0 8e bd 87 21 9a bd 0a 3d c7 3b 2f 5c a5 bd
       -0.069642924 -0.07525926 0.0060802745 -0.08074223
000190 14 e7 6a 3d b0 61 b0 3d 01 ed 94 3d 31 41 bf 3d
       0.05734928 0.086123824 0.072717674 0.09338606
0001a0 fb 17 5e 3d f3 53 71 bd d8 40 76 3d a2 8b 38 bd
       0.05422209 -0.05891795 0.060120434 -0.04505504
0001b0 04 29 97 3b 99 aa b5 bd 63 01 f5 3b 7d ec 76 3d
       0.0046130437 -0.088704295 0.007476972 0.060284127
0001c0 64 4b 4b 3c 06 92 2c bd ee 3f c6 3b fa ab 93 bd
       0.012408111 -0.042131446 0.0060501015 -0.07210536
0001d0 3c e3 92 bd 33 54 0a 3d be d2 83 bd bc 11 97 3d
       -0.07172248 0.033771705 -0.0643668 0.073764294
0001e0 d3 95 26 3d 9a c3 72 bd 2f 68 0a 3d 61 e6 ca 3c
       0.040670227 -0.05926857 0.033790763 0.024768056
0001f0 b5 50 1e 3d 39 bf 92 bc 2a 5f ea bb 54 35 67 3d
       0.038651187 -0.017913448 -0.0071524577 0.056447342
000200 f3 58 b0 3c c4 44 4f bb d1 57 9e 3d 97 1c 76 bd
       0.02152679 -0.003162668 0.077315934 -0.06008586
000210 24 4f e8 3b 3b 27 f1 bc 24 0e 40 bc 9c 9b 8b 3d
       0.0070895124 -0.029437652 -0.011722121 0.068167895
000220 e8 9d 0a bd 23 9f a0 bd 00 82 03 bd ea 6c 22 3d
       -0.033841997 -0.07842853 -0.0321064 0.03965465
000230 b0 e1 0e bd 44 0c a9 3d 52 81 b6 bd 04 7e f6 bc
       -0.0348832 0.082542926 -0.08911385 -0.030089386
000240 a6 1d 86 bc 02 03 8f 3d f3 ce b4 bd 87 5a 50 3c
       -0.01637156 0.069829956 -0.08828535 0.012716896
000250 17 41 b1 3d 31 81 9f bd f4 c2 14 3b 77 9a 04 bd
       0.08654993 -0.07788313 0.002269921 -0.03237387
000260 70 75 ef bc fd 35 9a 3d b2 c3 08 bc c0 75 39 bd
       -0.029230803 0.07529829 -0.008347439 -0.04527831
000270 47 06 b4 3d a9 11 07 bd f5 cf 37 bd 45 ee 89 bd
       0.0879026 -0.032975826 -0.044876058 -0.067348994
000280 8b 7c 0c 3d 3f 91 02 bd 29 81 16 bd 90 ef 85 3d
       0.03429846 -0.0318768 -0.03674427 0.065398335
000290 a7 51 9d bc d5 2c 50 3d d6 32 39 bd 64 9c ac bc
       -0.019203974 0.050824005 -0.045214497 -0.021070667
0002a0 a1 ae cd 3c c0 87 91 3c 88 7c 62 bc c4 dd 69 3d
       0.025107684 0.017764926 -0.013823636 0.057096258
0002b0 4d df 0e bc b2 d0 ae 3d 9c 79 8f bb e4 e3 93 3d
       -0.008720231 0.08535899 -0.0043785106 0.07221201
0002c0 e9 64 8e 3c f8 d7 9e 3d 5c d2 27 3d 67 de 89 3d
       0.017382102 0.077560365 0.0409721 0.06731873
0002d0 2f 04 9d bd f0 fd a9 3d 83 25 9e bc 7a d3 b3 3b
       -0.076668136 0.08300388 -0.019304996 0.0054878565
0002e0 21 e3 9c bc 25 1a b1 3d d1 04 ac 3d ac 09 ac bd
       -0.019151272 0.08647565 0.08399356 -0.08400282
0002f0 ee 67 d4 3c 26 5b 35 3d 02 96 9c 3b 88 37 5b bc
       0.025928464 0.04427638 0.0047786245 -0.013379939
000300 68 3f 30 bd f8 e6 90 3c ac e9 9f bd c6 10 66 bd
       -0.04302922 0.01768826 -0.07808241 -0.05616834
000310 46 05 1f 3d 13 f9 bb bd 98 56 94 3d aa 2a e8 3c
       0.03882339 -0.091783665 0.07243079 0.028340656
000320 a3 77 6f 3d b9 c5 ce bc 3d d9 23 bc e4 ad a0 bd
       0.058463704 -0.025240766 -0.010000524 -0.07845667
000330 db 94 ae bd 18 88 96 3c ee fb 9c 3d 4b c3 bf bc
       -0.08524486 0.018375441 0.07665239 -0.023408553
000340 85 0b b8 bd 04 79 cf 3c 39 50 a3 bc c3 bb 48 3d
       -0.08986572 0.02532626 -0.019935714 0.04900719
000350 d6 a8 97 bd 62 0d 18 bd 08 4e 1b bd c8 b4 02 bd
       -0.0740525 -0.037122138 -0.037916213 -0.031910688
000360 4d bf 1d bd b4 dc 8c 39 e5 e7 16 bc c5 ca 90 3d
       -0.038512517 0.00026867318 -0.009210561 0.07069925
000370 49 5d c8 3c 9d 57 f6 3c fb 97 b7 3d c4 b3 f4 bc
       0.024458544 0.030071074 0.08964535 -0.029870875
000380 19 a9 81 3d bd 73 3a bd 62 ca 28 3d d7 e0 6d 3d
       0.06331081 -0.045520533 0.041208632 0.058075752
000390 ea 86 7f 3d b4 37 1a 3c ff 0a 75 bd 89 08 90 3d
       0.062384523 0.009412695 -0.05982494 0.07032878
0003a0 1f f4 5d 3d d5 56 e4 3c 5f 36 94 bc cf d7 e6 bc
       0.05418789 0.027873436 -0.018092332 -0.028179077
0003b0 4c 4a c2 3d dc e4 5a bd c3 7d cd 3c ae 5c 6a bb
       0.09486827 -0.053440914 0.025084382 -0.0035760808
0003c0 3b 78 03 bd 83 28 04 3d 78 d0 55 bd b0 16 4a bc
       -0.032097083 0.032265197 -0.052200764 -0.012334511
0003d0 ec 9e 06 bd ed 24 79 3d 6b c1 33 bd 44 3e e7 3c
       -0.032866403 0.06082623 -0.04388563 0.028227933
0003e0 b7 90 4d 3d 1c 7b ff 3c ac 60 2b 3c 8a 8f c4 3d
       0.05018684 0.031186633 0.01046006 0.095976904
0003f0 cb 18 4c bd 05 45 cb 3c f5 91 56 3d c4 ca 74 3d
       -0.049828332 0.024813185 0.05238529 0.059763685

psi.2.bias f4 [64]
000000 9d a2 39 bb c5 bb 18 3c bf 9f 6f bc 09 6b 98 3d
       -0.0028325685 0.0093221115 -0.014625489 0.0744229
000010 3d 2f 65 bd 3d 49 8f 3c a6 a1 a2 bd 8e cb a1 3c
       -0.055953253 0.017490977 -0.07940988 0.019750383
000020 7f a6 ad bd 05 13 88 bd 3c e8 23 bd 95 35 8c 3d
       -0.08479022 -0.06644253 -0.040016398 0.068461575
000030 a9 5d 95 3d 4a 1a 4e bd 2e 9c f8 3a ae 51 81 3d
       0.07293255 -0.05031804 0.0018967444 0.06314407
000040 8e 0a 64 3d f3 85 24 bd 59 3b 3e bd 43 36 a2 3d
       0.05567413 -0.040166806 -0.046443317 0.07920506
000050 a6 00 b1 3a 7f ac a5 bc 1b 47 d4 3c 98 7e 9a bc
       0.0013504222 -0.020223854 0.025912812 -0.018859193
000060 a5 7b 9d 3c 2c 4a 87 3d 28 b6 82 bd 49 75 77 3d
       0.019223997 0.06605944 -0.063824 0.060414586
000070 b6 02 86 3d 2b de 17 3d 7f af 84 bc e8 71 99 bc
       0.06543486 0.03707711 -0.016196964 -0.018731073
000080 0e 67 9e bd 56 fe 7f 3d 6c 1f 9c bc d8 b0 80 3d
       -0.077345 0.062498413 -0.019057952 0.0628373
000090 55 28 8f bd 97 7b 64 bd 4c b2 94 3d bc 6f 4d 3b
       -0.069901146 -0.055781927 0.0726057 0.0031347116
0000a0 a7 4f 3f 3d 9f 5c d5 3a 03 00 8a 3d 6d 81 a6 3c
       0.04670682 0.0016278214 0.067382835 0.020325387
0000b0 f4 75 a1 bd 31 55 16 bd 94 21 59 bd 6a c4 78 bd
       -0.07883826 -0.03670234 -0.05301054 -0.06073419
0000c0 8b 95 8e bd b4 1c 8a bd f0 ed 0e bc 45 6f 3b 3c
       -0.06962117 -0.06743756 -0.008723721 0.011440103
0000d0 46 27 7a bd c6 cd 28 bd 48 d6 85 bd 9a 90 9d bd
       -0.06107261 -0.041211866 -0.065350115 -0.07693596
0000e0 c3 39 a6 bd 75 6c 3f bd 39 cc 00 3d 62 34 32 bd
       -0.08116486 -0.046734292 0.031444762 -0.043506987
0000f0 a3 9e 77 3d 52 a3 32 3d 65 97 a8 bd 53 0b f4 3c
       0.060454022 0.043612786 -0.08232001 0.029790556

psi.4.weight f4 [2, 64]
000000 d6 56 d9 3d 68 2d 93 bd 1d e6 d2 3d 14 de fe bc
       0.10612266 -0.07186395 0.10297797 -0.031111754
000010 8a c2 7d bc e8 1f d7 3d 7e 0b 2f bd 61 6b 0f 3d
       -0.015488276 0.105041325 -0.04273557 0.035014514
000020 c4 a4 c3 bd 62 32 c3 3d 54 f2 15 bd 05 4d 38 3b
       -0.09552911 0.09531094 -0.036608055 0.002812208
000030 83 04 ac bd 31 f2 7e bd f6 43 9a bd da 38 7f bc
       -0.08399298 -0.06224269 -0.07532494 -0.015577519
000040 54 28 02 3d 0f 6b be bd 35 f9 35 3d 26 d7 b9 bd
       0.03177674 -0.092977636 0.044427115 -0.090742394
000050 e3 91 ad bd 97 ce df 3b 83 e1 73 3d 2c d1 de 3d
       -0.08475091 0.0068300474 0.059541237 0.1087974
000060 46 18 f2 bc 2e fd e4 3d 36 74 c2 bc e9 d7 a6 bd
       -0.02955259 0.11181103 -0.023737054 -0.0814665
000070 91 a3 76 3d 6c f4 2e bd 65 df 96 3d 0c 4c ae bb
       0.060214583 -0.042713568 0.07366828 -0.005319124
000080 84 1a 85 3d 43 f7 a9 bd 11 23 a4 bd 90 73 dc 3c
       0.06499198 -0.082991146 -0.08014501 0.026910573
000090 d1 2e 70 3d e6 fa 00 3d 09 9e 99 bd a3 0f f7 3c
       0.058638398 0.031489275 -0.07500846 0.030158823
0000a0 05 dd d8 3c 65 94 71 bd fb 92 87 3c e6 1e 3f 3d
       0.026472578 -0.05897941 0.016549578 0.046660326
0000b0 96 01 39 3d fc 1d 0d bd c3 e9 d1 3c a6 7d 0c bd
       0.045167528 -0.034452423 0.025624162 -0.034299515
0000c0 c6 23 9a bd a8 e5 b9 bc 27 ba eb 3d c4 b9 f5 bd
       -0.075263545 -0.022692516 0.11510115 -0.119983226
0000d0 6b 86 11 bc 07 c6 ef bd 6f 30 2b bd cd c8 bb 3d
       -0.008882145 -0.117076926 -0.041794237 0.09169159
0000e0 3e 6f cc 3d b8 a1 32 3c f4 61 42 3d b5 ec b0 bd
       0.09982155 0.010902815 0.047456697 -0.08638898
0000f0 d0 82 2c bd 3e b1 55 bd c8 ef d4 3c 55 fc 05 3a
       -0.04211694 -0.052170984 0.025993243 0.0005111148
000100 84 b8 a4 bd 8c a9 95 bd 2a db 47 bd 87 bc dd bd
       -0.08043006 -0.07307729 -0.048792996 -0.10826974
000110 a2 b4 68 3d 50 c5 73 3b 3e 0c d8 3d 98 ef 00 3d
       0.05681289 0.0037196465 0.1054921 0.031478494
000120 da 4e 03 3c 55 39 b6 3d fe 77 1d bd 33 31 81 3d
       0.008014405 0.08897654 -0.03844451 0.06308212
000130 af 50 01 3b e5 57 f0 bd 70 74 53 bd 00 1c c0 bd
       0.001973193 -0.117355146 -0.051624715 -0.093803406
000140 69 83 c4 bd 70 f9 1d 3d 60 05 25 3c 8f 61 97 bc
       -0.09595377 0.03856796 0.010072082 -0.018479137
000150 cd f7 e6 bd 03 21 ba 3c aa d0 de 3d ea 76 f9 bd
       -0.11277733 0.02272082 0.10879643 -0.12180884
000160 eb 9a b1 bd 5f e0 ea 3d 42 80 c3 3d 9f 7f 34 3d
       -0.086721264 0.11468577 0.095459476 0.04406702
000170 94 11 d7 bd af 7f bd 3d 6f c1 90 3b c9 00 1e 3c
       -0.105014 0.09252869 0.0044175903 0.009643742
000180 56 d3 05 bd 5e 4b b7 bd 02 c1 b3 bd e8 5c a5 bd
       -0.03267225 -0.08949922 -0.08777048 -0.08074361
000190 ed 6d 40 bc 56 0d 8e 3d 54 57 73 bd 4e a5 ef 3b
       -0.011744958 0.069361374 -0.059409454 0.007313407
0001a0 77 c0 f1 3c cb 0a 9e bc bd 8b d1 3d dc 08 c7 3d
       0.02951072 -0.019292256 0.10231731 0.09718487
0001b0 32 75 2d 3d b1 ee 52 3b 7f 0a ae bc 65 b0 16 3c
       0.042348094 0.0032185728 -0.02124524 0.009197329
0001c0 58 1c d8 bd eb ad 70 bd 8e a0 b1 bd 24 19 35 3d
       -0.10552281 -0.05875961 -0.086732015 0.04421343
0001d0 08 74 ab bd 02 0b 29 3d 17 52 c8 3d f0 6b d6 bd
       -0.083717406 0.041270263 0.097812824 -0.10469806
0001e0 fa cc e1 3b cf 0a f4 3d 6d ef 2a 3c 36 6d 0c 3a
       0.00689089 0.11916124 0.01043306 0.000535685
0001f0 0d 95 b3 bd 4a a5 e7 ba f3 00 de 3c e1 36 af bd
       -0.087686636 -0.0017673161 0.027100062 -0.08555389

psi.4.bias f4 [2]
000000 aa 7d e1 bd 7d ab 35 3c
       -0.11010297 0.011088249

exp_avg f4 [8, 1, 2]
000000 2d cf ab 3a 19 eb b9 bb bf 12 ad 3a ff 8f 95 39
       0.0013108008 -0.005673778 0.0013204439 0.0002852678
000010 53 db d7 ba c1 ea a9 3a 64 a5 5e 3a b1 4e 24 3b
       -0.0016468562 0.0012963639 0.0008493273 0.0025071318
000020 84 1c 9a 39 ed 90 77 b9 d9 e3 bf 3a 21 ea cc 3b
       0.00029394415 -0.00023609745 0.0014640047 0.0062534963
000030 7a 90 0c bb bb 90 7c bb aa 26 01 ba 6d b2 30 b8
       -0.002144842 -0.0038538415 -0.0004926721 -4.2127842e-05

exp_avg_sq f4 [8, 1, 2]
000000 b9 94 46 3e bd da 58 3d 92 89 c0 3c 34 d1 18 3d
       0.1939267 0.05294298 0.023503099 0.037308887
000010 e7 b0 33 3e 86 e0 87 3c 7d 1f 35 3d 00 1c 88 3c
       0.17547952 0.016586553 0.044219483 0.016614914
000020 bb be 10 3d 5f ab 92 3d 32 b8 a1 3e b8 0e 41 3e
       0.035338145 0.07161593 0.31585842 0.18853271
000030 26 66 6b 3d 86 29 8e 3d fb 4e 8f 3d d0 04 cf 3d
       0.057470463 0.06941514 0.06997486 0.1010834

exp_avg f4 [8]
000000 28 ae 3c bb 15 2c 66 3b 52 90 c6 3b e1 11 47 3b
       -0.0028790329 0.003512149 0.006059685 0.0030375647
000010 81 d6 5d b8 12 09 33 3c 5e 97 91 bb d1 08 e3 3a
       -5.289028e-05 0.0109274555 -0.004443093 0.0017321353
