lightning_logs/version_25/checkpoints/epoch=0-step=99.ckpt (torch, 227574 bytes, 36 tensors)

lattice_net.0.weight f4 [8, 1, 2]
00000000: 690c 86be d997 603e 13a8 cb3e e6b9 103f
00000010: 8668 82be 0bbc 2bbf 25e4 cb3b 689c 043f
00000020: ea68 bebe 60ec f93d e478 86be b102 013f
00000030: be80 a23e fdc8 87bd 2ef5 29bd 652d 98bc
-0.26181343 0.21932925 0.39776668 0.5653366 -0.2547037 -0.67083806 0.0062222653 0.51801157
-0.37189418 0.12203288 -0.26264107 0.5039473 0.31738847 -0.06630132 -0.041493587 -0.018576333

lattice_net.0.bias f4 [8]
00000000: c886 6a3c af67 f1bd 6508 96be 199b 0ebf
00000010: 80a5 013f f291 b9bd a6ab 39be 83c1 e53d
0.014314361 -0.11787354 -0.2930328 -0.5570541 0.5064316 -0.0906104 -0.18131885 0.1121855

lattice_net.2.weight f4 [16, 8, 2]
00000000: f70e 833c 1dda 79bd bfa1 70bb 5010 eb3d
00000010: b285 34be 8c54 cabd 47c6 18be f2a1 fd3d
00000020: c952 c53d 6f90 e93d 38ac b6be 6f9e 093e
00000030: c9be 7abe 6463 b1be 64d0 91bd cca8 bfbd
00000040: 7779 a53d 72f1 7c3e 2d35 713e ec05 53bd
00000050: 6967 7e3e 4291 ef3c a992 85bd 09eb b33e
00000060: b9f5 2d3e ede4 09be 1731 8a3e 43c8 e6bc
00000070: 1d30 583d e485 f5bc 6a06 483e 6b64 b5bd
00000080: f5c4 263e b1f3 6cbe dd20 c83d 9c8d 17bd
00000090: ad19 263d a3f9 0ebe 0dbc 2c3e 3ad0 8ebe
000000a0: 7968 cdbc d26a 2c3e e7d8 9bbe e8c4 48be
000000b0: 01d2 84be f3f6 acbd b988 ff3c 20b8 063e
000000c0: 9703 133e de74 0b3e ac6f 9cbe 90cf 91bd
000000d0: c66e 7fbe 5dcf 193e 792c 0b3e a372 f63c
000000e0: 74a2 bebd 3e96 27be 3e05 a8be 961c fe3d
000000f0: e099 6dbe b0f0 c63d dfa2 843d 918f 2bbd
00000100: f15f a8bd dd30 0a3d 0661 143e bf0f abbd
00000110: 0455 8abe ecb7 a3bc d0b8 113e 421f 8ebd
00000120: 0043 fe3b ed71 19be 0e90 af3b 4525 02be
00000130: 1937 893c 5682 a83d d55e bd3d cf27 c43d
00000140: 35f6 cc3d 30ec 12be b3cc 5c3a 5627 95be
00000150: c1af dcbd 7f15 a5be 357d 873d aaef 3f3d
00000160: 8da5 08bd 1c5e dfbd d189 32bd 06a5 433c
00000170: 53e1 82bd 6d90 2bbd 7797 8abd 6cca fbbd
00000180: e510 9bbe 60c8 cc3d 09bf c93d 38a1 9cbe
00000190: ac5c a13d b70d 57be bb68 983d 2ccf 91be
000001a0: c0db 0ebe 75ba 3dbd df3c 423d a506 8ebe
000001b0: d056 f7bd ce57 f73c ead7 0dbe c107 d33c
000001c0: 1b85 7ebd 4a61 48be 335c a03d 7831 16be
000001d0: 93fa fa3d 1216 5bbe 11f5 d3bd beed ee3d
000001e0: 16d6 6f3c abfb 10bd e93a 3dbd 685e e33d
000001f0: c2bb 3bbd 0493 1e3e e13d f63d 1863 5fbe
00000200: 1dbb 04be 3daa c83d a60a 433d 6d45 9ebd
00000210: dce0 0cbe b1e5 213e 684a da3d 7987 be3d
00000220: d9ab 9d3e b70c 543e 033e 2d3d 79ed 75bd
00000230: 0caf 793e 64f3 3a3e 113f d4bd 72a2 cebd
00000240: e77f 46be 7404 23be 3d39 54be 3102 e43c
00000250: 6d8d 293e 8c7c 4a3d 99bc 563d 1fb3 1e3e
00000260: d8ba 79be 80e0 c9bd 3f67 473d ce79 95bd
00000270: 37bb 57be ec26 f03d d4ad 3ebe cd1d 6cbd
00000280: 695c 32be 3af0 703e 703f 5b3e 3c1b fc39
00000290: 36a3 97bd 3109 6f3e db1c 2cbe 9dcd 103e
000002a0: 2625 063d 351c 613e f0b9 36bd 0f72 393e
000002b0: c3ad a8bd f379 c3bd fef8 23bc 4f11 0f3d
000002c0: d1e3 abbd 5c86 413e a72a 3ebe f8d9 66be
000002d0: c5ae 783e 1727 f2bc c734 623d 539c 413e
000002e0: ebe0 44be 9f32 39be 3953 cebc 7e7d 7abe
000002f0: 4042 1b3e 1d15 5c3e 6f4f 743e e2c9 b4bc
00000300: 90a1 a1bd c55d 19be ee21 fbbd 1304 c33d
00000310: 02b7 c43d 0160 683c 7489 c83d e969 00be
00000320: 7db5 593e 238a 573e db45 313e 4524 83bd
00000330: 145a 0dbe 18d7 943e 558a 983e 155f 4f3e
00000340: 89bb f43d e1ba 123e 9556 393e 3095 253e
00000350: a4e7 f8bd 94d1 13be 0d3d f2bc c450 5fbe
00000360: 3148 de3d 36fc 023d c873 5abe 10ec 88be
00000370: 459b b73d cb15 cfbd 9bd7 afbc ed55 a7bd
00000380: 0c2a 973d 5a46 83bb 9afc 0c3c 1564 813d
00000390: cc5b 923e 52ef 683d 566e 603e 34ee 013e
000003a0: 2bba 313e 7722 323d 4018 a9bd ee80 043c
000003b0: cfca 993d e4b6 0c3e 3dca e73c 1b39 a23e
000003c0: 93de d3bd aff1 5c3d d5e3 623e 4d8a 063e
000003d0: 7c25 d53d ca87 c13d 1b52 d6bd df26 da3c
000003e0: 6f4f 7b3e b2f2 373e 3bbe eabd 26b9 6e3e
000003f0: 781e 053d f8e0 913e bd6c 883d 5441 b7bc
0.015998347 -0.060999025 -0.0036717502 0.11477721 -0.17629126 -0.09879407 -0.14919387 0.12384404
0.09634931 0.11404502 -0.35678267 0.13439344 -0.24486841 -0.34646142 -0.071198255 -0.09358367
0.08079808 0.24701479 0.23555441 -0.05151932 0.24844135 0.029244069 -0.06522114 0.35140255
0.16988267 -0.13466235 0.26990578 -0.028171664 0.05278026 -0.02997107 0.19533697 -0.08857044
0.1628607 -0.23139836 0.09771893 -0.037000284 0.04055183 -0.13962416 0.1686861 -0.2789324
-0.02507423 0.16837624 -0.3043892 -0.19606364 -0.2594147 -0.08445539 0.031193124 0.13156176
0.14356838 0.136188 -0.3055395 -0.071196675 -0.249446 0.15020509 0.13591184 0.03008396
-0.09308329 -0.16365907 -0.328165 0.12407796 -0.2320323 0.09713876 0.06476378 -0.041884962
-0.08221424 0.033738006 0.14490137 -0.08352613 -0.27017987 -0.019985162 0.14230657 -0.06939556
0.007759452 -0.14984865 0.005357749 -0.1270953 0.016749905 0.082279846 0.092466034 0.095779054
0.10007898 -0.14347911 0.00084228365 -0.29131573 -0.1077571 -0.32242963 0.06615678 0.04685942
-0.033361007 -0.10906622 -0.043588463 0.0119412 -0.063906334 -0.041885782 -0.06767171 -0.12294468
-0.30286327 0.09999156 0.0985089 -0.3059175 0.07879004 -0.21001326 0.07441851 -0.28478372
-0.13951015 -0.046320397 0.047421332 -0.27739444 -0.12077105 0.030193236 -0.13851896 0.025760533
-0.062138658 -0.19568363 0.078300856 -0.14667308 0.122548245 -0.21395138 -0.10349477 0.116664395
0.014638444 -0.03539626 -0.04619876 0.11101991 -0.045833357 0.1548577 0.12023521 -0.21815145
-0.12962003 0.097980954 0.047617577 -0.07728086 -0.13757652 0.15810277 0.10658723 0.09303183
0.30795172 0.20707975 0.042295467 -0.060040925 0.24383181 0.18256909 -0.103635915 -0.10089578
-0.19384728 -0.15919667 -0.2072496 0.027833076 0.16557856 0.049435183 0.052425954 0.15498017
-0.24387681 -0.09857273 0.048682448 -0.07298623 -0.2106751 0.11726174 -0.18620998 -0.057645608
-0.17418064 0.23529139 0.21410918 0.00048085477 -0.07404177 0.2334335 -0.16807882 0.14140935
0.03275027 0.21983416 -0.044610918 0.18109916 -0.082362674 -0.09544744 -0.010008095 0.034928616
-0.08393062 0.1889891 -0.18570958 -0.22544086 0.2428542 -0.029559655 0.055226114 0.18907289
-0.19226424 -0.18085717 -0.025186168 -0.24461934 0.15161991 0.21492429 0.23858427 -0.022068921
-0.07892144 -0.14977176 -0.12262331 0.095222615 0.096052185 0.014183045 0.09791842 -0.12540402
0.21260639 0.21048789 0.17311804 -0.06403402 -0.13803893 0.29070354 0.2979304 0.20251115
0.11949832 0.14329101 0.18099435 0.16170192 -0.12153557 -0.14435416 -0.029570127 -0.21808153
0.10853613 0.03197881 -0.2133323 -0.267426 0.08965162 -0.101115786 -0.021465113 -0.08170686
0.07381067 -0.0040061893 0.008605147 0.06317917 0.2858566 0.05686886 0.2191709 0.12688524
0.17356174 0.0434899 -0.082565784 0.00808738 0.07509386 0.13741642 0.028294677 0.31684193
-0.10345187 0.053941425 0.22157224 0.13138695 0.1040754 0.09449728 -0.10464879 0.026629863
0.2454202 0.17963675 -0.11462065 0.23312816 0.03249976 0.2849195 0.06661365 -0.022370018

lattice_net.2.bias f4 [16]
00000000: 2fd3 6e3c 5e50 05bd 4eab 203d 9f03 23bd
00000010: 3b5e 0ebd 73f7 3cbc 8879 9a3d cae5 2ebe
00000020: 3efc b6bd 1864 e43d 77d9 0f3e 4146 1c3e
00000030: 8b96 443e 02e1 7cbc b461 6abd 1f86 853d
0.014576717 -0.032547347 0.03922587 -0.039798375 -0.034757834 -0.011533606 0.075427115 -0.17079845
-0.0893483 0.11151904 0.140478 0.15261175 0.19198053 -0.015434505 -0.057222083 0.06519722

lattice_net.4.weight f4 [32, 16, 2]
00000000: eaca ea3d 54b0 603e e573 2cbc 1753 56be
00000010: 131b d8bd d51a ee3d a955 0abd ff8f d6bd
00000020: c041 cabd e968 7bbd bc5f ed3b e5e1 52bd
00000030: f695 973c a1c6 903d 5443 fd3d 89c3 c6bd
00000040: ba64 03be 1c4c 103c fbd5 2f3e 0a27 8bbd
00000050: b3d9 0e3e f897 cf3d 9156 e63c 4e27 cfbd
00000060: ebf6 d03d d404 e33d 1631 dc3d d4d1 05be
00000070: 3bd1 563d 785e 09be edd9 96bc e382 90bd
00000080: 1b40 e43d 55a2 30be 31d1 95bd 3d01 583e
00000090: 95e3 20be a554 37bb ad61 b83d c958 41be
000000a0: bfc1 95bd f799 e03c e7f5 d73d 3411 573c
000000b0: 8c7d f13d 9581 f23d e3af 54be afaf 3b3d
000000c0: c942 efbc 5592 d7bb dc82 f33d ee17 10bd
000000d0: 45ce ef3d e6c5 1dbe b99b e8bd 0b9e 043e
000000e0: ae4e 4dbe 53bb 32be 108c 4abd ac51 1b3e
000000f0: 3563 273e 973e 063e 180a c1bd c755 2bbd
00000100: f387 ac3d 6ec2 27be b9c4 023e 408c 92bd
00000110: 4747 c2bd ba65 40be a8cc 04bd 2d4e ea3d
00000120: 6eff 81bd f5b1 50bc 0e85 c0bd 5d02 59be
00000130: 714c 7dbc 7452 14be 6293 953d 2789 ecbd
00000140: 2370 b5bc 72dd a2bd 07bb db3b dfc0 34bd
00000150: 8cd9 f8bd eb9e c7bd 2799 38be 77cc 8ebc
00000160: 4822 f73d 4d85 9bbc c783 173e d3c5 7abd
00000170: b95b 153e 7b2e d8bc e3ba 1d3e 3587 52bd
00000180: 1844 71bc ec73 bfbd 8ee4 6bbd 4b62 4cbe
00000190: 99b0 99bd 1e98 7b3e 6144 e2bc 0af6 b73d
000001a0: 4de9 25bc fbca 793e 6586 c93b 4558 20bd
000001b0: 79e2 333e 3d86 4e3e f0ab b23d 6d10 933e
000001c0: d1d1 cc3b 099f c53d 6808 e23d c842 86bc
000001d0: 85f3 b1bd f87b 313e 68eb 283e 0139 6abd
000001e0: 4414 093e 5d7e c03c 6496 e43d 536b 0fbb
000001f0: 0be7 b6bd 3f74 f6bd 3d9f 263d f036 053e
00000200: d680 c93d d4df 9b3c c1fe abbd 9284 6e3d
00000210: be93 bd3d d987 a63d 4e23 f6bb 06d3 7fbd
00000220: 68b9 09be 1384 75bd 335d 0dbe 3538 9fbd
00000230: 258c 7a3d 9250 1e3d c6be 99bc 0f10 ba3d
00000240: 0f39 91bd 62e8 503e 0c98 d9bd f52b fbbd
00000250: d548 28be df9f 23bd 3205 37be 0767 95bb
00000260: 4b98 8ebd bd8f 47be 5b03 103e 4787 113e
00000270: c0b6 2dbd 9270 1d3e 6164 883d 8822 b7bd
00000280: 5fd8 103c ba9b d5bc af98 5c3d fb39 683c
00000290: 95f6 cf3d b886 b3bd 4951 a8bd 4829 193d
000002a0: 9c6d c9bd 0c5d 273d 7d22 493d 3f1c 9f3d
000002b0: fdea 1ebe 24d7 78be 8c09 303d 8b0d 983d
000002c0: 897e dd3b 5c88 7cbc 2a57 babd daec 84bd
000002d0: 2292 02be b61d 52be 0087 33be 96e6 a0bc
000002e0: 1a0b 74bd 3130 9dbd 3fb6 313d b5af 9f3d
000002f0: c759 5a3d 739d 013d 6c20 13bd fe51 25bd
00000300: adb6 143e 937e 60bd c229 babd 0bc9 febd
00000310: a06b 85bd 2a86 6a3e 379f 593e bad9 a2bd
00000320: 6027 d63d 57ad f13b 85b5 5a3e 9074 383e
00000330: 0330 a1bd 941b 74bd 36ee 363e 9fb3 5ebd
00000340: d816 51be 5bca 6cbe 89e4 0fbd d55a cf3b
00000350: e2b1 a03d f127 503e 3ae6 163e c932 fc3d
00000360: f8de 49bd cbdc c83d ddfe f03c 47db 10be
00000370: fed2 8b3c dd76 06be 3b5a f23c b093 923d
00000380: cdfd c9bc b491 1f3e 2be9 6bbe cc86 093d
00000390: f53b f2bc bfec 073e 57b9 9ebd 505c 28bd
000003a0: 63b8 073c 3fa4 69bd 3282 e73b 0e39 e0bc
000003b0: b212 6c3e 9330 cdbd c725 c63d d573 4f3d
000003c0: 72a6 c0bd ba56 af3d a9c5 4d3e 9ef2 7e3c
000003d0: b9e0 493d 2ac3 68bc a001 2e3d 24d6 5ebd
000003e0: 4d47 763d 5683 493e d941 233d 1d9c 273d
000003f0: 5131 cd3d bdad 11be 2f4a 4b3e 1965 95bd
0.11464484 0.21942264 -0.010525678 -0.20930134 -0.10552039 0.116262116 -0.0337731 -0.10476684
-0.09875822 -0.061379347 0.0072440784 -0.05148496 0.018504124 0.070691355 0.123663574 -0.09705264
-0.12831393 0.008807208 0.17171471 -0.067945555 0.13950233 0.101364076 0.02811745 -0.10114919
0.10203346 0.11084905 0.1075155 -0.13068324 0.05244563 -0.13414943 -0.018414462 -0.07056215
0.1114504 -0.17249425 -0.07315291 0.21094222 -0.15711816 -0.0027974036 0.09003005 -0.18881525
-0.07312345 0.027417166 0.10544949 0.01312666 0.11791524 0.11841122 -0.2077022 0.04582184
-0.02920665 -0.0065787234 0.11890194 -0.03517907 0.11709265 -0.15407524 -0.11357827 0.12950914
-0.20049545 -0.17454271 -0.04944998 0.15167874 0.16346438 0.13109814 -0.09425753 -0.04182985
0.08424368 -0.16382763 0.12770356 -0.07155657 -0.09486251 -0.18788806 -0.032421738 0.11440692
-0.063475475 -0.012737741 -0.09400378 -0.21192308 -0.01546012 -0.14484578 0.07303502 -0.11549597
-0.022148198 -0.079523936 0.006705645 -0.04412925 -0.12150869 -0.09747108 -0.18027173 -0.01743148
0.120670855 -0.018984461 0.14796363 -0.061223816 0.1458577 -0.026389351 0.15403323 -0.051398475
-0.0147257075 -0.09348282 -0.057591014 -0.19959371 -0.075043865 0.24569747 -0.027620496 0.08982475
-0.010126424 0.24393837 0.0061500543 -0.03914668 0.17566861 0.20168395 0.08724201 0.2872347
0.006250598 0.09649474 0.110367596 -0.016389266 -0.08689026 0.17332447 0.1649605 -0.05718327
0.13386637 0.023497755 0.11161497 -0.0021884039 -0.08930787 -0.12033891 0.040679205 0.13009238
0.09839027 0.019027628 -0.083982 0.058231898 0.09256695 0.0813138 -0.007511533 -0.062457107
-0.13449633 -0.05994041 -0.13805084 -0.077743925 0.06116881 0.038651057 -0.018767726 0.09085094
-0.07090961 0.20401147 -0.10624704 -0.122642435 -0.16434033 -0.039947387 -0.17873076 -0.004559401
-0.06962641 -0.19488426 0.1406378 0.1421176 -0.042410612 0.15374973 0.06659771 -0.08942133
0.008840649 -0.026075233 0.053856548 0.01417398 0.10154454 -0.0876593 -0.08218629 0.037392884
-0.098353595 0.04086022 0.049105156 0.077690594 -0.15519328 -0.2430082 0.042977855 0.07424458
0.006759469 -0.01541337 -0.090986565 -0.06490488 -0.12751058 -0.20519146 -0.17531967 -0.019641202
-0.0595809 -0.076752074 0.043386694 0.07797185 0.053308275 0.031644296 -0.03591959 -0.040361397
0.1452281 -0.05480821 -0.09089996 -0.1244069 -0.065146685 0.22902742 0.21252142 -0.07951684
0.10456729 0.0073754 0.21358307 0.18013215 -0.07870486 -0.059596613 0.17864308 -0.05437052
-0.2041887 -0.23124067 -0.035130057 0.0063279667 0.078464285 0.20327736 0.14736262 0.12314374
-0.049284905 0.09807738 0.029418403 -0.14146148 0.017068382 -0.1313128 0.02958404 0.071570754
-0.024657154 0.15582925 -0.23038165 0.033575818 -0.029569605 0.13273905 -0.077501945 -0.04110366
0.008283707 -0.057041403 0.007065081 -0.027370956 0.23054007 -0.100190304 0.09675174 0.050647575
-0.09406747 0.08561464 0.20094933 0.015560774 0.049286578 -0.014206687 0.04248202 -0.05440344
0.06012659 0.19679007 0.03985772 0.040920366 0.10019172 -0.14226432 0.19852518 -0.072946735

lattice_net.4.bias f4 [32]
00000000: e47e f2bd 3577 1cbe bbe4 043e 16a6 853c
00000010: 0340 fa3b 22ec a23d a333 c2bc 2140 023e
00000020: 7678 4abc 0c37 873d 46f1 873b 0eed d6bd
00000030: 9896 c13d 04d5 993d 8fdc c1bd ae34 f3bc
00000040: 0086 933d 0a2d bb3c a407 d83d a221 19bd
00000050: 0cd8 05bd 0592 e63d 1eae 883d 03d5 a73d
00000060: b751 463d 56be 66bd 6188 623d cb16 2f3e
00000070: ff45 da3d 77b4 edbd 1a11 a73d cf3c a93d
-0.11840609 -0.15279849 0.12977879 0.016314548 0.0076370253 0.07955195 -0.023706263 0.12719776
-0.012357822 0.06602296 0.004148635 -0.10494433 0.094525516 0.07511333 -0.09465896 -0.029688206
0.07203293 0.022848625 0.10548332 -0.03738559 -0.03267674 0.1125832 0.06673835 0.08194926
0.048417773 -0.056333862 0.055305842 0.17098539 0.10657882 -0.116066866 0.08157559 0.082635514

tNN.0.weight f4 [32, 2]
00000000: c83a c33e cf91 09bf 9085 ad3e 23ca cb3e
00000010: 2570 1fbf 255c 3ebc 4c8b 543d 1466 d63d
00000020: d6b0 b03e 6b12 773e 346f abbe ab12 5c3d
00000030: 0276 3bbc 352c 213d fe87 353e f709 05bf
00000040: c9b6 85be 9592 643e 3e0b 7f3e d804 253c
00000050: d1cd b7be af67 f9be 109c 1dbf 9a11 05bf
00000060: d23e 0fbe d383 9c3e 0664 b6be 1722 763e
00000070: b936 48be 57b0 de3e 1506 a6be e33c 863e
00000080: bec3 c93e ebe9 e2be 57ba 233f fbf9 123e
00000090: 525c fcbe a73b 853e 69dc 7fbe 5141 17bf
000000a0: 0cb9 71be ab84 833e ead7 f03e cd2b 82bd
000000b0: eae1 acbd cebd d53e cfab ecbd e170 06bf
000000c0: 9630 d9be bf61 d83e eaa2 9ebe d044 e8bd
000000d0: 5874 e73d d7ff 05be ba81 1dbf 98be 16bf
000000e0: 5b27 57be afa8 f43e 584f 253f 4db4 eebe
000000f0: 9f11 92bd eb91 df3e 37a3 0cbe dea0 c63d
0.38130784 -0.5373811 0.33890963 0.39802656 -0.62280494 -0.011618649 0.051890656 0.104686886
0.34509915 0.2412812 -0.3348328 0.05372874 -0.0114417095 0.0393488 0.17727658 -0.5196833
-0.26116017 0.22321542 0.24906632 0.010071956 -0.35899213 -0.48711917 -0.6156626 -0.5197998
-0.13988808 0.30569324 -0.35623187 0.24036442 -0.19552125 0.43493912 -0.32426515 0.26218328
0.39407152 -0.4431909 0.6395621 0.14353172 -0.49289185 0.26022074 -0.24986424 -0.5908404
-0.23605746 0.25687155 0.4703973 -0.063560106 -0.08441527 0.41746372 -0.115562074 -0.5251599
-0.4241988 0.42262074 -0.3098367 -0.1134125 0.11301488 -0.13085876 -0.6152607 -0.58884573
-0.21011107 0.47784945 0.64574194 -0.46621934 -0.07132267 0.43666014 -0.13734137 0.09698652

tNN.0.bias f4 [32]
00000000: 066d 413f 4446 8dbd 9e28 8a3e ccb0 eebd
00000010: 1c27 3fbf bb49 253f c1bf b83e 6ce5 fdbe
00000020: e9f5 153f 3bbe 97be b712 0d3f 8165 1dbe
00000030: 4bd5 c5bd 266a 50be c2df b23e eb7d 73be
00000040: 97cc b53e 52a1 ad3e 3406 263f 4098 853e
00000050: 2d2c 8abe 6e25 27bf 1fff 213f 6654 bdbe
00000060: 6759 18bf d565 99be 8a1a 023f 44e4 a63e
00000070: d055 26bf 5160 733e b846 143f 424a ae3e
0.7555698 -0.06898168 0.26984113 -0.11654815 -0.7466905 0.6456563 0.36083797 -0.49589097
0.58578354 -0.29637322 0.5510668 -0.15370752 -0.09659823 -0.20352992 0.3493634 -0.23778503
0.35507652 0.3391214 0.64853215 0.2609272 -0.26986828 -0.6529149 0.6327991 -0.36978453
-0.5951142 -0.29960504 0.50821745 0.32596028 -0.6497469 0.2376721 0.5792041 0.3404103

psi.0.weight f4 [64, 256]
00000000: 8e6d 2bbc 32e8 3bbc cc40 b0bd dc6c 41bd
00000010: d8d2 8dbb 2da3 c6bc 62cf 4b3b 4fba be3d
00000020: feca 4a3d d7aa 123d 58b0 a03d 1410 2c3c
00000030: c368 4abc 1217 2e3d 0edc 51bc 258d b53c
00000040: 7b34 823d f60c 683d e5f5 573d d8cd 4b3d
00000050: f056 813d 15d9 abbc cd5d 9cbd 1ecc ce3c
00000060: 6bf2 d7ba 5a0b 8d3c 39a6 03bd ff0d 9e3b
00000070: b047 c93d f844 653c a6f3 d73c 779a a33d
00000080: 62f5 6e3c 32ba e0bb 163c 7ebc 1833 913d
00000090: dcb9 063b 9f91 c93d b618 663d 5a02 5b3d
000000a0: 8672 cf3c 4861 b23d 862d 50bd ec92 e5bc
000000b0: d08f d13c 9920 9dbd 4bf1 9e3c 5a64 853c
000000c0: 8fe3 2bbc 69b1 46bd ac17 303b 0ffd 8a3c
000000d0: 2fd9 883c 826d a23a 7024 9cbc 1edd 0a3c
000000e0: c68c 8dbb 01cc 183c ff7e 0dbd 02a7 1ebd
000000f0: 4237 8bbb a5cb 35bd d2f9 b2bd 9292 c5bb
00000100: a796 e23c 39e8 d9bc 80d1 36bd e727 2c3d
00000110: 82cd c8bc 6834 733d d29e 47bc 135a 82bc
00000120: afb7 213c d819 aa3c 7c70 74b9 bf42 b3bd
00000130: 2b35 c8bd 7386 e13c dc21 c83c 5789 94bc
00000140: 6024 a0bd 0a43 3dbd f9ad 673c 312a b9bc
00000150: 3b6c ca3d 2467 1ebc 4a7e 953d 5c05 b73d
00000160: b25b 363d 0733 0c3d 57d9 283d f9e2 893d
00000170: c353 863d add5 53bc 6da3 acbc bcfb 813b
00000180: 36a4 983c b9c8 2b3c 6cd9 82bd 12d8 54bd
00000190: d6e5 8abd ab79 10bd 33ca 6f3b eafc abbd
000001a0: 6111 b5bc ff32 40bc 8d2c 32bd 6d40 84bd
000001b0: d639 13bd 4a68 c0bd 9eaf 75bd a303 a8bd
000001c0: f6d8 1d3d 099f 813c 2ca6 7b3d 7d99 a13d
000001d0: 872f 76bc d718 12bd 6583 8e3a 7576 de3c
000001e0: 0868 7e3c ed75 88bc 84fd 963c b966 8d3d
000001f0: f8b1 683d 08b6 26bc 5c3f dcbb ab69 6b3d
00000200: d982 033d 95de c63d f437 9a3d 694d 51bc
00000210: aacf b1bc 988d 02bd db2c 1cbd 533d 403c
00000220: 8c17 c7bd 966a 24bb ea32 8fbd 2c02 9cbd
00000230: e508 2ebd 55f1 07bd 283d 63bd f985 2dbd
00000240: 9b0a b8bd ba86 bbbc 15ba bebd 0ec2 a73d
00000250: 25a3 2d3d 1683 a73d c152 c9bc d56b fe3c
00000260: cde7 0cbc bfa0 a43d d1f8 47bc 55e0 a0bd
00000270: 7824 273b aa9b bcbd 58f5 f03b 76f1 30bd
00000280: ce0a d23c 5c67 ab3d 3a47 633d 3810 0d3d
00000290: c022 9abb 9fb3 873c dc74 893c 188b ae3d
000002a0: 48eb cbba bd2d 743d 23b4 bbbc 4d76 523c
000002b0: 41ef 8f3d f7cb 833c 97e2 0c3d 4dda 39bc
000002c0: eef0 00bd 32dd f1bc 74a7 9d3d e588 a23d
000002d0: f5e8 a2bc ec92 883b 9fc6 503d 59d9 2b3d
000002e0: 79c6 5abc df2e 183d 8743 c23d 8b52 a93c
000002f0: 00cf bc3d 94d9 acbd 94aa 99ba 1a05 a4bc
00000300: f8e3 8dbd de98 7039 775f babd 6891 b3bd
00000310: 9c00 623d 2320 903c 869c 72bd 931d a13d
00000320: 897b 823c 5cd3 06bd bbbc cdbb e43e 64bd
00000330: 5299 3bbd 4ecb e53b f176 1cbc b884 b63c
00000340: 03f1 963b 513d a1bd 84d1 b6bc b887 39bd
00000350: ac9a b4bc b6c3 b5bd c311 36bd 4af7 9dbd
00000360: c9be fcbc 793c c33d b0ea cc3c 45cb 383b
00000370: 1bfd 49bc e30e 9a3c bb40 d53c fc5c dc3c
00000380: 41eb 29bc b8e7 88bb c0ec 40bc f1e7 893d
00000390: 7872 b93d 8cb8 42bd aa75 8e3d b1f4 93bd
000003a0: 42a8 c23b 8126 c13c bc28 6a3c 9024 643c
000003b0: 6937 8a3d 47fc 66bd c63d 053c 845c 85bd
000003c0: e4f3 8cbd 122a 6e3d a16a a93d be80 683c
000003d0: 4ce7 df3c 8884 b1bc 94c6 5e3d d8d2 b43b
000003e0: 5a51 683c e71d 8fbd d6c4 bcbd 5e7f ca3c
000003f0: 20f2 9a3d bd8d 15bd 7ee3 a23d c6d6 973d
-0.010463132 -0.011468934 -0.08606109 -0.047222957 -0.004328113 -0.02424773 0.0031098952 0.09312879
0.049509995 0.035807457 0.07846135 0.01050188 -0.012354079 0.04250247 -0.012808813 0.02216203
0.06357666 0.056652986 0.052724738 0.049756855 0.0631541 -0.020977536 -0.076350786 0.025243815
-0.0016475444 0.017217327 -0.032140944 0.004823446 0.098281264 0.013993494 0.026361298 0.07988446
0.014584871 -0.0068581337 -0.015517255 0.070898235 0.0020557558 0.09842228 0.05617591 0.05346904
0.025323164 0.08709961 -0.050824665 -0.02802416 0.02558127 -0.07672233 0.019402167 0.016283203
-0.010491266 -0.048509035 0.0026869578 0.01696637 0.016705124 0.0012392255 -0.019060344 0.00847557
-0.00431976 0.009325982 -0.03454494 -0.03873349 -0.0042485306 -0.044383664 -0.08739056 -0.0060294354
0.027659727 -0.02659999 -0.04463339 0.04203024 -0.024512056 0.05937615 -0.012183862 -0.015912091
0.009870454 0.020764276 -0.00023311557 -0.08752965 -0.09775766 0.02752993 0.024430208 -0.018131895
-0.07819438 -0.04620651 0.014140599 -0.022603126 0.098839246 -0.009668145 0.07299478 0.08936569
0.04452104 0.03422835 0.041222896 0.06732745 0.06558945 -0.012929362 -0.021074021 0.0039667767
0.01863299 0.010484868 -0.06389126 -0.051963873 -0.06782119 -0.03527228 0.0036589026 -0.08397849
-0.022103013 -0.011730908 -0.04349952 -0.06457601 -0.03594383 -0.093948916 -0.059981935 -0.08203819
0.03853699 0.015822904 0.06143777 0.07890604 -0.01502598 -0.03566822 0.0010872899 0.027156094
0.015527733 -0.016657794 0.018431433 0.069043584 0.05681035 -0.010175236 -0.00672142 0.05747382
0.032107208 0.09710423 0.075302035 -0.012774804 -0.021705467 -0.031873316 -0.038128715 0.011733371
-0.09721288 -0.0025087944 -0.06992133 -0.07617602 -0.04248895 -0.033189137 -0.055478245 -0.042364094
-0.08986398 -0.022891391 -0.09312836 0.0819131 0.042391915 0.081792995 -0.024575593 0.031057278
-0.0086001875 0.080384724 -0.012205319 -0.07855288 0.0025503915 -0.09209378 0.007353466 -0.043199025
0.025639918 0.083693236 0.05548785 0.034439296 -0.0047038496 0.016565142 0.016779356 0.08522624
-0.001555779 0.059613932 -0.022913044 0.012845588 0.07028056 0.016088469 0.03439578 -0.011343551
-0.03147977 -0.02952442 0.07697955 0.07936267 -0.019886473 0.004167905 0.05097067 0.041955326
-0.013352984 0.037154075 0.09485536 0.020669242 0.092191696 -0.08439937 -0.001172381 -0.020021964
-0.06928247 0.00022945131 -0.0910024 -0.087679684 0.055176362 0.017593449 -0.059231304 0.07866969
0.015928047 -0.03291641 -0.006278602 -0.05572404 -0.045800515 0.007012761 -0.009549842 0.022280082
0.0046063676 -0.07873023 -0.022316702 -0.045295447 -0.02204641 -0.088752195 -0.044450533 -0.07713182
-0.030852692 0.095330186 0.025014251 0.002819733 -0.012328411 0.018805927 0.026031842 0.026899807
-0.01037103 -0.0041780137 -0.011775196 0.067336924 0.09055036 -0.04753928 0.069560364 -0.072244056
0.005940468 0.02357793 0.014291938 0.013924733 0.0674885 -0.056392934 0.008132404 -0.065117866
-0.06882456 0.05814559 0.08272291 0.014190851 0.02733197 -0.021669641 0.054388598 0.0055182986
0.014179552 -0.06988125 -0.09217231 0.024718937 0.07565713 -0.036512125 0.07953547 0.07414012

psi.0.bias f4 [64]
00000000: 8a48 dfbc 1bf9 443d 056f 713c 5866 263c
00000010: e20e 8b3d 3350 98bd 9b70 8c3d 59bd 19bd
00000020: 7e48 103d 8c7b 543d 9052 b93b 9394 c93d
00000030: 5b37 f2bc 52fd cebc b2c5 32bd 0982 21bd
00000040: a760 903d bd95 bc3a d37f 8fbc 13ef 6bbd
00000050: 00d6 a4bd ca17 b43c 258d af3c 27d3 763d
00000060: edd9 a7bd 8d74 9fbb 19bc a53d 02d2 443d
00000070: f2b4 823d ba35 a5bd 295b a9bd 10c1 533d
00000080: 6a0b 303d 3a09 723c 2916 b4bc 904b 463c
00000090: ef6d aa3c 8ef0 0bbd 360a 92bd 084f 123d
000000a0: cf67 dc3c fac4 adbc 5b79 23bc 6163 dabd
000000b0: 33df 6f3d fe04 16bd 706b 8a3a 77a2 37bd
000000c0: ea29 dd3c ac13 c83c f758 493d 07e8 ddbb
000000d0: 2860 4b3c f42a fc3c 6784 aabc 042f b93d
000000e0: 0f86 cb3b 78e5 7eba 6dc2 2dbc d81d bebb
000000f0: f9a1 72bc 6077 bb3c 8075 0f3d 7f0c e03b
-0.027256269 0.048089128 0.014735942 0.010156237 0.06789948 -0.07437172 0.06857415 -0.03753409
0.035225384 0.051875636 0.005655594 0.098427914 -0.029567411 -0.025267277 -0.04364557 -0.03943065
0.07049685 0.0014387887 -0.017517006 -0.057601046 -0.0804863 0.021984 0.021429608 0.060259964
-0.08195863 -0.004866189 0.080925174 0.04805184 0.06382169 -0.08066888 -0.082693405 0.05169779
0.042979635 0.014772708 -0.021983223 0.012102976 0.020804374 -0.034164958 -0.07130854 0.0357199
0.026904969 -0.02121209 -0.009977664 -0.10663486 0.05856247 -0.036625855 0.0010560583 -0.044832673
0.026997525 0.024423443 0.04915711 -0.0067720446 0.012413062 0.0307822 -0.020815087 0.09042171
0.0062110494 -0.00097235246 -0.010605437 -0.0058018975 -0.014809125 0.02288407 0.035024166 0.006837427

psi.2.weight f4 [2, 64]
00000000: 7bd7 e5bc 12e6 9dbd 0bd7 fab9 9363 1d3d
00000010: 9cec 4abd 1205 e33d d9cb febd 4496 a83d
00000020: 09cd a03d 93ea 64bb 1fb9 623d 1b77 e73c
00000030: 206d 9cbd ca47 7ebd 73f5 02bd 2f90 f2bd
00000040: 5365 2abd b572 b0b8 d40f b7bc cd29 6e3d
00000050: 273d acbc a748 84bd 3aa8 823b 2df5 8b3d
00000060: 2ccf b3bd 4d8a d6bb c6a0 d73d 21f0 7fbb
00000070: 6803 653d d9ba e5bc ea0e 93bc c7d2 05be
00000080: 0815 64bd 2c19 4abd c6bf cbbc f615 ad3d
00000090: 77ec 753d 60da cdbb f55a 0f3c 8389 ed3d
000000a0: c96e 83bd 7c68 86bd 411d a1bd 843f 90bd
000000b0: 9a09 74bd 3a9b 71bd aea4 463c e7e0 013d
000000c0: 56a2 1abe 0ba3 b33c fc11 8fbd 894f 82bd
000000d0: c4b8 143e 07fe ee3d 70d3 883d 51ac 053e
000000e0: d0f2 07be 5107 163d fe08 5a3d 0bda b9bd
000000f0: a279 40bd e6ad f9bd ce45 c3bc bfac 753c
00000100: af22 2f3d b7a9 b4bb c3a2 80bc d397 243c
00000110: 9df1 03bd 9098 d83c efd8 403b 2c78 223d
00000120: 3d2e 2c3d 43ec 2a3c a740 5cbb 3220 9dbc
00000130: 5fb6 31bd ef75 843d 3edf 49bc 7212 94bc
00000140: fcc8 dcbc 12c3 78bc 8be4 e13c 34f9 b03a
00000150: 6930 edbc 5a18 153b db9e 4b3d c066 183c
00000160: fe14 bd3c f36b fb3a 75a7 fb3b 7cda f3ba
00000170: f0eb 5dbd 1732 273d 5d01 6fbc cd3e 00bd
00000180: 2dd1 e3bc 172a 863c 9926 fb38 66e9 4b3d
00000190: 5f85 50bc aa61 51bc ad96 463d 28f0 f03c
000001a0: 09ae 00bd d17d 2e3d 228a 1f3d e2cd 613d
000001b0: 455f 35bd b110 0d3d 1134 70bd b380 273d
000001c0: e0e3 f63b 6736 923d 6c60 35bc 6dff ecbc
000001d0: 15e2 41bc 7be5 eabc 3a9a 0f3d 6a4f 883d
000001e0: 3869 d63c c06c 713d 4f29 20bd fd70 25bd
000001f0: 615f 523d c5fd fcbc b5f8 ddbc 0b4b 2e3d
-0.02805685 -0.07709898 -0.00047843935 0.03842504 -0.049542055 0.110849515 -0.124412246 0.08231786
0.07851607 -0.0034929856 0.055352326 0.028255036 -0.076380014 -0.062080182 -0.03197236 -0.11843907
-0.041600537 -8.4137e-05 -0.022346415 0.058145333 -0.021025253 -0.0645917 0.0039873393 0.06833873
-0.08779749 -0.0065472485 0.10528712 -0.003905304 0.05591145 -0.028043197 -0.017951448 -0.13068686
-0.05568412 -0.049340412 -0.024871718 0.08451454 0.060039964 -0.006282136 0.008749713 0.11598494
-0.06417615 -0.065628976 -0.07866908 -0.07043365 -0.05957947 -0.058985926 0.012124224 0.031708624
-0.15100989 0.02192833 -0.06985852 -0.063628264 0.14523607 0.116695456 0.066809535 0.13054015
-0.1327622 0.03662807 0.053231232 -0.090747915 -0.046990998 -0.121913716 -0.023836996 0.014994799
0.042757686 -0.0055133956 -0.01570261 0.010045963 -0.032212842 0.026439935 0.0029426177 0.039665386
0.042036284 0.010432306 -0.0033607872 -0.019180391 -0.043386813 0.064678065 -0.0123212915 -0.018075202
-0.026951306 -0.015183227 0.027574798 0.0013502003 -0.028953748 0.002275011 0.049712043 0.009301841
0.023081299 0.0019181952 0.0076798745 -0.0018604542 -0.054180086 0.040819254 -0.014587727 -0.03130989
-0.027809704 0.016377492 0.00011975802 0.049783133 -0.012727111 -0.012779633 0.04848354 0.02941139
-0.031415973 0.042600457 0.038950093 0.055127986 -0.04428031 0.034439746 -0.058643404 0.04089422
0.007534489 0.07139283 -0.011070352 -0.02893039 -0.011833687 -0.028673878 0.03505919 0.06655772
0.02617322 0.058941603 -0.039101895 -0.040390957 0.05136049 -0.030882725 -0.027096132 0.042552035

psi.2.bias f4 [2]
00000000: d441 60bd 8d8b c63d
-0.05475028 0.09694586

exp_avg f4 [8, 1, 2]
00000000: 7e32 f2cf 9983 a8d0 a8e0 d751 a541 1452
00000010: ccdb 2bd1 06ad 05d2 6869 9d51 8ba9 a751
00000020: 930b f3d0 47d7 a651 35ca 2c4f 595c 4251
00000030: 29f9 a951 6433 df50 f05f 3b51 771e 4c51
-8.1267907e+09 -2.2617573e+10 1.15898384e+11 1.5918912e+11 -4.6132937e+10 -1.4353338e+11 8.450979e+10 9.0013e+10
-3.2620976e+10 8.957204e+10 2.898933e+09 5.217331e+10 9.125371e+10 2.9957497e+10 5.029803e+10 5.4792778e+10

exp_avg_sq f4 [8, 1, 2]
00000000: f9e9 bc6d bd56 856d b07e cf6d 0dab 6e6e
00000010: e0d0 0b6c 42a8 3e6d b99a eb6b 1fa0 426e
00000020: ede1 1e6d 839e 766b 0ac4 e36b e5be d36c
00000030: cca4 3c6c 4495 876a add6 396a 8d54 ec68
7.3082547e+27 5.158296e+27 8.027069e+27 1.8466055e+28 6.761083e+26 3.6878477e+27 5.6965645e+26 1.5058417e+28
3.073235e+27 2.981443e+26 5.5070386e+26 2.0478786e+27 9.1222514e+26 8.195494e+25 5.6166264e+25 8.9283054e+24

exp_avg f4 [8]
00000000: 9b6f ae50 621f efd2 e11f 2ad1 5f38 9ad1
00000010: 6753 d051 255c 62d1 93b3 96d1 56d8 96cf
2.3412398e+10 -5.1351185e+11 -4.5667455e+10 -8.279634e+10 1.1184406e+11 -6.0763034e+10 -8.090723e+10 -5.0615204e+09

exp_avg_sq f4 [8]
00000000: 46bd 006b e1fa 486c a36c 1f6c 2673 666e
00000010: 12d0 ae6d 331d df6a 95d5 876b 219f 286c
1.5563632e+26 9.718796e+26 7.709289e+26 1.783019e+28 6.7627417e+27 1.3486417e+26 3.284272e+26 8.15404e+26

exp_avg f4 [16, 8, 2]
00000000: 4799 9ece e656 9dce 3b99 4dd1 fab2 50d1
00000010: 0bf0 dd51 10a6 e051 34c7 0bd2 1153 0dd2
00000020: a941 65d1 ad65 69d1 e7bf 77d0 3c7d 78d0
00000030: 6092 afd0 fb54 b2d0 6244 43cf 2194 46cf
00000040: 0590 51cf 0a0f 0bcf 433a 3d51 2888 2e51
00000050: 9f50 18d2 08a5 1bd2 c41a 1552 8c51 1552
00000060: 2140 5551 1872 5b51 7fb0 b74f b07e 0050
00000070: 6383 a750 8233 ad50 32c4 534f ad02 544f
00000080: 40b2 0150 09c2 0150 2d0f ebd0 4562 e8d0
00000090: 89ad 2e52 9c08 2e52 f033 00d2 a8d3 fed1
000000a0: 9f9c 26d1 76ac 24d1 b07e dd4f 3ca8 de4f
000000b0: b5b0 80d0 8448 7fd0 3fa4 17cf b33b 16cf
000000c0: c5b6 25cd e73b 2fcd a7a1 d6d0 076d d7d0
000000d0: 75e3 6051 8193 5f51 0893 8ed1 c2c2 8cd1
000000e0: 0cd8 f2d0 12da fcd0 563b eccf 51d7 e1cf
000000f0: d9c6 2bd0 280e 32d0 a25d 8ace 4e0d 8dce
00000100: 8dfe 9ecf 4823 a3cf 5f36 34d1 dd0e 34d1
00000110: cf5a 0451 2098 0651 d162 b8d1 0bfc b6d1
00000120: 26e5 37d1 9597 41d1 a6c2 a2d0 f53a a1d0
00000130: c41a 7dd0 eaa3 85d0 2619 b7ce 4da5 bcce
00000140: e1f7 d5cf 87ed cecf 60cf 81d1 c0b4 83d1
00000150: eb21 7951 6647 7751 987d 0bd2 1d8d 0bd2
00000160: 5a06 86d1 0364 86d1 bbe8 e0d0 61b7 dcd0
00000170: ee62 c4d0 bec3 c4d0 c868 3bcf 751b 3ccf
00000180: 32b7 e74e ca51 934e b50b 4bd1 7e78 3cd1
00000190: 9c72 1752 927c 1552 28e1 1ad2 141c 16d2
000001a0: 266f 79d1 631e 78d1 95a6 0cd0 6406 1ad0
000001b0: 3230 b8d0 fafb b7d0 25d7 47cf 16d3 41cf
000001c0: 25b7 3bcf 58b9 45cf 3f09 58d1 d7c6 51d1
000001d0: 6fb3 b251 0a6e ae51 4138 04d2 407f 01d2
000001e0: ceb9 7cd1 c849 76d1 c175 95d0 d609 97d0
000001f0: 0d25 b5d0 1f7b b0d0 3c53 1bcf d264 16cf
00000200: 4f13 c0ce c35d c7ce 6b59 ef50 ddcc f350
00000210: 71b8 b5d1 573a b8d1 c526 b951 b7ce bd51
00000220: c95b 1851 4b1b 1451 9ac2 b04f a60b bd4f
00000230: 3234 5f50 b05e 5a50 777b cb4e 2105 cb4e
00000240: 9ac9 f24f ec8f dd4f 299f c0d0 2ba1 abd0
00000250: 66a6 0952 1c04 0b52 8285 c5d1 53a5 c4d1
00000260: 52ba fcd0 2fe0 fdd0 510b 0750 a477 e04f
00000270: 89b4 37d0 ef52 3ad0 2f33 cece 1ac0 c8ce
00000280: 592d 74cf f9ef 6dcf aa79 96d1 ee59 99d1
00000290: c523 1352 d584 1452 1685 47d2 63c0 48d2
000002a0: a67d 9fd1 1da0 a4d1 c641 cdd0 86e3 c9d0
000002b0: 60b0 f6d0 43c0 fdd0 a91d 98cf 3508 9bcf
000002c0: f6c2 b5ce 0ac3 18cf acef a2d1 e83e 9dd1
000002d0: 64e2 2852 70c4 2b52 885d 56d2 f903 56d2
000002e0: 1007 aad1 90a1 afd1 c832 add0 1ae7 bad0
000002f0: eba7 02d1 bde1 06d1 8296 a0cf d91d a2cf
00000300: 2a17 914f b417 c74f d2cf 82d1 c7b1 8bd1
00000310: f5fb 9952 ad1b 9552 04ed 84d2 c04f 81d2
00000320: eb3a bcd1 d3af bbd1 3965 2bd0 58c7 b7cf
00000330: 5f65 19d1 af6a 17d1 8867 d2cf 4080 d0cf
00000340: 18ef c4cd 66c7 0b4e 76ed 9951 2d57 9451
00000350: 12b3 38d2 7f49 3bd2 9bee 5552 6057 5552
00000360: 3b79 a251 9307 a851 8347 8a50 9bef 9650
00000370: e448 fd50 feca 0251 4c2b a44f 3760 a54f
00000380: d267 5e4e 56f1 7c4e d58c 4c51 46be 4d51
00000390: fc5a 02d2 7737 04d2 34e6 1652 1e66 1852
000003a0: 1b14 7251 9c1a 7851 2931 7650 da5c 7a50
000003b0: 8b86 b650 9114 bb50 34e3 454f fe48 494f
000003c0: fe6a a250 3566 ab50 f13b 84d0 e009 b0d0
000003d0: 48ad b252 ea24 b452 0158 44d2 8dcf 4cd2
000003e0: 0105 32d1 5a37 27d1 7c65 f550 0c88 fb50
000003f0: 753f 9fd0 a7d0 98d0 1437 8bcf 9aa4 8dcf
-1.3304227e+09 -1.319859e+09 -5.5189942e+10 -5.6022245e+10 1.1915188e+11 1.2060734e+11 -1.5008563e+11 -1.51746e+11
-6.154057e+10 -6.2652076e+10 -1.6626195e+10 -1.6675828e+10 -2.3564845e+10 -2.393531e+10 -3.2760387e+09 -3.3315965e+09
-3.5158766e+09 -2.3330186e+09 5.0795393e+10 4.685054e+10 -1.635469e+11 -1.6712217e+11 1.600998e+11 1.6032956e+11
5.7243996e+10 5.8907e+10 6.163595e+09 8.623145e+09 2.2483245e+10 2.3246672e+10 3.5528504e+09 3.5569452e+09
8.703771e+09 8.707909e+09 -3.1549123e+10 -3.1190034e+10 1.8755894e+11 1.8686719e+11 -1.376568e+11 -1.3680909e+11
-4.4724515e+10 -4.4204253e+10 7.4321347e+09 7.4711347e+09 -1.7272515e+10 -1.713177e+10 -2.5441236e+09 -2.5204948e+09
-1.7376366e+08 -1.8374616e+08 -2.8807346e+10 -2.8913973e+10 6.036805e+10 6.0015776e+10 -7.654402e+10 -7.5570364e+10
-3.259396e+10 -3.39372e+10 -7.926623e+09 -7.577969e+09 -1.1527742e+10 -1.1949089e+10 -1.160696e+09 -1.1832297e+09
-5.3349647e+09 -5.473997e+09 -4.8375394e+10 -4.8333967e+10 3.55287e+10 3.6129866e+10 -9.899148e+10 -9.823908e+10
-4.936397e+10 -5.196699e+10 -2.1845324e+10 -2.1639965e+10 -1.6985559e+10 -1.7936896e+10 -1.5359393e+09 -1.5824749e+09
-7.179584e+09 -6.943346e+09 -6.9691245e+10 -7.070915e+10 6.6875994e+10 6.6378424e+10 -1.497769e+11 -1.4984199e+11
-7.195402e+10 -7.215044e+10 -3.0186789e+10 -2.9624044e+10 -2.6358542e+10 -2.64093e+10 -3.1442063e+09 -3.155916e+09
1.9437714e+09 1.2358054e+09 -5.4504673e+10 -5.059221e+10 1.6261572e+11 1.6051002e+11 -1.6630061e+11 -1.6117904e+11
-6.6956976e+10 -6.6603856e+10 -9.438909e+09 -1.033644e+10 -2.472133e+10 -2.4693953e+10 -3.3527657e+09 -3.2518364e+09
-3.149342e+09 -3.3172582e+09 -5.7991754e+10 -5.631151e+10 9.593932e+10 9.364631e+10 -1.4196987e+11 -1.3904642e+11
-6.7840565e+10 -6.6112487e+10 -2.0060178e+10 -2.0272034e+10 -2.4312834e+10 -2.3686871e+10 -2.6059233e+09 -2.5231898e+09
-1.6112454e+09 -1.6724054e+09 3.2124918e+10 3.2722315e+10 -9.756044e+10 -9.8906595e+10 9.9402424e+10 1.01902115e+11
4.0898433e+10 3.9757066e+10 5.931087e+09 6.3433144e+09 1.4978959e+10 1.4654554e+10 1.7069331e+09 1.7030555e+09
8.146597e+09 7.4343936e+09 -2.585325e+10 -2.303573e+10 1.4780056e+11 1.4926735e+11 -1.06043556e+11 -1.0557341e+11
-3.3920553e+10 -3.4074622e+10 9.062663e+09 7.5318743e+09 -1.2328248e+10 -1.2503989e+10 -1.7297304e+09 -1.6840164e+09
-4.0966126e+09 -3.991927e+09 -8.0785785e+10 -8.2329846e+10 1.5799008e+11 1.5947093e+11 -2.1423283e+11 -2.155553e+11
-8.562598e+10 -8.838261e+10 -2.7549118e+10 -2.7097051e+10 -3.3110032e+10 -3.4057886e+10 -5.1041613e+09 -5.2020127e+09
-1.5247265e+09 -2.562919e+09 -8.747572e+10 -8.442066e+10 1.8133818e+11 1.8443377e+11 -2.3017305e+11 -2.2979741e+11
-9.128287e+10 -9.429123e+10 -2.324629e+10 -2.5085661e+10 -3.5072684e+10 -3.6207055e+10 -5.3884365e+09 -5.43973e+09
4.868429e+09 6.680439e+09 -7.022905e+10 -7.499788e+10 3.3067857e+11 3.2020722e+11 -2.8545607e+11 -2.7769438e+11
-1.0105529e+11 -1.0076359e+11 -1.1502151e+10 -6.1665894e+09 -4.117692e+10 -4.064562e+10 -7.060001e+09 -6.996132e+09
-4.1300045e+08 5.862752e+08 8.263924e+10 7.9639716e+10 -1.9831957e+11 -2.0109799e+11 2.297078e+11 2.2907349e+11
8.722733e+10 9.02102e+10 1.855954e+10 2.0258281e+10 3.39953e+10 3.510946e+10 5.508602e+09 5.5490924e+09
9.328365e+08 1.06091866e+09 5.4908506e+10 5.5228785e+10 -1.3996805e+11 -1.4196656e+11 1.6202682e+11 1.6363707e+11
6.4982462e+10 6.6599895e+10 1.6521668e+10 1.6801556e+10 2.4498166e+10 2.5109498e+10 3.3200015e+09 3.377004e+09
2.1799367e+10 2.3004817e+10 -1.7748167e+10 -2.3627497e+10 3.8370568e+11 3.868567e+11 -2.1082251e+11 -2.1991386e+11
-4.778676e+10 -4.488676e+10 3.293655e+10 3.3759977e+10 -2.1373889e+10 -2.0510489e+10 -4.671285e+09 -4.7527496e+09

exp_avg_sq f4 [16, 8, 2]
00000000: 2909 226a 4eac 1e6a cf31 996b 7aaf 956b
00000010: 45f1 f46b b6a0 016c 5471 0e6c acf3 ff6b
00000020: 44b9 086b 085a 136b 0aef 816b 2a3c 786b
00000030: ea74 486a 4915 566a 2f40 8368 d575 8168
00000040: d807 1a69 994c 2269 8bc1 d16a 1329 cf6a
00000050: 0173 3a6b dd74 376b a1d7 276b fbb3 306b
00000060: 49ea 806a 30c8 686a fc05 9b6a e8b5 a26a
00000070: 0b19 a469 701b 9469 3cd4 4667 c923 5767
00000080: 9738 036c 13b8 ff6b 7c6f 7b6d 802f 846d
00000090: 6201 b26d a494 af6d fc19 e96d e066 f86d
000000a0: b6b9 c96c 7439 c16c 1a5e 3e6d 20fb 3c6d
000000b0: 9f45 126c 8865 0b6c 4711 5f6a f4b9 5f6a
000000c0: 5e64 8e6b 34a7 8e6b a3b9 1f6d ad94 206d
000000d0: d8f0 686d 156b 676d 8c15 886d a74e 8a6d
000000e0: 3b25 7f6c c26e 7b6c 34e4 d86c 6507 da6c
000000f0: c425 b66b 96a0 b36b 081b 016a 4564 016a
00000100: c9be e26b 8d30 e16b fcab 626d 1b97 6c6d
00000110: a145 b76d 34f2 b16d 4a5c bc6d 34cc ce6d
00000120: c9ca c16c 33a9 b06c f381 276d fdc5 2a6d
00000130: 7894 0b6c d000 ff6b 6fa8 4a6a 699a 4e6a
00000140: 9e7e 076b 006b 006b 20d7 976c ad4e 9e6c
00000150: a49f ef6c 6d66 f76c d3cd 006d 5276 006d
00000160: a5a8 036c 3a51 026c 3e9f 5d6c d761 546c
00000170: a521 3d6b 891f 396b 8389 6d69 b6b8 6e69
00000180: da1f dc6a 3e5c be6a ebfa 476c 8846 6b6c
00000190: e6ef a26c f534 a96c 1077 bd6c db0f d26c
000001a0: 521d c96b d462 b76b 4066 316c 4853 226c
000001b0: 8731 0f6b 3392 fd6a f39b 2369 9f80 2669
000001c0: 8e64 3a6c fd53 316c adc8 be6d 4d93 c56d
000001d0: b39a ff6d 1ca7 046e 2959 326e 88f3 2e6e
000001e0: e593 126d 0025 166d 8f80 896d 27d9 826d
000001f0: f046 536c a39b 556c 8327 a06a b420 9f6a
00000200: 31d8 416c 0b73 3b6c 1db2 ce6d 5eca d06d
00000210: c145 026e 8c5e 086e 3404 426e 34f3 396e
00000220: 0c61 226d 95b2 236d 6630 8e6d 6cca 886d
00000230: 219e 686c b4ae 686c f0df a36a d5f6 a46a
00000240: 8060 e46b f66f ec6b 611b 616d 72cc 576d
00000250: 2e30 9f6d 11b4 9f6d 14c5 c96d 1c91 c56d
00000260: d426 c26c 0424 b76c c9d2 236d 341e 296d
00000270: df68 0b6c cc13 056c b714 406a d72e 466a
00000280: b051 fa6b 34a7 f66b eab0 816d 5893 826d
00000290: 78b6 af6d e691 b26d b256 f76d a400 f36d
000002a0: 8020 d16c 135a d66c 0204 426d 6f1d 3e6d
000002b0: ab84 166c 437a 196c 06aa 4f6a 2829 4e6a
000002c0: 4ed9 3c6b 8597 3d6b 7225 d46c 4700 d16c
000002d0: 413f 136d c74e 166d 873c 426d b836 3c6d
000002e0: 6cbe 366c 0dc3 366c e7d1 976c eaf4 966c
000002f0: bf66 806b 3a64 806b a6b2 9b69 9ebe 9c69
00000300: 1467 536c 526d 556c 519e ed6d f15c ed6d
00000310: acd1 1f6e 6181 1d6e 1515 546e 9819 586e
00000320: be37 346d 164c 306d 8a49 9e6d 01a9 a06d
00000330: c5b8 7e6c eb25 7a6c 2f43 bc6a 2a27 bd6a
00000340: 830b d56b 9e82 d46b faa5 6f6d c98a 6f6d
00000350: 0243 a36d a24f a46d 18e3 d66d 0369 d56d
00000360: 1041 bc6c feae bc6c dc0a 236d 6d53 226d
00000370: cb9f 056c 9cd0 056c e7bb 3a6a 6ba4 3a6a
00000380: 193c 976a b84f 9d6a 77d8 366c 9df5 346c
00000390: 2e94 876c 1402 826c 21ba 9b6c 6a3c a46c
000003a0: 5fc5 9b6b 50fe 946b 1cd9 f86b 3f4d 026c
000003b0: 743a d96a b7a6 d16a e4dc 0369 6f2a 0569
000003c0: a68a e46a 290f e06a 107c 8a6c 78b4 8d6c
000003d0: 3c08 e26c bb95 e56c 0d9d 006d 71af 006d
000003e0: ee0c 116c 8882 116c 08e9 696c 864c 646c
000003f0: e142 4a6b 2451 496b 1872 2169 2b13 2169
4.897231e+25 4.795599e+25 3.7040173e+26 3.6191722e+26 5.9223453e+26 6.268415e+26 6.888106e+26 6.188536e+26
1.652888e+26 1.7813726e+26 3.1416052e+26 3.0009772e+26 6.058432e+25 6.470266e+25 4.958512e+24 4.890871e+24
1.1638226e+25 1.2262982e+25 1.2678974e+26 1.2522081e+26 2.254033e+26 2.217853e+26 2.0290889e+26 2.1362088e+26
7.792444e+25 7.0354037e+25 9.370588e+25 9.8352505e+25 2.4797762e+25 2.2381324e+25 9.389436e+23 1.0159689e+24
6.345461e+26 6.182907e+26 4.8634696e+27 5.1136807e+27 6.8862504e+27 6.7924465e+27 9.0176776e+27 9.6095813e+27
1.9509687e+27 1.868752e+27 3.6822446e+27 3.6554233e+27 7.073278e+26 6.740806e+26 6.741801e+25 6.761715e+25
3.4428287e+26 3.4491412e+26 3.0895336e+27 3.1060837e+27 4.5057303e+27 4.4762807e+27 5.264501e+27 5.350502e+27
1.2338076e+27 1.2158537e+27 2.0976451e+27 2.108646e+27 4.404057e+26 4.3431213e+26 3.901977e+25 3.9106235e+25
5.482364e+26 5.4447517e+26 4.3844705e+27 4.576321e+27 7.0899916e+27 6.8839565e+27 7.286844e+27 8.0000973e+27
1.8742425e+27 1.7085597e+27 3.2400685e+27 3.3032378e+27 6.7496725e+26 6.1655984e+26 6.1249605e+25 6.2441975e+25
1.6380292e+26 1.552478e+26 1.4685096e+27 1.5310545e+27 2.3174972e+27 2.392707e+27 2.4914317e+27 2.48482e+27
6.366627e+26 6.3017575e+26 1.0716984e+27 1.02701724e+27 2.2864586e+26 2.238002e+26 1.79478e+25 1.8037289e+25
1.3305705e+26 1.1506575e+26 9.6704466e+26 1.1377226e+27 1.575831e+27 1.6364684e+27 1.8323939e+27 2.0315944e+27
4.862651e+26 4.4340026e+26 8.578509e+26 7.849571e+26 1.7311028e+26 1.5327432e+26 1.236196e+25 1.2580568e+25
9.013402e+26 8.57506e+26 7.380594e+27 7.643328e+27 9.888212e+27 1.0263511e+28 1.379903e+28 1.3536201e+28
2.8352253e+27 2.9042176e+27 5.319358e+27 5.0619465e+27 1.0216734e+27 1.0329447e+27 9.680736e+25 9.618682e+25
9.373745e+26 9.064496e+26 7.996155e+27 8.077191e+27 1.0079345e+28 1.0551065e+28 1.5011293e+28 1.4387185e+28
3.1408684e+27 3.1663718e+27 5.5006727e+27 5.2918343e+27 1.1248701e+27 1.1251832e+27 9.905621e+25 9.971473e+25
5.521816e+26 5.7167043e+26 4.3542016e+27 4.1741523e+27 6.158295e+27 6.1782254e+27 7.8055925e+27 7.6429967e+27
1.8777198e+27 1.771228e+27 3.168805e+27 3.2712175e+27 6.741437e+26 6.435225e+26 5.8052895e+25 5.9897127e+25
6.0523443e+26 5.963707e+26 5.01718e+27 5.0513974e+27 6.7975585e+27 6.908089e+27 9.5684507e+27 9.400704e+27
2.0225518e+27 2.0730839e+27 3.7528086e+27 3.6773584e+27 7.278615e+26 7.4217206e+26 6.276264e+25 6.230827e+25
2.2830425e+26 2.2920251e+26 2.0517528e+27 2.0213344e+27 2.848173e+27 2.9073742e+27 3.757079e+27 3.6405833e+27
8.83695e+26 8.837824e+26 1.4683123e+27 1.4599636e+27 3.1045542e+26 3.1043162e+26 2.3528393e+25 2.3686574e+25
1.0222805e+27 1.0320698e+27 9.1924175e+27 9.1825383e+27 1.2365399e+28 1.2186389e+28 1.6409077e+28 1.6719926e+28
3.485918e+27 3.410084e+27 6.123442e+27 6.2152393e+27 1.2317588e+27 1.2096421e+27 1.1379766e+26 1.1433596e+26
5.1511112e+26 5.138182e+26 4.6354732e+27 4.6334186e+27 6.315883e+27 6.3564765e+27 8.3130414e+27 8.2559073e+27
1.8206824e+27 1.8248355e+27 3.153699e+27 3.1398392e+27 6.4616694e+26 6.4708906e+26 5.6436887e+25 5.640916e+25
9.14158e+25 9.508891e+25 8.841869e+26 8.750661e+26 1.311238e+27 1.2573614e+27 1.5060998e+27 1.588393e+27
3.7663112e+26 3.6024396e+26 6.0167775e+26 6.301006e+26 1.3130647e+26 1.2672639e+26 9.963276e+24 1.006172e+25
1.3814492e+26 1.3543549e+26 1.339341e+27 1.3704862e+27 2.186049e+27 2.2204088e+27 2.4877465e+27 2.489136e+27
7.014212e+26 7.0364264e+26 1.1311207e+27 1.1039858e+27 2.4451884e+26 2.4337727e+26 1.2198491e+25 1.2170473e+25

exp_avg f4 [16]
00000000: bace b2d0 6ab5 4ed1 b8cf 0152 835d 81d0
00000010: 520e d1d1 7405 fcd1 c73c df50 c19f 7dd1
00000020: 04b4 7ed0 94d6 d551 6ce9 52d1 ac8d f4d0
00000030: d7c3 1652 b7bd 9acf 2cac fe4f f2fe c152
-2.399914e+10 -5.548793e+10 1.3938393e+11 -1.7363114e+10 -1.1223605e+11 -1.35302906e+11 2.9962418e+10 -6.8081684e+10
-1.7092841e+10 1.1480351e+11 -5.6616206e+10 -3.2823402e+10 1.6188269e+11 -5.192249e+09 8.5453926e+09 4.1660298e+11

exp_avg_sq f4 [16]
00000000: 1aa3 ae6d 6ee0 ee6c 9da0 856f 0434 226f
00000010: 506d 776f 2d60 a16e 8a8f 6c6e 4bb4 c26f
00000020: c220 cc6f b9f4 6c6f 7b48 866f 7f6a d96e
00000030: b083 ea6f 87e2 6e6f 0b24 3a6e aa31 9d6e
6.755946e+27 2.3102735e+27 8.271135e+28 5.0199455e+28 7.657495e+28 2.4971678e+28 1.8302998e+28 1.2051611e+29
1.2634909e+29 7.3334314e+28 8.311723e+28 3.3643497e+28 1.4515739e+29 7.3931287e+28 1.4401946e+28 2.4324593e+28
