lightning_logs/version_18/checkpoints/epoch=7-step=799.ckpt (torch, 612901 bytes, 62 tensors)

lattice_net.0.weight f4 [8, 1, 2]
000000 ff 66 ad 3d 10 19 0f 3e d2 98 be bd 25 35 fa 3d
       0.084669106 0.13974404 -0.09306492 0.12217168
000010 77 d7 cd be 07 46 a3 be 35 2c 02 3f b2 ff 26 bf
       -0.4020345 -0.31889364 0.50848705 -0.6523391
000020 fb d4 b8 be 0c cf 2a bf 57 46 2c 3f 79 29 14 3e
       -0.3609999 -0.6672218 0.6729483 0.14468946
000030 41 47 8d 3e e7 ad 12 bf 20 9d bd 3e 67 e2 f8 be
       0.27593425 -0.57296604 0.3703394 -0.4861023

lattice_net.0.bias f4 [8]
000000 d8 47 1a bf 1b 5f 59 be ce a0 e2 be f4 f9 bc be
       -0.60265875 -0.21227686 -0.4426331 -0.3690945
000010 29 9b 28 3e 0a a6 94 be de 05 d5 3e 6c ea 99 be
       0.16465439 -0.29032928 0.4160604 -0.30061662

lattice_net.2.weight f4 [16, 8, 2]
000000 42 01 35 3d 36 b1 16 be e8 84 98 bc 07 f2 13 be
       0.044190653 -0.14716038 -0.018618062 -0.14447795
000010 63 f6 4b be dd 8c 87 bc 66 7e 80 be 06 48 c3 3d
       -0.19918208 -0.016546661 -0.25096434 0.09535222
000020 d7 10 83 bc cd 4a 2c 3e f5 a3 8b bc 9f 5e 4f be
       -0.01599924 0.16825409 -0.017045954 -0.20250939
000030 6c 81 13 3e 4e 51 d9 bd 77 fc 4a bd 22 a5 8f bd
       0.1440484 -0.10611211 -0.049557175 -0.070139185
000040 0b c0 01 be 7d 45 74 be 7a c7 31 3e 33 a8 ab 3d
       -0.12670915 -0.23854633 0.1736125 0.08381691
000050 59 a6 75 be 19 ec 93 bc 1d 51 6e be 92 32 65 3e
       -0.23989238 -0.018056916 -0.2327313 0.22382572
000060 1b 7a 05 be b0 b4 a4 bc 53 22 2a 3d be db 49 bd
       -0.13034861 -0.02010569 0.04153664 -0.049281828
000070 16 21 31 3e f7 29 a8 3d 15 7b 76 be 30 68 04 bc
       0.17297778 0.08211129 -0.2407039 -0.008081481
000080 05 87 34 3e d8 c4 d3 bd 21 5a 7d 3d 22 37 b3 3d
       0.17629631 -0.10340279 0.06185353 0.0875075
000090 c5 b8 7f 3e f6 76 27 3e ed 7b 39 bd 0e a4 b7 bd
       0.24972828 0.16353974 -0.0452842 -0.08966838
0000a0 58 43 5d 3d d8 f3 15 3e 73 0e 12 3d 50 ae 51 be
       0.054019302 0.146438 0.03565831 -0.20476651
0000b0 e2 3b 5a 3e ca 72 b6 bd aa 7f 5d 3e ae 7a 11 3d
       0.21311906 -0.08908613 0.21630731 0.035517387
0000c0 db 87 1a bd 48 cb af bd b9 cf 0c 3e 35 c5 bd 3d
       -0.037727218 -0.08583695 0.13751115 0.0926613
0000d0 b7 69 b2 bc 01 03 75 be 9d b7 3c be 4f 47 37 3e
       -0.021778924 -0.23926927 -0.18429418 0.17898296
0000e0 6b ad a1 3d ca 0a 6f be 4a b7 88 bd 84 39 c8 3d
       0.07894405 -0.2334396 -0.066755846 0.09776595
0000f0 aa a5 06 3e 05 b9 3d be f5 60 d5 3d 73 56 c8 bd
       0.13149133 -0.1852761 0.10418884 -0.09782114
000100 1f df db 3d 09 5c ff 3d 7d 25 63 3e 70 3e 66 3e
       0.10735916 0.12468726 0.2218227 0.22484756
000110 0e 5f 5e 3e 3d 67 06 ba 21 1f 7e 3d 41 35 3d bd
       0.21715948 -0.0005127078 0.062041406 -0.046193365
000120 0e cd 0b 3e 4d f5 f1 bc d2 da 48 bd f2 b8 47 bd
       0.13652441 -0.029535914 -0.04903681 -0.048760362
000130 16 dd 1e 3e 78 5e d6 bb 28 84 da bd 48 d2 86 3d
       0.15514025 -0.0065420233 -0.10669738 0.06583077
000140 e9 b0 ea 3d ac 25 14 3e 36 05 3e 3b 7d 4d e2 bd
       0.11459524 0.14467496 0.0028994805 -0.11049936
000150 3d a6 a3 3d a7 2a 33 be ab 0c 01 be af 87 2c 3d
       0.07990692 -0.1749674 -0.12602489 0.042121585
000160 a7 7a 83 3d ce 2c f7 bd fc 1a 5d 3e e1 68 5e bd
       0.064198785 -0.12069093 0.21592325 -0.05429924
000170 63 e2 47 be ed 87 7d bc 2b 81 52 be b2 a0 80 3e
       -0.19519953 -0.015474302 -0.20557086 0.251226
000180 c7 95 6f be 67 38 19 3e f6 02 83 bb f6 b1 03 be
       -0.2339698 0.14962922 -0.0039981557 -0.12860855
000190 f6 a3 43 be 5a c7 51 be d8 18 54 be 27 66 fb 3c
       -0.19105515 -0.20486203 -0.20712602 0.030688358
0001a0 01 25 57 3e af 18 c2 3c e2 4f 8b bd da 58 b0 3d
       0.2101021 0.02369341 -0.06802346 0.08610697
0001b0 96 d1 17 be 7e a6 13 be d2 e8 d3 bc a4 58 97 3d
       -0.14826044 -0.1441898 -0.025867853 0.07389954
0001c0 4e 4c 64 be e2 bc 10 be 3b 98 4a bd 67 c4 92 3d
       -0.22294733 -0.14134553 -0.049461585 0.07166367
0001d0 64 02 32 be 73 67 2c 3c 00 20 3a be 9f 74 89 3a
       -0.17383724 0.010522711 -0.1817627 0.0010487026
0001e0 99 40 61 bd d9 9e e8 bd e0 1d f3 3d 83 45 b8 bd
       -0.054993246 -0.11358423 0.118709326 -0.08997633
0001f0 b3 cb 50 be 1e 51 50 3e d4 6c 4c bd 60 57 0b bd
       -0.20390205 0.20343444 -0.049908474 -0.034018874
000200 15 b3 17 be 68 cb 32 bd 4a 06 6a bd 12 a1 7c bd
       -0.14814408 -0.043651015 -0.057134904 -0.061677046
000210 0e 5d ed bd 47 2c 25 3e 32 a5 94 bd 36 e2 ec bc
       -0.115900144 0.16130172 -0.07258071 -0.02891646
000220 e4 dc 41 ba dc 7e 62 bb c4 9e 68 3e 29 b3 3a be
       -0.0007395281 -0.0034560477 0.22716814 -0.18232407
000230 14 ec ed 3c 0e 1f 47 bd 15 68 95 bd 57 b6 c9 3d
       0.029043235 -0.0486136 -0.07295243 0.09849232
000240 6e 2d 4e 3e ee 1d 33 be c5 0b 5a be b0 15 06 3e
       0.20134518 -0.17491886 -0.21293552 0.1309421
000250 a3 df 23 be ae 1b cf bd 38 3f 00 3e 50 f6 02 be
       -0.1600328 -0.10112701 0.12524116 -0.12789273
000260 6b d8 c1 bd f3 9d 32 3d 93 27 74 3d dd f5 3d bd
       -0.094651066 0.043607663 0.059608053 -0.04637705
000270 fd 95 50 be e7 8c b6 3d a8 ca 4c bd f2 f9 42 be
       -0.20369716 0.08913594 -0.049997956 -0.19040659
000280 9c 85 4d 3e 5b aa eb bd 5a 1c a2 3c 58 0e 4b 3e
       0.20070499 -0.11507102 0.01978891 0.1982969
000290 eb e2 3f 3d 19 8e 36 3e f8 f8 aa bc 94 e5 ca bc
       0.046847265 0.17827643 -0.02087067 -0.024767675
0002a0 46 b5 36 3e 40 c0 f3 3d b4 95 4e bc 6c 84 dc 3a
       0.17842588 0.11901903 -0.012608934 0.0016824133
0002b0 dd 4d 04 3e ea 8d f6 bd d6 a4 c6 3d 8b 11 f3 bd
       0.12920327 -0.12038787 0.09699409 -0.118685804
0002c0 2a 4e 4a 3e e3 0c f0 bd a8 3c 04 be 0f 1b 45 3e
       0.1975638 -0.11721208 -0.12913764 0.19248603
0002d0 af 65 6f be a6 7a 46 3d 5a f9 12 be 19 dd 71 be
       -0.23378633 0.04845681 -0.14352933 -0.23619498
0002e0 4f 81 09 be b8 08 83 bc 07 d8 6a 3d e1 50 cc bd
       -0.13428234 -0.015995368 0.057334926 -0.09976364
0002f0 79 20 16 3c 34 b2 07 be 57 be 8d bd 86 88 1c be
       0.0091630155 -0.13251573 -0.0692107 -0.15286455
000300 f8 5c 51 bd 1f ad 2f 3e 0d 0c 36 3d c7 b0 53 3e
       -0.051114053 0.17155884 0.044445086 0.20672904
000310 34 3a 9d bd e6 fc 55 3d 3d 21 d7 bd c0 a7 49 bd
       -0.07677117 0.052243136 -0.105043866 -0.049232244
000320 eb fb c4 bd cf 2e 42 3d ae c8 ad 3d 2d 62 dd 3d
       -0.09618362 0.04740792 0.08485542 0.10809741
000330 f5 bb de 3d c8 b2 ed bd c3 84 18 be a0 f9 29 be
       0.10875694 -0.116063654 -0.14894395 -0.1659913
000340 af 09 9f 3c 27 99 39 be f3 d4 83 3d 22 d3 0f bd
       0.019413797 -0.18124829 0.06437101 -0.03511346
000350 04 9a 4e be 69 d6 34 bd 5a 94 bd bd fb d4 28 3e
       -0.2017594 -0.04414979 -0.092568114 0.16487496
000360 5e 36 9e 3d 26 73 4f 3c ef 4a a8 3d 2d 29 68 be
       0.077252135 0.012661731 0.082174174 -0.22671957
000370 a2 1e 42 3d bf 02 98 bd 56 df 5f 3d b4 de 1e be
       0.047392495 -0.07422399 0.05465635 -0.15514642
000380 77 11 86 3d d5 2a 4c 3e 8c cc 79 be 43 cd 25 3e
       0.065463 0.19938214 -0.24394435 0.16191582
000390 28 36 60 3d 2a 84 10 3e a1 35 44 be 30 f8 01 3e
       0.054739147 0.14112917 -0.19161083 0.12692332
0003a0 fe 37 f1 bd 3f 23 09 3d 77 a4 5f 3d 35 af a4 bc
       -0.11778258 0.03348088 0.054600205 -0.020103076
0003b0 a8 94 71 3e d7 a9 22 bc 15 57 52 be 91 05 6f be
       0.23591864 -0.009928188 -0.20541032 -0.23341967
0003c0 08 9f 56 3c 07 77 51 be de 4c 8a 3c a2 44 31 3e
       0.013099439 -0.20455562 0.016882356 0.17311338
0003d0 6f fc 77 3e b3 bc 4c 3e e0 89 11 3e 10 9a dc 3d
       0.2421739 0.19993858 0.14212751 0.107715726
0003e0 f1 03 26 3e 14 02 03 be c7 67 75 bd 5e 8f ab 3d
       0.16212441 -0.12793761 -0.059913423 0.083769545
0003f0 83 c3 28 bd ec ce 85 3d 84 37 b5 3b e3 ba 4f be
       -0.04120208 0.06533608 0.0055302996 -0.20286135

lattice_net.2.bias f4 [16]
000000 f7 3f b4 3c dd 45 0a 3e a4 d8 18 3d 3f 91 3e 3e
       0.022003157 0.13503213 0.03731598 0.18610094
000010 13 47 b9 bd ad 2c c2 bd cf ee 6c bd ac 04 5d 3e
       -0.090467595 -0.094811775 -0.057844933 0.21583813
000020 f2 42 d6 3c f6 a9 ee bd d7 09 f3 3d 33 25 c7 bc
       0.026154969 -0.11653511 0.11867111 -0.02430973
000030 7a e6 01 be 8f 05 61 be 97 54 c6 bd be a1 92 bb
       -0.12685576 -0.21974777 -0.09684103 -0.0044748476

lattice_net.4.weight f4 [32, 16, 2]
000000 59 38 99 3d 67 cb 06 bc 59 31 1d be a6 03 cb bd
       0.074814506 -0.008227206 -0.15350856 -0.09912805
000010 e8 a5 c7 3c 31 1c a2 bd 83 59 27 be 33 7d 7d bc
       0.024371102 -0.07915533 -0.1634274 -0.015471744
000020 88 ec d1 bd 3f 68 e5 bd 37 c5 fc bd d7 79 53 bd
       -0.10250193 -0.11201524 -0.12342303 -0.051629867
000030 34 bb be 3c fc 67 e6 bd 55 72 cf bc 0f 45 2c 3e
       0.023282625 -0.11250302 -0.025323072 0.16823219
000040 0c b6 0b be 0f 2e 28 be 13 8a 4f 3d ca ba 22 3e
       -0.13643664 -0.1642382 0.050668787 0.15891567
000050 3d df 15 3d d0 73 d9 bd b6 47 8b bd 31 9d 97 3d
       0.03658985 -0.106177926 -0.06800787 0.07403029
000060 41 eb 6a 3d 81 20 23 3e 08 7e 81 3c 51 6d 9f bd
       0.05735326 0.15930368 0.015807167 -0.07784522
000070 cc 2b 54 bd 70 25 01 bd 8e 80 16 be 9d ed 78 bd
       -0.05179958 -0.031529844 -0.14697477 -0.06077348
000080 c5 70 82 3d 11 a1 21 3e 71 50 0d bd 36 f8 92 bd
       0.06369165 0.15784098 -0.034500543 -0.07176249
000090 79 cf 2a be d9 e2 1d 3e 41 a0 0a be a1 be 70 bd
       -0.16680707 0.15418567 -0.13537695 -0.058775548
0000a0 e2 c0 98 bb 12 d8 e1 3d 37 dc 9c bd 1b af 84 bd
       -0.0046616653 0.1102754 -0.0765919 -0.06478711
0000b0 0e 81 84 bd 63 44 8c bd ca 37 2a be cf 81 c6 3d
       -0.06469928 -0.06848981 -0.16622844 0.09692728
0000c0 18 5b 22 3e f0 1f ec bd 1a 25 ed bd dd 44 06 be
       0.15855062 -0.11529529 -0.11579342 -0.13112207
0000d0 ac 5d 25 3d f0 eb 9a bc 6b 15 70 bd 1f 5a 6a 3d
       0.040372536 -0.018911332 -0.058614176 0.057214852
0000e0 37 0d b2 3b 06 b5 01 3e 17 f6 b0 3d 0a b7 c8 3c
       0.0054337042 0.12666711 0.08640688 0.024501342
0000f0 5b c2 6b bd 60 53 10 3e 29 bd 07 3e 0e 87 13 be
       -0.0575584 0.14094305 0.13255753 -0.14406988
000100 39 2a 12 3c 3a 5c f2 bc d4 ea 24 3e 62 50 8d bc
       0.0089211995 -0.029584993 0.16105205 -0.017250244
000110 0f a1 a0 3d 1a 1c eb 3d 38 66 bc bd 16 2f 08 3e
       0.078432195 0.11479969 -0.09199184 0.13299212
000120 8d de a1 3c 6f e1 9b 3d 0f 0e 94 3c f6 4a 9a bd
       0.01975944 0.076113574 0.01807311 -0.07533829
000130 87 33 31 bd 3f ad ad bd de 45 f9 3d 7c 5f 1f be
       -0.04326203 -0.0848031 0.12171529 -0.15563768
000140 d7 a4 99 bd 3b ba 3f be 56 26 74 3d 2a fd f0 3d
       -0.07502144 -0.18723385 0.059606872 0.11767037
000150 66 2b f4 bd 7b 8e 19 be 27 9e 82 bc e0 bc 7e 3d
       -0.1192234 -0.14995758 -0.015944554 0.062191844
000160 ff 20 3c 3b 38 ae 99 bd 64 a3 42 3e 62 e0 f3 bd
       0.002870619 -0.07503933 0.19007641 -0.11908032
000170 4f f5 20 be 28 ef e6 3b f7 ad 9b bd 4b a9 14 be
       -0.15718578 0.0070475526 -0.076015405 -0.14517705
000180 2a 6e 15 3e 57 7e 1f bd 3d cc 34 3e ea ff 99 bd
       0.14592806 -0.038938846 0.17656036 -0.07519515
000190 50 2e d1 bd 5f 92 6c 3d 26 d2 98 3b e1 72 8a 3d
       -0.102139115 0.057756778 0.0046637235 0.06760193
0001a0 ec 79 96 3d 17 0e f1 3d 7c 8c c3 bd 6d 0c 7f bd
       0.073474735 0.117702655 -0.0954828 -0.06226771
0001b0 49 8a 6c 3d 96 14 79 bb b2 a0 01 3e 32 e1 91 bd
       0.057749067 -0.0038006655 0.12658957 -0.07123031
0001c0 89 2a 1e 3e ef 87 41 bd 96 74 0b be 4e 4c 2d be
       0.15445913 -0.047248777 -0.13618693 -0.16923639
0001d0 61 86 e8 bd 75 ca a4 3d 8f 46 e2 bd 70 ce 06 be
       -0.11353756 0.08046428 -0.11048614 -0.13164687
0001e0 db 6d 4b 3b 85 27 01 3e ba 79 de bd 20 d3 0b 3e
       0.003104082 0.12612732 -0.10863061 0.13654757
0001f0 59 40 09 be 3b a2 3b be 0a ae 16 3e dc a1 0f be
       -0.13403453 -0.18323605 0.14714828 -0.14026588
000200 da bc d3 3d c7 1a 9f 3c 06 d1 af bd 4f 0d 16 3e
       0.10338755 0.019421948 -0.0858479 0.14653514
000210 fe 8f 32 be 26 d6 31 3e d2 df ce 3d 0f 65 0d be
       -0.17437741 0.17366847 0.10101284 -0.13808082
000220 47 db 5d 3d 10 bc 13 3b 34 3f 18 3e 09 17 ba bd
       0.054164197 0.0022542514 0.1486786 -0.09086425
000230 29 99 f0 bd 05 52 f2 3d 48 81 5d 3d 2b 09 00 be
       -0.11747963 0.1183205 0.05407837 -0.12503497
000240 56 29 37 bd b3 f4 3a 3e aa ba 32 be 8e 8a 81 bd
       -0.044717155 0.18257408 -0.17454019 -0.06325255
000250 ab ef 13 bc 47 e5 2a be 3a d2 fd bc 03 22 fd bc
       -0.009029309 -0.16689025 -0.030984033 -0.030900007
000260 ad bd 0c bd 05 ec 8c 3d c6 31 4f bb 06 16 8a bd
       -0.034360576 0.06880955 -0.003161536 -0.06742482
000270 22 16 38 3d a0 7f 79 bd 0d af cf bd d4 a5 80 3d
       0.044942982 -0.06091273 -0.1014081 0.06281629
000280 5f dd 23 be db dd fe bd 3b e1 00 3e 86 a9 0d bd
       -0.16002415 -0.12444659 0.12585919 -0.0345855
000290 1d 96 28 3e 45 df 70 3d 8a 14 87 bd 05 12 17 be
       0.16463514 0.058806676 -0.065957144 -0.14752968
0002a0 10 ac 59 bd 11 de 00 3e cd c4 d6 bc 40 ad a8 3d
       -0.053142607 0.12584712 -0.026216889 0.0823617
0002b0 39 70 be 3d 4e 73 fd 3c e3 89 f1 bc d7 24 63 bd
       0.092987485 0.03093877 -0.029484695 -0.055455055
0002c0 da b0 33 bd 88 54 05 be a3 53 e9 3d 54 a3 1a be
       -0.04386983 -0.13020527 0.113929056 -0.15101367
0002d0 d8 2b 48 bd d2 67 01 3d bd 72 b8 3c 74 27 08 3e
       -0.048869938 0.03159315 0.022515649 0.132963
0002e0 0b 70 39 3d 9b e0 38 be 86 8e 81 bd 43 21 04 be
       0.045272868 -0.1805443 -0.06326012 -0.12903313
0002f0 a5 d7 43 bd 87 2e 33 bd d7 b6 9d bc 44 85 06 be
       -0.047813077 -0.043745544 -0.019252224 -0.13136774
000300 5f 37 81 3d a9 eb 86 3d a7 78 1e be 71 64 88 bc
       0.06309389 0.06587917 -0.15475713 -0.016649457
000310 79 ec 2f be af 85 0b be 70 bc 1b be 37 4b c4 3d
       -0.17180051 -0.13625215 -0.15208602 0.095846586
000320 8c 08 d9 bd c2 5a 02 3d 55 5d 28 3e 0b 24 d4 bc
       -0.10597333 0.031824835 0.16441853 -0.025896093
000330 56 09 54 3d 36 86 f8 bc d3 b5 20 be b5 20 aa 3d
       0.051766716 -0.030337434 -0.1569436 0.083070196
000340 e7 bb b3 3b 29 2c b4 3d 2a e1 a0 3d dc 2a f1 bd
       0.005485046 0.087974854 0.07855447 -0.11775753
000350 fd a7 7c 3d 73 aa a0 3d 18 fd 5e bc 0d 79 1d bd
       0.061683644 0.078450106 -0.013610147 -0.03844552
000360 a5 85 c2 bd a6 02 66 bd f6 4d f5 bc 72 af d6 3d
       -0.09498147 -0.05615487 -0.029944401 0.10482682
000370 d2 41 a7 bd 1b f7 c8 bd cf 68 2b 3c 9f 97 d7 bd
       -0.08166851 -0.09812757 0.010462 -0.10526966
000380 1f 82 a1 bd 32 f1 35 3d c8 fd 2f 3e 37 6a 37 3e
       -0.07886147 0.044419475 0.17186654 0.17911611
000390 ad 64 0f be bd 6e 7c 3d 46 4b 00 be d1 f1 ad bd
       -0.14003249 0.061629046 -0.12528715 -0.084933884
0003a0 86 29 27 3e 6b 41 f8 3d 78 54 bd 3d 84 ab de bd
       0.16324434 0.121218525 0.09244627 -0.10872558
0003b0 3f b1 46 bd fc 1f 7e bd a0 26 3f bb 5f 8d c8 bd
       -0.04850888 -0.06204222 -0.002916731 -0.097925894
0003c0 77 b9 9c bd 07 7d b5 bb 59 53 95 bd b4 d4 0d 3e
       -0.07652562 -0.005538586 -0.07291288 0.13850671
0003d0 07 07 ee bc 33 7f 10 3e 7f d5 6a bd 6b 72 47 3c
       -0.029056085 0.14111023 -0.057332512 0.012173275
0003e0 40 1a 9c bd c5 8f 0a 3e 99 16 bd bd 0d 05 0e 3e
       -0.07622194 0.13531406 -0.09232826 0.13869114
0003f0 04 d8 8a 3d 54 5b dc bc 38 18 da 3c 51 26 a1 bd
       0.06779483 -0.026899017 0.026622877 -0.078686364

lattice_net.4.bias f4 [32]
000000 40 c4 6b 3d be 28 58 bd 0f fa da bb 3b 8f 0c be
       0.057560205 -0.05277323 -0.0066826413 -0.13726513
000010 4d 26 e4 bd e6 a6 74 3d ac fe 02 be 47 37 10 be
       -0.11140118 0.05972948 -0.12792462 -0.14083587
000020 de e6 14 3e 17 3f 08 3e aa 86 08 3e 8b 61 e2 bc
       0.14541194 0.13305317 0.1333262 -0.027634403
000030 c4 81 be bd f3 1d a0 bd 74 9a 70 3b d8 51 77 3d
       -0.093020946 -0.07818212 0.0036713155 0.060380787
000040 52 42 99 3d f2 00 28 3d 9b 2e 93 bd 11 3e 5c bd
       0.07483353 0.041016527 -0.07186624 -0.05377013
000050 03 bb 03 3e 6d 70 08 3e 72 6c 51 bd b0 6f 87 3c
       0.12864308 0.13324137 -0.051128812 0.016532749
000060 1e 43 98 3d bd 6d ba bd 18 8a 5e 3d e1 67 13 be
       0.074346766 -0.09102962 0.054330915 -0.14395095
000070 7e 93 25 bc c5 8f 09 be 06 56 3e bd 21 a4 6b 3d
       -0.010105966 -0.1343375 -0.046468757 0.057529572

tNN.0.weight f4 [2]
000000 e8 40 7f 3f 6b b2 7c 3f
       0.99708414 0.98709744

tNN.0.bias f4 [2]
000000 04 c9 21 bb 94 df fa bb
       -0.0024686465 -0.007656047

tNN.0.running_mean f4 [2]
000000 f9 bf 2b 3f 1e 0e 40 40
       0.670898 3.0008616

tNN.0.running_var f4 [2]
000000 8f 16 ab 3e 60 e3 a8 3d
       0.33415648 0.08246493

tNN.1.weight f4 [16, 2]
000000 58 90 a5 3e ec e9 89 3e f5 02 8b be 79 85 13 be
       0.32336688 0.2693628 -0.27150694 -0.14406385
000010 a7 dc 93 be 9d a2 99 bd df f9 d1 3e 90 67 fc be
       -0.28879282 -0.07501719 0.4101095 -0.49297762
000020 b6 5c bb be 38 f5 2f 3d 86 64 eb 3e ae fe 13 bf
       -0.3659417 0.04295847 0.4597513 -0.57810485
000030 3f 2e ce be c0 7b 25 3f 61 4a 94 3e ab 94 92 bd
       -0.40269658 0.6464195 0.28962997 -0.071572624
000040 8a 6d 28 3f ab c3 1e 3e 80 db 28 3f e4 9d d4 be
       0.65792143 0.15504329 0.6595993 -0.4152671
000050 30 e2 1e 3e 9e 98 19 3e 83 00 d5 be 0c 80 24 3f
       0.15515971 0.14999625 -0.41601953 0.64257884
000060 cb 7e b4 be ff f4 d2 3d f7 b0 21 3f c1 87 90 3e
       -0.35252985 0.103006355 0.6316065 0.28228572
000070 cb d7 23 bf 9e 7b ee 3d 62 13 26 be 1b 0a 30 3f
       -0.6400115 0.11644672 -0.16218331 0.6876542

tNN.1.bias f4 [16]
000000 f6 f5 9b 3e a4 2f 00 be 69 5b e1 3c ff 3f 05 be
       0.3046109 -0.12518173 0.027509408 -0.13012694
000010 d4 5e e9 be 9c 5f c4 be b9 72 cd be fa 02 68 bd
       -0.4558016 -0.38354194 -0.4012659 -0.056643464
000020 97 67 5d be 2b f3 39 bd d4 50 83 3e 5a ff 54 3e
       -0.21621548 -0.04539792 0.25647604 0.20800534
000030 d4 d4 95 3e 0d 80 a3 bb 01 1c ca be ed 88 4e be
       0.29263937 -0.00498963 -0.3947449 -0.2016942

tNN.3.weight f4 [32, 16]
000000 01 03 59 3e a2 51 5c be 0c 1e 57 3e 2e ce 9f 3d
       0.21192552 -0.21515515 0.21007556 0.078029975
000010 e1 be 58 be 9c ae 65 be fa a9 71 be 11 31 3f 3d
       -0.21166565 -0.2242989 -0.23599997 0.046677653
000020 bc 61 e5 3c fe e0 a9 bc bc af 30 bd d0 0c e3 bd
       0.028000705 -0.020737167 -0.043136343 -0.11086428
000030 08 ac 12 be 2f da 5b 3e 7c 20 b2 3d be 7e 61 bd
       -0.14323437 0.21469949 0.08697602 -0.05505251
000040 e2 02 5f be eb 99 ad bd 8f 3e 72 be 1f 2f 15 be
       -0.21778443 -0.08476623 -0.23656677 -0.14568757
000050 77 7f 41 be b1 68 12 be 5f 16 ac 3d 6e d7 b6 3d
       -0.1889628 -0.14297749 0.084027044 0.08927809
000060 cf 39 b8 3d 93 fa 12 3e e4 89 26 3e ec 1f c6 3d
       0.08995401 0.14353399 0.16263539 0.09674057
000070 34 61 ab 3d 0a c6 91 3b c1 f3 33 3e b3 b1 33 be
       0.083681494 0.004448657 0.17573453 -0.17548256
000080 2f 4c be bd 24 bc 2a 3e 58 fb 00 be 6a 7d 1c 3e
       -0.092918746 0.16673332 -0.1259588 0.15282217
000090 f6 0e 4a be ef 04 60 be 39 30 1d 3e cf df 45 3e
       -0.1973227 -0.21876882 0.15350427 0.19323657
0000a0 08 ca 30 3e 99 6b 53 bd 31 24 1d be 76 84 10 3e
       0.17264569 -0.051616285 -0.15345837 0.1411303
0000b0 dc 59 99 3c 10 c4 66 be b5 14 58 3e bb ab 01 be
       0.018719606 -0.2253573 0.21101649 -0.12663166
0000c0 2f 40 98 3d 3d ca 3d 3e f5 c3 6c be 06 d1 07 be
       0.07434117 0.18534179 -0.23121627 -0.1326333
0000d0 03 c5 12 be a7 40 3c 3e d2 af 5c be 2a 4e 1a bc
       -0.14332967 0.18384038 -0.21551445 -0.00941805
0000e0 0c e1 9b bd 97 e5 9b 3c 65 b4 48 3e 57 5e 9a 3c
       -0.07611284 0.019030375 0.19600065 0.018843813
0000f0 3c a3 ba 3d 20 b9 9d 3c 1a 4c f5 bc ed ee 68 3d
       0.09113166 0.019253314 -0.029943515 0.056868482
000100 f9 37 6d bc 8a e4 7a 3c d5 7d 1a be a2 5b b5 bd
       -0.014478677 0.015313277 -0.15087064 -0.08855368
000110 24 7a 42 be 52 ae 90 bd ae 92 0c be 94 6e 7d 3e
       -0.18991905 -0.07064499 -0.13727829 0.24749213
000120 eb 62 46 be ba de 2d 3e 82 07 d6 bd bf 26 60 3e
       -0.19373672 0.16979495 -0.10450651 0.2188978
000130 fd 92 67 3e 53 57 95 3b 93 a2 13 3d 78 7a 84 3d
       0.22614665 0.004557529 0.036043715 0.064686716
000140 8a 5d c4 bd 90 40 21 be 0f 8e 59 be bd b8 8b 3c
       -0.09588154 -0.15747285 -0.21245597 0.017055864
000150 8a ee 20 3e a9 20 6f 3e a2 ce 60 be 3c d7 8d 3d
       0.15715995 0.23352303 -0.21953824 0.06925818
000160 0c 53 42 be 29 83 c2 bd 93 7e 59 3e 4d 1f 70 3e
       -0.18976992 -0.09497673 0.2123969 0.2344944
000170 c7 96 2b 3e f3 c0 23 3e 64 89 10 3d 50 53 1d 3e
       0.16756736 0.15991573 0.035287276 0.15363812
000180 f3 41 87 3a 62 ed 2c 3e be e0 08 bd a3 09 73 be
       0.0010319337 0.1688743 -0.033417456 -0.23734145
000190 08 bc 77 be a1 23 73 3e a3 21 29 3d 8e 9b 30 bd
       -0.24192822 0.2374406 0.041291844 -0.0431171
0001a0 48 ad 76 3e 35 dd 8d 3b 75 65 c5 3d 83 38 25 be
       0.24089539 0.0043293484 0.09638492 -0.16134839
0001b0 3e 22 93 bd 2c 8c 13 be 49 ce be bc 3b 8a c2 bc
       -0.071842656 -0.1440894 -0.023291724 -0.023747554
0001c0 9b 97 6e 3e 0b 81 10 be 1e 06 f0 bd ca 8b 53 3e
       0.2330002 -0.14111726 -0.11719917 0.20658794
0001d0 d8 38 9e bd b4 6b 8d bd 2d cd bc 3c 8c 44 6e 3a
       -0.07725686 -0.06905308 0.023047054 0.0009089194
0001e0 a0 03 bc bd 4d 10 08 3e 62 f5 ad bd ca 12 fe 3d
       -0.09180379 0.13287468 -0.08494069 0.124059275
0001f0 59 13 01 be b4 f8 63 3d 1b 1d 90 3d bd 91 6d 3e
       -0.12605037 0.055657104 0.070368014 0.23200126
000200 e8 15 71 3e b9 34 29 3d a0 81 69 3e 01 85 2a bd
       0.23543513 0.041310046 0.22803354 -0.04163075
000210 6c 28 e4 bd 2d 05 e0 bd ca d9 36 be eb 8c 0d 3d
       -0.11140522 -0.10938487 -0.17856517 0.034558218
000220 ab c1 35 3e 24 09 39 be 7e 4e 55 3d c9 70 2d 3d
       0.1774966 -0.18069893 0.05207681 0.04234389
000230 0e 6f 77 bd 71 ba 6b 3e 98 0d 28 3e b0 52 57 3e
       -0.060408644 0.2302034 0.16411436 0.21027637
000240 f7 19 24 be f4 28 2c 3e 1a 19 82 3e 0b c8 c4 3d
       -0.1602553 0.16812497 0.25409776 0.09608468
000250 a5 74 5a be 0d 02 69 3e e1 ed 5c be b7 ca 7d bc
       -0.21333559 0.22754689 -0.21575119 -0.0154902255
000260 7a 89 2f be f7 6f be 3d ed cf 70 be 3b b1 56 3e
       -0.17142287 0.09298699 -0.23516817 0.20966046
000270 12 8a 40 3d 33 3e 13 3e 1f a8 8f bd b9 72 46 be
       0.047006674 0.14379196 -0.070144884 -0.193797
000280 2e d5 0d 3d 54 c6 90 3d 02 0d 42 3e 77 87 3e bd
       0.034627132 0.07069078 0.18950275 -0.046515908
000290 b1 d0 95 ba fd 58 d4 3d 71 22 b6 3d ef 2c bc 3d
       -0.0011429993 0.10368536 0.08893288 0.09188258
0002a0 55 f1 80 3e dd 5a b3 bd 37 7a a3 bb d8 96 b4 bc
       0.25184122 -0.08757565 -0.0049889344 -0.022044584
0002b0 73 6c 64 3e 28 6e 24 be 28 55 39 be 79 02 47 be
       0.22306995 -0.16057646 -0.18098891 -0.19434537
0002c0 18 10 0e 3e f1 a1 25 bd 8a c1 02 bc 7d 4c 65 be
       0.13873327 -0.040437642 -0.007980714 -0.22392459
0002d0 bf 7d a8 bd 43 96 2e be b7 c0 48 3e 73 2e b3 bd
       -0.08227109 -0.17049508 0.19604765 -0.08749094
0002e0 ed 0c 27 bc ba 29 28 3e e7 a2 84 bd 84 fe 88 3d
       -0.010195953 0.16422167 -0.06476384 0.0668917
0002f0 bc 63 4f bd 38 f2 70 be a7 cd f9 3d b7 a0 80 3d
       -0.050632223 -0.23529899 0.12197428 0.06280654
000300 cd c6 52 be 54 4e 71 be a1 5c 14 3e dd bd 70 be
       -0.20583649 -0.23565036 0.1448846 -0.23509927
000310 e6 65 5e be 6f d2 9f bd a2 27 02 3e 5c 88 3a be
       -0.21718559 -0.07803809 0.12710431 -0.1821608
000320 4e 65 1b be 9e 03 50 3e 2a 13 24 3e 7e 41 6a be
       -0.15175363 0.2031388 0.16022936 -0.22876546
000330 6e aa 80 3e c4 86 2d be b9 8d 47 3c 24 f0 7d bd
       0.25130028 -0.1694594 0.012179785 -0.061996594
000340 15 29 6e 3e 7a 3f 5d 3d 56 31 ee bd 03 fc 12 be
       0.23257859 0.054015614 -0.11630504 -0.14353947
000350 b2 f2 04 be f6 df e4 bd 24 bd a1 bd f7 d1 73 3e
       -0.12983206 -0.1117553 -0.07897404 0.23810564
000360 63 a3 93 bd b1 eb c0 bb 33 87 e4 3b 32 17 f3 3d
       -0.07208898 -0.0058874716 0.006974125 0.118696585
000370 20 65 6e be d1 81 78 be e0 7a 3a 3c d7 70 3c be
       -0.23280764 -0.24268271 0.011381835 -0.1840242
000380 15 cd f5 bd 83 f4 c4 3d 57 4f f5 bd f6 7c 85 bd
       -0.12002007 0.096169494 -0.119780235 -0.06517975
000390 c6 b8 57 3e 1f 66 3b 3d d2 fd 8d bd 95 d1 68 be
       0.21066579 0.045751687 -0.06933178 -0.22736199
0003a0 c1 14 52 3e 5a 26 75 be ca b0 5a bc 9c 3e 2b be
       0.2051573 -0.23940411 -0.013347814 -0.16723102
0003b0 5f fe 5e be b8 f4 cb 3d 42 5a eb bd a5 8e 31 bd
       -0.21776722 0.09958786 -0.11491825 -0.043348927
0003c0 c1 b5 2b 3e 06 33 ee 3c 9d ee a7 3d 6b 4e 79 3e
       0.16768552 0.029077064 0.08199809 0.2434632
0003d0 a4 a5 40 be 8e dc 10 be 31 99 3a 3e 83 21 84 bd
       -0.18813187 -0.14146635 0.182225 -0.06451704
0003e0 00 6d 7f 3e ee 6f 39 3c 2b 20 4f be 47 dd 7a be
       0.24943924 0.01131819 -0.20227115 -0.24498473
0003f0 72 b0 72 be c5 8c 32 3d 45 d6 0a be a6 b8 5e 3e
       -0.23700121 0.04359128 -0.135583 0.21750125

tNN.3.bias f4 [32]
000000 df 59 5e 3c ae 90 82 bc 97 55 38 be b0 e1 f8 bd
       0.013571232 -0.01593813 -0.180014 -0.121524215
000010 b0 62 2a 3c 93 a3 f5 bd 95 f8 46 3e 8c 6d 79 be
       0.0103995055 -0.1199409 0.19430764 -0.24358195
000020 52 89 1b bd e5 1e 37 ba c3 0c 47 bd 48 81 88 3d
       -0.037972756 -0.00069854996 -0.048596155 0.066652834
000030 cc b9 2b bd 2a bd 9f bc cc 97 18 be d0 11 69 3e
       -0.041925237 -0.01949938 -0.14901656 0.22760701
000040 75 f2 11 3e 82 47 6b be 57 52 1d be 04 39 d3 3d
       0.14252646 -0.22976497 -0.15363441 0.10313609
000050 dc d1 53 bd 86 54 42 3d e1 65 8b 3d c8 3a 5b be
       -0.05171381 0.04744389 0.06806541 -0.21409142
000060 67 5e 2c 3e 3a de 2b 3e 7a 7c 79 ba 1b 9d 20 3e
       0.16832887 0.16783991 -0.00095171446 0.15684931
000070 0e 2a 61 be e1 7f 9c bd e7 38 9f bc 3b 87 5e be
       -0.21988699 -0.076415785 -0.019436313 -0.21731274

tNN.5.weight f4 [64, 32]
000000 47 ce eb 3d 3a 34 64 3d eb b4 b5 3c 18 b6 21 3b
       0.11513954 0.05571387 0.022180995 0.0024675187
000010 78 ee 9c 3d cc 59 1b be 99 6b cd 3d c7 5d 17 be
       0.07662672 -0.15170974 0.10030288 -0.14781867
000020 65 8f b3 3d 0c b9 a2 3d 89 45 65 bd cc f2 02 bc
       0.08767585 0.07945451 -0.055974517 -0.007992458
000030 0c 87 41 bd 4e 3e 90 bd 49 c2 cd bd 48 3f d9 3c
       -0.04724793 -0.07043134 -0.100468226 0.026519433
000040 91 72 26 3d 8d bf 43 bd a2 54 c0 bd bb 1b 1c be
       0.040636603 -0.0477901 -0.093911424 -0.15244953
000050 43 5f a1 3d 59 02 32 3e 46 2b 76 bd fb 5c 0e 3e
       0.07879498 0.17383708 -0.060099863 0.13902657
000060 03 87 bb bd 95 2f 08 3e 55 42 f7 39 6b 50 02 bd
       -0.09156611 0.13299401 0.00047160932 -0.031814974
000070 62 6f 30 3e 4a 3b 1a 3d 85 e7 db 3d d4 45 01 be
       0.17229989 0.0376542 0.10737518 -0.12624294
000080 e1 cc 01 bc e7 11 14 be 17 18 1f 3e 99 f8 f6 bc
       -0.007922382 -0.14459954 0.15536533 -0.030147837
000090 34 d7 7d bd 03 62 20 bd e4 37 06 3e 9f c4 cb 3c
       -0.06197281 -0.03915597 0.13107258 0.02487403
0000a0 f7 8c d4 bd 37 24 ab 3c 04 45 f9 bb 40 47 25 be
       -0.103784494 0.020891292 -0.0076071043 -0.16140461
0000b0 e0 5e d5 bd 0d d1 dc 3c 81 7c 0f 3e 36 d9 ff 3d
       -0.104184866 0.026955152 0.14012338 0.124926016
0000c0 92 66 cb 3b 08 04 c7 bd c6 e4 29 be 41 0b c7 bd
       0.0062072957 -0.09717566 -0.16591176 -0.097189434
0000d0 88 b6 5e bc a9 38 0e 3e 37 67 26 be 25 85 95 3d
       -0.0135933235 0.13888802 -0.16250311 0.07300786
0000e0 5c 9b 97 bd ef 45 f1 3d 58 3c 98 bd 5c df ff bd
       -0.07402679 0.11780917 -0.07433385 -0.12493774
0000f0 0c 3f 9b 3c 97 5f 99 bd e0 44 d5 3c 5b 3e 87 3d
       0.018950962 -0.074889354 0.026033819 0.0660369
000100 28 4b ff 3d 25 59 37 bd 23 ce 01 3e 4b 13 4d bd
       0.12465507 -0.04476275 0.12676291 -0.050067227
000110 0a 12 a4 bd b9 71 7b 3d 00 25 9c 3d ed 73 f3 3d
       -0.08011253 0.06138775 0.07624245 0.118873455
000120 c1 49 1f bd d8 12 1e be 80 7b 84 3c f5 02 59 3d
       -0.038888697 -0.15436876 0.01617217 0.052981336
000130 3c 9d 9f bd 05 53 02 be 0f 9d df bb 92 80 2a be
       -0.07793662 -0.12726982 -0.0068241428 -0.16650608
000140 5c 9d 79 bc d8 2b 01 3e 3c 33 a1 bc e4 21 e6 3d
       -0.015235271 0.12614381 -0.01967775 0.11236933
000150 e6 00 aa bd 19 33 47 3d 76 5b 5f 3d b1 6f 04 bd
       -0.083009526 0.048632715 0.054530583 -0.03233308
000160 57 1a 41 3d 45 c9 95 bd 44 a0 3a be 8b 43 46 bc
       0.04714426 -0.0731378 -0.18225199 -0.012101064
000170 b4 e3 84 3d fa f0 9d bc 37 42 2d 3d c1 37 89 3d
       0.064887434 -0.019279946 0.042299476 0.06700087
000180 d0 25 24 3e 5f 76 33 be 98 d1 b2 bd 77 63 9b bd
       0.1603005 -0.17525624 -0.08731383 -0.07587331
000190 fc 12 35 be e1 07 e7 3c cf 34 2a be 48 24 a9 3d
       -0.17683023 0.028202 -0.16621707 0.08258873
0001a0 bb d7 2a be b2 8e 20 3e 30 3d 6d 3d b5 43 cb bb
       -0.16683857 0.15679434 0.05791968 -0.0062031397
0001b0 21 c3 de bd 02 cf 68 bd a3 85 ee bd 11 5f 20 be
       -0.10877062 -0.056838043 -0.11646583 -0.15661265
0001c0 ec 40 25 3e 64 49 23 3e 13 c9 d4 bd b9 6e 08 be
       0.16138047 0.15945965 -0.10389914 -0.13323487
0001d0 a6 8b 7f 3d e2 e8 f6 bb 66 1c 30 3e e0 04 05 3e
       0.06238904 -0.007535086 0.17198333 0.12990141
0001e0 cc 1e 51 bc 1a c0 7f 3d dc 2a dc bd 4f 89 ae 3d
       -0.01276369 0.06243906 -0.10750362 0.08522283
0001f0 a6 01 6c bd a6 73 8c 3c 4b dc 1e 3c 48 ae 46 bc
       -0.05761876 0.01714499 0.009696077 -0.012126513
000200 df 45 9c bd 5e 19 ea 3d 48 47 32 bb 3b 3f 26 be
       -0.07630514 0.1143062 -0.0027203131 -0.16235058
000210 78 ef 9f 3d fa 90 54 bc bc 7b 47 3d ea c7 2d be
       0.07809347 -0.012974018 0.048701987 -0.16970792
000220 cb b1 30 be e3 a0 eb bd 3d 4b 87 3d f0 de 87 3c
       -0.17255323 -0.11505296 0.066061474 0.016585797
000230 8a c5 1d 3e 91 ff a4 3c 51 49 d0 bd 88 d0 0f be
       0.15407386 0.020141395 -0.10170234 -0.14044392
000240 c0 5e 4e bd 55 3c 5c 3d 3d e2 96 3d 10 87 6d bd
       -0.05038333 0.053768475 0.0736737 -0.057990134
000250 86 05 d1 bd e0 63 0f ba 2d 61 54 bd 70 5f 32 be
       -0.10206132 -0.00054698996 -0.051850487 -0.17419219
000260 7d 77 82 bd 42 c7 af 3d d1 ed a0 bb 62 24 0e 3e
       -0.06370447 0.08582927 -0.0049111624 0.13881066
000270 40 e7 f3 3c 44 69 c0 bc 25 d2 05 bd b3 0b db 3d
       0.029773355 -0.023487695 -0.032671113 0.10695591
000280 51 fe 01 bc 09 ab 84 bd f2 aa 3d 3d bb 21 0e bd
       -0.007934169 -0.06477935 0.046305604 -0.034700137
000290 1c 38 01 3e 4e 42 21 bd 87 49 b3 3d 02 ac 2b 3d
       0.1261906 -0.039369874 0.087542586 0.041912086
0002a0 5d 3b 14 be 86 dc 25 be 02 d6 ea 3c f5 87 08 bc
       -0.1447577 -0.16197404 0.0286665 -0.008333196
0002b0 9e 55 b5 bc 65 3f fa ba 53 58 da bd 70 98 32 bd
       -0.022135552 -0.0019092379 -0.10661378 -0.043602407
0002c0 99 c7 01 bd 88 1c 0d 3d f1 d7 2f 3e 73 a7 16 be
       -0.03168449 0.034451038 0.17172219 -0.14712314
0002d0 c1 da 1d 3e 35 26 58 3d 52 ad a9 bd 7e 25 31 be
       0.15415479 0.052770812 -0.08285011 -0.17299458
0002e0 52 f6 46 bd 91 45 5b 3c 2d da a9 bc b1 e1 01 3e
       -0.048574753 0.013383285 -0.020733917 0.1268375
0002f0 a5 a8 3e 3d 45 7b 40 3d 2d c8 3c 3d 58 7a 23 be
       0.04654755 0.04699256 0.04608934 -0.15964639
000300 4b ad 19 3d d7 c6 fa 3c fb 6f fe bd c1 8d ff 3d
       0.03751878 0.030612392 -0.12423702 0.12478209
000310 87 bf e7 3c 43 b3 b7 bd af 46 40 3d 08 a4 9a 3d
       0.02828957 -0.08969738 0.04694241 0.07550818
000320 2d 8e 97 3d 4a 39 74 3d 78 09 19 bd bc dc 5a bd
       0.07400165 0.059624948 -0.037362546 -0.053433165
000330 b2 fc 17 3b 70 48 8b bd 47 5b a8 bb 9f f4 a8 3c
       0.002319139 -0.06800926 -0.005137834 0.020624457
000340 f1 d4 ad bd 15 56 cf bd a9 38 87 3d 0a 5a 10 be
       -0.08487881 -0.10123841 0.06602604 -0.14096847
000350 f4 d8 07 be 9e 4a fd bc 34 c7 a7 3d 60 6a 2e 3e
       -0.13266355 -0.03091937 0.08192292 0.17032766
000360 35 9a 2c be 47 79 41 3d db 12 26 be ff f1 e4 3d
       -0.168557 0.0472348 -0.1621813 0.111789696
000370 8f 01 95 3d e8 44 17 3d 13 06 13 3d 81 8b b2 3d
       0.07275688 0.03693095 0.035894465 0.087180145
000380 a8 bc 1f be 4c d9 55 bd 0a 38 d5 bd f8 01 1d 3e
       -0.1559931 -0.052209184 -0.10411079 0.15332782
000390 a0 ec 00 bd 3e ee dc bd b3 42 10 bc 10 77 0b 3c
       -0.031475663 -0.107876286 -0.008804965 0.008512273
0003a0 8a 58 23 3d 87 a3 b7 3d 1e 55 19 3e 66 05 30 be
       0.03987936 0.08966737 0.14973876 -0.1718956
0003b0 3c 37 2d be c0 e9 a4 3d be c6 a6 3d 3e f6 e1 bd
       -0.16915601 0.08052397 0.08143376 -0.11033295
0003c0 df 92 9c bc e7 3e a9 bd 09 f3 6a bd 7b bd 18 3e
       -0.019113002 -0.08263951 -0.057360683 0.14916031
0003d0 65 38 e6 bd 37 e8 f9 bd 53 25 28 3d ed 2e 24 3e
       -0.11241225 -0.122024946 0.04105122 0.16033526
0003e0 cf 68 5d bd 19 f1 d3 bc 96 72 3f bc 8f 4d 02 be
       -0.05405503 -0.0258718 -0.011685034 -0.12724899
0003f0 a1 f5 e7 3d 9b cf 06 be 25 49 19 3e f4 c7 06 3e
       0.11326147 -0.13165133 0.14969309 0.13162214

tNN.5.bias f4 [64]
000000 d4 e8 f7 bd bf ad ee 3d 33 f2 1d be 98 de 85 3d
       -0.12104955 0.11654233 -0.15424423 0.06536597
000010 6e f9 9e 3d f1 a9 75 bc 2b 73 10 3e 04 75 2f 3e
       0.07762419 -0.0149941305 0.14106433 0.17134482
000020 58 d3 04 3e ff bf 21 3e 13 de e0 bc ac 63 a8 bd
       0.12971246 0.15795897 -0.027449643 -0.08222136
000030 ee e5 34 3d db 05 8a 3d da 1b 16 3e 0c a8 9f 3d
       0.04416459 0.06739398 0.14659062 0.07795724
000040 de 52 20 be a3 c1 22 3e 4d 11 cb bd 7a bd f5 3d
       -0.15656611 0.15894179 -0.09915409 0.119990304
000050 d4 d0 0c be 0d ee 14 3e 49 fe 9b 3d 59 2f 1d 3e
       -0.13751537 0.14543934 0.076168604 0.15350093
000060 a6 19 1a 3d 46 20 ad 3c af c6 da 3d 1a 8a 71 bd
       0.037622117 0.021133553 0.10682427 -0.058969595
000070 2c 89 25 3e 3c 24 fc 3d 13 07 13 be d8 4c 58 bd
       0.16165608 0.12311599 -0.14358167 -0.05280766
000080 b2 84 c6 bd c3 85 16 3d b0 ed 92 3d 6a 3c 0f be
       -0.09693278 0.03674866 0.071742415 -0.1398789
000090 85 24 e1 3d 4a ac 1a be 3c eb c7 bd 05 f7 a2 3c
       0.10993294 -0.15104786 -0.09761664 0.019893179
0000a0 29 12 32 3d 2a 3f 3e 3d bb e8 8b bd 41 2d 2e be
       0.04347435 0.046446957 -0.06831499 -0.1700945
0000b0 09 88 1d bd ac b1 2e be 26 a3 15 be 0a 13 81 3d
       -0.03845981 -0.17059964 -0.14613017 0.063024595
0000c0 6f ce 23 3e a8 0f 50 3d d6 ef 00 be fd 95 eb 3c
       0.15996717 0.05079618 -0.1259149 0.028758043
0000d0 09 3a 08 3e de 87 78 bd d7 6a 8f 3c 50 9e 90 bd
       0.13303389 -0.060676448 0.017507 -0.07061446
0000e0 db 60 14 be 1e da e1 3c 03 1f c1 3d 30 92 82 bd
       -0.14490072 0.027569827 0.09429743 -0.06375539
0000f0 7a 96 05 be 07 52 af bd d5 a6 0f be 2b cc 08 3d
       -0.13045684 -0.08560567 -0.14028485 0.033397835

psi.0.weight f4 [128, 288]
000000 be 70 12 3d 1d bc 7d bd f7 f2 3f 3d 00 a9 2e bd
       0.03575205 -0.061946977 0.04686257 -0.04264164
000010 38 fc c1 3c 29 1b 8d bb 17 0b 2a bd 8b 28 0d bd
       0.023679838 -0.0043062163 -0.041514482 -0.034462493
000020 b5 2b a4 3c 0b 15 71 3c 60 a9 75 bc 11 ab 42 3d
       0.020040372 0.01471449 -0.014993995 0.047526423
000030 41 e5 42 3d 96 f5 d7 ba b1 af 04 bd d0 8e 28 3d
       0.047581915 -0.0016476389 -0.032394115 0.04115182
000040 f9 f6 a4 3c 94 16 cd 3b a3 d4 09 bd b1 06 a6 3c
       0.020137297 0.006258795 -0.03365005 0.020266863
000050 53 b9 36 bd 2a fc 0b 3d c8 97 65 3d 3b 4f cb bc
       -0.044610333 0.03417603 0.056052953 -0.024818053
000060 56 8a c6 bc 77 31 fc bc 92 3a 15 3d 82 dc 16 3d
       -0.024235886 -0.030785305 0.03643281 0.036831386
000070 b4 88 bd bc a5 cf 6c 3d 96 ec 34 bd f7 89 cf 3b
       -0.023136474 0.057815213 -0.04417094 0.0063335854
000080 f7 27 02 bd 7b 5f f8 3c 4b e0 4c 3d b0 c4 cb 3c
       -0.031776395 0.030318966 0.05001859 0.024874061
000090 95 b5 56 3d 31 75 19 bd 32 ea 48 bb 6b c4 1e 3d
       0.052419264 -0.037465278 -0.003065717 0.038761538
0000a0 36 99 56 3d a5 0f 32 bd 5f e1 3f 3d b5 20 d8 3b
       0.052392207 -0.04347195 0.04684579 0.006595696
0000b0 f0 76 1a 3d 6e 01 e5 bc d5 9a 9e 3c 5b 8c 22 3d
       0.037711084 -0.027954783 0.019360939 0.039684635
0000c0 55 27 27 3d c6 07 3a bd 00 43 22 ba 26 f1 15 bd
       0.040808994 -0.04541757 -0.00061897933 -0.03660693
0000d0 dd 4c fd 3b 82 95 3e bd 7c 22 0e bd db 69 2c bd
       0.00773011 -0.0465293 -0.034700856 -0.04209314
0000e0 ef c9 62 3b 02 04 61 3d f1 2a 32 3d 67 8f 3e 3d
       0.0034605225 0.054935463 0.043497983 0.046523478
0000f0 a7 48 28 3d 54 a5 4c 3c b5 54 c3 3c 59 44 46 bd
       0.04108491 0.012490589 0.023844102 -0.048405025
000100 69 c7 72 3c 15 a5 6c 3c 82 1f 66 bd e9 b4 13 bc
       0.014818051 0.0144436555 -0.056182392 -0.0090153
000110 c4 74 28 bd 20 da e1 bc da 5a 61 3d 97 b0 f2 3b
       -0.04112698 -0.02756983 0.055018283 0.007406305
000120 2e 87 bf 3c 56 bf 49 bd a4 b8 48 bd e6 43 4d bd
       0.023379888 -0.049254738 -0.049004212 -0.05011358
000130 7f 1b 55 3d 74 ad e2 3c d2 b0 0d 3d c6 ca cf 3c
       0.052028175 0.0276706 0.034592457 0.025365245
000140 99 3b cf bc be 58 11 3d 72 eb 20 3d c3 9d 2f bd
       -0.025296973 0.03548502 0.03928704 -0.042875063
000150 37 18 bd 3c d9 69 c4 bc 22 48 69 3d d6 3a 05 bd
       0.023082836 -0.023976253 0.056953557 -0.032526813
000160 ec b1 38 bd 06 3c b7 bc ef f8 f8 3b ee b0 08 3d
       -0.045091555 -0.022367489 0.0075980346 0.03337186
000170 65 3e 07 bd b2 08 06 3d 1e 72 2f bd 93 30 9b bb
       -0.03301849 0.032723136 -0.04283344 -0.004736015
000180 4b 22 19 3d 81 e0 13 bd 49 00 6f 3c cc dd 3f 3d
       0.03738622 -0.036102775 0.01458747 0.04684238
000190 a9 f3 08 bd b5 52 1f bd 79 d5 b2 bc e6 40 2a 3c
       -0.033435497 -0.038897235 -0.021830307 0.01039145
0001a0 dc cf 45 3b 90 3b 5e 3d a4 ac 38 3c 26 f8 54 3c
       0.0030183708 0.054256022 0.0112716295 0.012998616
0001b0 0c b4 11 bd 45 05 39 bc b8 14 95 3b 8a 6f 39 3b
       -0.035572097 -0.01129276 0.004549589 0.0028295242
0001c0 c0 93 f4 3c c2 f4 2f 3c 03 35 21 3d 64 51 3a 3d
       0.029855609 0.010739507 0.039357197 0.045487776
0001d0 cb 95 00 bd c8 c6 13 3c 74 85 dd 3c c9 7f 66 3d
       -0.031392854 0.009019561 0.027041174 0.05627421
0001e0 6e 89 df bc 4c 89 6a 3d a6 5a e3 3c 6e c8 4d bd
       -0.027287211 0.057259843 0.027753185 -0.050239973
0001f0 87 b0 32 3d ee ea 18 bd 29 e6 bf bc 83 00 da 3c
       0.04362538 -0.03733342 -0.023425179 0.026611572
000200 2f db 0b bd 87 cd 1a bd 73 a4 50 bd 45 aa d4 3c
       -0.034144577 -0.037793662 -0.05093808 0.025960097
000210 d8 a8 60 3d 0f 5b 7d bc ec 8a 3e 3d 99 d1 93 3c
       0.054848522 -0.015463605 0.046519205 0.01804428
000220 b6 e7 65 3c 80 06 4c 3d d4 ff 65 3d c7 8d b8 bc
       0.014032295 0.049810886 0.05615218 -0.022528542
000230 de 57 02 bd f5 12 23 3d 69 65 38 bc 25 2a 09 3c
       -0.031822078 0.039813 -0.011254647 0.008371864
000240 ba 2a d5 3c c2 84 43 bd 63 b5 32 bd 27 76 6f bd
       0.02602135 -0.04773403 -0.043630015 -0.05846229
000250 f1 ce ce bc 4a b2 c8 bc 94 a6 19 bc 2f 95 6b 3c
       -0.025245162 -0.024499077 -0.009378094 0.01437883
000260 30 03 32 3d 94 91 1a bd 65 6f 01 bd 79 c6 13 bd
       0.04346007 -0.03773649 -0.031600375 -0.03607795
000270 35 76 41 bc f5 37 39 3d a9 f7 4d bd b5 91 0c 3d
       -0.011807968 0.04521938 -0.050285015 0.034318645
000280 10 71 6f 3c d0 ee 12 3d fe 4d 3c 3d 2c 38 8f bc
       0.014614359 0.03587228 0.045972817 -0.01748284
000290 3e 03 65 bd 4e a8 8c 3c 9a 46 3a 3d af f0 4a bc
       -0.055911295 0.017170098 0.045477487 -0.012386485
0002a0 30 5f 45 3d be b1 fb bc 36 71 2e 3d ac c7 2d bd
       0.04818648 -0.030724403 0.042588435 -0.04242675
0002b0 b7 f2 0b 3d b8 5b 82 bc b4 89 01 3c 78 f4 95 bc
       0.034167018 -0.015912876 0.007906366 -0.018305048
0002c0 87 59 b7 bc d0 10 6c 3c fa 93 6a 3d 1f 8c 1f 3c
       -0.022381557 0.014408305 0.057270028 0.009737997
0002d0 1d af 4b bc 34 23 06 bd 9f 9c 95 bc a1 98 27 3d
       -0.012431887 -0.032748416 -0.01826316 0.040917043
0002e0 ff c8 13 bd 50 0f 58 3d cc 20 0c bd 6b 92 5b bc
       -0.036080357 0.05274898 -0.034210965 -0.013401608
0002f0 6f 35 1e 3d 5b 7e e9 bb 6f 08 81 bc d7 a7 3e bd
       0.038625177 -0.0071256584 -0.015751092 -0.046546783
000300 ee 61 4c 3d e3 0d 3b bc 47 d6 65 3d ae b8 57 3d
       0.04989808 -0.011416885 0.056112554 0.05266636
000310 21 ab 2a bd dd 83 20 bd 54 59 f8 3c b6 f3 c2 bc
       -0.041667107 -0.039188255 0.030316032 -0.023797851
000320 f7 b7 ad bc 7f 10 13 bd bb ae 01 3d 1d 89 af 3c
       -0.021205885 -0.035904404 0.031660777 0.021427685
000330 5c 1d 1a bd e1 cf 03 bc cb 7d 30 bd 0f 50 e7 3c
       -0.037625656 -0.008045168 -0.043088716 0.028236417
000340 e5 6f 28 bd 80 af 4f 3d 1f ba 52 3d 97 16 36 bd
       -0.041122336 0.05070448 0.05144703 -0.044455137
000350 00 7e 44 3d 1f 89 a0 bc c6 15 11 bc 02 7f 31 3d
       0.047971725 -0.019596634 -0.008855289 0.043334015
000360 01 99 13 3c 7e 04 ed bc 86 93 43 bc c7 0a a4 bb
       0.009008647 -0.028932806 -0.011937028 -0.0050061676
000370 3d 7b 0e 3d 0c 34 36 bd 3c 2f 05 bd e5 51 85 bc
       0.034785498 -0.04448323 -0.03251575 -0.016274402
000380 0d ae 5b bd 43 e9 4e 3d b1 d9 35 bd f4 75 a3 bb
       -0.053632785 0.050515424 -0.04439706 -0.0049884263
000390 0d 3a 14 3d 67 73 05 3d e8 27 6c bd fd a2 4b 3d
       0.036188174 0.03258076 -0.057655245 0.049715985
0003a0 de 9b 2f 3d 03 7e 07 bc 5c b5 02 bc 9b 5e d8 bc
       0.042873256 -0.00826979 -0.00797781 -0.026412299
0003b0 ad 9b 35 3d f0 59 71 bc 9c b1 a1 3b 15 8d 4e bd
       0.044337917 -0.014730915 0.0049345028 -0.050427515
0003c0 eb bd 67 bc 60 75 71 bc 09 82 ae bc 6c bc 37 bc
       -0.014144401 -0.014737457 -0.02130224 -0.011214357
0003d0 f9 82 a3 bc b3 fb e1 bc d8 45 3e bd 01 9a 55 bd
       -0.019959914 -0.02758584 -0.046453327 -0.052148823
0003e0 c3 dd 17 bb e7 a7 27 bd b1 f4 d4 3c 50 1c c1 3b
       -0.0023172952 -0.04093161 0.025995584 0.0058932677
0003f0 ad 8e 11 3d 46 9e 07 3c a7 98 2d 3d b6 59 e1 3c
       0.035536457 0.008277481 0.04238191 0.027508598

psi.0.bias f4 [128]
000000 c7 25 c8 bc 6f 39 a4 3c 00 18 52 3d 17 f6 22 bd
       -0.024432076 0.020046918 0.05129242 -0.03978547
000010 b8 19 4f 3d 29 76 1b bd 20 f3 26 bb f5 d1 3b bd
       0.050561637 -0.037954483 -0.0025474504 -0.045854528
000020 6f 92 12 bd 67 52 65 3d 3e dc 50 3c 78 e0 e2 3c
       -0.03578418 0.055986788 0.012747822 0.027694926
000030 bb d6 0f 3c e0 92 2b 3c 34 f4 6b bb 93 f0 9d 3c
       0.008779223 0.010472029 -0.003600371 0.019279754
000040 a7 c3 be 3c 57 93 03 bc 18 cb 49 bd 19 ea f4 bb
       0.023286654 -0.008030734 -0.04926595 -0.0074741957
000050 f3 01 83 3c 98 f8 99 bc 9d 42 e9 bc 3f 6f 09 3c
       0.01599214 -0.018795297 -0.028474147 0.00838834
000060 ed 75 48 3c ea 23 3f bd 05 3f 5f bd a5 c6 b5 ba
       0.012235147 -0.04666511 -0.05450346 -0.0013868405
000070 b0 e8 48 3d 5c 15 5a bd 86 6a 0c 3d a3 f2 1e bc
       0.049050033 -0.053243026 0.034281276 -0.009701404
000080 e4 f6 ac bc 55 af 29 bd 7c 63 46 bd 6c b2 b8 39
       -0.02111382 -0.041426975 -0.04843472 0.0003522815
000090 15 ec 32 bd e4 c8 3e bd d9 01 0b 3d 6d 4a 9a bc
       -0.043682177 -0.046578303 0.03393731 -0.018834317
0000a0 21 fa 1f bd 17 9e 2f bd d0 b0 e4 3c 92 9b 0c 3d
       -0.0390569 -0.042875376 0.027916342 0.03432805
0000b0 46 d5 45 3d 46 9b 1a 3c 6f de 02 3d a9 0b 5a bd
       0.048299097 0.009436434 0.03195041 -0.053233776
0000c0 0b b4 45 bd cd ab 27 3d 87 4c d1 bc 78 bd 1f bd
       -0.048267405 0.040935326 -0.025549186 -0.03899905
0000d0 71 ba e7 bc 2a d0 9d bc 99 ba 2e 3d c4 49 fb bc
       -0.028287144 -0.0192643 0.042658422 -0.030674823
0000e0 8e 41 10 bc 62 f8 43 3d a8 52 b8 bc 38 51 ef 3c
       -0.008804692 0.0478443 -0.022500351 0.029213533
0000f0 57 f1 e4 bc c3 eb ff 3c 21 88 01 3d f1 96 29 bd
       -0.027947111 0.03124035 0.031623963 -0.041403715
000100 2a 34 08 3d cb 68 39 3c 4d ee 98 3c 9f 28 b2 3c
       0.033252873 0.0113164885 0.018668318 0.021747885
000110 13 7b 16 3d 28 49 e3 bc df c6 b7 3c 57 94 3f 3d
       0.036738466 -0.027744845 0.022433696 0.046772327
000120 a7 60 b6 bb dd 9b 65 bd 0a 6b ea 3b 57 76 56 bd
       -0.005565721 -0.056056846 0.0071538733 -0.05235895
000130 d1 e2 16 3d 7b f9 02 3d a8 92 9d bb 35 8c 28 3d
       0.036837403 0.031976204 -0.0048087426 0.041149337
000140 dc 46 63 bd 22 b3 fb bb 40 90 1a 3d a1 e8 1e 3c
       -0.0554875 -0.0076812664 0.037735224 0.009699018
000150 de 71 17 b6 8d 08 28 3d 94 64 44 3d c4 59 e5 bc
       -2.2567033e-06 0.04102378 0.04794748 -0.027996905
000160 75 8c 26 3c f5 f5 d0 bc b8 0b f3 3b 99 2d 35 3d
       0.0101653235 -0.025507906 0.0074171685 0.04423294
000170 30 0f cb 3c e6 f4 ab 3c 40 0a be 3c 7d 33 3d bd
       0.024787515 0.0209908 0.023198247 -0.04619168
000180 93 50 8b bc 98 d7 33 bd 43 54 74 bc 5c 79 d4 3c
       -0.017006194 -0.043906778 -0.014912668 0.025936775
000190 e3 72 b1 bc 6b 1b 31 3d fa e5 b1 bc 5e 72 5b 3d
       -0.021661228 0.04323904 -0.021716107 0.053575866
0001a0 fa f8 4e bd 1c 40 e5 bc 60 4a f8 3c b3 d7 3c bd
       -0.05053041 -0.027984671 0.030308902 -0.046104144
0001b0 9a d1 ae 3c b7 76 8d bc 7e 46 42 bd c9 b5 56 3d
       0.02134018 -0.017268522 -0.047430508 0.052419458
0001c0 94 fb 0d 3d 26 a8 90 bc a6 fb f7 bc e1 c4 24 b8
       0.03466375 -0.017658304 -0.030271363 -3.9284005e-05
0001d0 ad 78 57 39 56 54 58 3a 3b fd 1b 3d 1b 70 3c 3d
       0.00020548953 0.0008252313 0.038083296 0.04600535
0001e0 7a ce 06 3d 06 05 4d 3d 8f 1f b8 bc eb 6b 32 3d
       0.032911755 0.05005362 -0.022475986 0.04355995
0001f0 2f d4 9d bb d2 e7 28 bd 91 65 21 3d 12 bb 6e 3c
       -0.004816554 -0.041236706 0.039403502 0.014570968
