lightning_logs/version_1/checkpoints/epoch=1-step=199.ckpt (torch, 398034 bytes, 48 tensors)

lattice_net.0.weight f4 [8, 1, 2]
000000 d7 ad bf 3e e2 61 06 3f b5 02 0e 3f 73 7d 03 3f
       0.37437317 0.5249311 0.5547288 0.51363295
000010 89 ec c5 3e bc 8e aa be 73 4c 14 3f cc 8f 36 3d
       0.38657025 -0.33312023 0.5792915 0.04457073
000020 18 3f 18 bf 2a a2 15 3f 01 48 28 bf ad 9e 19 bd
       -0.59471273 0.5845057 -0.6573487 -0.03750484
000030 8f 0a 24 3f 50 33 a2 3e 71 25 55 be 1f af 3d be
       0.6407861 0.31679773 -0.20815064 -0.18523835

lattice_net.0.bias f4 [8]
000000 bd 5f 1b 3f b7 8a 27 3f 76 64 ea 3e 7c 1d bb be
       0.6069296 0.6544604 0.4577977 -0.36545932
000010 00 5d 1c be 37 6e 4b bd 09 7d b3 be 5e dd 34 bf
       -0.15269852 -0.049665656 -0.35056332 -0.7065028

lattice_net.2.weight f4 [16, 8, 2]
000000 ca 2d 6f be 75 cb 93 3d d9 4c 8c bc da 4c 7b be
       -0.23357311 0.07216541 -0.017126488 -0.24541035
000010 43 50 85 bd d3 1f 82 bc da 33 e1 bd 10 26 a4 bc
       -0.06509449 -0.015884316 -0.10996218 -0.02003768
000020 d7 c6 c5 3d d9 d0 42 be 02 35 c3 bd 5d 8f 59 3e
       0.09657066 -0.19024982 -0.09531595 0.21246095
000030 b9 12 2e be 21 a1 00 be 40 b3 78 3c 94 2c c1 3d
       -0.1699933 -0.12561466 0.015179455 0.09432331
000040 72 c5 49 3e 3e 9a 52 bd 64 e2 90 bd 26 70 5c 3e
       0.19704226 -0.051416628 -0.070744306 0.21527156
000050 e5 03 fc 3d 0b 5f df 3d 7f bd 82 3e e1 34 98 bd
       0.1230543 0.109068 0.255352 -0.07431961
000060 e3 a5 2d 3e 94 34 54 3c 4b f7 bc 3d f9 e5 a4 3d
       0.16957812 0.012951989 0.09226855 0.08051676
000070 72 09 e9 bd 28 36 07 3e 44 3b 7d be 00 1f e2 bc
       -0.11378755 0.13204253 -0.2472964 -0.027602673
000080 b5 33 d7 3c f4 46 5b 3e 6d 4c 3b be 19 c8 79 ba
       0.026269773 0.21413785 -0.18290873 -0.0009528413
000090 b8 4a 8c 3c 9f 62 b4 3d 71 f5 4d bc fa da 1a be
       0.017125472 0.08807873 -0.012570725 -0.15122595
0000a0 63 42 40 3e 91 87 b7 bd d5 c9 06 3e e2 5a 6b be
       0.18775325 -0.08961404 0.1316293 -0.22983888
0000b0 8b 08 53 3e 5d 09 87 3d b0 00 d7 bd e0 2a de bd
       0.20608728 0.06593583 -0.10498178 -0.108480215
0000c0 f3 fc 63 be d6 3b 16 bd 2b 35 64 3e 38 1a 3b be
       -0.22264461 -0.036678158 0.22285907 -0.1827172
0000d0 da 34 e4 3d 74 ae 70 be 1e ed 0f bd fe 1d 3f 3d
       0.11142893 -0.23504049 -0.035138242 0.046659462
0000e0 be 94 70 be 4c e1 02 3e 0b a0 8b bd 44 99 29 3e
       -0.2349424 0.12781256 -0.06817635 0.16562372
0000f0 cd b6 4f be 90 8e 17 bd 28 9e 07 3d 64 50 6d 3e
       -0.20284577 -0.037001193 0.033109814 0.23175198
000100 44 74 99 3d 28 ea 55 be 46 68 18 be 4c 45 e8 bd
       0.07492879 -0.20890105 -0.14883527 -0.11341342
000110 2d 1a ab 3d 06 b7 b5 3d 82 24 3e 3d 73 c8 0d bb
       0.08354602 0.088727996 0.046421535 -0.002163437
000120 8f dc 68 3e 61 a5 9c 3d 20 d8 46 3d f9 41 e3 3d
       0.22740386 0.07648731 0.048545957 0.11096568
000130 7f 57 33 bc 26 a6 15 3e 60 60 0d 3d 0a ad 2f 3e
       -0.010946154 0.14614162 0.03451574 0.17155853
000140 a1 eb 3d be 71 c8 38 3e b3 49 d2 3d 2b 4b 0f 3e
       -0.18546917 0.18045212 0.10267963 0.13993518
000150 3e b4 b7 3d cc 0a 10 be 3d 5f a6 3b 82 58 0b 3e
       0.08969925 -0.14066619 0.0050772713 0.13607982
000160 d5 12 0b 3e 24 40 a1 3d 0f 43 18 3e 2e 19 b6 bd
       0.13581403 0.07873562 0.14869331 -0.088915214
000170 2f 65 39 be c1 a1 06 bd 96 1a 2d 3e ac 8d ab 3d
       -0.18105005 -0.032869104 0.16904673 0.08376631
000180 79 e7 82 bd 2a 19 1f 3d dc 60 d9 bd c5 b0 be 3d
       -0.06391806 0.038842358 -0.106141776 0.0931106
000190 f7 c1 00 3e d0 47 37 3e ad 37 58 be 0f 50 4c 3e
       0.12573992 0.17898488 -0.21114989 0.19952415
0001a0 47 92 17 bd a9 5a d1 bd e8 d1 bc 3c e8 e2 e6 3c
       -0.037004735 -0.1022237 0.02304931 0.02818437
0001b0 da e5 8a 3d 8d 3e ea bd fe 8d 0a be d0 d7 6e 3d
       0.06782122 -0.11437712 -0.13530728 0.058311284
0001c0 31 b0 1e 3e 5a 00 ba bd ae 21 e0 3d 4b bf 7d 3e
       0.15496899 -0.09082098 0.10943924 0.24780004
0001d0 73 75 8e bd d2 d6 22 be df 7f 5f be da 67 80 3d
       -0.069559954 -0.1590226 -0.21826123 0.06269808
0001e0 d5 dd 73 be 7f 24 77 be 67 4e 59 3e b1 ed f2 bd
       -0.23815091 -0.24135016 0.21221314 -0.11861742
0001f0 79 3e 1a be 2e 76 6c 3e 70 10 3d bd b6 32 61 3e
       -0.15062894 0.23091957 -0.046158254 0.21992001
000200 a5 82 7f 3e 87 e5 7a be 79 2a 45 be 93 1a 39 be
       0.2495218 -0.2450162 -0.19254483 -0.18076544
000210 7b 17 6e be 53 97 70 be 32 87 76 3e dc c5 17 3e
       -0.23251145 -0.23495226 0.2407501 0.14821571
000220 21 f3 db 3d 7d 87 5b 3e cb 2b 10 3e 69 b6 5a be
       0.107397325 0.21438403 0.14079206 -0.21358646
000230 65 80 00 3e 5d d9 5e 3e 34 24 46 be f8 3f 59 be
       0.12548979 0.21762605 -0.19349748 -0.21215808
000240 2d c0 6c 3e 16 90 1b 3e 55 bd 45 3e 5d 9e 74 be
       0.23120184 0.15191683 0.19310506 -0.23888536
000250 df e0 5e 3e 7f e0 fb 3d 31 d6 4b be de cf 05 be
       0.21765469 0.122986786 -0.19905926 -0.13067576
000260 f5 07 4a 3d 07 db 69 3e 21 51 3f be 6f 65 1c 3e
       0.049323995 0.22837459 -0.18683292 0.15273069
000270 8a fe 48 be cb 78 a2 3d e8 c1 af 3d a0 9a 93 bd
       -0.19628349 0.07933196 0.085819066 -0.07207227
000280 68 40 8c 3d ec 23 ba bd 55 f9 86 3d 30 49 ce b9
       0.06848222 -0.09088883 0.06590525 -0.0003934591
000290 71 b5 76 3e 2a 2a 71 be 20 6b 81 be c8 c4 e5 3d
       0.24092652 -0.2355124 -0.25277042 0.11219174
0002a0 a3 53 41 3e 60 a0 48 be b8 63 4b 3e a8 d5 60 be
       0.18879561 -0.19592428 0.19862258 -0.21956503
0002b0 43 5a 71 3d 3c 1a 16 be 0a 80 30 3e 06 a0 65 be
       0.05892397 -0.14658445 0.17236343 -0.22424325
0002c0 1c 00 0b bd 0c 7b 5b be d9 e2 3f be dd d6 90 bd
       -0.03393565 -0.21433657 -0.1873888 -0.07072232
0002d0 c5 a5 11 be ab d4 64 3e 53 c9 03 3d 44 4a 09 3e
       -0.14223392 0.22346751 0.03217442 0.13407236
0002e0 80 72 aa bc 6b 36 57 3e 44 3d d4 bd 41 e6 12 3e
       -0.020806551 0.21016853 -0.10363248 0.14345647
0002f0 aa 72 9c bb f9 67 04 3d fc 03 43 3e a4 3e ba bd
       -0.004774411 0.03232572 0.19044489 -0.09093979
000300 dc 5a 01 bc 15 78 4c be 56 77 11 bd 14 6b 90 bd
       -0.007895198 -0.19967683 -0.0355142 -0.070516735
000310 1e b2 42 3d 9d 34 0f 3d 15 3a 19 be 6b d9 23 be
       0.047533147 0.034962285 -0.14963563 -0.16000907
000320 66 d3 f4 3d a4 3b 9e bb 43 60 2c 3e 37 ba b4 3d
       0.119543836 -0.004828887 0.16833596 0.0882458
000330 1d 1a 52 bd c8 1b c3 bd 20 f4 b9 3c 68 e2 3d be
       -0.051294435 -0.09526783 0.022699416 -0.18543398
000340 55 0f 0b bd 70 42 ee 3d 9b 20 15 be d6 d1 64 3e
       -0.03395017 0.11633766 -0.14563219 0.22345671
000350 92 56 06 be 01 a5 70 3d 5b 13 2c be 7b ab 2d 3e
       -0.13118961 0.05875111 -0.16804259 0.16959946
000360 aa 89 d9 3d c2 d4 5d 3d ca af 9f 3d 34 69 2f 3e
       0.106219605 0.05415798 0.07797201 0.17129976
000370 d5 97 57 be e1 6a 3c 3e 04 8b 5a 3e 3a f2 20 be
       -0.21054013 0.18400146 0.21342093 -0.15717402
000380 dd 48 6d be 81 0e 02 be 94 7c b7 3a b7 16 55 3e
       -0.23172326 -0.12700845 0.0013998919 0.20809446
000390 d6 dc 13 3e 4a 52 02 be 99 74 9a bd 0c 7b 60 bd
       0.14439711 -0.12726703 -0.075417705 -0.054804847
0003a0 84 ea 03 3e a7 6b 68 3e dd d1 e8 bd bd d5 74 3d
       0.1288243 0.22697316 -0.11368153 0.05977415
0003b0 6a a3 4b 3e 17 26 0b be 90 28 a2 bd 4c 74 8d 3d
       0.19886556 -0.13588749 -0.07917893 0.069069475
0003c0 8c 6a 0e 3c 58 27 20 3d 20 48 f7 3d cb 0f 10 3e
       0.008692395 0.03910002 0.120743036 0.14068525
0003d0 bd 7a d5 3b 4b e8 3f be 49 2a 6c bc 01 cd 0d 3c
       0.0065148757 -0.18740956 -0.014414378 0.008654834
0003e0 29 72 73 3e 34 4b 12 be 7a 71 3e 3d bd 6e 50 bd
       0.23774017 -0.142865 0.04649494 -0.05088686
0003f0 60 56 14 3e 97 8b 0a bd c0 e5 bd 3d 80 a5 0d 3d
       0.14486074 -0.03382453 0.09272337 0.03458166

lattice_net.2.bias f4 [16]
000000 f9 d7 db bd 6e 07 39 3e f9 63 7b be f4 20 36 3e
       -0.10734553 0.1806924 -0.24549855 0.17786008
000010 d5 a6 54 3e 3a cf dd 3d 2e 13 0c 3d 50 6d ef bc
       0.20766766 0.10830541 0.03419798 -0.029226929
000020 33 52 af bd a4 6c 5a 3d 65 84 7e bd ff c7 56 3e
       -0.085606 0.053326264 -0.06213798 0.2097473
000030 cf 70 c8 3c 0a fd 65 be f0 5c 2b be 79 01 fe bd
       0.024467854 -0.22459808 -0.16734672 -0.12402625

tNN.0.weight f4 [16, 2]
000000 12 bf 53 bd 08 05 09 3f b0 f3 27 3f 61 62 03 3f
       -0.05169589 0.535233 0.6560621 0.5132199
000010 c8 9a d0 3e ea 68 83 3d e5 2a 2c be 0f c5 ad be
       0.4074309 0.06416495 -0.16813238 -0.33939406
000020 40 06 19 3f bb 58 a1 3e eb a5 00 3f 96 f0 2e bf
       0.5977516 0.31513008 0.5025317 -0.68335855
000030 70 1d 84 3e b8 a0 3c be 60 30 41 3e 14 15 25 3f
       0.2580371 -0.18420684 0.1886611 0.6448529
000040 bc 72 13 bf 1c 6c 06 3f 88 1b 70 be 90 03 c8 3e
       -0.57596946 0.5250871 -0.23448002 0.39065218
000050 5a 99 f2 3e 5d 75 d8 3e 0d 91 7b 3e 51 bb 20 be
       0.47382623 0.4227704 0.24567051 -0.15696456
000060 11 99 e3 bc d3 a0 d0 be 5d 9c 04 3f a7 35 fc be
       -0.027782949 -0.407477 0.5180109 -0.49259683
000070 19 d7 1e 3f 91 3f b9 3c 5b 3c 9e be 01 52 02 3c
       0.6204696 0.022613319 -0.30905423 0.007954122

tNN.0.bias f4 [16]
000000 db e3 93 3e 8a 50 70 3e 9b ad 35 3f 35 e5 1c 3f
       0.28884777 0.23468223 0.70968026 0.6128724
000010 66 d6 27 3f ab 92 c4 3d 3e 14 10 bf be ee 34 3e
       0.6556152 0.09598287 -0.5628089 0.17669198
000020 b0 7c 23 3e 21 fd 83 3e 57 2f 01 3d be 54 14 bf
       0.15965533 0.2577906 0.031539287 -0.57941806
000030 d1 7b 04 3f 78 e0 3c be e8 22 72 3e e7 70 1f bf
       0.5175143 -0.18445003 0.23646128 -0.6228165

tNN.2.weight f4 [32, 16]
000000 fc d4 96 bd e6 78 5a 3e a0 f4 d5 bd 10 7e aa bc
       -0.07364842 0.21335182 -0.10447049 -0.020812064
000010 8e 0c 6b 3e 8e e5 72 be 70 c8 19 3d 5c c5 43 be
       0.22954008 -0.2372038 0.037544668 -0.19118255
000020 aa b0 59 be ee 83 44 3e 1a 83 7d be f0 63 f0 3d
       -0.21258798 0.19190952 -0.24757043 0.117378116
000030 f0 33 14 bd 80 a6 51 3e 26 a8 03 3e 50 3e 9f 3d
       -0.036182344 0.20473671 0.12857112 0.07775557
000040 94 2f 7c 3e de c1 44 be b8 6d 5d 3e 20 2e 20 bc
       0.24627525 -0.1921458 0.21623886 -0.009776622
000050 e8 06 0e bd e6 a3 1b be 60 46 7b bd a8 ef ae 3d
       -0.034674555 -0.15199241 -0.06134641 0.085418046
000060 40 9b 54 be da 28 44 be f8 7e 21 3e 98 cc 30 3e
       -0.20762348 -0.19156209 0.15771091 0.17265546
000070 44 59 43 be bc 90 c7 3d 54 14 71 be d8 18 1b 3d
       -0.19077021 0.09744403 -0.23542911 0.03786549
000080 14 46 76 be 00 a3 16 3e 0e 53 1f be d4 ed da 3d
       -0.2405017 0.14710617 -0.15559027 0.10689893
000090 ea 9f 3f 3e 10 87 8b bc a0 c5 97 3d 42 f0 04 3e
       0.18713346 -0.017032176 0.07410741 0.12982276
0000a0 c0 5c 89 3b 40 57 7a 3d f0 2a f6 bd 22 08 52 be
       0.004191965 0.061118364 -0.120199084 -0.20510915
0000b0 1a e9 56 3e ae d2 54 3e d8 c5 31 bd 20 0f e6 bd
       0.20987359 0.20783493 -0.04340157 -0.112333536
0000c0 10 89 bd bd 50 b0 d2 3c 48 b4 82 bd 2c 29 5d be
       -0.09254658 0.025718838 -0.06382042 -0.21597737
0000d0 f8 8f 04 3d 00 d6 e9 bb 00 e5 14 3d 4c fc 64 be
       0.03236386 -0.0071361065 0.036351204 -0.22361869
0000e0 3c 10 bf bd d8 01 0f 3e d4 f6 a1 3d 40 57 f6 bb
       -0.09329268 0.13965547 0.07908407 -0.007517725
0000f0 90 b9 02 bd 90 4a c4 bc 48 b4 f7 bd 48 32 27 3d
       -0.031915247 -0.023961335 -0.12094933 0.040819436
000100 85 4a d2 3d 2b 53 07 be 24 13 90 bd 62 09 54 be
       0.1026812 -0.1321532 -0.07034901 -0.20706704
000110 31 d9 a9 bd 98 a8 9a bd e0 91 6b 3c f6 59 f8 3d
       -0.08293379 -0.07551688 0.014378041 0.12126534
000120 aa 2b 34 3e e2 51 18 be 6a 19 f2 3c e0 d9 cf bd
       0.17594782 -0.14874986 0.029553134 -0.10148978
000130 16 1a 5f be 10 30 ac bc 35 a1 16 be 40 73 b6 3b
       -0.21787295 -0.021019012 -0.14709933 0.005567938
000140 28 01 c8 bd 9c 69 a8 bd bc a2 01 3e c6 1c 25 3e
       -0.097658455 -0.082232684 0.12659734 0.16124257
000150 80 96 bb bb 54 64 61 be 60 ed 1d bd 8c 8e b5 bd
       -0.005724728 -0.22010928 -0.038556457 -0.08865079
000160 a0 8b e0 3c 3c 08 43 3e a8 a0 e3 bd ec e6 cf bd
       0.027410328 0.1904611 -0.11114627 -0.10151467
000170 66 b6 24 be f0 83 d4 3c 80 9e 7d be ae 2b 0c 3e
       -0.16085204 0.025941819 -0.24767494 0.13688537
000180 11 a2 38 3e b3 74 58 3e f0 3f 71 be c0 34 e4 3b
       0.18030573 0.21138267 -0.23559546 0.006964296
000190 cb c1 3d bd e0 19 31 bc b8 48 28 bd 5d dc 18 3e
       -0.046327394 -0.010809392 -0.041084975 0.14927812
0001a0 d5 8f 22 3e 6e a1 7a be 6e 58 7b be cc 0c 9f 3d
       0.1587518 -0.24475643 -0.24545452 0.07766113
0001b0 20 8b 39 bd 58 da 73 3d 00 3d bf 3d 1c e7 5b 3e
       -0.045298696 0.0595344 0.09337807 0.2147488
0001c0 b9 8a 73 3e e3 86 72 3e d7 93 66 3e 0e c3 57 be
       0.23783387 0.23684268 0.22517334 -0.21070501
0001d0 df 87 c4 3c 84 6a ae 3d 9e 61 54 be b2 27 65 3d
       0.02399057 0.0851641 -0.20740363 0.05594606
0001e0 c8 0d cd bd 83 08 62 be a1 9c f2 3d ac 56 bb bd
       -0.10012394 -0.2207356 0.11846281 -0.09147391
0001f0 de e0 5c be 20 21 33 3d b0 ff 77 be b0 b8 63 3e
       -0.21570155 0.043732762 -0.24218631 0.22238421
000200 9b b8 0d 3d 8a a6 78 be 65 19 4c 3e 00 c0 72 bc
       0.03459988 -0.2428228 0.19931562 -0.014816284
000210 60 a5 65 3d f8 1c 3b 3d f2 8d 46 3e 63 44 76 3d
       0.056065917 0.045681924 0.19390085 0.060123812
000220 70 9e 78 3e c4 2f 3e 3e 42 dd 40 be ea cf 7b be
       0.24279189 0.18572909 -0.18834403 -0.24591032
000230 60 90 59 3e 60 f6 59 3d 0f 8d 6d 3e 1c b1 65 be
       0.21246481 0.053213477 0.23198341 -0.22430843
000240 a0 b4 97 bc 40 dc 18 3c 7c 0f de bd b0 a2 2e be
       -0.018518746 0.009329855 -0.10842797 -0.17054248
000250 40 c2 77 3c 64 5a 57 be 86 cd 65 3e 5a 1f 23 3e
       0.015121996 -0.21030575 0.22441682 0.15929928
000260 ec 27 12 be f2 84 57 be 38 bf 2c bd e6 1b 03 be
       -0.14273041 -0.21046808 -0.042174548 -0.12803611
000270 50 5a 2b be 94 e6 00 be 44 53 27 3e bc 8d f6 bd
       -0.1673367 -0.12587959 0.16340357 -0.120387524
000280 d2 bc 50 be de 1e 6f be ca 0b 26 be 18 ef 05 3d
       -0.20384529 -0.23351619 -0.16215435 0.03269872
000290 52 2f 50 3e e0 de b4 3c 6a 76 06 3e d2 e0 10 3e
       0.20330551 0.022078931 0.13131109 0.14148262
0002a0 44 58 d0 3d 78 7f 14 3e a0 13 7c bc 50 99 65 bd
       0.10173085 0.1450175 -0.015385538 -0.056054413
0002b0 dc f5 1e be 28 53 19 be 18 cf b4 bd 24 44 fa bd
       -0.15523475 -0.14973128 -0.088285625 -0.12220028
0002c0 7f 8e 66 3e ad cf 4a bd b2 0e 17 3e 8c 05 47 3e
       0.22515295 -0.04951446 0.147517 0.1943571
0002d0 1c 08 7a 3e 40 d5 30 3c 40 c3 07 bd f3 99 31 3d
       0.24417156 0.01079303 -0.03314519 0.043359708
0002e0 c2 0f 51 be c3 2d a5 3c 6c 98 5a 3e 2c 68 10 3e
       -0.20416167 0.020163422 0.21347207 0.14102238
0002f0 f6 9d 78 be 5c 22 08 be 24 c2 49 be 24 86 32 be
       -0.24279007 -0.13294357 -0.19702965 -0.17433983
000300 52 d6 25 be ca 4b 26 3e b0 da b5 bd 60 e4 74 be
       -0.16195038 0.16239849 -0.08879602 -0.23915243
000310 f8 c2 6e 3d 26 df 0f be 82 2b 59 be a0 bf d8 bd
       0.058291405 -0.14049968 -0.21208003 -0.105834246
000320 b0 53 3e be fa 84 3a 3e da 9f 66 be ac 6d 7b be
       -0.18586612 0.18214789 -0.22521916 -0.24553555
000330 c0 79 1d 3d f0 91 fd 3d 88 f6 fb 3d c6 e6 30 3e
       0.038446188 0.12381351 0.123028815 0.17275533
000340 da 93 61 be c8 a7 67 be a8 06 a7 bd f0 8e 9c 3c
       -0.22029057 -0.22622597 -0.081555665 0.019111127
000350 7e f7 6c 3e 90 56 1e 3e b0 eb 1f 3d 38 85 43 be
       0.23141286 0.15462708 0.03904313 -0.19093788
000360 a4 04 89 bd dc 6e d2 bd 8c 46 62 3e 60 4c c9 3c
       -0.06690338 -0.10275051 0.22097224 0.024572551
000370 00 da 88 3b e8 84 56 3d d8 8c 7b bd fc b7 74 be
       0.0041763783 0.052372843 -0.061413616 -0.2389831
000380 88 4b ae bd d4 3a e2 bd d0 0f 5a 3d c2 51 3d 3e
       -0.085105 -0.11046377 0.053237736 0.1848822
000390 e8 c9 3d bd 4a 93 35 3e 00 3c 35 ba 5e 41 60 be
       -0.04633513 0.17731968 -0.0006913543 -0.21899936
0003a0 10 a8 1c 3e 30 83 28 3e 4c 1d fb bd 38 a9 a0 bd
       0.15298486 0.16456294 -0.12261447 -0.07844776
0003b0 c8 44 af bd 74 b6 49 be 00 f2 0a be 98 ee cb 3d
       -0.08558041 -0.19698507 -0.13568878 0.099576175
0003c0 08 c6 fe 3d 18 47 e6 bd 4c 7d 34 be e0 f0 12 bc
       0.12440115 -0.11244029 -0.17625922 -0.008968562
0003d0 04 a2 1d be 50 99 04 be 08 3e f2 3d 08 08 37 3e
       -0.15393835 -0.12949109 0.11828238 0.17874157
0003e0 72 70 27 be e0 82 af bd 1e c3 52 3e ac 9f 7b be
       -0.16351488 -0.08569884 0.20582244 -0.24572629
0003f0 14 54 79 3e 76 7a 08 be 54 f0 eb bd 28 5c 37 3e
       0.2434848 -0.13327965 -0.11520448 0.17906249

tNN.2.bias f4 [32]
000000 c0 d9 7d be 52 4d 54 be 5c a7 7d be 04 7d c7 bd
       -0.24790096 -0.2073262 -0.24770874 -0.09740642
000010 02 52 55 3e c8 ef 48 bd 1d 87 45 bc 73 61 c6 3d
       0.20832065 -0.0490568 -0.012056139 0.09686556
000020 89 8b 10 3e 26 84 3d 3e 24 b1 1b be e8 8a 2f 3d
       0.14115728 0.18507442 -0.15204293 0.04285708
000030 ea 84 31 be c8 0d 33 bd 08 a2 7b 3d f4 24 e6 bd
       -0.17335859 -0.043714315 0.061433822 -0.11237517
000040 40 72 c0 3c 91 ab ff bd 20 df 41 3e 7c 25 25 be
       0.023491979 -0.124838956 0.18932772 -0.1612758
000050 a4 f8 9a bd 69 55 fd 3d 14 95 1b be cd e1 b9 bd
       -0.07566956 0.12369806 -0.15193588 -0.09076271
000060 95 25 82 3d e8 6e 94 bd 2f 6e cf bd a9 fd fe 3d
       0.063548245 -0.07247716 -0.10128438 0.124507256
000070 2e 6e 23 be 36 d2 a7 3d b0 e5 73 3e ee db 5c be
       -0.15959999 0.081943914 0.23818088 -0.21568272

tNN.4.weight f4 [64, 32]
000000 16 92 82 3c e3 41 da bd 37 71 e3 3d 8a a4 8a 3d
       0.0159388 -0.10657098 0.111055784 0.067696646
000010 c6 0e d9 bd 6f f0 a3 3d 5f f6 f7 bd 35 ab d4 3d
       -0.10598521 0.080048434 -0.121075384 0.10384218
000020 c7 c0 2e 3d c5 f1 13 3e 7b 0e cf bd eb c0 c1 3d
       0.042664316 0.14447697 -0.10110184 0.09460624
000030 87 3a 84 3c 8e cd 14 3e 18 3d e2 3d 22 06 0d bc
       0.01614119 0.14531538 0.11046809 -0.008607419
000040 bf f4 32 3e c4 27 10 be eb 94 bf 3d 0f e5 46 bd
       0.17476176 -0.1407767 0.09354576 -0.04855829
000050 29 a4 a4 bc 22 fa 54 3d 10 bc f7 bd f0 2b d9 bd
       -0.020097809 0.051996358 -0.12096417 -0.106040835
000060 dc 06 27 3e 22 70 0d 3e 7c d8 07 3e 4a 93 b5 3d
       0.1631121 0.13812307 0.13266176 0.08865984
000070 f7 9b e7 bc aa 10 a9 bd 5a f4 b5 bd c1 84 f3 3d
       -0.028272612 -0.082551315 -0.08884497 0.11890555
000080 b8 6f e0 3d b5 2e 34 be 02 30 e5 3b 30 5a 7b bd
       0.10958809 -0.17595942 0.0069942484 -0.061365306
000090 f1 58 97 3c 8f 5d df 3c 95 eb 3c 3d d1 cd 38 3e
       0.018475028 0.027266292 0.046123106 0.18047263
0000a0 09 e5 b8 bd eb 44 2c 3e 3a fb 23 3e e2 62 e4 3d
       -0.0902806 0.16823165 0.16013804 0.11151673
0000b0 ae 75 95 bd ac 3f 0f 3e 55 45 fe bc 7a 48 d9 bd
       -0.07297836 0.13989133 -0.03103892 -0.10609527
0000c0 8d 07 04 bd 90 15 08 3c 27 6d 28 3e 79 7b da 3d
       -0.032233763 0.008305922 0.16447888 0.10668082
0000d0 30 ec ae bd 63 fe b3 bb ed cb e9 3d c7 11 11 3e
       -0.08541143 -0.0054929717 0.11415849 0.14166938
0000e0 09 10 a8 bd d0 71 82 bd b4 7d b4 3b 9b 4c 0b be
       -0.082061835 -0.06369364 0.005508149 -0.13603441
0000f0 1c 03 a5 bd e1 80 06 3e 5f 90 1e 3e 31 75 22 3b
       -0.08057234 0.13135101 0.1548476 0.002478909
000100 65 44 07 be 2a 3b 8d bc 3a 1c 01 be ff 89 13 3d
       -0.13209684 -0.017240126 -0.12608424 0.036020275
000110 61 7d 52 bd f7 8a f5 39 a1 89 be 3c 83 69 a5 bb
       -0.051389102 0.00046833578 0.023258986 -0.0050479784
000120 11 b0 20 be be e2 cb bd 24 94 1b 3e d5 48 11 be
       -0.15692164 -0.09955357 0.1519323 -0.1418794
000130 98 f3 ad bd 85 07 6a bd 76 4c 0c 3e 19 be 64 bd
       -0.084937274 -0.057136077 0.13701043 -0.055845354
000140 2f e6 33 be 4d 58 f8 3d b6 26 51 bc d3 0e ab 3d
       -0.17568277 0.12126217 -0.012765577 0.08352437
000150 82 9a 86 bd 9d 95 6a bd 3d ae eb bb 02 73 a7 bd
       -0.06572439 -0.05727159 -0.0071924017 -0.08176233
000160 42 02 22 3e d7 3d 5d 3c 6b ab f7 bd 82 e7 c9 bd
       0.15821174 0.013503513 -0.12093242 -0.0985861
000170 8c b9 fd 3c 1a 23 c6 3d c9 95 05 be 07 f0 ca 3d
       0.030972265 0.09674664 -0.1304542 0.09909063
000180 c9 71 02 3e dd 63 16 be 97 23 16 be 2f 15 21 be
       0.12738718 -0.14686532 -0.14662014 -0.15730737
000190 83 b0 6a 3d b7 f9 a3 3d 2b 93 e0 3d 65 14 8f 3d
       0.05729724 0.08006614 0.1096557 0.06986312
0001a0 94 f6 03 3e 45 70 75 3c 92 46 82 bd 1e 88 37 3e
       0.12887031 0.01498038 -0.063611165 0.17923018
0001b0 c4 ed a0 3d 9c 0b c0 bd 1e 12 c4 3d 1f be 35 3d
       0.0785785 -0.09377214 0.09573768 0.044370767
0001c0 44 a8 b8 bd 79 16 c5 bd 01 73 a6 3d ad 09 19 be
       -0.09016469 -0.09623427 0.08127404 -0.14945097
0001d0 7d aa 9a bd b3 df 1b be 6a 2f 08 3d 7a 23 fe bc
       -0.07552049 -0.15222053 0.033248343 -0.031022776
0001e0 cf 64 e4 3c 34 12 23 be 3a e6 f0 bd 68 3b 1c be
       0.0278801 -0.15924913 -0.11762662 -0.15257037
0001f0 37 48 5f 3d c3 b4 f4 3d ba 5a 1a 3d cc e1 14 be
       0.05451223 0.1194854 0.03768418 -0.1453926
000200 4a d4 25 3e 14 ed 22 be b0 26 4b bd 33 47 bd 3a
       0.16194263 -0.1591075 -0.049597442 0.0014440775
000210 e9 c9 e7 3c b4 d7 16 3e 06 96 00 be 79 41 35 3e
       0.02829452 0.14730722 -0.1255723 0.17700757
000220 c6 ac 35 3d 15 ca 0f be 61 41 6d 3c 53 6a 04 be
       0.044354223 -0.14041932 0.01448092 -0.12931184
000230 75 da 4d bd c4 db 25 3e df f1 e4 bd 0f c5 2e 3e
       -0.050257165 0.16197115 -0.11178946 0.1706736
000240 65 fc a8 3c b3 b9 c5 3d f0 cc e7 bd 94 13 c6 bd
       0.020628164 0.0965456 -0.113183856 -0.09671703
000250 36 2d df bc 81 8e 97 bd 68 72 1a 3e fb 13 ad 3d
       -0.027243238 -0.07400227 0.15082705 0.084510766
000260 e4 e4 86 bd 6a b7 30 be 3f 07 15 3e 4d f0 7e bc
       -0.06586626 -0.17257467 0.14553545 -0.015560222
000270 8f a6 26 be 57 ec 2a 3e e6 c3 7d bd 55 4d e9 bc
       -0.16274475 0.16691719 -0.0619544 -0.028479258
000280 99 3b 17 3e 25 80 02 bd af 8c d0 ba 72 de 2e 3e
       0.14768828 -0.03186049 -0.0015911068 0.17077044
000290 c0 82 17 3e df 70 21 3e bb d3 3b bd 48 c9 0a be
       0.14795971 0.15765713 -0.04585622 -0.13553345
0002a0 4f 93 70 3d 20 58 84 bd b6 fe ab bd de fc 28 3e
       0.058734234 -0.06462121 -0.08398192 0.16502711
0002b0 a3 8c 1e 3e ea c5 84 bb e2 c4 3e 3d 5c 43 fd 3d
       0.15483336 -0.0040519135 0.04657448 0.123663634
0002c0 75 14 0b be ac f2 d6 3d 80 29 16 3d 35 03 f8 bd
       -0.13582022 0.10495505 0.03666067 -0.12109987
0002d0 51 f9 21 3e 86 31 12 be 1f 0b 0b 3e 26 e8 66 3d
       0.15817763 -0.14276704 0.13578461 0.056373738
0002e0 cc 79 8d bb 2a 68 c2 bd 65 b5 94 bd 6b 24 35 be
       -0.004317498 -0.09492524 -0.07261161 -0.17689674
0002f0 f9 5e ee 3d d8 b5 43 3d d9 7a 7e bc 15 1f 1c 3e
       0.11639208 0.04778084 -0.015532219 0.15246232
000300 c4 48 0b bd 11 c3 08 bc f2 b2 86 3b e2 6d 9b 3d
       -0.03400494 -0.008347289 0.0041106874 0.07589318
000310 81 8d 2f be c0 2d 2e be 2a 2e 84 bd 7e f7 2f be
       -0.17143823 -0.1700964 -0.064541176 -0.17184255
000320 6c d8 58 3d ac 4a e6 bc 8f 9e 50 3d 2d 12 c4 3d
       0.05294077 -0.028111778 0.050932463 0.09573779
000330 35 1f 34 3d 69 da 86 3d ac 78 b1 bc 16 35 13 3e
       0.043975074 0.06584627 -0.021663986 0.1437572
000340 df b0 7b 3d 45 a9 e8 bd 82 a1 42 3d b4 e2 31 be
       0.061447974 -0.113604106 0.047517307 -0.17371637
000350 7b f4 09 3e f0 7f c5 bd 16 91 2d 3e f6 75 a8 bd
       0.13472168 -0.09643543 0.16949877 -0.08225624
000360 56 14 2f 3e d4 80 2f be a8 5e 6a 3d 58 12 1e be
       0.17097601 -0.17138988 0.057219177 -0.15436685
000370 93 62 24 bc 41 63 a1 3c 9b b7 e3 3d 5c 22 ad bd
       -0.010033268 0.019700648 0.11119004 -0.08453819
000380 8b 72 02 be 95 6c ff bd 68 5e 98 bd c9 27 c8 3b
       -0.12739007 -0.12471882 -0.074398816 0.0061082584
000390 af cd 5a bd bc c7 32 3e 05 a0 88 bc 7a c4 15 3e
       -0.05341881 0.17459005 -0.016677866 0.14625731
0003a0 c1 0d 1e 3e 78 a5 dc 3d ae d0 2b be 87 95 16 3e
       0.15434934 0.10773748 -0.16778824 0.14705478
0003b0 19 54 c2 bc b0 d5 05 3d d2 68 34 3e 17 fe be 3d
       -0.023721742 0.03267449 0.17618111 0.093258075
0003c0 87 b1 9a 3d 10 d0 26 3e 82 92 09 3e e7 eb 1f 3e
       0.07553392 0.16290307 0.13434795 0.15617333
0003d0 fa 76 4d bd f7 34 c4 3c f9 28 25 3e 41 eb 12 be
       -0.050162293 0.023951037 0.16128911 -0.14347555
0003e0 6d fa 17 be fa 26 4f 3c 43 ad 11 3e 68 6f 38 be
       -0.14841624 0.01264357 0.1422625 -0.18011248
0003f0 0a d7 37 bd fc 90 fb bd 44 70 82 bc 83 12 6d 3d
       -0.04488281 -0.12283513 -0.015922673 0.057878982

tNN.4.bias f4 [64]
000000 a6 f3 8b 3d d2 e8 ff 3d d3 34 e4 3b 86 38 17 be
       0.068335816 0.12495579 0.006964305 -0.14767656
000010 93 73 80 bd 9a de cf 3c fb 7c 0c be b6 18 4f bc
       -0.06272044 0.0253747 -0.13719551 -0.012640169
000020 06 56 26 3e a3 d7 00 3e 64 b1 6a bd 23 73 38 3c
       0.16243753 0.12582259 -0.05729808 0.0112579195
000030 e5 04 da 3b e5 d6 64 bb d4 fe 2f bd ef 3e bb bd
       0.0066534155 -0.0034918126 -0.042967632 -0.09142863
000040 f1 40 19 be b8 62 3c bd f5 9d ff 3d ef fc 43 3c
       -0.1496618 -0.045992583 0.124813 0.01196216
000050 c7 22 a6 3c 9f 7b 6e bc 9b 8f e1 3d 0a 8d e8 bd
       0.020280255 -0.014555841 0.11013719 -0.11355026
000060 ca bf 1b 3e ac 4e 07 bd 18 87 18 3d d6 72 25 3e
       0.1520988 -0.03303401 0.03723821 0.16157088
000070 a3 52 28 3e 5e a2 2c be b5 e5 f2 3c 19 db 65 bd
       0.16437773 -0.16858813 0.029650548 -0.05611715
000080 74 13 b0 bd 76 87 2a 3e e8 c3 14 be 5c 30 1f be
       -0.085974604 0.16653237 -0.14527857 -0.15545791
000090 c5 37 bd bd 2b 91 3a 3b 0f e3 03 3e 74 7c b6 bc
       -0.09239153 0.0028467875 0.12879585 -0.02227614
0000a0 b5 7e 22 3b 8f 99 d9 bd 04 6f e3 3d 39 c5 9e bd
       0.0024794762 -0.10624992 0.11105159 -0.07752461
0000b0 ce 3c 28 3e cf 4c b0 bd 14 4f 23 bd e3 f4 57 bd
       0.16429445 -0.086084 -0.039870337 -0.052723777
0000c0 02 97 83 bd 9e 12 ff bd 50 5d 21 3e ba 10 1b be
       -0.06425287 -0.12454723 0.15758252 -0.151431
0000d0 4d 2d b8 bb 94 fb 24 be 7d 43 9d 3d 62 73 2d 3e
       -0.0056206346 -0.16111594 0.07678888 0.16938546
0000e0 d1 b7 b1 3c 59 33 b6 bd c1 b2 0e 3e db 75 27 3e
       0.021694096 -0.088965125 0.13935377 0.16353552
0000f0 73 9b 28 3e fd ea b1 3c 90 1e 28 bd d0 76 62 bd
       0.16465549 0.021718496 -0.04104477 -0.05528909

psi.0.weight f4 [128, 160]
000000 ed 26 ac 3d 02 49 74 bd 0c f1 27 3d 7f 50 38 bd
       0.08405862 -0.05963994 0.041001365 -0.044998642
000010 c9 a0 9d 3d 58 ba 98 3c e9 94 d3 bc 5d e7 2d bc
       0.07696683 0.018643543 -0.025827842 -0.010614243
000020 f0 7d c3 bc 72 41 6a bd da ab 4b 3d 03 77 fa 3c
       -0.023863763 -0.05719132 0.049724437 0.030574327
000030 6b 18 30 bd 76 6f 43 bc 7f 90 58 bc 87 bf 8f bd
       -0.042992037 -0.01192843 -0.013218044 -0.07018953
000040 f7 b9 4a bd 44 0b ab 3d 38 1e 09 3d b2 8c ad 3c
       -0.049493756 0.08351758 0.033476084 0.021185253
000050 54 8b 57 bd df e9 10 bd 0c ab 07 3d b4 d5 11 bd
       -0.052623108 -0.035379287 0.033122107 -0.035604194
000060 f6 cf 62 3d 80 d6 62 3d 2e ec c2 3c 3a 24 7b bd
       0.05537411 0.055380344 0.02379426 -0.061313845
000070 4d d0 0f 3b 44 9a 9b bd 5e 38 76 3d 69 a9 5a bd
       0.0021944225 -0.07597783 0.06011235 -0.05338422
000080 ee 02 03 3d 68 99 1f bc 0e 5d 42 bd 9b 8f 25 3d
       0.031985216 -0.009741165 -0.047452025 0.040420156
000090 97 5e 9e 3b 0d 0f 82 3c c6 c9 35 bd 5f ad db 3c
       0.0048330533 0.015876317 -0.04438188 0.026816068
0000a0 cc 59 90 3c df 53 24 3c 67 6a 43 3d 73 5c 1c 3d
       0.017620943 0.010029762 0.047708895 0.038174104
0000b0 82 7d 83 bd 55 11 ff 3c 49 91 3a bd 00 9b 87 3b
       -0.06420423 0.031136194 -0.04554871 0.0041383505
0000c0 03 98 ad bc 57 d4 83 bd 2f 03 9f 3c 61 4f 82 bd
       -0.021190649 -0.06436985 0.019410698 -0.063627966
0000d0 9f c0 f1 bc 1d b2 76 bd 9a a3 68 3d 59 92 e5 bc
       -0.029510794 -0.060228456 0.056796648 -0.028023886
0000e0 39 a7 05 3c fd 18 a2 3c 8c a8 41 bd f8 b5 60 3d
       0.008157545 0.019787306 -0.04727988 0.05486104
0000f0 df 8d 1e bb 25 18 09 3d aa 07 89 3d de c9 91 3d
       -0.0024193448 0.03347029 0.06690915 0.07118581
000100 c6 2f c3 ba c3 78 a3 3c ff 37 6f 3d 7b 76 60 3d
       -0.0014891557 0.019955045 0.05840301 0.05480049
000110 6a d7 87 bd 90 fa 98 bc 49 26 78 3d d8 a4 82 3d
       -0.06632884 -0.018674165 0.060583387 0.06379098
000120 d0 8b 61 3d 6f c2 91 3d 2a 11 8a 3c 15 6d 03 bd
       0.055064976 0.071171634 0.016853888 -0.03208645
000130 81 0a 0f 3d ad b1 94 bc 26 ec 63 bd 1d ae 84 3c
       0.034922127 -0.018151129 -0.05564513 0.016196305
000140 fe 69 9b 3d cc a8 1d bd dd 1a 32 bd 79 82 27 3c
       0.07588576 -0.038491055 -0.04348265 0.010223978
000150 35 de 1a bc 95 6c 3a 3d 17 d9 c8 3c 30 8c 1a bd
       -0.009452392 0.04551371 0.024517579 -0.03773135
000160 3d 1b 34 3d 74 1e 6c bd 3f fc f5 3b 08 16 a9 3c
       0.04397129 -0.05764623 0.0075068767 0.020640388
000170 e0 fb 45 3d 88 ac 9c 3d 0d 03 5c bd b6 48 49 3c
       0.04833591 0.07650095 -0.053713847 0.012285402
000180 4e 98 14 3c 59 b2 8e bc 5e 97 09 3d 87 4e f3 bc
       0.009069515 -0.017419027 0.03359162 -0.02970053
000190 b9 5c a4 bc 06 d0 87 3d 64 67 4c 3d 45 97 82 3d
       -0.020063745 0.06631474 0.04990329 0.063765086
0001a0 51 3d 14 bd b9 82 b4 3d bf d9 6b 3d 44 d0 fb bb
       -0.03619129 0.08813996 0.057580706 -0.0076847393
0001b0 85 86 6b 3d 9b 50 0b 3d d2 12 8c 3d 6a 73 d6 bc
       0.057501335 0.03401242 0.06839527 -0.02617808
0001c0 4f 27 f1 3c 28 21 a7 bc ae 81 d7 3c ba 6d 92 bc
       0.02943769 -0.020401552 0.026306953 -0.017874587
0001d0 4b 5e 3c 3d cc 99 4f bd 1e 71 85 3d 60 67 6f 3c
       0.045988362 -0.05068378 0.06515716 0.014612049
0001e0 82 8f 38 bd be 7b 16 bd 9d 69 e7 bc 5c 9f 6c 3d
       -0.045058735 -0.036739103 -0.028248603 0.057769164
0001f0 92 a6 37 3d 81 6a 53 bc c8 f9 88 3d fe e9 08 3b
       0.04483659 -0.0129038105 0.06688267 0.0020891423
000200 b9 a0 b4 3c 0a db 4f 3b f2 43 40 3d a0 0d 0e bc
       0.022049295 0.003171625 0.046939798 -0.008670241
000210 18 48 e8 3c ca 1e 5a bb a6 8a d5 bc b7 1f b1 3d
       0.02835469 -0.0033282512 -0.02606709 0.08648627
000220 8c 0f 46 bb 11 7b 91 3d 5b d7 7f bd 65 9e 35 bd
       -0.003022167 0.07103551 -0.06246124 -0.04434051
000230 cc 55 fa bc 1a e0 34 bd 3d 54 b3 3c 57 65 4c bb
       -0.03055849 -0.044159032 0.021890754 -0.0031188333
000240 45 43 54 bd 3a db 12 bb b0 82 9c bc 3e 1f a8 bc
       -0.051821966 -0.0022408501 -0.019105285 -0.02052271
000250 5f d5 a0 bd 2e 30 7a 3c dc db 97 bd cb b4 ae bb
       -0.07853197 0.015270276 -0.07414982 -0.005331611
000260 11 5d 1e bd b9 0d 86 3d 13 82 8f 3c 83 d8 06 3d
       -0.038662974 0.06545586 0.017518079 0.032921325
000270 86 c2 3b bd ea dc 5c bd 0f 50 95 3d e1 e8 d7 3c
       -0.04583981 -0.053921618 0.072906606 0.026356163
000280 64 33 7d bc 63 04 36 ba 6c a5 c6 bc 08 ac 93 bd
       -0.015454147 -0.00069434027 -0.024248801 -0.07210547
000290 56 47 ae 3c 53 e1 82 3d fd 95 a4 bc 95 8f 3c 3d
       0.02127425 0.063906334 -0.020091051 0.046035368
0002a0 4c dd 3d 3d a7 03 27 3d a9 02 64 bd ac 03 d4 bc
       0.046353623 0.040774968 -0.0556666 -0.025880657
0002b0 f6 31 66 bd 11 cc 90 3d 09 0b ef 3b f3 4d 72 bd
       -0.05619999 0.070701726 0.0072950167 -0.05915637
0002c0 48 74 82 3d a2 a2 a6 3d d0 35 a9 bd 96 ff 36 bc
       0.06369835 0.081364885 -0.08262217 -0.011169335
0002d0 11 e1 38 3d b0 99 92 3c 7b 91 29 3d ea a8 80 bd
       0.045136515 0.01789555 0.041398507 -0.06282218
0002e0 c2 b9 1c 3b 89 fd 85 bd 25 29 9a bc 4b 25 83 bd
       0.0023914431 -0.065424986 -0.018818447 -0.064035974
0002f0 18 5d 70 3d 43 07 87 bd 9a a0 1c bd 48 56 0a 3d
       0.05868253 -0.06593182 -0.0382391 0.03377369
000300 5d db 9b bd 35 a7 2e bd 14 bd 15 3d 7b cc 41 3d
       -0.076101996 -0.04263993 0.036557272 0.04731415
000310 e1 b8 c6 3c 10 5c a2 bd d9 87 44 3d ef d8 97 bc
       0.024258079 -0.07927716 0.047981117 -0.01853606
000320 d0 35 7f 3d e7 28 42 3d 4f e4 1d 3d f1 53 51 3d
       0.06230718 0.04740229 0.03854781 0.051105443
000330 20 24 ee bc 19 3f f4 3c 02 7e 10 3d 67 d8 ff ba
       -0.02906996 0.029815244 0.03527642 -0.0019519449
000340 3c 9d 84 bc 42 f1 c6 3c 02 72 e2 3c 75 13 19 bc
       -0.016188256 0.024284963 0.027642254 -0.009343018
000350 b6 7e 23 bc fa c8 a6 3d c1 1a 27 3c a0 f8 d4 bc
       -0.009978941 0.08143802 0.01019925 -0.02599746
000360 06 53 45 bc 37 aa 87 bd 6b 35 76 3d 9e e2 5e bc
       -0.01204372 -0.06624263 0.060109537 -0.013603834
000370 d3 e0 3c 3d 00 3d 3b 3d 11 ca 87 3d 9c 79 57 bd
       0.046112847 0.04571247 0.06630338 -0.05260621
000380 3d ae 67 bb 03 6e 42 3d 65 f6 78 bd 31 e0 77 3d
       -0.0035351657 0.047468197 -0.060781855 0.06051654
000390 00 bf 8d bd 6f e8 d7 bb a9 be 46 3d 2d 15 23 bd
       -0.06921196 -0.0065889875 0.04852167 -0.039815117
0003a0 74 77 c9 ba 67 92 db 3c 53 4d 96 3d a4 51 c0 bc
       -0.0015370683 0.026803209 0.07338967 -0.02347643
0003b0 a3 43 9b bd 11 73 20 bd 65 d6 aa 3d ac b4 38 bd
       -0.0758126 -0.039172236 0.08341674 -0.045094177
0003c0 41 23 1c bd d9 51 24 3c cc 01 39 bd d9 9c 33 bd
       -0.03811956 0.01002928 -0.04516773 -0.043850753
0003d0 59 54 3c bc 56 9b 39 3d 25 4e 73 bd 84 ec 80 3d
       -0.011494719 0.045314156 -0.059400696 0.06295112
0003e0 d1 0c 29 bc 4a 03 31 3c e7 1e 81 3d 20 0c 80 3c
       -0.010317997 0.010804007 0.06304722 0.015630782
0003f0 3b cb 87 3d ae ed 92 bd 6d b0 f7 3c 2b 74 bc 3c
       0.0663056 -0.0717424 0.030235494 0.023004612

psi.0.bias f4 [128]
000000 72 a3 53 3c 4f b7 92 3c d6 f4 0d bd 11 e3 bd 3b
       0.012917386 0.017909674 -0.034657322 0.0057948907
000010 eb 56 e6 bb a7 78 50 bc b3 99 98 bc a9 c4 6c 3d
       -0.0070294044 -0.012724078 -0.018627977 0.057804737
000020 23 cc fa 3c 7e 1f 5d bd 72 43 c6 bb 91 a7 3b bd
       0.030614918 -0.05398511 -0.0060505206 -0.0458141
000030 af 5a 7e 39 8d 94 1d 3d 65 c7 ae 3c b6 cf 2e bc
       0.0002425711 0.038471747 0.021335313 -0.010669639
000040 41 ac 07 ba 99 a0 27 bc 86 91 79 39 46 c1 9c bd
       -0.0005175509 -0.010231161 0.00023800702 -0.076540515
000050 f8 89 3f bd fc e8 47 bc 32 5e 83 3d 08 06 a3 bd
       -0.046762437 -0.012201544 0.06414451 -0.07960135
000060 5b c8 ff bc 5b 8b 2a bd 2a a3 77 3d 13 8d f1 3c
       -0.031223467 -0.041636806 0.06045834 0.029486215
000070 dc fd 87 3d 76 d0 eb bc d3 2c 91 3d f3 ea a3 3d
       0.06640217 -0.028785925 0.07088628 0.080037974
000080 d7 75 a4 3d 62 50 78 3c 0a 5a 98 bd 62 7a 25 bd
       0.08030289 0.0151558835 -0.074390486 -0.040399916
000090 4a 78 5d bd 0a 1d 51 3d ac b6 4e bd 65 0e 98 3d
       -0.054069795 0.051053084 -0.05046718 0.074246205
0000a0 fa a1 84 bd ba 31 89 3d f8 1f 4d 3d 06 0b 6b 3d
       -0.06476207 0.06698938 0.050079316 0.05738356
0000b0 5f d0 89 bd 5f ee 89 bb 4e 90 26 3d 0f cf 96 bc
       -0.06729197 -0.0042093243 0.040664963 -0.01840928
0000c0 fe eb 85 3d ac 64 2f 3d 62 3e 98 bd 15 78 26 bd
       0.065391526 0.042820618 -0.074337736 -0.040641863
0000d0 40 82 3a 3c 36 c5 0e 3d dc bf 08 3d 53 03 55 3d
       0.011383593 0.034856044 0.033386096 0.052005123
0000e0 5b 51 92 3d 1c f8 92 3d 49 fe c4 bb ef aa 9e 3d
       0.071444236 0.07176229 -0.0060117585 0.07747447
0000f0 ac b6 0e 3d ca 04 69 bd ac 07 81 3c a1 e8 8f 3d
       0.03484218 -0.056889333 0.015750729 0.07026792
000100 af ac 44 bd cc 82 b0 3d d7 6c 1d bd d2 d2 ec bc
       -0.048016246 0.086186975 -0.038433876 -0.02890912
000110 93 c5 d7 bb 80 90 b8 3c a0 ae 8c 3d 64 b3 4b 3d
       -0.006584832 0.02252984 0.068692446 0.049731627
000120 8c 82 86 3b 5e 3a 18 3d 55 a8 25 3d cd df 91 bd
       0.004104918 0.03716504 0.040443737 -0.07122765
000130 fa 8a 05 3d 47 85 79 bd 49 30 dd bc 24 98 60 3d
       0.03260324 -0.06091812 -0.027000563 0.054832593
000140 a8 5c aa 3c cd 16 c1 3c a7 2c 59 bd e4 5a 8a 3d
       0.020796135 0.023570443 -0.0530211 0.06755617
000150 2a 53 66 3d a1 bc 8a 3c 7d 15 d4 3c d8 09 43 bd
       0.056231655 0.016935648 0.025889153 -0.04761681
000160 a3 04 fc 3c d3 a5 75 bd 1c 24 38 3d 7f c0 1f bd
       0.03076393 -0.059972595 0.04495631 -0.039001938
000170 27 4c 90 3d 0f 31 f7 3b fa 34 db bc 18 08 2c bd
       0.07045775 0.00754369 -0.02675866 -0.041999906
000180 f7 1f bc 3c d2 8e 99 bb 84 a8 03 bd 00 ba 82 3d
       0.02296446 -0.004686215 -0.03214313 0.06383133
000190 7a 46 4c bd e8 39 a8 bd ae 35 22 3d f2 d6 14 3d
       -0.0498719 -0.0821417 0.039601974 0.0363378
0001a0 40 3d b1 3c d1 1e 14 3c d9 aa 78 3a 55 ba bf bb
       0.021635652 0.00904055 0.00094859075 -0.00585107
0001b0 9e 85 9e bd e6 82 83 bc f0 90 95 3c 60 8c 46 3d
       -0.07740329 -0.016053628 0.018257588 0.048473716
0001c0 4f ab a2 3d d0 21 c7 3b b1 3c 8e bd 77 79 e4 3c
       0.07942831 0.006077029 -0.0694517 0.02788995
0001d0 d5 f7 13 3d a7 97 36 bd 27 ac 49 3d 13 c6 f6 bc
       0.036125023 -0.04457822 0.049236443 -0.030123746
0001e0 3c 04 75 bd 6f 24 a9 bc ef bb d2 bc be f9 9f 3d
       -0.05981849 -0.020647256 -0.02572438 0.078113064
0001f0 1b e1 90 3d 83 3c 9c 3d d1 80 0c 3d 45 03 08 bc
       0.070741855 0.07628729 0.034302536 -0.008301561

psi.2.weight f4 [64, 128]
000000 b3 5d 1a 3d 78 ab 9e bd df 1f 6a 3d c6 82 7e bd
       0.037687015 -0.07747549 0.0571593 -0.062136434
000010 df 58 26 bc 2c b8 15 3d 0b 06 fe 3c 57 4e 9f bd
       -0.010153024 0.036552593 0.03100874 -0.07778614
000020 eb 40 b4 bd aa 9e 41 3d bb c4 09 bc 89 c5 12 bd
       -0.088014446 0.047270454 -0.008408721 -0.035832915
000030 21 08 c9 3c 56 e4 86 3d 41 73 ef 3c ee a8 9b bd
       0.024540009 0.065865204 0.029229762 -0.0760058
000040 8e d8 b3 bd 1a 82 94 3d 5c ae 7a bd 27 70 a2 bc
       -0.08781539 0.072513774 -0.06120144 -0.019828869
000050 6c 4f 38 3d 04 63 42 bd 03 b1 82 3d 10 3e bd bc
       0.044997618 -0.04745771 0.063814186 -0.023100883
000060 ed f0 8a bc aa 16 99 bc 68 d2 7d 3d f1 b9 4d 3d
       -0.016960585 -0.018687565 0.061968237 0.050226156
000070 23 33 9f bd aa 23 e2 3b 82 7e a4 bc 2b 0b f5 bc
       -0.077734254 0.006901224 -0.020079855 -0.029912552
000080 4d 94 53 bd de cb 6d 3d 0d 6c 25 3d 47 5c e5 bc
       -0.051655103 0.05805575 0.04038625 -0.027998103
000090 84 ba a5 3c 36 38 80 3d 33 d4 a7 bd 76 33 d5 bc
       0.02023054 0.062607214 -0.08194771 -0.026025515
0000a0 90 ea d6 39 f4 99 86 3d 33 aa 94 bd 84 ec 97 bd
       0.00040992023 0.06572333 -0.072590254 -0.07418159
0000b0 d8 a2 9a 3c 8a dd 1f 3d d2 d2 74 bd 1f d6 b6 3d
       0.018876478 0.039029635 -0.059771366 0.08927559
0000c0 05 6a bc bd 87 42 2f bd ff 70 62 3d 58 e8 cb bc
       -0.09199909 -0.042788055 0.055283543 -0.024891064
0000d0 f4 ca 2c bd 62 bd 0f bd 39 38 67 bb 89 b6 b3 bd
       -0.04218574 -0.03509272 -0.0035281314 -0.0877505
0000e0 c6 56 97 3c 1e 67 84 3d f4 42 f4 bb b1 d2 80 bd
       0.018473994 0.064649805 -0.0074542705 -0.06290186
0000f0 7a fc a4 3d ca 8e 8b 3d c0 d0 ae bd 38 59 90 3d
       0.080559686 0.06814344 -0.0853591 0.07048267
000100 eb e7 a8 3d f6 f9 e8 bc ee 39 69 bc c1 69 af 3d
       0.0824736 -0.028439503 -0.014235003 0.08565093
000110 f6 2b 88 bd bd bd 95 bc bd bf 9e 3d 81 e8 a0 bb
       -0.0664901 -0.01827895 0.07751415 -0.004910529
000120 e4 32 50 bd b8 e1 95 3d d9 1d 9d 3d cc aa 95 bd
       -0.050829783 0.07318443 0.076717086 -0.073079675
000130 d9 a1 a7 3c d2 1b 72 3d eb 7f 41 3d 8b 68 7a bd
       0.020462917 0.059108563 0.047241133 -0.061134856
000140 5b b6 88 3d 1a d6 44 3c 0a 74 1d bd d8 b3 98 3d
       0.066754065 0.012013936 -0.03844074 0.074561775
000150 f5 b9 e1 3c 34 f7 3e 3d 6a 12 59 3d 66 95 39 3d
       0.027554492 0.04662247 0.052996077 0.045308493
000160 4e 7f d8 3c 1e 89 85 3d 2e df 51 3d a4 be 20 bd
       0.026427891 0.06520294 0.05123823 -0.03924431
000170 69 54 a6 3d da 24 44 3d 49 5d 97 bc b6 b4 a3 3c
       0.08121569 0.047886707 -0.018477099 0.01998363
000180 31 97 5a bd ef 6e 30 bd fb 25 76 bd b8 ee a8 bd
       -0.053366844 -0.043074545 -0.060094815 -0.08248657
000190 9b 87 f7 bc d0 f5 2c 3d 16 ab 04 bd d7 ea 99 bc
       -0.030216029 0.042226613 -0.032389723 -0.018788738
0001a0 f0 35 16 bd b0 38 e6 bc 02 b3 a2 3d fd 53 e7 bb
       -0.036672533 -0.028103203 0.07944299 -0.0070595727
0001b0 b3 42 9c bb c7 21 75 bd 49 2d 09 bd ab fa 85 bd
       -0.0047686934 -0.059846666 -0.033490453 -0.06541952
0001c0 02 a9 be bd 9f 31 3b 3d ad 34 62 bd c6 4f 4a bd
       -0.093095794 0.04570162 -0.055226017 -0.049392484
0001d0 67 80 af 3d 1f 1c 89 3d 39 b7 f6 ba fe 2d 96 bc
       0.08569413 0.06694817 -0.0018822915 -0.018332478
0001e0 65 ff 86 bd 63 91 8b bd f2 31 fc 3b 9e 0d 68 bc
       -0.065916814 -0.0681484 0.0076963836 -0.014163403
0001f0 87 a0 83 bd 6a 2c a8 3d ef f9 9e bd 41 78 2d 3d
       -0.064271025 0.08211596 -0.07762515 0.04235101
000200 23 43 05 bd 36 44 5c bc 16 7e 07 3d 0d 2e 9f bc
       -0.03253473 -0.013443997 0.03307923 -0.019431138
000210 48 0b 1e 3d 5e d3 18 3d d1 ac 1b bd 77 6c c5 3c
       0.038584977 0.03731095 -0.038006607 0.024099572
000220 05 f7 97 3d 38 09 74 bd ec 52 95 3d 42 52 dc bc
       0.07420162 -0.059579104 0.07291207 -0.026894692
000230 67 57 a4 3d 36 ee 10 bd 65 38 84 3b 2f 2e 5b 3d
       0.08024483 -0.035383426 0.004035043 0.05351084
000240 04 b2 ce bb 25 84 07 3c f4 ab f8 bc 1c fd ab bd
       -0.006307842 0.008271252 -0.030355431 -0.08397886
000250 d1 58 0b 3d 6b 61 6a 3d a6 a5 1e 3d 15 96 7e bd
       0.03402025 0.05722181 0.038732193 -0.062154848
000260 65 be 26 bd e3 17 93 bd bd c7 10 3d 2e 7e 80 bd
       -0.040708918 -0.071822904 0.035346735 -0.06274067
000270 13 14 86 bc dd fc b3 3c 89 94 b1 3d 65 3c 4e 3d
       -0.016366994 0.02197116 0.08670909 0.050350565
000280 9c c6 26 bc f9 2c c3 3d fb 4d a2 bd 74 b7 55 bd
       -0.010179188 0.09530062 -0.0792503 -0.052176908
000290 46 8d 4f bd 81 e2 55 bb 71 eb ae 3d c4 d2 96 3c
       -0.05067184 -0.0032636228 0.08541001 0.018411048
0002a0 35 c6 01 3d 78 a2 f9 bc ef 03 60 bd 74 ce 84 bc
       0.031683166 -0.030472979 -0.05469125 -0.016211726
0002b0 8a 69 82 bc 0e 77 9d bd 2b 54 3b bd ae 95 b9 bc
       -0.015919466 -0.076887235 -0.045734566 -0.02265438
0002c0 88 7e 8f bd cb a3 96 bd 16 d2 8b bd 78 60 a6 3d
       -0.07006556 -0.0735546 -0.0682718 0.08123869
0002d0 71 ae 80 3b 16 18 75 bc d6 da b6 3d 78 1a 87 3d
       0.003927045 -0.014959356 0.089284584 0.065968454
0002e0 00 50 9a 3b 06 e0 1e bd 64 2f 8b 3d 31 3b 0a bd
       0.004709244 -0.038787864 0.067961484 -0.033747856
0002f0 2f 09 56 bd 24 99 a5 bd 77 a3 bc 3d ad ae b6 bd
       -0.052254852 -0.0808585 0.09210866 -0.089200355
000300 be 67 ac bb 7d 89 94 bd eb ef 97 3c 3b fd 0f bd
       -0.0052613905 -0.07252786 0.018547019 -0.03515361
000310 02 62 ff 3c 78 0b 74 3d 4b d6 99 3d 81 27 c8 3c
       0.031174663 0.05958125 0.07511576 0.0244329
000320 44 17 98 3d e3 7e 17 bd 49 b8 89 3d e6 7b cc 3c
       0.074263126 -0.036986243 0.06724603 0.024961423
000330 d9 a3 94 bd 3c 3c f6 bc 8e 52 17 bd d7 ef 56 bd
       -0.07257814 -0.030058019 -0.036943965 -0.052474823
000340 30 f9 9d 3c 5d 9e 5a bc 58 aa b7 bd 0d 42 8a 3d
       0.01928386 -0.013343421 -0.08968037 0.067508794
000350 3b 2a 89 bc 30 0d e4 bc b9 95 59 3d 27 6a ad 3c
       -0.01674377 -0.02783832 0.053121302 0.021168781
000360 6b cc 6d bc 14 6a b9 bc d3 87 ad 3b d5 87 21 bd
       -0.014514069 -0.02263359 0.0052957325 -0.03943618
000370 fb 37 58 3c 1b 9a c0 bc 7e 55 ee b9 5d fb 04 bb
       0.0131969405 -0.023510983 -0.00045458594 -0.0020291426
000380 a7 3d 63 3d 80 cb 83 3d a9 70 0b bd 92 fc b8 bc
       0.055478718 0.06435299 -0.034042988 -0.022581372
000390 7e b1 a3 3b 97 4c 6a bd 63 6e 77 3d dd 11 85 bc
       0.004995524 -0.057201948 0.060408007 -0.01624387
0003a0 b5 32 dc 3c e3 97 0b bd 2d f9 6b 3d d2 be 00 bd
       0.026879648 -0.034080397 0.05761068 -0.03143198
0003b0 1b c8 69 3d 88 a3 b7 3c 4a 55 0e 3d fd 63 a7 3d
       0.0570756 0.022416845 0.034749307 0.08173368
0003c0 9a a3 9b bd 41 32 5a bc 28 92 a9 bd 0f dd f5 bc
       -0.07599564 -0.0133176455 -0.0827983 -0.030012636
0003d0 ac 34 9c bd 6f d9 97 bd 92 ea 01 3d 5e 49 29 bd
       -0.07627234 -0.07414519 0.031717844 -0.041329734
0003e0 b7 5d 9d 3d ea f9 a2 bd 79 de 1b 3c e0 dc 65 3d
       0.0768389 -0.079578236 0.009513491 0.056118846
0003f0 f0 a5 e2 bc 56 c0 b4 bc 6c 27 99 3d 97 86 84 3c
       -0.027667016 -0.02206437 0.07478222 0.016177459

psi.2.bias f4 [64]
000000 b8 34 9a bd 18 7e 6b bd d6 23 ba bb 2d 37 27 3c
       -0.075295866 -0.0574933 -0.0056805415 0.010206026
000010 0c ae 84 3d da 54 5f bd 5e 9a 5c 3d 02 02 8b bc
       0.06478509 -0.05452428 0.053858154 -0.01696873
000020 72 23 a7 bd dc fe a4 3c 9a 65 6b bd 37 08 17 bc
       -0.081610575 0.020141058 -0.05746994 -0.009218267
000030 63 5d a6 3c 95 f7 28 bd 24 66 61 3d 9e 34 89 3d
       0.020308202 -0.041251738 0.05502905 0.06699489
000040 52 99 fc bc ba 26 cc bc 44 44 65 3d e5 59 9b bd
       -0.030834828 -0.02492081 0.055973306 -0.075855054
000050 2a 86 29 3b bd fa bc bc 80 b2 07 3d de 37 47 3d
       0.0025867322 -0.02306878 0.033129215 0.048637263
000060 71 08 3f bd 97 fd ad 3d ad f5 f9 bc fa e1 07 3c
       -0.04663891 0.08495634 -0.030512655 0.008293623
000070 f2 df 3a 3d 0f 13 39 bd c3 71 8f bd 5c 7a 4c 3d
       0.045623727 -0.04518419 -0.0700412 0.04992138
000080 3d a2 59 3d 2c 6c ef bc 9e ab 53 3c 4e 0d 71 bd
       0.053133238 -0.029226385 0.012919335 -0.05885058
000090 38 bf 7e bd 9b 0d 00 bd b8 38 55 3d 15 4d 6a 3d
       -0.06219408 -0.031262975 0.052056044 0.057202417
0000a0 3d 15 ae bc c8 ff 04 bc 5f 50 ae 3d b2 40 76 3d
       -0.021250362 -0.008117624 0.08511423 0.060120292
0000b0 df 19 9b 3a 45 1c ae 3d 0e af fa 3c 84 2f c0 bc
       0.0011833272 0.08501486 0.03060105 -0.023460157
0000c0 98 dd f3 3c 55 86 5f 3d c7 79 cd bc 09 16 91 3d
       0.02976875 0.05457147 -0.025082482 0.07084281
0000d0 9a 27 08 bd 8f fe 54 3c 26 8b c5 3c f4 96 09 bc
       -0.033240892 0.013000145 0.024114203 -0.008397806
0000e0 45 bc 43 bd 95 46 1e bc 8f 51 27 bd f0 99 96 bc
       -0.04778697 -0.009660383 -0.040849265 -0.01838395
0000f0 90 92 06 3d d7 b7 25 3d 72 09 a0 bd 8e 23 a9 3d
       0.032854617 0.040458526 -0.078143016 0.08258735

psi.4.weight f4 [2, 64]
000000 de 5e 70 3d 48 c9 a5 bd 04 45 33 bb 6e f7 63 3d
       0.058684222 -0.08095032 -0.002735437 0.05565589
000010 62 cb e4 bd 49 00 ac bd a9 f3 e3 bd d8 14 c0 bd
       -0.11171605 -0.08398492 -0.11130459 -0.09378976
000020 00 37 1d bd 32 ef 9e 3d b1 0d 3c bc 10 73 da bd
       -0.03838253 0.07760467 -0.011477874 -0.10666478
000030 e8 1f 3f bc c5 8b c7 3d 46 e2 ee 3b dd 1c 9f bd
       -0.011665322 0.09743456 0.0072901575 -0.07769177
000040 f6 8c cf bd af 51 97 3d 5d 6a b1 bc fc a8 ed bc
       -0.10134308 0.07388627 -0.021657163 -0.029011242
000050 90 c8 4a 3d 7b 66 aa bb 99 e5 d6 bd c2 79 dc bd
       0.049507678 -0.005200205 -0.10493011 -0.10765411
000060 a0 55 84 bb 72 e0 c2 3c d3 8f e0 3d d0 73 d2 3b
       -0.0040385276 0.023788664 0.10964932 0.0064224973
000070 4d fc df 3d b0 58 d1 bc c0 ec 0b 3d bb ce 21 3d
       0.109367944 -0.025554985 0.03416133 0.039503794
000080 69 63 cb 3d 7e 5f 86 bd 6c c1 00 3d 3b 0f b2 bd
       0.0993107 -0.065611824 0.03143446 -0.08694311
000090 7d d4 a8 bd d4 db 90 3d 48 56 08 bc 94 19 73 bb
       -0.08243654 0.07073179 -0.008321352 -0.0037094103
0000a0 bf 2f a8 bd 3c 8d ab 3d 45 3c d1 3d 09 21 9e bd
       -0.08212232 0.08376548 0.102165736 -0.07721145
0000b0 0e 2e ed 3d 0d 13 b8 3c dd 9b 2e bd 3c ca 27 3d
       0.1158105 0.022470022 -0.04262911 0.04096435
0000c0 20 5d d8 3d d0 3a 3c 3d 13 8e 9f 3c 39 75 0d 3d
       0.10564637 0.045954525 0.019476926 0.03453562
0000d0 61 6d 79 bd 18 69 f2 3c 4e ec 18 bd 5b 62 ba bd
       -0.060895327 0.029591128 -0.037334733 -0.09100791
0000e0 32 1d 59 3d 03 22 f0 bd 5a 6e 75 bd 66 bb ab 3d
       0.05300636 -0.11725237 -0.059919693 0.08385353
0000f0 8e db 3d 3d bd aa 4b 3d ce 58 f0 bd 9b af 4f bc
       0.04635196 0.049723376 -0.11735688 -0.012676145
000100 35 ca 19 3d 4e a6 0b ba 48 5e d6 bd b5 5e c3 3d
       0.037546355 -0.00053272105 -0.104672015 0.09539548
000110 ec 44 0a bd e3 c4 b5 bd 69 ab 8b bd c3 ab 1c bd
       -0.033757135 -0.08875444 -0.06819803 -0.038249742
000120 f2 dd ba 3c fd f5 9f bd ae 2d c3 3d 5e 5f 64 bb
       0.02281091 -0.078105904 0.09530197 -0.0034846882
000130 c1 72 0d 3d eb ef 0e 3d 84 98 a5 3d 0e 9d 1b bc
       0.034533266 0.034896772 0.08085731 -0.009497894
000140 3e ea 05 3e e3 0e 57 bd c3 7f 18 bd 0a d0 03 be
       0.13077638 -0.05250443 -0.037231218 -0.1287233
000150 f2 05 6a bd 09 c2 a4 3b ee 2e de bc f7 9d c5 3c
       -0.057134576 0.0050280136 -0.027121987 0.024123175
000160 54 45 bc bd f7 c8 04 3e c9 54 b3 3d d5 cf da 3d
       -0.09192911 0.12967287 0.08756406 0.10684172
000170 05 6b 3c 3d f4 3b 7c bd 30 56 c0 bc 4e 6a c4 bd
       0.0460005 -0.061580613 -0.023478597 -0.095905885
000180 e0 93 e7 bd 0d 7b d0 3d 70 04 c3 bd 99 3e 9b bd
       -0.11307502 0.1017972 -0.09522331 -0.07580299
000190 69 7a 78 bd 80 00 53 bd 86 28 f2 bd 81 3c 96 bb
       -0.060663614 -0.05151415 -0.118241355 -0.0045848493
0001a0 60 51 91 bd 8f c5 81 3d 51 1a 4a 3d ee 7c c5 bd
       -0.07095599 0.063365094 0.049341504 -0.09642969
0001b0 fd 1d 04 3e 0a 78 06 3e b8 c2 18 bc 0e 3b 8a bd
       0.12902065 0.13131729 -0.009323768 -0.06749545
0001c0 5c 69 dc 3d 63 93 97 3d e2 ce 50 bd ac e6 2d bd
       0.10762283 0.07401159 -0.05097855 -0.042456314
0001d0 d8 66 0c 3d 5a f2 bd 3d 9e 47 8c bd 99 36 dc bd
       0.034277767 0.092747405 -0.068495974 -0.10752601
0001e0 47 f3 d7 3d ea 84 d0 bc ad e0 f6 3a ae 82 ad 3d
       0.10544448 -0.025454003 0.0018835269 0.08472191
0001f0 20 7a b6 3d a6 9b b2 3d b2 e0 8d bd 74 e7 a5 3d
       0.08910012 0.08721094 -0.06927623 0.08100787

psi.4.bias f4 [2]
000000 98 73 56 3d 11 11 49 3d
       0.052356333 0.04908854

exp_avg f4 [8, 1, 2]
000000 f1 99 f5 b3 d9 7b e3 b4 b9 46 cf b4 e4 fc a3 b4
       -1.1436703e-07 -4.2372156e-07 -3.8608212e-07 -3.0545118e-07
000010 7e 2a c9 b4 56 8d b1 33 65 6b 24 33 99 02 ca 32
       -3.7470085e-07 8.2679136e-08 3.82819e-08 2.3517076e-08
000020 7c 8a 32 33 7c 8a 32 b3 54 f0 49 33 af 77 32 b3
       4.1569805e-08 -4.1569805e-08 4.7017537e-08 -4.1552706e-08
000030 6b e0 72 b4 6b e0 72 b4 00 00 00 00 00 00 00 00
       -2.2619649e-07 -2.2619649e-07 0.0 0.0

exp_avg_sq f4 [8, 1, 2]
000000 56 06 93 38 84 5a c1 38 6b a6 2e 38 22 dd d9 37
       7.0106864e-05 9.219817e-05 4.163982e-05 2.5971389e-05
000010 f4 11 ae 38 05 e6 87 38 eb 74 7b 38 09 24 46 37
       8.3003106e-05 6.480146e-05 5.995195e-05 1.181011e-05
000020 22 af 08 37 22 af 08 37 72 58 46 38 38 b8 2a 37
       8.147008e-06 8.147008e-06 4.728925e-05 1.0175681e-05
000030 9d ac 2a 38 9d ac 2a 38 00 00 00 00 00 00 00 00
       4.0691917e-05 4.0691917e-05 0.0 0.0
