lightning_logs/version_5/checkpoints/epoch=4-step=499.ckpt (torch, 398802 bytes, 48 tensors)

lattice_net.0.weight f4 [8, 1, 2]
00000000: 2312 1f3e 0c2c 913e 5d92 453d e541 1f3f
00000010: 3b76 27be acd5 143e 4dab 34be 69bb b0be
00000020: 451d 3b3e ca4f c6be 99e5 cdbe 93c1 96bd
00000030: 2c7a 6fbe ad47 f6be 3dc5 273e 5810 fcbe
0.15534262 0.28353918 0.048235286 0.6220992 -0.16353695 0.14534634 -0.17643471 -0.34517983
0.18272884 -0.3873275 -0.40214232 -0.0736114 -0.23386449 -0.4810156 0.16383834 -0.4923122

lattice_net.0.bias f4 [8]
00000000: 2006 673e fa30 8e3c ce89 22be b732 04bf
00000010: ff03 e7be b69d cfbe 0894 23bf 417c b3be
0.2256093 0.017357338 -0.15872881 -0.51639885 -0.45120236 -0.4055001 -0.6389775 -0.35055736

lattice_net.2.weight f4 [16, 8, 2]
00000000: 6a42 263e 06c3 213e 1248 21be 0a25 1a3e
00000010: aa97 3dbd d159 abbd 5689 f8bd c4e4 b3bd
00000020: b9d9 5c3d e1c4 d5bd 2e3a 263e 18c7 a4bd
00000030: 89a8 f23d e5de 4b3e f7c2 443e f0b6 82be
00000040: 9aa4 30bd 7215 653e 30fb 493e 218a 6ebe
00000050: 3abc 7bbe 199f 273e 447b dfbd f929 a6bd
00000060: 0117 87bd e947 8dbd 9865 09bb 9988 8bbc
00000070: f926 c03d 5f16 3b3e 6eac 883d b59a a4bd
00000080: d1f0 ef3d 3f55 973d a910 2abe 82e3 1f3e
00000090: 33ab e43c 5183 603e d92a 023e ca1a 0b3e
000000a0: b926 62be 9191 f53d a50a 51be b54c 093d
000000b0: c6e8 0a3e 3261 153d 645f 7ebd 0504 173c
000000c0: 3234 e83d 2e5b 47be 2169 e53d 8938 0c3e
000000d0: b0bc ab3d b9d0 2dbe 553b 7b3e 8876 093e
000000e0: 4e90 bebc 846f f33d 6473 0d3d 86af 153e
000000f0: a890 edbc 58a0 13be 8bc6 9b3d 3f6f 25bd
00000100: 8968 f43d 1736 233e 8546 ccbd 3c0a 173e
00000110: 4717 813e 1100 883d bd21 03be dd28 263e
00000120: 5609 fbbc 91d1 1dbe 358f f0bd 8b82 e33d
00000130: 1d29 0a3d 6342 65be 9ce6 a4bd 1198 143e
00000140: 101a acbd cdf6 b4bd 54bc 893d 69e4 003e
00000150: 6d06 f8bd d372 3a3e 079b fcbc 9d99 0a3e
00000160: a551 2ebe bbc7 c93b 9db7 55be 0483 5abe
00000170: f9b5 33be ebc5 49bd cfe3 663e 93bf 8f3c
00000180: fd9f 52be ddc2 253e 7dbe 1ebe fba7 4fbe
00000190: 7873 a53b b658 66be 5db9 d3bd 7cef 2e3e
000001a0: 7c04 f73d 785e 8fbd d771 b1bc fd83 d53d
000001b0: 17b5 373e c584 753e 028a 263e b844 273d
000001c0: 21f2 de3c e856 383e 745e 283e 24ac 233e
000001d0: c142 af3d 2674 37be 2992 d23d 7073 843c
000001e0: b750 d83c ef71 283e 6082 343e 3da1 8fbd
000001f0: 4fa7 993c ed83 debd 4fec 1abe 9603 bebd
00000200: 0c23 26bc 6b31 5a3d 0ca4 223d 04d7 e0bd
00000210: a509 26be 1afe 753e d61b 493d c003 743c
00000220: 6966 3d3e 463b 003e 73a9 47be 2473 f13d
00000230: 6679 61be ae6c 03be 0f7d 443e 5a21 583e
00000240: e698 423e 7f9b 00be aa8e 44bd 8548 573e
00000250: 2214 183e 86e5 743c abe6 4f3e f599 15be
00000260: 1edb 033d ac96 e3bc 2cb7 f93d e8db 29be
00000270: f25c 81be 22d2 023e 9677 6d3c c399 2b3e
00000280: 8119 db3d 9a7d 1e3e 6919 ee3d 9da4 103e
00000290: ae9b 61be c6dc 9dbd f690 1f3e 1cd1 003e
000002a0: d5ca c3bc 83a8 b4bd 85d7 48be 75de 2b3e
000002b0: 7e0e 323e f705 6cbb 8329 70be 9f7a e83d
000002c0: 4058 d53d 1975 1d3d f8b3 1fbe 3173 543e
000002d0: c21f 16be fef4 49be 9221 033e a55b 28be
000002e0: bb20 fabc c967 da3d 1a62 d2bb c228 593e
000002f0: 5452 b93d adb5 b8bd ad41 313e ce3c fa3c
00000300: 0113 cb3d 716c 883d 61d8 8b3d 666f ddbd
00000310: 7c4f 34be 70b5 633e 2204 243e da30 28bc
00000320: 403a 5cbe 5b51 4f3e 1e98 643d 37cd 12bb
00000330: 0b3b 92bc 13aa 4fbc 8057 67be 7947 333e
00000340: 9c32 f8bd 5b4c 8abd f6af 703e ec92 84be
00000350: 5139 c9bd 7848 683e e414 413d b437 90bd
00000360: ffd3 50be 7a35 bbbd daf2 b73d b188 163e
00000370: 612f 0cbe 9ed6 34bd 81f2 73be 7276 cabd
00000380: 15a4 063e 82f3 233e bdc5 99bd adb2 c63d
00000390: 348e 843c 3205 d7bd a3e5 0abe cde1 39bd
000003a0: f0ce 253e b766 083e 837c 3f3e d261 7a3d
000003b0: d86f 933d 37b7 803d ae15 6e3d 96ba 46be
000003c0: 5224 793e dae2 5ebd c050 363e 6e05 f8ba
000003d0: a42e 9aba 7c6f b6bc e139 683e 748e 153e
000003e0: f672 803e f076 f63d f9c7 b6bd 4d2d 3ebd
000003f0: abe8 5dbe 693b f9bd fbcd 103e 35cb debc
0.16236272 0.15797052 -0.15750149 0.15053192 -0.046287216 -0.083667405 -0.1213557 -0.08783868
0.053918574 -0.10437942 0.16233131 -0.080457866 0.11848552 0.19909246 0.19214998 -0.25530195
-0.043125726 0.22371462 0.19724727 -0.2329488 -0.24583521 0.16369285 -0.10912183 -0.081134744
-0.065961845 -0.068984814 -0.0020965096 -0.017032908 0.093824334 0.18270253 0.06673513 -0.080373205
0.11715854 0.07389306 -0.16607918 0.15614131 0.027913665 0.21925093 0.12711658 0.13584438
-0.22085084 0.11990655 -0.20414217 0.03352042 0.13565359 0.036469646 -0.06210269 0.009217267
0.113380805 -0.19468376 0.112016924 0.13693441 0.08385599 -0.16974153 0.24534352 0.13424122
-0.02326217 0.11886504 0.034533873 0.14617738 -0.028999642 -0.14416635 0.076062284 -0.040389296
0.11934001 0.15938602 -0.09974388 0.14749998 0.25213072 0.06640638 -0.12805839 0.16226526
-0.0306441 -0.15411974 -0.117460646 0.111088835 0.033730615 -0.22388606 -0.08051798 0.14511134
-0.084034085 -0.08836136 0.06725374 0.12587132 -0.121106006 0.18207864 -0.030835642 0.13535161
-0.17023332 0.006157843 -0.20870824 -0.21339041 -0.17549886 -0.049261015 0.2254784 0.017547404
-0.20568843 0.16187616 -0.15502353 -0.20278923 0.0050491653 -0.22494778 -0.103380896 0.17083544
0.12061402 -0.0700044 -0.021660728 0.104255654 0.17940174 0.23976429 0.16263583 0.04083702
0.027215065 0.18001902 0.16442281 0.15983635 0.08557654 -0.17915401 0.10281784 0.016168326
0.026405675 0.16449712 0.17627859 -0.07013176 0.018756537 -0.108650066 -0.15129207 -0.09278028
-0.010140192 0.053269785 0.03970723 -0.10978511 -0.16214617 0.24022713 0.049098812 0.014893472
0.18496098 0.12522611 -0.19498233 0.117895395 -0.22018966 -0.12834427 0.19188331 0.21106473
0.19003639 -0.12559317 -0.047987618 0.21023758 0.1485143 0.014947301 0.20302837 -0.14609511
0.03219139 -0.027781807 0.121931404 -0.16587794 -0.25266224 0.12775472 0.014493844 0.16757874
0.10698224 0.154776 0.1162594 0.14125295 -0.22032043 -0.07708125 0.15582642 0.12579769
-0.023900429 -0.088212036 -0.19613464 0.1678408 0.17388341 -0.0036014298 -0.23453335 0.11351513
0.10417223 0.03844175 -0.15595996 0.20747067 -0.14660552 -0.19722363 0.12805775 -0.1644121
-0.030533185 0.10664327 -0.006420386 0.21206954 0.09048906 -0.09019027 0.1731021 0.030546572
0.09915734 0.066613086 0.068283804 -0.10812263 -0.17608446 0.22237182 0.16017202 -0.010265553
-0.21506596 0.20245878 0.055809133 -0.002240015 -0.01785042 -0.012674826 -0.22591972 0.17507733
-0.12119028 -0.06752845 0.23504624 -0.25893342 -0.09825385 0.22683895 0.047139063 -0.070418745
-0.2039337 -0.09141059 0.08981867 0.14700581 -0.13689949 -0.044149987 -0.23822977 -0.09885873
0.1314853 0.1601086 -0.07508419 0.097020485 0.016181089 -0.10499038 -0.13564162 -0.045381356
0.16192222 0.13320433 0.18699841 0.061128445 0.07199067 0.062849455 0.058126144 -0.19407114
0.24330261 -0.05441556 0.17804241 -0.0018922517 -0.0011763168 -0.022269957 0.22678329 0.14605123
0.25087708 0.12034404 -0.089248605 -0.04642992 -0.21670787 -0.12169535 0.14141075 -0.027196506

lattice_net.2.bias f4 [16]
00000000: 4a86 cc3b b6fe 76be 51ad f63d 93c9 083c
00000010: f1ff ec3d 9617 8fbd 154c 04be 28c4 e53d
00000020: f245 3fbd fb50 a03d 6b25 1dbe 0801 2f3e
00000030: 8ca5 693e 6eeb db3d 5a2f 43be 7085 ebbd
0.0062415944 -0.24120602 0.12044776 0.00834884 0.115722544 -0.069869205 -0.12919648 0.112190545
-0.046697564 0.07827946 -0.15346305 0.17090237 0.22817057 0.10738264 -0.19061032 -0.115000606

tNN.0.weight f4 [16, 2]
00000000: 1426 1b3f afc8 2bbf a8cc 0c3f 4043 143f
00000010: 4cb2 943d 72ad 203e 85bc 593c 353b 3cbe
00000020: 07e8 ecbe 0ab8 b7be 9bb8 e43e 6e61 1b3f
00000030: a51c 8e3b a054 acbe d092 133e abd0 e53e
00000040: f504 6a3e a735 f3bd 5bea a53e 62d5 063f
00000050: 28c1 fb3d 0e97 1e3e 63b8 873e 2542 febe
00000060: 43d5 9d3e 0a99 263e 081a fcbe 0acf 86bd
00000070: 9ab7 31bc 0e16 773e d951 d93e 335b 053f
0.6060498 -0.67103094 0.5499978 0.57915115 0.0726057 0.15691164 0.013289575 -0.1838196
-0.46270773 -0.35882598 0.44672093 0.6069554 0.004336911 -0.33658314 0.14411473 0.44885764
0.22853453 -0.11875468 0.32405362 0.52669346 0.12292701 0.1548731 0.26507863 -0.4965984
0.30826768 0.16269317 -0.4923861 -0.06582458 -0.010846997 0.24129507 0.42445257 0.52092284

tNN.0.bias f4 [16]
00000000: 0b14 20be b796 dd3e 73d5 13bf f5fa a33e
00000010: 131d cebe a7c5 dcbc ef1f 833e 0ccf 53be
00000020: b6e0 313f ed97 87be 08c1 0b3f c5ba a5be
00000030: e2da 06bf 4573 2d3f aa8b 04bf 9268 183f
-0.15632646 0.4327905 -0.5774757 0.32027403 -0.40256557 -0.026949717 0.256103 -0.20684451
0.69483507 -0.26483098 0.5459142 -0.32369056 -0.5267774 0.6775401 -0.5177561 0.5953456

tNN.2.weight f4 [32, 16]
00000000: 7bfe 7c3e e985 63bd 24b1 313e fc85 a0bc
00000010: 475b b83a 3ffb e73c e3bd eb3d f6df 5fbe
00000020: 9444 6a3d fc0a 283e 8e9e 053e 9766 1b3e
00000030: f050 9c3d 663d 1b3d a891 56be 0027 293e
00000040: 4776 cbbc 245d 46be 5d30 013d 8735 c63d
00000050: b6f3 03bd f422 19be e8ac 553e e9de 083e
00000060: 9f6a 0cbd 6895 1cbe 9a9a 093d a4a2 83be
00000070: 4031 933d 3de5 773e 72bd 11be 138f c03d
00000080: 6d9e 03be 2526 57be e168 443e dedc 003e
00000090: 1ead 84be 43e0 5abd 2ce4 3d3e 6e5a b23c
000000a0: 67b2 07be 40b7 10bd 3d39 ca3d 2010 093d
000000b0: 7dd3 4c3d 0254 6c3c 93a6 1cbe 3397 983d
000000c0: ef46 15bd 4c59 633d bc74 03be 8e53 40be
000000d0: 7911 7abd e1ad 583e f63d 75be f21e 183e
000000e0: 423f 41be 7e92 42be d665 eb3d 64dc 503c
000000f0: 53da 4abb 0e86 34be c549 ecbc 1cde 123e
00000100: 7e34 1c3e dd90 2dbe 5aa2 553e 8065 17be
00000110: e086 1bbe a1d8 603e b9e2 16be 7ceb 413e
00000120: dc82 52be a640 133e b052 143d 1b55 4ebe
00000130: 97eb babd 256b 7ebe 3346 5bbe 3aa3 54be
00000140: e201 6dbe bd4c bf3d 8793 0cbe 9f1e 383d
00000150: 2e89 043c bef6 af3c 108d 37bc 1e97 c33d
00000160: 2f29 5fbe a008 fdbd 9fbe 7cbc 4435 ad3d
00000170: 8126 2a3e 2d2b bcbd a02a 4fbe 36ed 073e
00000180: 6e1c b03d df05 c0bd c461 cb3d c598 4b3e
00000190: 5e98 8dbd d70b a4bc 3e22 11be c1b5 ae3d
000001a0: ffbf 70bd 052c 18bd 064b c53b 04de 6cbe
000001b0: 4711 43be c1f5 383e 464f 2d3e 408b c3bd
000001c0: ce4f 023c 6037 5d3e f7b4 c8bc 3a1e cabc
000001d0: efd9 37bd f149 833d e78f 033e 7d44 81bd
000001e0: d36d cebd ffae 1fbe 8f1f 5c3e 6059 3ebe
000001f0: fb65 13bc 52e1 523e 3d75 81bd 69a3 3dbc
00000200: fba2 abbd 5885 cc3a 9287 383e 269c 5abc
00000210: cef4 c2bd 380d 73be 7ba1 153e 2ffc 393e
00000220: 0782 143e ebcf 0ebc e8f6 8c3d 42ed bcbb
00000230: 4fee cf3d d232 4f3e f8bc a63d 0279 a93d
00000240: e071 0f3d 8011 0fbe af6d 56bd 3573 e0bd
00000250: 8700 343e b50c 2bbe 7496 7cbe 6897 fcbd
00000260: 7054 42bd ed72 2d3e bf4b 92bc d8a3 1b3e
00000270: 5c6d 8f3a 7d97 a63d f3e4 4b3e a6a8 30be
00000280: f9d1 b93d 2ff2 073d ec91 5fbe f196 80bd
00000290: 8ba3 7fbd 8662 b7bd 6bbc 7f3d f459 453e
000002a0: baa8 5fbe ae70 98bd f19a cdbd fc48 433d
000002b0: c926 bd3d b652 abbd d2fa 2a3e 8180 3cbe
000002c0: 8894 18be 082f f3bd 0d49 6dbe 5796 59be
000002d0: f157 1dbe 8c0e 163d 709c 5fbe d96c 3abe
000002e0: 5ae3 04be ae7f 57be 1582 63bd 59e0 6a3e
000002f0: d89e 82be d716 d8bd f7c8 003e 2c28 0dbe
00000300: 5b80 dcbd a716 62be 0603 bb3d 34a4 563e
00000310: 4a32 e5bd 3b50 883d fa4f 8dbd 56f7 3dbe
00000320: 7627 37be 8ab2 443e 205a b0bc 184b 983d
00000330: 042e dc3d fdf4 d0bd d969 613d 6425 69be
00000340: 5878 fbbd efde 2bbe 4793 353e cd6c ed3d
00000350: 5a2f 5dbe 02a7 543e 3390 4f3e 85ca 53bd
00000360: 7015 4cbd 7dbd 1cbe 8565 273e 470a 523e
00000370: 154f 203e e9ac febd 8463 043e 954f 2c3e
00000380: 7044 4f3e 63a3 753d 7a21 ef3d 029f f8bd
00000390: 9e20 293e b9e0 5b3e 95a8 78bd 2118 563e
000003a0: 9a7f 53be 528a 37be ff28 0b3e 4c26 a1bd
000003b0: de7a 55be efb4 3bbe 53aa 6c3e 05e0 4b3d
000003c0: 8b8f 0fbe 76ad 05bd e4e9 5bbe 7b93 5cbc
000003d0: 1df7 c4bd 6323 603e 2d32 26be c372 2fbe
000003e0: ed19 b6bd 746c 1dbe 93f7 413e d160 fdbc
000003f0: aed0 14be 600d a6bd 14c1 efbc 7f97 6dbe
0.24706452 -0.05554763 0.1735273 -0.019595139 0.0014065289 0.028318046 0.115108274 -0.21862778
0.057194307 0.1641044 0.13048765 0.15175854 0.07632625 0.03790035 -0.20954001 0.16518784
-0.024836672 -0.19371468 0.031540263 0.09678178 -0.032214843 -0.1495474 0.2086674 0.13366283
-0.03428137 -0.15291369 0.033594705 -0.25710022 0.07187128 0.24208541 -0.14232424 0.09402289
-0.12853403 -0.21010645 0.19180633 0.12584254 -0.25913328 -0.05343653 0.18544072 0.021771636
-0.13251649 -0.03533101 0.098741986 0.033462644 0.05000638 0.014424326 -0.15297918 0.07450714
-0.0364446 0.055505082 -0.128375 -0.18781874 -0.06105182 0.2116008 -0.23949417 0.14855555
-0.18871787 -0.19001195 0.11494033 0.012747858 -0.0030952885 -0.17629263 -0.02884377 0.1434254
0.15254399 -0.16949792 0.20862713 -0.14784813 -0.1518817 0.21957637 -0.14734925 0.18937486
-0.20557731 0.1438013 0.03621167 -0.20149653 -0.091269664 -0.2484556 -0.21413498 -0.20765391
-0.2314525 0.093408085 -0.13728152 0.044951078 0.008089347 0.02147996 -0.0112030655 0.09550308
-0.21793054 -0.12355161 -0.015426307 0.08457425 0.1661625 -0.091879226 -0.20231104 0.13274083
0.085991725 -0.0937612 0.09930757 0.19882496 -0.06913827 -0.020025177 -0.14173219 0.085307606
-0.05877685 -0.037151355 0.0060209064 -0.23131567 -0.1904956 0.18062498 0.16924772 -0.09548044
0.007953597 0.21603155 -0.024500353 -0.024672616 -0.044885572 0.064105876 0.12847863 -0.06311891
-0.10079541 -0.155941 0.21496414 -0.18588781 -0.008996482 0.20593765 -0.063211896 -0.011574605
-0.083806954 0.0015603704 0.18020466 -0.013342893 -0.09519349 -0.23735511 0.14612381 0.18162607
0.14502726 -0.008716564 0.06883031 -0.005765588 0.10152876 0.2023423 0.08141512 0.082750335
0.03502071 -0.1397152 -0.052350696 -0.10959474 0.17578326 -0.16704066 -0.24666768 -0.12333566
-0.047443807 0.16938372 -0.017858384 0.1519922 0.0010942626 0.08134363 0.19911556 -0.17251834
0.09073252 0.03318995 -0.21833009 -0.0627879 -0.062411826 -0.08954339 0.06243555 0.19272596
-0.21841708 -0.07443367 -0.10039318 0.047677025 0.09235913 -0.08365385 0.16697243 -0.18408395
-0.1490041 -0.11874205 -0.23172398 -0.21248756 -0.15365578 0.036634967 -0.2183702 -0.18205585
-0.12977353 -0.210448 -0.055543978 0.22937144 -0.25511813 -0.10551231 0.12576662 -0.13784856
-0.10766669 -0.22078954 0.09131436 0.20961076 -0.111912325 0.06655928 -0.0690002 -0.18551382
-0.17886147 0.19208732 -0.02152735 0.07436198 0.10750964 -0.10202978 0.055032585 -0.2276817
-0.12278813 -0.16784261 0.17731963 0.11593018 -0.21600094 0.20766833 0.20269851 -0.05170681
-0.049825132 -0.15306659 0.1634732 0.20511733 0.15655167 -0.12435324 0.12928587 0.16827233
0.2024095 0.05997027 0.11676307 -0.12139703 0.16516349 0.21472444 -0.060707647 0.20907642
-0.20654145 -0.17923859 0.13589858 -0.07868633 -0.20847651 -0.1833074 0.23111849 0.04977419
-0.14019601 -0.03263613 -0.21475941 -0.013462896 -0.096174456 0.21888499 -0.16230078 -0.17133622
-0.08891664 -0.15373403 0.18942098 -0.030929955 -0.1453273 -0.0810802 -0.029266872 -0.23202322

tNN.2.bias f4 [32]
00000000: 4ccf 353e 21a3 3dbe 8590 283d 2159 15be
00000010: 6ef2 463e 194e 31bb 3018 463d bace 063e
00000020: 21f8 063e ee91 2ebe 0103 403d 12bc 00bc
00000030: 3d5e 443e b929 d8bd 52d0 443e e235 b3bd
00000040: a288 3f3e da13 ce3d 736e b5bc be7d 0e3e
00000050: c85b 723e 7382 1bbd 008f 353e b61b de3b
00000060: f1d6 6bbe b6fe e83c 794a 28be 9f9a fdbc
00000070: 4f19 8b3d 73b8 773e b529 463e 1d82 e13c
0.17754859 -0.1851926 0.04115345 -0.14584781 0.19428417 -0.0027054606 0.04836291 0.13164797
0.13180591 -0.17047855 0.046877865 -0.007857339 0.19176574 -0.10554833 0.19220093 -0.08750512
0.18704465 0.1006238 -0.022147393 0.13915154 0.23667824 -0.037966203 0.17730331 0.0067782057
-0.23031212 0.028441768 -0.16434659 -0.030957518 0.067919366 0.24191456 0.19351847 0.027527863

tNN.4.weight f4 [64, 32]
00000000: c3a6 f73c 82af e9bd 8705 b8bd ca06 f9bd
00000010: 3c5d 12be a07e 2c3e 5230 1fbe ef20 993c
00000020: d8b8 fe3d e105 46bd 4c70 283e 8e24 123d
00000030: ea1d c23d e69e 4ebd c08b debc 2954 ab3c
00000040: ba1f cebb 37a3 043e e1cc fd3b ca90 11be
00000050: 4ccf cb3d 6056 643d f131 2dbd 0f47 bdbd
00000060: 025e 213e ec12 253d f47a 32be af26 2dbe
00000070: 5ddc 1d3c 0415 053e 2d4c 813d b92f f83d
00000080: 9313 123e 0db7 2bbe 1976 94bd c269 0bbe
00000090: fca1 0bbe 952f 21bd de0d bdbd 26d2 15be
000000a0: 3991 203e bea8 8bbd d6de 21be ddee 74bd
000000b0: 58b3 873c 5db0 babd acd8 afbd 29d7 bebc
000000c0: f0ab 6b3c ad55 6bbd 3859 13be 4a85 333d
000000d0: 4e37 f93d 5c4b 103d e5fb 57bd 2b08 9cbd
000000e0: 9fb6 003e e800 0d3e 87e0 dabb b1db d93d
000000f0: ebc0 d33d 1511 febd 2c19 bebd 4e62 d33c
00000100: 6154 943d bd9f 06be 4c53 0f3e d007 a1bd
00000110: b983 f63d 2078 eb3c 4208 573d 3a91 2abe
00000120: 896e 86bd f40e ccbd ae3d 0c3e 8a4d 243e
00000130: e9eb 8fbc 5c18 953d bf37 efbd 3217 923c
00000140: 98fa 1dbe 6634 153e 172d 36be 1f35 1ebd
00000150: 0b93 1a3d d1c4 283e 4da9 1fbe 1102 c9bd
00000160: 87ce 06bc c005 cbbd a481 d1bc d92d 10be
00000170: af00 053e f726 0c3e 006d ba3d 095e e3bc
00000180: 07bc 003e 3a5d 963d 22c0 023d 0f20 a83d
00000190: 80ba 31be 3c37 263e 32e4 abbd 7589 013d
000001a0: 56c8 583d af8d 9c3c d468 233e 253c debd
000001b0: 1baf fb3d c5fc afbd 664f f33d f779 9d3c
000001c0: 6b26 e8bd 773b 453c b787 363e 6433 8c3d
000001d0: a625 d33c c9a4 f13d d917 fd3d 31d1 e2bd
000001e0: 1216 ecbd 3c6e 90bd 95e0 ff3d 4e30 023e
000001f0: 9869 fcbd 0188 3dbd b952 1f3e debb e0bc
00000200: 7264 1fbd 930a 073e cfd5 19be a2aa 0ebe
00000210: 3abc d0bd 0a75 36be cd99 ea3d 675b c13d
00000220: fe03 98bd aaa8 dabd 6e1a 37bc 303b c9bd
00000230: a774 18bd 32fd ebbd 3d9f 7ebd 67f3 09be
00000240: 047b 143e 4a67 23bd 1533 253d 04ab a2bd
00000250: 59ef 8f3d 96a0 e93c 3f24 b23d 2c38 9ebd
00000260: 1a06 003e 422b d63d 86ea 91bd 2772 92bc
00000270: 7d5e 9a3d 52e9 9cbd fc3a b7bd 92e6 15be
00000280: f366 0cbe a9e4 a8bd 5b38 953c 0994 d8bd
00000290: 31e9 223d 1ba1 b33d 792d 14be e227 e4bd
000002a0: d14c 3c3e 4352 b63d 4db5 353d 8978 803c
000002b0: a8f8 23be 5d35 9abd 787b 443b c662 9bbd
000002c0: 6f35 b5bd 9ce4 84ba 4637 823d fce1 193e
000002d0: ba61 9dbd b853 e5bd 98d4 c4bd 3b62 1dbe
000002e0: 7138 48bd af36 7f3d 4c0d a6bb a7f2 47bd
000002f0: e7a6 a83b 24a8 a3bd 20f2 1ebe 4456 09be
00000300: 1b4d d43d c301 123e 0b82 31be 9af8 4bbd
00000310: 9589 8e3d 70d4 b33d 2369 8d3c 04a2 11be
00000320: b439 82bc 6191 0d3e 7d26 6c3d 5acd c9bc
00000330: 5a9f 16be 616b a73c 3272 ad3d 03a3 71bd
00000340: 66c3 c9bd 1c69 b6bd d0f0 a5bc f5dc aa3c
00000350: eb3b 94bd 5d57 11be f9f4 8abb d21c 2cbe
00000360: 885f c73d 5cb9 1a3e c50f 0abd a385 933d
00000370: a34e 1a3e a4c6 dc3d 7cf1 b9bc 0e82 9d3d
00000380: a47a 3abd e017 9a3d a8aa d5bd 92fb e23d
00000390: 4425 733c 4049 adbd d5f8 21be 6446 fbbd
000003a0: 61c0 073e 2276 2e3d a255 e53d 5056 f83d
000003b0: 68f8 a2bc 4ad6 b93d 3eaa afbd f6e2 933d
000003c0: 9da6 363d e4dd 203e 125d c43d 12ae 43bd
000003d0: 2beb f6bd de10 b23c 597d 1b3e f640 a33d
000003e0: 7f1d b13d cea7 b1bd c80a e83d 9fa7 0dbe
000003f0: b5f7 88bd a864 bdbd 85ca b03d 615f 303e
0.030230885 -0.114104286 -0.08985429 -0.12159498 -0.14293379 0.16845179 -0.15545776 0.018692462
0.124376 -0.04834545 0.16449088 0.035679393 0.09478362 -0.050444506 -0.027166247 0.020914154
-0.006290403 0.12952887 0.0077453707 -0.14215389 0.09951648 0.055746436 -0.042283956 -0.09242069
0.15758517 0.04030125 -0.17429715 -0.16909288 0.009635058 0.12996298 0.063133575 0.121184774
0.1426528 -0.16769047 -0.07249088 -0.13614562 -0.13636011 -0.03935202 -0.092311606 -0.14630947
0.15680398 -0.068192944 -0.15807661 -0.05979811 0.01656501 -0.0911567 -0.08586249 -0.023295956
0.014384255 -0.057454754 -0.14389503 0.043828286 0.12168752 0.03522812 -0.05273046 -0.076187454
0.12569664 0.13769877 -0.006679598 0.10637606 0.103395306 -0.12405602 -0.09282145 0.025803711
0.072426565 -0.13146873 0.13996619 -0.07862818 0.12036843 0.028743804 0.05249811 -0.16656962
-0.06564052 -0.099637896 0.13695404 0.16045204 -0.017568545 0.07280037 -0.116805546 0.017833326
-0.15427625 0.1457077 -0.17790638 -0.03862488 0.037737887 0.1648133 -0.15591927 -0.09814847
-0.008227951 -0.09913206 -0.025574513 -0.1407999 0.12988542 0.13686739 0.09102821 -0.0277548
0.12571727 0.07342 0.031921513 0.0820924 -0.173563 0.16232008 -0.08393134 0.03162523
0.05292543 0.019110529 0.15957958 -0.108513154 0.12289258 -0.08593134 0.118803784 0.019223196
-0.11335453 0.012038103 0.17825209 0.068457395 0.025774788 0.117990084 0.12358064 -0.11075056
-0.11527647 -0.070522755 0.124940075 0.1271374 -0.12324828 -0.04627228 0.155589 -0.027433332
-0.03891415 0.13187627 -0.15022968 -0.13932279 -0.10192151 -0.17818084 0.114551164 0.09441262
-0.074226364 -0.10676701 -0.011175735 -0.09825742 -0.037220623 -0.115229025 -0.06216358 -0.13471757
0.14500052 -0.039893426 0.04033192 -0.07942775 0.07028074 0.028518956 0.0869832 -0.07725558
0.12502328 0.104574695 -0.0712481 -0.017876698 0.075375535 -0.0766169 -0.08946797 -0.14638737
-0.13711147 -0.082467385 0.018215349 -0.105751105 0.03977317 0.08770963 -0.14470471 -0.111404195
0.18388678 0.08902409 0.044362355 0.015682476 -0.16012824 -0.075297095 0.002998082 -0.07587199
-0.08848082 -0.0010138932 0.06358199 0.15027612 -0.076846555 -0.11197609 -0.096108615 -0.15369503
-0.04888195 0.06230801 -0.005067503 -0.048815396 0.0051468494 -0.07991055 -0.15522051 -0.13411814
0.10366269 0.14258485 -0.17334764 -0.04979763 0.069598354 0.087807536 0.017262047 -0.1422196
-0.015896656 0.13824989 0.057653893 -0.024634052 -0.14709225 0.020436944 0.08469047 -0.05899335
-0.098517224 -0.08906767 -0.02025643 0.020857314 -0.07237991 -0.14193483 -0.004240629 -0.16807869
0.09735018 0.15109771 -0.033706445 0.072032236 0.1506906 0.10780075 -0.022698157 0.076908216
-0.045527115 0.07524085 -0.10432941 0.110831395 0.014840428 -0.08461237 -0.15817578 -0.12269285
0.1325698 0.04259313 0.11197974 0.12125838 -0.01989384 0.090740755 -0.08577393 0.07221024
0.04459249 0.15709645 0.09588064 -0.04777343 -0.120565735 0.021736559 0.15184535 0.07971375
0.08648204 -0.08674584 0.11330181 -0.13833474 -0.06687871 -0.09247714 0.086323775 0.17223884

tNN.4.bias f4 [64]
00000000: 60e6 0f3e 2056 d73d 4150 2c3e 15ea bcbc
00000010: 8fc7 ba3d 5255 2fbd af51 913b a302 1ebd
00000020: bd32 b2bd 4f5e 31be 4819 1fbc 6474 ed3c
00000030: d9f4 25be 799c 243e 90b6 2fbd a8b3 523d
00000040: 2d63 983d 015c 22bd b24c 6c3d 1221 1d3e
00000050: d2c5 3bbd 33ec 1ebe 1cae 603b e2e9 09be
00000060: 5d62 153e 3551 0ebe 9d2d 163c cdf8 7b3d
00000070: f339 ae3d deae 95bd 7d03 2ebe d1ff 043e
00000080: 2c88 10be ca28 f23d 2d25 14be 88df 913b
00000090: 1a9f 0bbe 83d1 263e db91 373d 3886 02be
000000a0: cd28 ea3d 8d30 6abc c551 19bd f820 91bd
000000b0: adc5 5b3b e13e 903d ce33 803d 7050 05be
000000c0: 02d9 b6bd 34dd f2bd 55c0 263e bedc fc3c
000000d0: 65d5 9f3d deeb 51bb 28e2 acbd 602a fcbd
000000e0: 56f7 08bd 0214 9c3d 888d 7abd 2b3a 0b3e
000000f0: 2891 1abd a63a 2c3e 9216 e8bc e2e1 153e
0.14052725 0.10514474 0.1682749 -0.023060838 0.09120094 -0.042805977 0.0044347863 -0.038576733
-0.08701084 -0.17321132 -0.009710617 0.028986163 -0.16206683 0.16075315 -0.042898715 0.051440865
0.07440791 -0.039638523 0.05769033 0.15344647 -0.045842953 -0.1551979 0.0034283465 -0.13468125
0.14588304 -0.13898166 0.0091661485 0.06151657 0.08507147 -0.07308744 -0.16993518 0.12988211
-0.14114445 0.11824186 -0.14467306 0.004451696 -0.13634911 0.1629086 0.044816833 -0.12746513
0.114335634 -0.014293802 -0.037431497 -0.070863664 0.0033534572 0.07043243 0.06259881 -0.13018966
-0.0892811 -0.118585974 0.16284306 0.030866977 0.07804374 -0.0032031457 -0.084415734 -0.1231277
-0.033439003 0.07621004 -0.06117013 0.13596408 -0.037736088 0.16819248 -0.028331075 0.14636949

psi.0.weight f4 [128, 160]
00000000: b9c0 6abd 62fe 9d3d 4348 62bb 2645 88bd
00000010: 2109 063d 9ba4 7dbd 6d79 43bd f098 2c3d
00000020: c167 42bd 884c 713c a959 003d d008 1c3d
00000030: eb52 eb3c aa19 603d 332b 6f3b 48c0 8f3d
00000040: f356 30bd 7e2f 3c3d ca7b 263d b219 16bd
00000050: 6306 98bd 1efe 8b3d 4d17 6abd 6e8c 21bd
00000060: 321c c43c 4f38 3d3c d4d8 dabc 040e 6f3d
00000070: 3d95 12bd 5f35 653d e4f3 9a3d b315 903d
00000080: 8c09 27bd 305e 383d 01ea 7cbc 329e 54bd
00000090: 3911 a7bb 93f0 89bb ba09 733d d1b2 4a3d
000000a0: 3df7 413d 37f1 b83d f20e 2fbd 3788 2d3d
000000b0: 581a 8ebd b89c 233c 6a24 003c 9d29 00bc
000000c0: fa54 463d ca04 2fbd 08cf bf3c 5d86 f03c
000000d0: dcd4 a5bd 2573 2f3c b88d 803d 8547 a33c
000000e0: f3cf 2f3c 560f ab3c 728c 39bd 0d01 66bd
000000f0: 636d a83c 2c76 803d 15ff 10bb e5ee 823d
00000100: d9f6 8a3c 5318 873d 3b07 e0bc 10be 863d
00000110: 9b24 afbd 4af7 a13d 7ab0 98bd 5e6b 433b
00000120: 516e 10bc 86d2 32bc a78e 833d 6e84 c8bc
00000130: fc79 38bd 5b15 81bd 03f8 a9bd a80c bcbd
00000140: f697 68bd 02cc f3bc e3aa 70bc 090f ccbc
00000150: ea2d 053d 44b2 743c 819d 84bd 8768 dcbc
00000160: 5f64 5fbd 36cf 743d aabf 82bc 24ac 82bd
00000170: 635e 3fbd 9509 6c3d 9406 70bd 2cf2 8fba
00000180: 83f6 a33d 6587 c93c e78a 0a3c ec9f c5bb
00000190: f803 72bd ae22 84bd 2ea0 5fbb 2600 ae3b
000001a0: 56cd a9bc f875 673b d601 6dbd 167f 8abd
000001b0: 9dcf f93b 9798 7dbd 5023 3cbd 3466 6d3d
000001c0: 6faa cc3c 24eb 80bc ee3a 073d a65a 21bd
000001d0: b76f 573b 43dd 933d 8834 0b3d 9c89 8a3d
000001e0: 00ca 26bd f11e 00bd ac27 4439 76ff 893c
000001f0: b5d1 96bc f5e9 9fbc 3221 983b e6fa bbbb
00000200: f444 0fbb 0876 47bd 44a2 7c3d a793 ba3c
00000210: ba68 4a3c 15b9 cbbc fa5a cbbc 7b06 58bd
00000220: 7eb1 8fbd 1746 e13c 239a 483a c87b 53bd
00000230: e7ad 06bd 2c7d 6f3d e4e6 8e3c 781a 953d
00000240: 9fe5 1438 d775 e83c e82d 643b 373c 893d
00000250: 2fe6 0c3c e3be 6c3d f701 59bd ba1f 3d3d
00000260: f088 8dba b432 57bd b480 383c 2064 acbc
00000270: 1a6b fdbc 385b 453d 1fae 353d 9446 2fbc
00000280: ff80 a63b 3bb2 41bd 631b ddbc 8471 8bbd
00000290: 5467 8e3d 7816 213c 1740 3b3d 32af 253d
000002a0: 83fe b2bc 4868 a63c f407 133d d4ad 593d
000002b0: 5643 22bd 5ca1 8bba 93a9 85bc 3286 633d
000002c0: f5d2 9abc 0b41 5b3d 333d 7bbc e900 993d
000002d0: e16f edbc fc7d fb3c 199f 9cbd 5df3 803d
000002e0: e82e 783d f516 26bd f233 3dbc 4cce 81bd
000002f0: 1c1b 733d b223 adbc 8e61 81bd a548 8c3d
00000300: a64d 32bd d6c2 463d 9c3d f6bc 8526 1fbd
00000310: 1e86 eb3c 27e4 aebd d93a a5bc 3d30 ae3c
00000320: 64be f93b 4146 5e3d 7f95 0ebd 7f0f 3ebd
00000330: d774 9c3d 998f 633d 1d55 5abd c0d6 8dbd
00000340: eda4 233d 50c6 16bd 2dcb 82bd 721c b43d
00000350: f9b6 89bd 4e8c 24bd 465c 1f3c 96ca 863d
00000360: 82ab 3bbd 5cfb 9b3d 391b 003d bf99 883b
00000370: a48e db3c 43db 4dbd 7523 5b3d 73d8 cbbc
00000380: 5d35 a43c 4bb2 6f3d fd61 93bd 48b3 823b
00000390: 992b 883d 8d23 46bd 577f 713d 7a90 9fbd
000003a0: 618b 86bd b8b5 173b eabb 503a e836 2c3d
000003b0: 3c87 be3b 7430 23bb 3d6f d13a c14c af3d
000003c0: 0972 413d a133 763d 5668 b4bd 4217 853d
000003d0: fa72 663b a60a 5abd 19c3 afbc 1a3b fc3c
000003e0: ec61 cabc 836b 8bbd c074 b6bd d135 e13b
000003f0: ee22 243d fcd3 71bd d454 78bc 6f1d 96bd
-0.0573127 0.07714535 -0.0034527935 -0.06653814 0.03272355 -0.061924558 -0.047723223 0.04213804
-0.04746223 0.014727719 0.031335507 0.03809434 0.028726062 0.054711975 0.0036494255 0.070190966
-0.04305167 0.04594373 0.0406454 -0.0366456 -0.07423093 0.068355784 -0.057151128 -0.039440565
0.023939226 0.01154907 -0.02671472 0.058362976 -0.035786856 0.0559591 0.0756605 0.07035389
-0.04078059 0.0450117 -0.01543665 -0.05190868 -0.0050984886 -0.004209587 0.059335448 0.04948694
0.047354925 0.09030383 -0.042738862 0.042366233 -0.069386184 0.009986095 0.007821182 -0.007822421
0.048420884 -0.042729177 0.02341415 0.029360944 -0.0809724 0.010708605 0.06277031 0.019931564
0.010730731 0.020881336 -0.045299955 -0.056153346 0.020559972 0.062725395 -0.0022124697 0.06393222
0.01696341 0.06596436 -0.027347198 0.0657922 -0.08551904 0.07908495 -0.07455535 0.0029818635
-0.008815364 -0.0109144505 0.06423693 -0.02447721 -0.04503821 -0.06302901 -0.082992576 -0.091821015
-0.056785546 -0.029760364 -0.01468918 -0.024909513 0.03251449 0.01493508 -0.06475354 -0.026905311
-0.05453908 0.059767924 -0.015960533 -0.063804895 -0.046720874 0.057626326 -0.058600023 -0.0010982207
0.08006003 0.024600694 0.008455968 -0.006031027 -0.059085816 -0.06451927 -0.0034122574 0.0053100763
-0.020727795 0.0035318118 -0.05786308 -0.06762521 0.0076236264 -0.0619131 -0.045932114 0.057958797
0.024983613 -0.015737124 0.033015184 -0.03939309 0.0032872984 0.07219937 0.033985645 0.06764528
-0.040719986 -0.031279508 0.00018706796 0.016845446 -0.018410543 -0.01952074 0.004642629 -0.0057366965
-0.0021861168 -0.048696548 0.061678186 0.022775484 0.01235407 -0.024868527 -0.024823654 -0.052740555
-0.07016276 0.027499242 0.00076523627 -0.05163172 -0.03288069 0.058468983 0.017444082 0.07280439
3.54998e-05 0.028376503 0.0034817401 0.06700938 0.008599802 0.05779923 -0.05298039 0.046172835
-0.0010798257 -0.05253859 0.011261154 -0.021043837 -0.030934859 0.048182696 0.044355508 -0.0106979795
0.0050812955 -0.047289114 -0.026990598 -0.06808761 0.06953302 0.009832017 0.045715418 0.040450282
-0.021849876 0.020313397 0.035896257 0.05314429 -0.039614998 -0.0010652947 -0.01631621 0.0555479
-0.01889942 0.053528827 -0.015334415 0.07470877 -0.028984012 0.030699722 -0.07647533 0.06296418
0.06059161 -0.040549237 -0.011548029 -0.06338176 0.059352025 -0.021135185 -0.06317435 0.06849793
-0.043531083 0.048525654 -0.030058675 -0.038855094 0.028750475 -0.0853961 -0.020169662 0.021263236
0.0076215733 0.054266218 -0.03481054 -0.046401497 0.07639473 0.055556867 -0.053303827 -0.06925726
0.039952207 -0.03681022 -0.06386409 0.08794488 -0.067243524 -0.040172867 0.00972659 0.06581609
-0.04581786 0.07616302 0.03127596 0.0041687186 0.026801415 -0.050257932 0.05350061 -0.024883484
0.020044977 0.058519643 -0.07196424 0.003988657 0.066489406 -0.048373748 0.05895933 -0.077912286
-0.06569553 0.0023149084 0.00079625717 0.04204455 0.005814461 -0.0024900706 0.0015978586 0.085595615
0.047227893 0.06010783 -0.08808963 0.06498577 0.0035163746 -0.05323281 -0.021455334 0.0307899
-0.024704896 -0.068076156 -0.08908987 0.0068728705 0.040072374 -0.059040055 -0.015156943 -0.07329833

psi.0.bias f4 [128]
00000000: 7ebe b8bc 5d73 cb3c 5699 11bd 77ae 53bc
00000010: 4690 1cbb 0e9b 0c3d 5945 6d3d f245 213d
00000020: 327b 74bd 25ca 4abd 9881 31bd c813 25bd
00000030: 1150 95bd 7777 0ebd 55be 843d 1d35 3e3d
00000040: f596 6abd 82e7 6abd f39a 6f3d 15cf 75bd
00000050: b507 8c3d e7f6 663d 4b70 893d 3941 4fbd
00000060: b87f 8e3d e121 47bd a744 69bd 50c4 7cbd
00000070: bf30 7abd d76b 703d 17a1 8fbc 5779 69bc
00000080: 2fd1 f83c feb5 65bd 8693 c83b 7224 97bb
00000090: a190 823d 30e8 7bbd 0e9a cd3c 6a9f ab3d
000000a0: 4989 d2bc 3262 5a3c 2c48 6c3d 3fed 4c3d
000000b0: 8516 5f3d b977 85bd 49d2 59bd a683 943d
000000c0: c8d5 2bbd 5cdd 9fbc f766 e2bc acf7 173c
000000d0: baab 7cbd f485 5bbc 4edf 89bd 0e14 1e3d
000000e0: 3b53 91bd 5b67 47bd a6af 423d a87a 1dbd
000000f0: d2bd b5bc 4da9 c1ba e149 973d e5db 943c
00000100: 26dc 83bd 4d56 7ebd 7747 6cbd b287 483d
00000110: 99f5 123d ab8e 95bc 8c88 543d 78c8 70bd
00000120: fdc6 f13c 2f99 cb3c 1c56 bb3b c06a 053d
00000130: c8c9 9e3c 3291 67bd 4c38 74bc 78c2 773d
00000140: 3184 fd3c ae1e ee3c bcab c73c 74be cd3c
00000150: 24f8 9f3c 53d3 e1b9 4a6c 08bc 91d0 933c
00000160: cf2c 9c3d c610 913d 8933 af3c 2714 1b3c
00000170: 68a5 b73c 0a8e 82bd 9c4e d5bc 453f 763d
00000180: 8c7e 77bd a842 0e3d e407 093d aa30 903d
00000190: f978 94bc 0883 343c 122a e6bc d542 59bd
000001a0: 081a e2bc 6d7b 89bd 76ac 48bd 73c6 f1bc
000001b0: cada 643c 806c 24bc 2b86 803d f5a7 fcbc
000001c0: 1386 a7bd 98c1 3dbc e318 3c3b 09ff 44bd
000001d0: c6ef 683d 8628 03bd 4219 973c 01dc 18bc
000001e0: 4171 7dbc e272 b93c 5935 9d3d 3936 ae3c
000001f0: 1ff1 3c3d 8c6a 4dbc 1625 903d a479 1ebd
-0.022551771 0.024835283 -0.035546623 -0.012920014 -0.0023889705 0.03432756 0.057927463 0.039373346
-0.0596878 -0.049509186 -0.04333648 -0.040302068 -0.07290662 -0.0347819 0.064816155 0.04643737
-0.05727287 -0.05734969 0.05849738 -0.060011942 0.068374075 0.05638781 0.06710871 -0.05059931
0.06957954 -0.048616294 -0.056950238 -0.061710656 -0.061081644 0.058696594 -0.017532868 -0.014250121
0.030373184 -0.056081764 0.006121102 -0.004612499 0.06375242 -0.061500728 0.025097873 0.08380015
-0.025700228 0.013329076 0.057686016 0.050030943 0.054464836 -0.06516976 -0.05317906 0.072516724
-0.041951925 -0.019514732 -0.027636988 0.009275358 -0.06168721 -0.013398636 -0.06732045 0.038593344
-0.07095953 -0.04868255 0.047530793 -0.038447052 -0.02218524 -0.0014775187 0.07387138 0.01817126
-0.06438474 -0.06209402 -0.05768534 0.048957534 0.03587875 -0.018256506 0.051888034 -0.058784932
0.02951383 0.024853317 0.005717052 0.032572508 0.019383326 -0.056534953 -0.014906 0.060488194
0.030946823 0.029067364 0.024373882 0.02511523 0.019527502 -0.00043072793 -0.008326599 0.018043788
0.07625734 0.070832774 0.021386879 0.009465254 0.022417739 -0.06374748 -0.02603846 0.060118932
-0.06042342 0.034731537 0.03345479 0.07040532 -0.01812409 0.011017568 -0.028096233 -0.05304225
-0.027600303 -0.06712995 -0.048992597 -0.029513573 0.013968179 -0.010035634 0.062755905 -0.030841807
-0.081798695 -0.011581801 0.0028701357 -0.048094783 0.05686929 -0.032021068 0.018444661 -0.009329797
-0.015468896 0.022637788 0.07676191 0.02126609 0.04612839 -0.01253761 0.070383236 -0.038690224

psi.2.weight f4 [64, 128]
00000000: 898c 3b3c e98c 543d 014f 513d 2c29 35bd
00000010: 5881 4bbd 3b40 ec3c d3e1 87bd 8230 ae3d
00000020: f15f 713d b906 30bd b727 59bd fddc 663c
00000030: bf57 953d d74e 97bd ffa2 a13d 58fb 07bd
00000040: 4995 753d c74e 25bd cb9e 0abd 2ee5 91bd
00000050: cc1d 9abd 11bb 07bd 51de 713b 544a 343d
00000060: cfde 36bd 4c6e 87bd 229e 48bd 69d9 88bd
00000070: d83e 9b3d bb4c 8f3d 9c01 97bd a022 443d
00000080: e2b4 a23d 2a3a 26bd b096 b0bc d1b7 87bd
00000090: fc8c a03b fbb8 f73c a1fb 90bd 4c50 9f3c
000000a0: e183 d6bb 00d1 96bd 7ae4 c6bc 50db 8cbd
000000b0: 4011 0abc 09f4 fcbc 9761 a23d bcba 91bc
000000c0: e2b3 823d e8b8 533c 89e6 543c 8c2b 6d3d
000000d0: 9d81 9f3c 924d 873b de40 38bd c7b2 ca3b
000000e0: 20e7 533d abc2 febc 4e7c bebd 9721 813d
000000f0: 9119 063d aec1 b4bc 747a 89bd 39e2 963d
00000100: 817d 68bd f854 89bd f59a 10bd 8c39 71bc
00000110: f05a 8f3d 8cce eebc 7bd4 43bd 28ec 8e3d
00000120: c2be f93c a5e9 523d ca65 b5bc 75db 2e3d
00000130: 8076 76bd 1c29 ed3c 5d90 49bd 8727 89bd
00000140: 51a1 96bd 965a 793d e27b 7e3d 707b babc
00000150: 8bc3 173d 38c5 bd3d 1b0a a03d a6dd be3c
00000160: 0295 4a3d 865b 8ebb 63b9 1ebd cdde 92bd
00000170: 25d2 e63b 6442 a53d 4280 713d 64d8 d73c
00000180: 7ae7 0a3d f22f 843d 1b18 34bc ec9f 3e3d
00000190: 2817 873d d873 993d 647f 003c d0d5 0cbd
000001a0: 27fc a13d 689d 87bb da25 e93c 5971 d2bc
000001b0: a79f a7bd 79c8 8f3b 43bf 9cbd 9749 c2bb
000001c0: 64d6 aebc 070d 26bd ad62 773d f1d0 4cbd
000001d0: 36c8 b0bd aa89 37bd 95e4 9dbd 78ce 813d
000001e0: 92d5 3c3d fe61 1abd 188c 4d3b 8a5b 2b3c
000001f0: 125b 1d3b 4769 af3d 4d96 8bbd 8a85 a8bd
00000200: 4f2f 62bc b440 ab3d 8b6b 97bd b89d bc3c
00000210: f18c 0e3d 0220 8cbd 61d5 38bc dce4 e33c
00000220: 7fe7 953d 4f2f a2bd 9240 ca3c a348 72bd
00000230: d04c 693b bdc3 a33b a56b 11bd b3af 8e3d
00000240: 4be4 873c 982a 99bd 7929 3c3d 53bf 9c3b
00000250: d67d 98bd 27f1 063d c5da aabd 088e 413d
00000260: aa57 373d 76ed 003d 696e 5ebd fc4f 163c
00000270: c826 f7bb 75f9 6f3d 3db9 b7bd c5f3 073d
00000280: 733b 9f3c eb14 cd3c 2b90 abbd 4f12 8fbd
00000290: 2a69 8f3d 4b44 19bc 31a3 aebd 57ca 71bd
000002a0: 4b70 a43d aaf9 323d b309 293d 191b 9a3d
000002b0: a059 1cbd 818e 84bc 559c b1bd 6175 73bd
000002c0: 8382 6f3c fe2b 5f3b 0738 d2bc 79b6 043c
000002d0: 47a4 aa3d abf8 b0bc 26a3 cfbc cc62 173d
000002e0: c6cd 693c 5a98 96bd fb85 6e3d f668 823d
000002f0: 34cd 76bd 7f71 d5bc e833 a33c 3adc 723c
00000300: 0ce3 0d3d a92c 50bd 0d62 483d 4fc6 b4bd
00000310: 1f39 a2bd 76f9 66bd 8818 973c 4628 973d
00000320: 33f1 99bc 8479 963c 1c1c 493c a302 453d
00000330: 3bc1 8cbd e930 993d cb85 7a3a 378e 85bd
00000340: 545e a33d 199b a8bd a914 843d 763a 97bd
00000350: f9fd 843d 1ba4 153d d839 af3d 0720 513c
00000360: 52cb adba 41ab 6fbd 058f 21bd 8561 983d
00000370: a5a4 58bc 216b 283d a59a 6d3c c16e 95bd
00000380: 2fe5 9fbc 975a 853d b4cb 4b3d f754 05bd
00000390: 9b92 b6bd 724d a8bc 4321 4b3d 5068 95bd
000003a0: 3810 b0bd 8c71 59bd 4325 283d 62c0 9e3d
000003b0: 4cba 1bbd 45c1 913d 6fcc 113c 4937 453d
000003c0: d42a 91bd dde9 823d e3ce 8d3d 079e 943c
000003d0: 1c33 73bd 3b56 ac3c bc5c e1bb 5ac6 a5bd
000003e0: 8d7c f1bc 5bd8 82bd 8d4e b83d b91f 4cbc
000003f0: a235 4abd 1c67 363d 737b 80bd 7583 45bc
0.01144708 0.051892195 0.051100735 -0.044228718 -0.0496839 0.028839221 -0.066348694 0.08505346
0.058929387 -0.04297516 -0.05301639 0.014090774 0.07292127 -0.073880844 0.07892417 -0.033198684
0.059956823 -0.04035833 -0.033842843 -0.07123791 -0.075252146 -0.033137385 0.0036906193 0.044016197
-0.04464608 -0.06612834 -0.048978932 -0.06682093 0.07580346 0.06997057 -0.07373354 0.047884583
0.07944657 -0.040582813 -0.021556228 -0.06626857 0.004899619 0.030239573 -0.070792444 0.019447468
-0.006546483 -0.07364082 -0.024278868 -0.06877768 -0.008426964 -0.030878084 0.0792877 -0.017789237
0.06381966 0.012922503 0.012994417 0.057902858 0.019470984 0.00412912 -0.044983737 0.0061858627
0.05173409 -0.031098684 -0.09301053 0.06305235 0.032739226 -0.02206501 -0.06712809 0.07367367
-0.056760315 -0.0670566 -0.03530403 -0.014723193 0.06999767 -0.029151224 -0.04781006 0.06978637
0.030486468 0.051492352 -0.022143263 0.04268976 -0.060171604 0.028950267 -0.04920994 -0.06696992
-0.073549874 0.060877405 0.062129863 -0.022763938 0.03705172 0.09266132 0.078144275 0.02329905
0.04945851 -0.0043444065 -0.038751017 -0.07171402 0.007044094 0.08069304 0.058960207 0.0263483
0.03391216 0.06454457 -0.010992075 0.046539232 0.065962136 0.074927986 0.007842872 -0.034383595
0.07909422 -0.0041386373 0.028460432 -0.025688814 -0.08184748 0.004387912 -0.07653668 -0.0059291827
-0.021342464 -0.040539768 0.06039684 -0.05000395 -0.08631937 -0.04480902 -0.07709614 0.06338209
0.046102114 -0.03769111 0.003136402 0.010458836 0.002401058 0.08565002 -0.06815777 -0.082285956
-0.013805225 0.083619505 -0.07393559 0.023024425 0.03480238 -0.068420425 -0.011281342 0.02781909
0.07319545 -0.0791918 0.024688993 -0.059151303 0.0035598762 0.004997699 -0.03550305 0.06967106
0.01658835 -0.07478827 0.04593799 0.00478355 -0.07445876 0.032944825 -0.08342508 0.047254592
0.044761337 0.03147646 -0.054304514 0.009174343 -0.007542465 0.05858751 -0.08970878 0.03319146
0.019437527 0.025034389 -0.08377107 -0.06985914 0.0700248 -0.009354661 -0.0852722 -0.059030857
0.08029231 0.04369513 0.041269016 0.075247 -0.03817141 -0.016181232 -0.08672396 -0.059438113
0.014618519 0.003405332 -0.025661482 0.0081001455 0.08332115 -0.02160295 -0.02534635 0.036959454
0.014270252 -0.073532775 0.058233242 0.06367676 -0.06025429 -0.026055096 0.019922212 0.014823014
0.034640357 -0.05082384 0.048921634 -0.08826887 -0.07921051 -0.05639025 0.018444315 0.073807284
-0.01879177 0.01836849 0.012274768 0.048098218 -0.06872793 0.07480032 0.000955668 -0.06521266
0.07976976 -0.082327075 0.06449253 -0.073841974 0.06493754 0.036533456 0.08555955 0.012763984
-0.0013259447 -0.05851293 -0.039443035 0.074404754 -0.013222848 0.04111779 0.014502202 -0.07296515
-0.019518463 0.06511419 0.049754813 -0.032551732 -0.089146815 -0.020544741 0.049592268 -0.07295287
-0.085968435 -0.053086802 0.04105116 0.07751538 -0.038019463 0.07116941 0.008898838 0.048148427
-0.07088247 0.06392262 0.06924226 0.01814176 -0.059374914 0.021037212 -0.00687751 -0.08094473
-0.029478336 -0.06388923 0.08999357 -0.012458735 -0.049367554 0.044531927 -0.06273546 -0.012055268

psi.2.bias f4 [64]
00000000: 5631 b1bc b0a3 73bb 62ef 293c 2811 a73d
00000010: 3f0a 733c 0c7c 0d3d 70c4 54bc 47e6 483d
00000020: 9ab1 24bd 0126 17bd 6a33 503d c91a 153d
00000030: 0d2c 08bd 6d97 4ebd f0b2 dbb9 0b21 ef3c
00000040: 9624 a6bd 8e0e 8fbd 473b 413c d6ca 88bd
00000050: 112a b8bd aaa4 a1bd f64b 563d c8fa 703d
00000060: 429b ea3c 4ea5 713c 75fa 8d3b c368 acbd
00000070: 83c5 8cbd 96fb 56bd 2aa2 b33c 2872 a6bc
00000080: a4af 323d 4424 9f3d 741a 7cbc d0f6 9abd
00000090: e78e d9bc d82c 253d 8ab7 8abd 7a54 a23d
000000a0: ce29 a7bd fc13 273d f236 a6bc adaf 273d
000000b0: 1e27 92bd 9bfb 1d3d 68b8 33bd 0810 e23b
000000c0: 95e1 9bbc bab5 413b b55f a2bd 5cfb 1f3c
000000d0: ef0a 913c 2304 be3d 0550 6c3c 59ca 50bd
000000e0: 6a8e 053b 00ad b4bd 812f 6ebd 6f69 a2bd
000000f0: 73a4 87bd 43cc 14bd 715a b2bc e615 77bc
-0.02162997 -0.0037176423 0.010372015 0.08157569 0.014833986 0.03454213 -0.0129862875 0.049047735
-0.040208437 -0.036901478 0.050830282 0.036402497 -0.033245135 -0.05043738 -0.00041904254 0.02919056
-0.08112447 -0.06985198 0.011793918 -0.06679313 -0.089923985 -0.07892735 0.052318536 0.058832914
0.028638486 0.014748884 0.0043328353 -0.08418419 -0.0687361 -0.052486025 0.021927912 -0.020318106
0.043624535 0.07770589 -0.015387166 -0.07566607 -0.026557399 0.04032597 -0.067732885 0.07926269
-0.081622705 0.040790543 -0.020289872 0.04093902 -0.07136367 0.038570028 -0.043877035 0.0068988837
-0.019028464 0.002955778 -0.07928411 0.009764519 0.017705409 0.09278133 0.014423375 -0.050974224
0.0020379075 -0.0882206 -0.058150772 -0.07930266 -0.06623163 -0.03632761 -0.021771641 -0.015080905

psi.4.weight f4 [2, 64]
00000000: 76e2 18bd 4399 e0bd 262c efbd 692b cbbd
00000010: 7c11 2ebc 9147 f13c 4d95 863d e124 913c
00000020: fc4a 62bd d6f8 adbc 692e 9dbd 24b0 5a3c
00000030: 6983 f93d 9d84 d43d 2b25 fb3c e11d 7cbd
00000040: 43de 5ebd e781 30bd 16d6 1fbd 4501 4a3d
00000050: d5d4 013e 36ff d1bc 4d79 47bd 5b1e 073e
00000060: c56e ce3d 9cca e33d 7503 b7bc 42bb b6bc
00000070: c16e bebb a1f4 ae3d efa4 e6bd 39ad b93d
00000080: 769d 363d bea5 09bd 15b3 bb3d 3759 ad3d
00000090: 7cbf 673c 0846 74bb 56c4 1c3d b370 c53d
000000a0: ba9c 753d 6536 36bc 0bac a93d 2010 043d
000000b0: 7540 55bd e9c9 ec3d 377e 1dbd ca79 04bc
000000c0: 4166 05be 4c2a 54bc 4bb6 32bd d4ee d5bd
000000d0: 05ed 2b3d 5120 9fbb 0267 1b3d 040d 92bd
000000e0: a6c0 803d d507 913d 6cd5 df3d c3cf 09bd
000000f0: f627 dd3d 063e d13d e4b1 c7bd cf1c eebd
00000100: 37c6 c53d f140 ae3d 95eb ab3d f6cc 7ebd
00000110: 2887 e4bd e564 d7bd 5000 943c 9fd4 90bd
00000120: 79bf 92bd 9623 c93d 14a5 05bd d5f3 9a3c
00000130: 3fb0 5e3d aeac e9bd 64d1 803c 07c2 c5bd
00000140: 44ca 383b 5f6e 273d b545 a03d a1d6 883d
00000150: ee54 a93b 2142 cebd 5a85 b23d 1e9e 53bb
00000160: 698e 9dbd c8c0 da3d ec45 ebbb 6b6a d93d
00000170: 0b6d 6a3d 7f8d a53c 8e9b d23d e15a efbd
00000180: df9e 423d 6610 3ebd f52b f1bd 0ff9 ee3c
00000190: 5532 a73d dbe3 ddbc a5ab 363d 974e c93d
000001a0: 3cb1 f6bd 7e8a 863d 5c55 123d ac8f 933d
000001b0: fede d2bd 00d5 5cbd b39d bfbd 0520 c5bd
000001c0: 66b2 4f3d d63f 99bd 4119 943d d4f0 c63d
000001d0: 6315 f93d 525f 9ebd b31b 87bd d462 00bc
000001e0: 425b 403d 1bb9 0dbd 5469 d63d cf82 e63d
000001f0: 9b7b 0abd 5464 393d 9da8 883d 665b 013d
-0.037325345 -0.10966732 -0.116783425 -0.09920389 -0.010624286 0.02945307 0.065714456 0.01771778
-0.055247292 -0.021236818 -0.07674868 0.013347659 0.121832676 0.103768565 0.030657372 -0.061551932
-0.054411184 -0.043092635 -0.039022528 0.049317617 0.12678845 -0.02563439 -0.048699666 0.13195173
0.10079721 0.11122629 -0.022340516 -0.022306088 -0.0058115427 0.08542753 -0.11261927 0.09066243
0.04458376 -0.03360533 0.091650166 0.08464282 0.0141447745 -0.0037273187 0.038273178 0.09640636
0.05996392 -0.011121367 0.08284768 0.03224194 -0.052063424 0.11561949 -0.038450446 -0.008085677
-0.13027288 -0.0129495375 -0.04363088 -0.104459435 0.041974086 -0.0048561473 0.037940033 -0.07131389
0.06286745 0.07081572 0.10929379 -0.033645403 0.107986376 0.10216908 -0.09750727 -0.116265886
0.09656947 0.0850848 0.08394543 -0.062207185 -0.111585915 -0.10517291 0.018066555 -0.07071804
-0.07165427 0.098212406 -0.032628134 0.018915096 0.0543673 -0.11409889 0.015724845 -0.096561484
0.0028196732 0.040876742 0.078257956 0.06681562 0.005167595 -0.10071207 0.08716841 -0.003229029
-0.07693178 0.10681301 -0.007179966 0.10616001 0.057232898 0.020209072 0.10283576 -0.11687256
0.047514793 -0.046402358 -0.11775962 0.029171495 0.08163897 -0.027086189 0.044597287 0.09829443
-0.120455235 0.06569384 0.035725936 0.072051376 -0.10296439 -0.05391407 -0.093562506 -0.09625248
0.050707243 -0.07482879 0.07231379 0.09713903 0.12162282 -0.07733025 -0.0659708 -0.007836062
0.04696203 -0.03460036 0.104693085 0.112554185 -0.033809286 0.045261696 0.066727854 0.031581305

psi.4.bias f4 [2]
00000000: e5cb b0bb 86f9 96bc
-0.0053954 -0.018429529

exp_avg f4 [8, 1, 2]
00000000: 3b65 95b7 1516 af36 3f59 19b5 ed60 a338
00000010: 29c2 9038 00e9 94b7 6917 2537 38a9 3438
00000020: 1c9f 76b3 8a8f 9a37 534c 69b8 f740 b7b8
00000030: a4d6 16b8 f8a0 dbb8 e953 1038 fddf c9b6
-1.7809323e-05 5.217977e-06 -5.712681e-07 7.7904995e-05 6.90262e-05 -1.7751474e-05 9.840217e-06 4.307294e-05
-5.7421047e-08 1.8425071e-05 -5.562261e-05 -8.738221e-05 -3.5962687e-05 -0.000104727165 3.4410423e-05 -6.0163425e-06

exp_avg_sq f4 [8, 1, 2]
00000000: 6285 fe40 ea0b 4b41 aa37 a83f 1f88 2140
00000010: 5704 bd40 9b74 4d42 ac49 753f 3243 8440
00000020: 7164 c740 7f70 a53e b610 313f c844 b23f
00000030: cf45 353e 4281 353e 1658 0c41 bae4 0441
7.953782 12.690409 1.3141987 2.5239332 5.90678 51.363873 0.9581554 4.1332026
6.231011 0.3231239 0.69166124 1.392724 0.17702411 0.17725089 8.771505 8.305841

exp_avg f4 [8]
00000000: c5bb d3b7 5a7e 40b8 a153 91b8 90a1 d3b7
00000010: 03df a537 4ab1 0538 1f5a a338 d767 2138
-2.5240597e-05 -4.589404e-05 -6.929716e-05 -2.5228393e-05 1.977338e-05 3.1874784e-05 7.789232e-05 3.84821e-05

exp_avg_sq f4 [8]
00000000: 731c 813e 739e 313f 94d1 4240 c3f4 0f3e
00000010: abf9 803f 4c7a 303e cbf0 ca3e e65e 2240
0.25217018 0.693824 3.0440416 0.14058213 1.0076193 0.17234153 0.39636835 2.5370421
